data/baumgartner_C-N/benzamide_emulator/aniline_bm_predictor_1.pt (torch, 38367 bytes, 3 tensors)

input_layer.weight f4 [512, 16]
0	0x3e218790	0.15774369
1	0xbd2aac1c	-0.041668043
2	0x3dacfd2b	0.084467255
3	0xbe7103b1	-0.23536564
4	0xbd4adc73	-0.049526643
5	0x3e3b9d04	0.18321615
6	0xbde8c865	-0.11366347
7	0xbd90eeb0	-0.07076776
8	0x3e7a3bdb	0.24436896
9	0x3e67a233	0.22620468
10	0xbdaf9190	-0.08572686
11	0x3dbf3304	0.09335902
12	0xbe5cbace	-0.21555635
13	0xbe0fbf88	-0.14037907
14	0x3e26cd59	0.16289271
15	0xbda8e08c	-0.08245954
16	0xbe6632cc	-0.22480315
17	0x3d7b305f	0.061325427
18	0xbe566654	-0.20937473
19	0x3e058fc9	0.13043131
20	0xbe0aaac3	-0.13541703
21	0xbde09a17	-0.1096689
22	0x3e37d177	0.17950998
23	0xbd8377fc	-0.064193696
24	0xbe2b1b5a	-0.16709653
25	0x3e220f55	0.15826161
26	0xbe27a33c	-0.16370863
27	0x3e7183f0	0.23585486
28	0xbd3300a8	-0.043701798
29	0xbe54d612	-0.20784786
30	0xbb9a6e96	-0.00471289
31	0x3dbd8070	0.09253013
32	0x3d5d712a	0.054063
33	0xbd86c306	-0.065801665
34	0xbe2789d8	-0.16361177
35	0xbe13a080	-0.14416695
36	0x3e22b49d	0.15889211
37	0x3db6c882	0.089249626
38	0xbe0402f4	-0.12891752
39	0x3dde753c	0.108622044
40	0xbd5e444f	-0.054264363
41	0xbe732ef8	-0.23748386
42	0x3dc26e53	0.09493699
43	0xbe52aeee	-0.20574543
44	0x3e06fcb6	0.13182339
45	0x3e5e3392	0.2169936
46	0xbe5a2be2	-0.21305802
47	0x3e6f855a	0.23390713
48	0xbd6ea8b9	-0.058266375
49	0xbd2d0fea	-0.042251505
50	0xbe1b335a	-0.15156308
51	0x3e71a417	0.23597752
52	0xbd92b7a3	-0.07163932
53	0x3d811009	0.063018866
54	0xbda824bf	-0.08210134
55	0xbdf2282c	-0.118240684
56	0x3d899fd4	0.06719938
57	0xbdc9ad59	-0.098475166
58	0xbe62ccb8	-0.22148407
59	0x3dcfed50	0.10152686
60	0x3dafaf64	0.08578375
61	0x3c9db350	0.019250542
62	0xbded777b	-0.11595055
63	0x3d533240	0.051561594
64	0x3e21ae26	0.15789089
65	0xbd8ee2e1	-0.069768675
66	0xbe470b24	-0.19437844
67	0xbd9396a2	-0.07206465
68	0x3e284012	0.16430691
69	0xbd4ab6ab	-0.049490612
70	0x3dd83c57	0.10558384
71	0xbe38896a	-0.1802117
72	0x3be34219	0.0069353697
73	0x3ca48709	0.020083921
74	0xbe52bf1a	-0.20580712
75	0xbe1cbb80	-0.153059
76	0x3dec7850	0.11546385
77	0xbdc8be88	-0.09801966
78	0x3b889313	0.0041679232
79	0xbd93a914	-0.072099835
80	0x3e71d08f	0.23614715
81	0xbe03f282	-0.12885478
82	0x3c96c469	0.018404203
83	0x3e5440d5	0.20727856
84	0xbdfe6fd3	-0.124236725
85	0xbe65eff2	-0.22454813
86	0xbe4db179	-0.20087232
87	0x3d2b8eb8	0.041884154
88	0x3d488a15	0.04895981
89	0xbd7dd081	-0.061966423
90	0xbe67a9c2	-0.22623351
91	0x3e6490e4	0.22320896
92	0xbe32a04c	-0.17443961
93	0x3d645b48	0.055751115
94	0x3e024728	0.12722456
95	0x3d533db8	0.05157253
96	0xbe3b85e8	-0.183128
97	0xbe72882e	-0.23684761
98	0x3e348856	0.17630133
99	0xbd8ffacd	-0.07030258
100	0xbe2a9ca6	-0.16661319
101	0x39caca94	0.00038679375
102	0xbc68fe8b	-0.014220844
103	0x3e79c694	0.24392158
104	0xbe505c6a	-0.20347753
105	0x3da85dd4	0.08221021
106	0xbdcc10bd	-0.0996413
107	0xbe536d3e	-0.20647141
108	0x3e744bb0	0.23856997
109	0x3e26b8ee	0.16281483
110	0xbd8bab4c	-0.06819782
111	0x3d6306f8	0.055426568
112	0x3df68cb6	0.12038557
113	0xbd973044	-0.07382253
114	0x3ce445d2	0.027865324
115	0xbe2d7b2b	-0.16941516
116	0x3d6d0af1	0.057871763
117	0xbe13bec0	-0.14428234
118	0x3d96e765	0.07368354
119	0xbe70ce12	-0.2351611
120	0xbd973448	-0.07383019
121	0x3dd44ea7	0.10366564
122	0x3c2aff4e	0.010436846
123	0x3c720940	0.014772713
124	0x3e201f40	0.15636921
125	0xbcbaeca0	-0.02281791
126	0xbd3cd678	-0.04610297
127	0x3e59e5f0	0.2127912
128	0xbdb7bb24	-0.08971241
129	0xbe24f0b1	-0.16107441
130	0x3dee8019	0.116455264
131	0x3e709ced	0.23497362
132	0xbe2dc59d	-0.16969915
133	0xbe1341be	-0.14380547
134	0x3e548cf6	0.20756897
135	0xbb9311c0	-0.0044882
136	0x3dd1a967	0.10237389
137	0xbe33ca68	-0.1755768
138	0x3e064d6b	0.1311547
139	0xbdfa5778	-0.122237146
140	0xbe28346a	-0.16426244
141	0x3e1faab6	0.15592465
142	0x3cfc35cd	0.030787373
143	0xbda40458	-0.08008641
144	0xbe3e329f	-0.18573998
145	0xbe089421	-0.13337757
146	0xbe416462	-0.18885949
147	0x3e294829	0.16531433
148	0x3dd63586	0.104594275
149	0x3e56538f	0.20930313
150	0xbe75ac2b	-0.23991458
151	0x3e67b08e	0.22625944
152	0x3e3d97d8	0.18514955
153	0xbe38f87e	-0.18063542
154	0xbda8ce8f	-0.08242523
155	0xbc19cd40	-0.009387314
156	0x3e56a4d6	0.20961317
157	0xbdab66a8	-0.083691895
158	0x3dacaec2	0.0843177
159	0x3ad37900	0.0016134083
160	0xbe4192c5	-0.18903644
161	0x3dbbebf7	0.09175866
162	0xbe01fadf	-0.12693356
163	0xbdd0c768	-0.10194284
164	0xbe7028fc	-0.23453134
165	0xbdc6fc02	-0.097160354
166	0x3e48cb6b	0.19608848
167	0xbe2656cc	-0.16244048
168	0xbdff2b80	-0.12459469
169	0xbd97002d	-0.073730804
170	0xbe22e486	-0.15907487
171	0x3e464ffe	0.19366452
172	0x3e08139e	0.13288733
173	0xbe176464	-0.1478439
174	0x3dce2219	0.10065097
175	0xbe786a2a	-0.24259248
176	0x3e5531b1	0.20819737
177	0xbd9ec3e1	-0.07752205
178	0xbe3636a1	-0.17794277
179	0x3e2844cb	0.16432492
180	0xbe5589f0	-0.208534
181	0x3e28dcf6	0.1649054
182	0xbe54ebff	-0.2079315
183	0x3bffd140	0.007806927
184	0xbbb23811	-0.0054388125
185	0x3aa76557	0.001277129
186	0xbddc86c8	-0.10767895
187	0x3d2f25f8	0.04276082
188	0x3d6aea60	0.057352424
189	0xbb493300	-0.0030700564
190	0xbd91d11d	-0.07119963
191	0xbdba2cc4	-0.090905696
192	0xbe70fee2	-0.2353473
193	0x3df0af7a	0.117522195
194	0x3df7878c	0.120864004
195	0xbe37b36d	-0.17939539
196	0x3dcff5c6	0.101542994
197	0xbe792a7e	-0.24332616
198	0x3d75825f	0.059938785
199	0xbd9c61c8	-0.07635838
200	0xbe78e823	-0.24307303
201	0xbe7e2c87	-0.24821673
202	0x3e2ebad8	0.17063463
203	0xbd81d188	-0.06338793
204	0x3e060c2c	0.1309058
205	0xbd0d1710	-0.034445822
206	0x3adb629e	0.0016737764
207	0x3e737e4e	0.2377865
208	0x3e74bf85	0.23901184
209	0x3e41675e	0.18887088
210	0xbd27d01a	-0.040969945
211	0x3ddc3bf1	0.107536204
212	0xbe1246c8	-0.14284813
213	0xbe42e5f1	-0.19033028
214	0xbe34d2d4	-0.1765855
215	0x3e1131d8	0.1417917
216	0x3e7a7b7e	0.24461171
217	0xbe4add5b	-0.19811003
218	0xbe61d6fd	-0.22054668
219	0x3e5c17cc	0.21493453
220	0x3da8804c	0.08227596
221	0x3e2c0b9e	0.16801307
222	0x3e2fe8aa	0.17178598
223	0xbe172960	-0.14761877
224	0x3dbf1577	0.09330266
225	0x3e7a1cf4	0.24425107
226	0xbd83da78	-0.06438154
227	0x3e363680	0.17794228
228	0xbe73154b	-0.23738591
229	0xbd72b4d5	-0.059254486
230	0xbddb935f	-0.10721468
231	0x3e169cd0	0.14708257
232	0xbe696d39	-0.22795571
233	0x3e4dce58	0.20098245
234	0xbd8be764	-0.06831244
235	0x3e4fee9c	0.20305866
236	0xbd97075c	-0.073744506
237	0xbb426f80	-0.002966851
238	0x3e0b2d85	0.13591583
239	0x3dcf3950	0.10118353
240	0xbe60b321	-0.21943332
241	0x3e5f4c3a	0.21806422
242	0xbd2d49ce	-0.042306714
243	0xbe1d9061	-0.15387107
244	0xbd1df46c	-0.038563177
245	0x3e6742df	0.22584103
246	0xbd802835	-0.06257669
247	0xbde9fd90	-0.11425316
248	0x3dc7e61e	0.09760688
249	0x3d5a04dd	0.053227294
250	0x3e51d33f	0.2049074
251	0xbd93d188	-0.07217699
252	0x3d841604	0.06449512
253	0x3e65f84e	0.22458002
254	0x3d8ff4a7	0.070290856
255	0x3e7fd606	0.24983987

input_layer.bias f4 [512]
0	0x3e7e44ef	0.24830984
1	0xbe3303a9	-0.17481865
2	0x3dbbbc94	0.09166828
3	0x3e200263	0.1562591
4	0xbdf7963b	-0.12089201
5	0x3e265a17	0.16245304
6	0xbd41fdcc	-0.04736118
7	0x3e253f4a	0.16137424
8	0x3e5f407c	0.21801943
9	0xbe3381ec	-0.1753003
10	0xbe8187d1	-0.25298932
11	0x3b0482de	0.0020219604
12	0x3cd7a08f	0.026321677
13	0xbe1b0b9a	-0.15141144
14	0x3dafce55	0.085842766
15	0xbe22be41	-0.15892889
16	0x3da2116c	0.07913479
17	0x3e4edc84	0.20201308
18	0xbd5f236a	-0.054477133
19	0x3d063f43	0.032775175
20	0xbdd3ffac	-0.103515
21	0x3c41f6d9	0.011838638
22	0x3e361e96	0.17785105
23	0x3d79be51	0.060972515
24	0x3e6419c5	0.22275455
25	0xbe583216	-0.21112856
26	0x3d2c1766	0.042014502
27	0xbdd89742	-0.10575725
28	0xbd513074	-0.0510716
29	0x3dafdd56	0.08587138
30	0xbd5f4aa0	-0.054514527
31	0xbe252c9d	-0.161303
32	0x3babb18e	0.005239672
33	0x3c88c563	0.016695684
34	0xbd3cc3d9	-0.046085212
35	0x3d0b6f0d	0.034041453
36	0xbdf12c35	-0.1177601
37	0xbdc792c2	-0.09744789
38	0xbda822b8	-0.08209747
39	0xbd9de53c	-0.077097386
40	0x3e58e5c4	0.21181399
41	0x3dfc7310	0.12326634
42	0x3dfd6c45	0.123741664
43	0x3dcc0983	0.09962752
44	0xbd419dc5	-0.0472696
45	0xbe34f99b	-0.17673342
46	0xbcb6fe8e	-0.022338178
47	0x3b908b5d	0.0044111446
48	0xbcec3395	-0.02883319
49	0xbd7a29e7	-0.061075117
50	0xbca6bc40	-0.020353436
51	0x3d541a80	0.051783085
52	0xbde674dd	-0.11252759
53	0x3dd92b58	0.1060397
54	0x3c784aac	0.015154522
55	0xbe16274c	-0.14663428
56	0x3e6ce203	0.23133092
57	0xbd8393cd	-0.06424675
58	0xbd98069d	-0.074231364
59	0xbdb67faf	-0.089110725
60	0x3e5ea601	0.21743013
61	0xbe366aae	-0.17814133
62	0xbd773442	-0.06035257
63	0x3da10923	0.07863071
64	0x3e0c0fee	0.13677952
65	0x3e248e70	0.1606996
66	0xbdbb9edd	-0.0916116
67	0x3c69460b	0.014237891
68	0x3d202199	0.03909454
69	0xbdfc5f4b	-0.12322863
70	0xbe72acc1	-0.23698713
71	0xbe632400	-0.22181702
72	0xbd363e20	-0.04449284
73	0x3daa3bd4	0.083121926
74	0xbe4131d4	-0.18866664
75	0x3e7acc8c	0.24492091
76	0xbe72f46a	-0.23726049
77	0x3d2a90e5	0.04164209
78	0xbe54347c	-0.20723146
79	0xbdb6441b	-0.08899709
80	0xbe5c495f	-0.21512364
81	0xbdd930e7	-0.106050305
82	0xbe23317f	-0.1593685
83	0x3e3810e7	0.17975198
84	0x3e7121ff	0.23548125
85	0x3dea3373	0.114355944
86	0x3e7fe56b	0.2498986
87	0x3e409726	0.18807659
88	0xbd859375	-0.06522266
89	0xbdc86b14	-0.097860485
90	0x3e6be440	0.23036289
91	0xbe59d88d	-0.21274014
92	0xbdd49b93	-0.10381236
93	0x3e00e5ba	0.12587634
94	0xbe66dc59	-0.22544993
95	0x3d5f76c4	0.054556623
96	0xbd4ceadc	-0.050028667
97	0x3cf1574e	0.029460575
98	0x3e464b89	0.19364752
99	0x3e34091f	0.17581604
100	0x3df3a574	0.11896792
101	0x3db0032e	0.085943565
102	0xbe184e23	-0.14873557
103	0x3c84d8e2	0.016216699
104	0x3d91dcf1	0.07122219
105	0xbd11fe0b	-0.035642665
106	0x3c95c5d7	0.018282814
107	0xbe1b7d63	-0.1518455
108	0xbdfddcf9	-0.12395663
109	0xbdc6f5ed	-0.09714875
110	0x3de4b1da	0.11166735
111	0xbd5e6ded	-0.054304052
112	0x3e4b1d24	0.19835335
113	0xbd41435c	-0.04718338
114	0xbe3b396d	-0.18283625
115	0x3cb88cc2	0.022528056
116	0xbd2c1483	-0.04201175
117	0x3d2eb380	0.042651653
118	0xbe539732	-0.20663145
119	0xbe044e87	-0.12920581
120	0xbe37fda6	-0.17967853
121	0x3dce4efc	0.10073659
122	0xbd6cfc43	-0.057857763
123	0x3e2cad52	0.16862991
124	0xbcb03033	-0.021507358
125	0x3c48c423	0.012253794
126	0xbda87a97	-0.08226507
127	0x3e4a5a80	0.19761086
128	0xbde4e461	-0.11176372
129	0xbd19fd3a	-0.03759501
130	0xbe798f41	-0.24371053
131	0xbd72b9ad	-0.059259105
132	0x3e1e8818	0.15481603
133	0x3e14456a	0.14479604
134	0x3dcb0d88	0.0991469
135	0xbd821379	-0.0635137
136	0x3e733791	0.23751666
137	0x3ca712ea	0.020394761
138	0x3e41dcd4	0.18931895
139	0xbe2da1d6	-0.16956267
140	0xbe5da92a	-0.21646562
141	0x3c055b7c	0.008139487
142	0x3dd5f16d	0.10446439
143	0x3e002f93	0.12518148
144	0x3e396fd9	0.18109073
145	0x3daa4516	0.08313958
146	0x3e5b14f3	0.2139471
147	0xbe752845	-0.23941143
148	0x3e4d74d3	0.20064096
149	0xbe453f5e	-0.19262454
150	0x3d8790a5	0.06619386
151	0x3dcdf11f	0.10055756
152	0x3cc1a291	0.023637088
153	0x3e2d900c	0.16949481
154	0x3d60ed8e	0.05491405
155	0x3d653aa7	0.05596414
156	0x3e773317	0.24140583
157	0x3e4530a7	0.1925684
158	0xbe81a932	-0.25324398
159	0xbe547bca	-0.20750347
160	0xbda4daf3	-0.08049574
161	0xbe5793c6	-0.21052465
162	0xbde88f75	-0.11355487
163	0x3e35922f	0.17731546
164	0xbe077159	-0.13226832
165	0x3dacd8e3	0.08439805
166	0x3b532fba	0.0032224492
167	0xbdb92c92	-0.09041704
168	0xbcb479a7	-0.022030665
169	0xbdc91795	-0.09818951
170	0xbe0412a5	-0.12897737
171	0x3de8b0ab	0.11361822
172	0x3e7a3284	0.24433333
173	0xbe3e85ef	-0.18605779
174	0x3e44fa3d	0.19236083
175	0x3e00e385	0.12586792
176	0x3e0b392e	0.13596031
177	0x3e4b36e0	0.19845152
178	0x3e1c8751	0.15285994
179	0x3d3bf06a	0.045883574
180	0xbc1df8ce	-0.009641839
181	0xbe207870	-0.15670943
182	0x3e240d57	0.16020714
183	0x3d474e82	0.048658855
184	0x3dd19505	0.10233501
185	0x3a56529e	0.0008175763
186	0xbe1e9d97	-0.15489803
187	0xbdd4910f	-0.1037923
188	0x3e38a98b	0.18033426
189	0x3e4cedba	0.2001256
190	0xbd3c4642	-0.04596544
191	0xbd5ce670	-0.0539307
192	0x3dd7da4d	0.105396844
193	0x3e388f80	0.18023491
194	0xbe41ea03	-0.18936925
195	0x3e747df6	0.23876175
196	0xbe4c75a4	-0.19966751
197	0x3e54528c	0.20734614
198	0x3e29cd8d	0.16582318
199	0x3d07f909	0.033196483
200	0xbd07f4ec	-0.03319256
201	0xbe41bfd2	-0.1892083
202	0x3e320408	0.1738435
203	0x3e03da65	0.1287628
204	0xbdcf7972	-0.10130586
205	0x3e803194	0.25037825
206	0x3e4966a1	0.19668056
207	0x3e0112e9	0.1260487
208	0xbe0e021b	-0.1386799
209	0x3df6e67d	0.12055681
210	0x3e052103	0.13000874
211	0xbdab3b79	-0.08360953
212	0xbe107e1f	-0.14110611
213	0x3ce2a8a3	0.027668303
214	0x3d9d2af3	0.076742075
215	0x3d8231d8	0.06357163
216	0xbc9bef0f	-0.01903489
217	0xbe6c4dd2	-0.23076561
218	0xbe093075	-0.13397391
219	0xbe31b911	-0.17355753
220	0xbe171333	-0.14753418
221	0x3d8f4ec2	0.06997444
222	0xb89c70b1	-7.45965e-05
223	0x3e229337	0.1587647
224	0xbc1cb24e	-0.0095639955
225	0xbd8e9803	-0.06962588
226	0x3e0adf6d	0.13561793
227	0x3e1dcb15	0.15409501
228	0x3e5a1b17	0.21299396
229	0xbd9944a4	-0.07483795
230	0xbbf76520	-0.007549897
231	0xbdb7e8c5	-0.08979944
232	0x3e2adabf	0.16685008
233	0x3dc4df51	0.09612907
234	0x3bfd92a0	0.0077384263
235	0xbb371b45	-0.0027939838
236	0xbd6cf59b	-0.057851415
237	0xbe36e7a7	-0.17861806
238	0x3e4ca472	0.19984606
239	0xbd99c472	-0.07508172
240	0x3d9e8590	0.07740319
241	0x3e26f779	0.16305341
242	0x3e197696	0.14986643
243	0xbd1b7167	-0.037949946
244	0xbd9cc799	-0.07655258
245	0xbdc29560	-0.09501147
246	0x3da56028	0.08074981
247	0x3c33c899	0.010973119
248	0x3d9fa877	0.07795804
249	0x3df9e824	0.122024804
250	0x3e765917	0.24057423
251	0x3e175f68	0.14782488
252	0x3d1def16	0.03855809
253	0x3e2fe21f	0.17176102
254	0x3e48b3fd	0.1959991
255	0xbd0bf552	-0.034169503

output_layer.weight f4 [1, 512]
0	0x3dbdce44	0.09267858
1	0x3c94c322	0.018159453
2	0x3c18d125	0.009327208
3	0xbcc31770	-0.023814887
4	0xbb0dfb8e	-0.002166483
5	0xbd6eaac3	-0.05826832
6	0x3d0e0a08	0.034677535
7	0x3d537b7a	0.05163143
8	0xbe194c26	-0.14970455
9	0xbd8e7e40	-0.06957674
10	0x3c937744	0.018001206
11	0x3d0413e9	0.03224555
12	0xbd1db8cb	-0.03850631
13	0xba15452e	-0.00056942075
14	0x3bf337c1	0.007422418
15	0x3c889d87	0.016676677
16	0xbd07ea66	-0.033182524
17	0x3ca38b4b	0.019963881
18	0xbcb40ea9	-0.021979647
19	0x3d7b73d7	0.06138977
20	0x3bb15ab1	0.0054124226
21	0x3dc540bb	0.09631487
22	0xbd3722a7	-0.04471078
23	0x3d7d08be	0.061775915
24	0xbce98191	-0.028504165
25	0x3c8a5d65	0.016890237
26	0xbbfeb7a4	-0.0077733565
27	0x3c6064f8	0.013695948
28	0x3dbbcbcc	0.091697305
29	0x3cc1a18a	0.023636598
30	0xbc2035cc	-0.009778451
31	0x3c036710	0.0080201775
32	0xbc886aca	-0.016652483
33	0xbd81f7ce	-0.06346093
34	0xbc95c0b3	-0.018280363
35	0x3d556abb	0.05210374
36	0xbcaef8d2	-0.021358881
37	0xbd99b829	-0.07505829
38	0x3cb6d59f	0.02231866
39	0x3a7eea85	0.0009724277
40	0x3bb95e0b	0.0056569627
41	0x3cdaa6b7	0.026690824
42	0xbcb51a7c	-0.022107355
43	0x3e0bcb1f	0.13651703
44	0xbb788cde	-0.003792576
45	0xbbfb377c	-0.0076665264
46	0x3d24d4cc	0.040242
47	0x3dab1546	0.08353667
48	0x3caae706	0.020862114
49	0x3da38771	0.07984818
50	0xbbd4faae	-0.00649961
51	0x3b0ff580	0.0021966398
52	0x3bf70582	0.0075384984
53	0xbd93ff8c	-0.07226476
54	0x3c56189d	0.013067392
55	0xbd009101	-0.031388287
56	0xbd695e5f	-0.056974765
57	0x3c37fe3a	0.011230046
58	0xbcba56ee	-0.02274653
59	0x3b98e7c0	0.0046662986
60	0x3d9fa1ba	0.07794519
61	0xbbe37d7e	-0.00694245
62	0xbc84fa53	-0.016232645
63	0xbd2de110	-0.042450964
64	0xbdadb4f7	-0.08481782
65	0xbd95f125	-0.07321385
66	0x3c5b369e	0.013379721
67	0xbd970292	-0.07373537
68	0xbd106808	-0.035255462
69	0xbd5af1f5	-0.053453404
70	0xbc755300	-0.014973402
71	0xbd540021	-0.051757935
72	0x3ca6476b	0.020297727
73	0xbd25633c	-0.04037784
74	0x3d0e75dc	0.03478037
75	0x3d937b02	0.07201196
76	0x3d02f086	0.031967662
77	0xbd30ad95	-0.04313429
78	0xbd2c63cd	-0.042087365
79	0x3d3f99e2	0.046777613
80	0x39e5c766	0.00043826847
81	0xbc5f885b	-0.0136433495
82	0xbc4766ec	-0.012170535
83	0xbdcb2a2c	-0.09920153
84	0x3d63ad01	0.05558491
85	0xbcc635bd	-0.024195546
86	0x3c845311	0.01615289
87	0xbd1db895	-0.03850611
88	0x3c941b32	0.018079374
89	0xbc9ea2be	-0.01936471
90	0xba7357ed	-0.00092828163
91	0xbc036d2b	-0.008021633
92	0xbc4e4930	-0.012590691
93	0x3d053914	0.032525137
94	0x3d287b1b	0.041133028
95	0xbd2eb3ef	-0.042652067
96	0xbced1388	-0.028939977
97	0xbdaaedb5	-0.0834612
98	0xbd57de9c	-0.05270253
99	0x3c300c5d	0.010745135
100	0x3c168c4c	0.009188723
101	0xbb926abc	-0.00446829
102	0x3d3690f3	0.044571828
103	0xbc9762f0	-0.018479794
104	0x3daadbc4	0.08342698
105	0xbd81a500	-0.063302994
106	0x3c3d9a3b	0.011572416
107	0xbc93d1ba	-0.018044341
108	0x3d84907d	0.064728715
109	0x3c7a80a1	0.015289457
110	0xbca811d2	-0.02051631
111	0xbd0a04a1	-0.03369582
112	0x3d72acd6	0.05924686
113	0x3ce95621	0.028483452
114	0x3d3c2a08	0.04593852
115	0x3d031c12	0.03200919
116	0x3cb9c1dd	0.022675449
117	0x3c319aee	0.010840161
118	0x3b51e19b	0.003202534
119	0xbd54d548	-0.051961213
120	0x3d0cf79c	0.034415826
121	0xbd024293	-0.03180177
122	0xbd94fcd0	-0.07274783
123	0xbd5be95f	-0.053689357
124	0x3d877820	0.06614709
125	0xbc9da808	-0.019245163
126	0x3d39e241	0.04538179
127	0x3d0fc0a9	0.035095844
128	0x3d211d05	0.039334316
129	0xbdcf59ca	-0.10124548
130	0xbbb470e8	-0.0055066235
131	0x3d0733a3	0.03300823
132	0x3c2b4936	0.010454467
133	0xbd448534	-0.047978595
134	0xbe00763a	-0.125451
135	0x3d8fe3b6	0.07025854
136	0x3dd5aae4	0.104329854
137	0x3c25fa86	0.01013053
138	0xbca0ae5e	-0.019614395
139	0x3b26effe	0.0025472636
140	0xbd2ed6d7	-0.042685356
141	0xbb98f34b	-0.0046676747
142	0xbd7fbb4b	-0.062434476
143	0xbdc48609	-0.09595878
144	0x3c1a957d	0.009435055
145	0x3d3db8ef	0.046318945
146	0x3d276363	0.040866267
147	0x3c4df7d4	0.012571294
148	0x3cf5eb9b	0.030019572
149	0x3d20079b	0.039069753
150	0x3dc0a0db	0.09405681
151	0x3cb305e8	0.021853402
152	0x3d6b4a47	0.057443883
153	0xbd77513e	-0.060380213
154	0x3e24f05e	0.16107318
155	0xbdbceb5e	-0.0922458
156	0x3ca25490	0.019815713
157	0xbd96581a	-0.07341023
158	0x3d4ff1af	0.050767597
159	0x3ceb9c5e	0.028761085
160	0xbd81634c	-0.063177675
161	0xbcfd53a2	-0.030923668
162	0x3c2cf0b7	0.010555438
163	0xbe1a63af	-0.15077089
164	0xbd7b9c67	-0.061428454
165	0x3d1d4786	0.03839829
166	0xbc51738b	-0.012783895
167	0xbd679124	-0.0565349
168	0xbb53c5e9	-0.0032314009
169	0x3db362cd	0.08759079
170	0xbc1c63e0	-0.009545296
171	0x3d876ed2	0.06612934
172	0xbc9aec9c	-0.018911652
173	0xbbcd2d82	-0.0062615285
174	0x3dc61fbc	0.096740216
175	0xbdd79ac6	-0.105275676
176	0xbd64dd8c	-0.055875346
177	0x3d28ca76	0.041208707
178	0x3c279f86	0.010230904
179	0xbda91708	-0.08256346
180	0x3d6af741	0.057364706
181	0xbbbba794	-0.005726764
182	0x3d168d4c	0.036755845
183	0x3d6e73c1	0.05821586
184	0xbd36a4d8	-0.0445908
185	0x3cd9105f	0.026497064
186	0x3c34548b	0.011006485
187	0xbd230f1f	-0.039809342
188	0xbd58f6b4	-0.05296965
189	0xbd26e6d6	-0.040747486
190	0xbd9b1703	-0.075727485
191	0xbd89fd7a	-0.067378
192	0x3d0ac529	0.033879433
193	0x3cccd071	0.025001736
194	0x3dc0a587	0.09406572
195	0xbd08d5ce	-0.033407025
196	0x3cb01447	0.021494044
197	0x3cd2e52f	0.025744049
198	0x3c142c91	0.009043829
199	0xbdb5ae3e	-0.08871125
200	0x3b407bdb	0.0029370699
201	0xbc20a0cd	-0.009803963
202	0xbd37de5f	-0.044889804
203	0xbd95dfbc	-0.073180646
204	0x3b247026	0.002509126
205	0xbd7e98ce	-0.062157445
206	0xbc96ad1b	-0.01839309
207	0x3df3c185	0.11902145
208	0xbd8774d5	-0.06614081
209	0x3cbfde05	0.023421297
210	0xbb1c855a	-0.0023883195
211	0x3cfc8228	0.030823782
212	0x3d06eb7e	0.032939427
213	0xbd9e6290	-0.07733643
214	0xbc17c280	-0.009262681
215	0x3d3a2aeb	0.045451086
216	0xbd0d630f	-0.034518298
217	0x3d8b8c7b	0.06813904
218	0x3dab37ac	0.08360228
219	0xbb6deaa7	-0.0036303194
220	0x3cfc6eaf	0.030814497
221	0xbcfef5c6	-0.031123053
222	0x3de3492e	0.11097942
223	0xbda73a8e	-0.08165465
224	0xbd85828a	-0.06519039
225	0xbcdb6fe4	-0.026786752
226	0xbdce3496	-0.10068624
227	0xbd5528e1	-0.05204094
228	0x3da8ae82	0.0823641
229	0xbc5dd7b4	-0.013540197
230	0xbd870dc9	-0.06594426
231	0xbd345319	-0.04402456
232	0x3dc3c419	0.09558887
233	0x3c27b493	0.010235923
234	0x3c72f9ea	0.014830092
235	0xbd703684	-0.05864574
236	0xbd19243b	-0.037388068
237	0xbbee7dde	-0.007278188
238	0xbd7e5751	-0.06209499
239	0x3dfb62da	0.12274714
240	0x3b0bc7a6	0.0021328717
241	0x3e1ed37e	0.15510365
242	0xbd44784c	-0.047966287
243	0xbd4827dd	-0.04886614
244	0xbc44994a	-0.011999438
245	0xbd7135fd	-0.058889378
246	0x3b2cd3fb	0.0026371467
247	0x3ca8c636	0.020602327
248	0xbd36654a	-0.04453019
249	0x3b381540	0.0028088838
250	0xbd042931	-0.032265846
251	0xbd84c05e	-0.06482004
252	0xbbe4eab7	-0.006985988
253	0xbcd3f21e	-0.025872286
254	0xbd8853be	-0.066565976
255	0xbc21bc8a	-0.009871611
