data/baumgartner_C-N/benzamide_emulator/aniline_bm_predictor_0.pt (torch, 38367 bytes, 3 tensors)

input_layer.weight f4 [512, 16]
000000 93 ee 6b be 9d 87 3d 3e 1f 7a cd 3c b6 01 5d bd
       -0.23040228 0.18508764 0.025082646 -0.05395671
000010 93 ea 99 bc eb 1e 6f bd d7 53 4f bc 70 9c bf bc
       -0.018788612 -0.058379095 -0.012654266 -0.023390025
000020 3e 1b 58 3e 58 d6 e9 3b a5 d9 64 3e 28 a8 64 be
       0.21104142 0.0071361475 0.2234865 -0.22329772
000030 c0 0f ca bb c2 3d 01 3e 0c e4 31 3e d0 44 fa 3c
       -0.0061664283 0.12621215 0.17372149 0.03055039
000040 25 3c f8 bd 91 48 11 be 21 73 9a 3d 4b 10 31 bd
       -0.12120847 -0.14187838 0.0754149 -0.04322843
000050 93 f9 50 3c 05 64 1d 3e 64 be 3b be 00 7e 2b be
       0.012754816 0.15370186 -0.18334347 -0.16747284
000060 dc 74 04 bd ac 70 7e bd c4 e6 07 be 64 26 a1 3d
       -0.03233801 -0.06211917 -0.13271624 0.078686506
000070 00 81 79 bb 0a e1 0d be a3 7d 9c 3d d0 eb 67 bd
       -0.0038071275 -0.13855377 0.07641151 -0.056621373
000080 35 17 61 3c ce ba 88 bd 81 39 fd bd c8 d0 dc bd
       0.013738443 -0.06676255 -0.123644836 -0.10782009
000090 f9 90 c3 3d 1b 3c 26 be 4f 2d 84 3e 50 3a f4 3d
       0.09549136 -0.16233866 0.25815818 0.11925185
0000a0 15 41 04 3e 3a 68 00 bc 81 3c 47 be fa 5d 1c be
       0.12915452 -0.00783735 -0.19456674 -0.15270224
0000b0 26 e3 66 3e e0 a6 26 bd 38 83 7a 3d f2 36 7a be
       0.22547588 -0.04068649 0.061160296 -0.24435022
0000c0 8f 52 4f 3d 1f 77 ca 3d 0c fa 81 3e 43 4f 9f 3d
       0.050615843 0.09886002 0.25386083 0.0777879
0000d0 37 dc a3 bc f0 0f 27 be d8 62 4a be 1c 24 77 be
       -0.020002468 -0.16314673 -0.19764268 -0.24134868
0000e0 d6 c7 51 be b6 48 c7 3d e0 8e 21 bd dc a7 6e be
       -0.20486388 0.097306654 -0.039442897 -0.23306221
0000f0 a4 ad b3 bd fc 5d 05 3e 65 2c 33 bd 58 d9 67 be
       -0.08773354 0.13024133 -0.04374351 -0.22641504
000100 b6 c2 4b 3e 4d 89 80 bd c7 50 fe 3d 80 b9 52 be
       0.19898495 -0.06276188 0.12417751 -0.20578575
000110 8b bf b6 bc 7a 00 9e 3d cd 18 52 bd b4 35 a1 bd
       -0.022308132 0.07714935 -0.051293183 -0.07871571
000120 60 46 d1 bd a1 90 12 3e 9e ca 47 3d a2 ac 58 3e
       -0.10218501 0.14312984 0.048777215 0.21159604
000130 56 83 18 be f0 51 74 be 64 07 cb bd 48 fe e0 bd
       -0.1489385 -0.23859382 -0.09913519 -0.10986
000140 f7 da 41 3e 6f b8 35 be b6 c5 59 be f0 89 f1 3b
       0.18931185 -0.17746137 -0.21266827 0.0073711798
000150 33 e2 32 be 60 da 14 be 6a d7 cd 3d 80 aa 71 3e
       -0.174691 -0.14536428 0.100508526 0.23600197
000160 32 de 7b 3e f7 71 5f 3e a7 39 68 be 6a f3 30 be
       0.2459648 0.21820818 -0.22678243 -0.17280355
000170 bc 76 7b 3e c4 36 1a be 31 e2 32 bd a0 b4 b4 bc
       0.24557012 -0.15059954 -0.043672744 -0.022058785
000180 10 3a 79 3e ca 5b 54 be 3a 23 84 bd 14 25 79 3e
       0.24338555 -0.2073814 -0.064520314 0.2433055
000190 9e ba 0e 3c f6 31 59 3e 18 7e 1f 3e bc d5 1b 3e
       0.008711485 0.21210465 0.15575445 0.15218252
0001a0 0c cd 4a be 89 8d 35 bd 6d a3 25 be a6 4d 4f be
       -0.19804782 -0.04432443 -0.16175623 -0.20244464
0001b0 74 c1 0d be c0 11 4d 3c c9 cc 4b bd dc da 3d 3e
       -0.13843328 0.012516439 -0.049755845 0.1854052
0001c0 aa fb c6 bc 5a 18 03 be 46 00 80 be e3 5e 55 3e
       -0.024289925 -0.12802258 -0.2500021 0.20836978
0001d0 f2 22 11 3e cb 4c d4 3d b4 36 8e bd b0 8c 68 3e
       0.14173487 0.103662096 -0.069440275 0.22709918
0001e0 68 4b 4b 3e 76 c8 0b 3d 32 a1 12 3e 38 05 06 bd
       0.19852984 0.03412672 0.14319304 -0.03271982
0001f0 94 97 a5 bd 80 70 fc bb e2 d7 7e 3c 84 87 00 3e
       -0.08085552 -0.0077038407 0.0155544 0.12551695
000200 f8 12 39 3d 59 4c 65 3e 10 cc 0b 3e 6f 14 c7 bd
       0.045184106 0.22392406 0.13652062 -0.09720694
000210 1b b5 40 3e 90 c3 4d be 38 b9 b0 bd 00 80 10 bb
       0.18819086 -0.20094132 -0.08629078 -0.002204895
000220 5e 90 35 3d 0e 4d 25 3e fd 19 e5 bd ee f9 75 be
       0.044327132 0.16142675 -0.111865975 -0.24021122
000230 b4 59 37 3e 38 b6 34 3d 01 81 a4 bd 6a a5 11 3e
       0.17905313 0.04411909 -0.08032418 0.14223257
000240 07 f5 c1 3d cd 9b 5e 3e f6 af aa 3c f9 19 9d 3d
       0.094705634 0.21739121 0.020835858 0.076709695
000250 ba 8d 64 3c 8d 92 1f be 0b bc 1c be 34 af 24 3e
       0.013949806 -0.15583248 -0.15306108 0.1608246
000260 30 79 94 bd 5e 38 b7 3c 57 ef 7a be 9e 4a 52 be
       -0.07249677 0.022365745 -0.24505363 -0.20536277
000270 60 5c 26 be 84 15 84 3d cb 4c 13 be f8 c3 71 bd
       -0.16246176 0.06449416 -0.14384763 -0.05902478
000280 3d ff 7c be 25 84 ea bd a9 a5 40 bd 9e 87 1e 3e
       -0.2470674 -0.11450986 -0.047032986 0.15481421
000290 da 96 bc bd 3d c8 0c bd 21 ab 4a 3d 20 6b 7a 3c
       -0.0920846 -0.03437065 0.049479607 0.01528433
0002a0 72 9f a3 3d c6 d1 4c be 77 ac 25 3e e2 ec 0e 3e
       0.07989396 -0.20001897 0.16179071 0.13957551
0002b0 60 d2 74 3e c4 11 90 3d f7 ac 6e be 24 25 22 be
       0.23908377 0.070346385 -0.23308168 -0.1583448
0002c0 5b 78 49 3e 79 50 61 3e 13 53 7a 3e 9a 63 24 be
       0.19674818 0.22003354 0.24445753 -0.1605362
0002d0 a0 d0 a5 bc 56 05 49 3e d8 ac 25 3d c8 b2 94 bd
       -0.020241082 0.19630942 0.04044804 -0.07260662
0002e0 66 e7 23 be 7b ef f5 bd 2f aa ae bb 42 89 57 be
       -0.1600624 -0.12008568 -0.005330346 -0.21048453
0002f0 4c 56 4c be 08 41 64 3d 5d fc 05 b9 d0 62 cc 3d
       -0.19954795 0.05572608 -0.00012777881 0.099797845
000300 95 8e 20 3d 44 47 67 3e 81 03 d5 bd ef 2a 57 be
       0.039198477 0.2258578 -0.10401059 -0.21012472
000310 41 2b a6 3d 17 ce 53 be a3 51 55 3e 94 4d c2 3d
       0.08113719 -0.20684086 0.20831923 0.09487453
000320 a5 76 3e be 96 26 6a be 08 62 a9 bd a8 77 32 3e
       -0.18599947 -0.22866282 -0.08270651 0.17428458
000330 98 29 0f 3e ee e1 0d 3e 60 fe 0c 3e 9c f4 c1 3d
       0.1398071 0.13855717 0.13768911 0.09470484
000340 5a 04 28 bd 3c 56 e0 3d c5 14 5b bb f4 0f e0 bd
       -0.041019775 0.10953948 -0.0033429128 -0.10940543
000350 a0 71 66 be 25 bb 2c bd eb bd 09 3e c0 91 93 bb
       -0.22504282 -0.042170662 0.13451354 -0.0045034587
000360 60 5e 3d bd 85 e2 3d 3e bc de c3 bd 28 a2 40 be
       -0.04623258 0.18543442 -0.095639676 -0.18811858
000370 d0 69 5b 3e 12 73 4e be 24 2e 22 3c e8 61 25 be
       0.21427083 -0.20161083 0.009898696 -0.1615063
000380 a8 21 df bd eb 42 f6 3c 69 c4 0f 3e f4 7e 30 be
       -0.10895091 0.030061206 0.14039768 -0.17235929
000390 04 5c 90 3d 41 77 01 bd e2 48 91 3d d8 63 6d bd
       0.070488006 -0.03160787 0.070939794 -0.057956547
0003a0 4d 97 2d 3d 68 23 ab 3d fa f7 1a 3d fc ba ea 3d
       0.04238062 0.083563626 0.037834145 0.11461446
0003b0 12 67 2d 3e 88 5c a9 3d 5d 14 d7 bc cc 17 ec 3d
       0.1693385 0.08269602 -0.026254827 0.115279764
0003c0 2f ee 5e 3e e5 ae 53 3c 03 e9 d3 bd ef 1e df 3c
       0.21770547 0.012920116 -0.10347178 0.02723643
0003d0 2c f5 76 be 6a 49 89 bd 64 87 ab bd f0 a4 13 be
       -0.24116963 -0.06703456 -0.08375433 -0.14418387
0003e0 fc b5 4b be ca 83 ef bd ce f1 47 be 9c 9a e9 3d
       -0.1989364 -0.11695059 -0.19525835 0.114064425
0003f0 ba 93 54 be ea 59 70 3e 32 98 e2 3d 70 80 f9 bd
       -0.20759478 0.234718 0.11064185 -0.12182701

input_layer.bias f4 [512]
000000 0e 64 0b 3d 4b 3d 4e 3e 5d 34 fd 3b 18 3c 33 be
       0.034030966 0.20140569 0.0077271895 -0.17503393
000010 38 f5 97 bd 0c d7 3f be ba b0 98 3d 6c 25 75 3e
       -0.07419819 -0.18734378 0.07455583 0.23940057
000020 b5 ba a2 bd 51 f4 e9 3d 9e e6 02 3e b0 db 3f bc
       -0.07945768 0.11423553 0.12783286 -0.011710092
000030 a0 ad 47 3d 25 b6 e7 bd bd 68 b5 bc e2 bc 00 bd
       0.048749566 -0.11314038 -0.02214467 -0.031430133
000040 da 86 2b 3d 4a ca 20 3e d4 2c 8a bc 12 90 28 3e
       0.04187665 0.15702167 -0.016867079 0.16461208
000050 4d d0 2b be b6 08 37 be 66 8e 4e 3d c8 64 ae 3b
       -0.16778679 -0.17874417 0.05042877 0.0053220727
000060 0b 46 72 bc a1 07 52 be 64 ae 2b be a2 50 18 3e
       -0.014787207 -0.20510723 -0.16765743 0.14874509
000070 4a ac 10 be b8 61 31 3e 81 07 34 3e 57 05 99 3d
       -0.14128223 0.17322433 0.17580988 0.074717216
000080 14 8c 87 bd 21 06 d0 3d 6a ec a8 bd 0a 71 6b be
       -0.06618515 0.10157419 -0.082482174 -0.2299234
000090 39 32 68 3e 49 45 ee bd 89 df dc 3d 62 26 00 3e
       0.22675408 -0.11634309 0.107848234 0.12514642
0000a0 37 b3 6e be 5b 99 ec 3d 02 8c 8a 3d 94 63 e1 3a
       -0.23310553 0.11552688 0.067649856 0.0017195814
0000b0 98 1d 5d bc f3 b1 a1 3c 8a d5 51 3e 1c ce 09 bd
       -0.013495825 0.019738173 0.20491615 -0.033643827
0000c0 59 55 bf bd 13 84 26 be 3d 30 03 3e da ae 34 3e
       -0.09342451 -0.1626132 0.1281137 0.17644826
0000d0 06 6e 57 bb e6 61 b1 3d b1 33 b8 bd 15 f4 0f be
       -0.0032871976 0.08661251 -0.08994234 -0.14057954
0000e0 65 2e 78 be c4 55 c8 bc 8f 67 f0 bd 99 12 48 3e
       -0.24236448 -0.024454959 -0.11738502 0.19538344
0000f0 04 fa 22 3e a8 76 5d 3e ba 7d 6a be 11 b3 b9 ba
       0.15915686 0.21627295 -0.22899523 -0.0014167746
000100 06 6f a7 bd c1 e7 3c 3e 6b 51 12 be 9c 19 38 bd
       -0.08175473 0.18447782 -0.14288871 -0.044946298
000110 55 57 00 be 06 3e 27 be 24 34 f0 bd 84 9c 11 3e
       -0.12533315 -0.16332254 -0.11728695 0.14219862
000120 96 06 7c be 3c 17 a7 bd 1c 50 56 bd 89 61 7e bd
       -0.24611887 -0.081587285 -0.052322492 -0.062104736
000130 22 e1 59 3c a7 0f 74 be 9c 50 34 3e 69 17 7a 3e
       0.013298305 -0.23834096 0.17608875 0.24422993
000140 c9 10 95 3d 48 51 8d 3d 85 fe ea bd 88 c0 1a be
       0.07278592 0.06900269 -0.11474327 -0.15112507
000150 75 7d 68 3e 4a a5 a7 3d c5 4e a0 bd d1 9b 26 3e
       0.22704108 0.08185823 -0.07827524 0.16270377
000160 8f 55 e3 3d 30 ea f4 bd d7 d8 14 be eb ee f0 bd
       0.111003034 -0.1195873 -0.14535843 -0.1176432
000170 c4 98 49 3e 4f a6 34 3e 8f 18 a7 3b 23 fa b2 3d
       0.19687182 0.17641567 0.005099363 0.08739116
000180 95 29 89 bd f2 cb e8 3c 96 54 53 3e cb c7 2e 3e
       -0.06697384 0.028417561 0.20637736 0.17068402
000190 fe fb 3b be 86 fc f9 bd 23 a5 63 be 3d fa 8c bd
       -0.18357846 -0.12206368 -0.22230963 -0.06883667
0001a0 a9 c8 c6 3d 75 34 21 3e 8c c6 ae 3c e3 29 a3 bd
       0.09706242 0.15742667 0.021334909 -0.07966974
0001b0 0d 89 eb 3c b2 a8 7b be c2 3d 1d be f0 f8 88 bd
       0.028751874 -0.24576071 -0.1535559 -0.06688106
0001c0 24 7e 0a 3d 5b 9e 47 3e 20 ce 07 3c 4a 96 6e bd
       0.033811703 0.19494002 0.00828889 -0.058248796
0001d0 67 a9 12 3e 2e 54 69 bd 57 a4 5c be f0 8c e2 bd
       0.14322434 -0.056965046 -0.21547066 -0.11062038
0001e0 36 b7 49 be 75 78 12 be ed eb 5b 3e 1d 05 47 3e
       -0.19698796 -0.14303763 0.21476717 0.19435544
0001f0 47 08 47 be 62 e7 21 3e 6d dd c4 bd b3 ba f2 3d
       -0.19436751 0.15810922 -0.09612546 0.11852016
000200 e7 f7 19 3d 45 51 72 3e d9 e0 75 bd b1 63 7e 3e
       0.037589934 0.23663814 -0.060028885 0.24842717
000210 3d 1f bb 3d 04 43 71 3e fd 4e 08 be 5c 6e 53 3e
       0.091368176 0.2356072 -0.13311382 0.20647568
000220 88 24 16 3d 30 a6 80 3d 8b 61 6a 3e 75 05 b8 3d
       0.036655933 0.06281698 0.22888772 0.08985416
000230 a2 7c 51 3e 69 72 55 3e de 9a 02 3e 9b 74 42 3e
       0.204577 0.20844425 0.1275439 0.18989794
000240 11 bd e2 bd e6 f2 26 3e 44 6f 41 3d 23 c2 ee bb
       -0.11071218 0.16303596 0.04722525 -0.0072863265
000250 59 f4 b3 3d 77 58 60 3e 72 5b 3e bb 5e 75 34 3c
       0.0878684 0.21908747 -0.0029046205 0.011014311
000260 73 2e 5f 3e b5 5c 61 bc 15 62 6a be 33 99 07 3e
       0.21795063 -0.013755013 -0.22888978 0.13242035
000270 b2 76 2c be a4 f9 a2 bd 46 5e f5 bd 3e 2a c1 3d
       -0.16842154 -0.079577714 -0.11980872 0.09431885
000280 5c f2 87 3d 8a ab 3f 3e f5 cd 5b 3d e7 af 24 bb
       0.06638023 0.1871778 0.053663213 -0.002512926
000290 80 d0 c6 3d 50 34 d8 bd c3 c8 94 bd 97 28 59 3e
       0.09707737 -0.10556853 -0.07264855 0.2120689
0002a0 37 15 1c 3e 3d 04 1e bc d4 78 e6 bd fb 4e 11 3e
       0.15242468 -0.009644565 -0.11253515 0.14190285
0002b0 1f b2 08 be 3a da a0 3d e6 da d6 bd 43 b5 20 be
       -0.13349198 0.078541234 -0.1049097 -0.15694146
0002c0 96 ad f5 bd 8e 1b 34 3d 87 fa bf 3c 1d 2e a2 3d
       -0.119959995 0.04397159 0.02343489 0.07918952
0002d0 75 a1 98 3d 85 e9 57 3e 86 81 20 be a0 10 a3 bd
       0.074526705 0.21085174 -0.1567441 -0.07962155
0002e0 c8 35 03 be e4 5a 4c 3e 94 13 51 3e 75 c6 94 bd
       -0.12813485 0.19956547 0.20417625 -0.07264415
0002f0 53 5f 2a 3d 78 ba 65 3e 60 72 aa 3d 34 57 67 be
       0.041594815 0.22434413 0.083225965 -0.22591859
000300 99 46 7a be 8f 44 b2 bd 0d 40 b3 3c 77 b2 c0 3d
       -0.24440993 -0.08704483 0.021881128 0.094090395
000310 fb 7f 98 bc 43 f9 6a 3e db fe 03 3e 1e 98 da bc
       -0.018615713 0.22946648 0.12890188 -0.026683863
000320 36 7b 9d bc 98 1c 87 bd 7a a3 50 bd 19 6c 41 3e
       -0.01922379 -0.06597251 -0.050937153 0.18888892
000330 91 ef 1d 3e 17 b7 0f bd 23 25 f9 bd 5b 60 fc bc
       0.15423419 -0.035086717 -0.121652864 -0.030807665
000340 5a 53 c5 3d 6c 1c 2a be 55 6a 01 be ad d4 65 be
       0.09635039 -0.16612405 -0.12638219 -0.2244441
000350 73 8f 2d 3c b7 9a 00 3e e5 89 73 3e 69 1b 93 3d
       0.010593283 0.12559019 0.23783071 0.071829624
000360 dc 03 11 be 1b 58 49 3e fd 52 a1 bd 86 e3 0c 3e
       -0.14161628 0.19662516 -0.07877157 0.13758668
000370 e0 23 20 3e bf f0 9b 3c 99 4f 14 3e 48 3c 4d be
       0.15638685 0.019035695 0.14483489 -0.20042527
000380 99 6d 74 3d 7a 27 29 3c c8 a0 0b 3d b5 0f 21 3e
       0.059674833 0.010324353 0.03408888 0.15728648
000390 47 4a 48 3e d5 fb ab bb 1b 34 5b 3d e5 6c 04 be
       0.19559585 -0.0052485266 0.05351649 -0.12932165
0003a0 18 dc 3b be 5d 37 54 bd 04 70 41 3d c2 88 3f be
       -0.18345678 -0.05181061 0.047225967 -0.18704513
0003b0 0e e3 27 be 9f a4 5f be 05 a1 45 3d 8b 8b 0e 3e
       -0.16395208 -0.21840142 0.048249263 0.13920419
0003c0 a5 f3 76 3e 4b bd f0 bd d7 91 0c be d8 73 37 3e
       0.2411638 -0.11754855 -0.13727508 0.17915285
0003d0 4f cf 0c 3b 31 44 48 3e 8e dc 13 3e 89 7a 32 3e
       0.002148587 0.19557263 0.14439604 0.17429556
0003e0 af f9 60 3d a8 21 db bd 99 99 8f bd 51 fd f6 bc
       0.054925617 -0.10699779 -0.07011718 -0.030150088
0003f0 3f 67 ab 3d 9a 80 36 3e ba 1b 29 be 19 55 d4 bd
       0.08369302 0.17822495 -0.16514483 -0.103677936

output_layer.weight f4 [1, 512]
000000 ee 1b 66 3d c6 a1 7c 3c 8c 5e 40 bd b5 cb 14 3d
       0.05617898 0.015419429 -0.046965167 0.036327083
000010 48 f8 2a 3d 51 da b5 bc 13 1b 49 bd ac a3 da bc
       0.041740686 -0.022198828 -0.049098086 -0.026689373
000020 ea 45 00 3c bc e9 33 bd 11 00 21 bd 19 7d 79 bc
       0.007829169 -0.04392408 -0.039306704 -0.0152275795
000030 41 0b 89 bd ca b8 c1 bc 15 a1 a3 3c 61 b7 72 bc
       -0.066916 -0.023647685 0.01997427 -0.014814229
000040 6a e8 95 3d 11 41 6d 3d 10 cb a3 bc 8c d8 0d bc
       0.0731972 0.05792338 -0.019994289 -0.008657586
000050 79 41 79 bd f7 8b 0f 3b d7 78 3f 3d 6d d2 96 bc
       -0.060853455 0.0021903494 0.0467461 -0.018410886
000060 c9 23 17 bb 57 2d ea bc 88 c0 c1 3b bd 0f b4 bb
       -0.00230621 -0.028586073 0.005912844 -0.00549504
000070 0d b4 19 3d 6a b1 73 3c eb 20 7c bd f7 22 6a bd
       0.037525225 0.014873842 -0.06155483 -0.05716225
000080 8c a1 d1 3c 0d 44 b2 bc c1 ef c1 3c 83 5e 75 3c
       0.025589727 -0.021760965 0.023673894 0.014976147
000090 f7 ff b9 3c 1f 1f c3 3c 14 da 89 bc c3 f4 8f 3b
       0.022705061 0.02381855 -0.01682762 0.0043931915
0000a0 b4 50 42 bd 61 83 2d 3d 38 0b 07 bd 9a 92 cb bc
       -0.047440246 0.04236162 -0.032969683 -0.024850179
0000b0 a0 99 f9 3a 64 10 05 bd 95 79 0f 3d ea a5 b1 3c
       0.0019042976 -0.032486334 0.03502806 0.02168556
0000c0 e0 50 25 3d b0 cd 12 3c 8d f0 4c bd 58 cf d0 b8
       0.04036033 0.0089601725 -0.050034095 -9.956834e-05
0000d0 68 37 13 3d 15 24 96 bd 90 ef 65 3d 69 a5 6d bd
       0.03594151 -0.07331101 0.056136668 -0.058019076
0000e0 84 24 52 bd 92 7d 38 3d fd d5 90 bc 0c 5d 8e 3d
       -0.051304355 0.04504163 -0.017680163 0.06951341
0000f0 20 f6 18 bd eb d9 a0 bc ad e2 86 3b b8 09 84 bc
       -0.037344098 -0.019635161 0.0041163773 -0.016117916
000100 4d 8c 7f bc ea 81 9d bd 50 3b 2f bd 17 bb e5 3c
       -0.015597415 -0.07690795 -0.042781174 0.028043313
000110 64 65 40 bd eb 13 04 ba 1f 9e 12 bd 2b 2f 1b bd
       -0.046971694 -0.00050383684 -0.035795327 -0.03788678
000120 31 54 a7 bc 24 fe 17 3c f1 89 14 3c 1a 79 28 bd
       -0.020425888 0.0092769 0.009066091 -0.041131116
000130 f5 85 06 bc 68 6a 9b bd 0d d9 bf 3d dd fb fa ba
       -0.008210649 -0.07588655 0.09367571 -0.0019148547
000140 a0 c7 93 3c 01 43 80 3d 92 f8 7f bc 12 a5 06 ba
       0.018039525 0.0626278 -0.015623229 -0.0005136292
000150 8f c7 c3 3d 6f 60 b1 bc 6e 0e e4 3c 0d b2 b6 3d
       0.09559547 -0.021652428 0.027838912 0.08920679
000160 1d 2e e9 3c b4 36 a0 3b fa 08 db 3d 48 c5 6e bd
       0.028464371 0.0048893336 0.106950715 -0.05829361
000170 b3 fa 47 3a 4f df 6f 3c e1 45 9c 3c 87 4c dd 3c
       0.00076286047 0.014640643 0.01907629 0.02701403
000180 d9 2d 7f bc 2f 7e 26 bd 07 13 f2 bc 3a dd b5 3c
       -0.015574896 -0.04064768 -0.029550089 0.022200216
000190 22 36 3e 3c c3 c1 be 3b da f8 6a bb dc 3d 87 3d
       0.011609586 0.005821438 -0.0035853893 0.066035956
0001a0 28 56 fa 3c e0 8a 88 bd 7b b1 b9 3d 41 0a b9 bd
       0.03055866 -0.06667113 0.09067055 -0.09035159
0001b0 25 33 7e bc 51 e5 12 bd 00 c8 60 3c 69 a8 a0 bd
       -0.0155151235 -0.035863224 0.013719559 -0.07844622
0001c0 f1 9a 50 bb 28 d5 04 bd d6 3a 8b bc 94 c9 85 3d
       -0.0031830634 -0.032429844 -0.016995829 0.065325886
0001d0 93 be ce bd 88 96 21 3d d6 ea a5 3c 5e 6d 08 bd
       -0.10094943 0.0394502 0.02025358 -0.033307426
0001e0 5c 16 b7 3b a1 bf 5a 3d 00 b6 b3 3c 27 e4 99 3c
       0.0055873822 0.053405408 0.02193737 0.01878555
0001f0 58 bc 31 3d 08 26 33 bc 4c 02 6e 3d 40 41 17 bd
       0.04339251 -0.01093436 0.05810766 -0.03692746
000200 a1 7a c5 bc 79 ed 07 bc 8e d4 96 bd e5 69 a9 bc
       -0.024106326 -0.008296364 -0.0736476 -0.020680377
000210 3b 25 26 3d 2a e5 34 bd fa be d7 3c 8c f5 48 3d
       0.04056285 -0.04416386 0.026336182 0.049062297
000220 f0 27 5e 3d 5c 3e 60 bd 23 ad c8 3d f7 33 3a bd
       0.054237306 -0.05474697 0.09798648 -0.045459714
000230 94 e4 09 bc 5d 15 a3 3b f2 cf 0a bd e9 77 d3 3d
       -0.008416314 0.004976912 -0.03388972 0.103256054
000240 ee 17 d9 3a e5 0e f3 3d 12 b9 88 3c ee ae 41 3d
       0.0016562918 0.11868075 0.01668981 0.047285967
000250 e1 7b 3f bc 80 27 a1 3d 1a 43 e6 bc 2d 00 57 3d
       -0.01168725 0.07868862 -0.028108168 0.052490402
000260 2f 71 25 bd c8 f6 90 bc 85 19 8d 3c 04 a0 38 bc
       -0.040391143 -0.0176958 0.017224083 -0.011268619
000270 63 f1 05 bc cb 71 8b bd 8f 52 76 3d cb 7c 89 bd
       -0.008175227 -0.06808814 0.060137328 -0.067132555
000280 81 80 25 bc 03 3e 87 3d 5c 79 a5 3c b5 3c 71 bd
       -0.0101014385 0.06603625 0.02019947 -0.058895785
000290 d6 e5 46 bd 26 dc 17 bd fc 52 8e bd 5d 78 61 3d
       -0.048559032 -0.037075184 -0.06949422 0.055046428
0002a0 a4 ef af 3c eb 22 50 3d 52 58 bc 3c 40 67 b1 3c
       0.021476574 0.05081455 0.022991333 0.021655679
0002b0 1e eb ba 3b 72 61 cb bc 5f e6 0f bd 41 d1 ad 3d
       0.0057042977 -0.024826739 -0.03513181 0.08487178
0002c0 f5 44 ba b9 fb f8 59 bd ac c8 3f bd 07 7b 81 3c
       -0.00035528062 -0.053215962 -0.046822235 0.015805734
0002d0 88 fe dc bc 50 bd c1 bd 7a 86 0d bd f2 de 15 3d
       -0.026976839 -0.094599366 -0.034552075 0.03658957
0002e0 fa a0 c4 bc ed 44 e0 3c 71 dd 98 3d 3c 93 87 3d
       -0.02400254 0.027376616 0.074641116 0.066198796
0002f0 94 c2 b4 3b fd e7 6a 3d 6c 4e 5f bd 77 8d dc bb
       0.0055163596 0.057350148 -0.05451815 -0.006730731
000300 55 24 b8 bc 57 1b 6b bd 78 da 61 3d 8a d1 ec 3c
       -0.022478262 -0.05739912 0.05513999 0.02890851
000310 fc 4a 54 3c 32 65 70 3c 25 b2 0f bc ce 51 f2 bc
       0.012957331 0.014672564 -0.0087705 -0.029580023
000320 2b 44 02 3d 70 bc 83 3d 41 a0 8a bd 76 5b 32 3c
       0.03180329 0.06432426 -0.06768847 0.010886064
000330 9c 03 08 bd 39 b2 25 3e 41 d8 b9 3c 45 0f 81 3c
       -0.033206567 0.16181268 0.022686126 0.015754351
000340 1b 69 24 3d 47 4f 1a bd 99 35 c9 3d 05 4c c4 bd
       0.0401393 -0.03767326 0.09824676 -0.09584812
000350 38 f9 ed 3c 92 49 86 bc ef f0 2d 3c e1 c5 5a 3a
       0.0290495 -0.016392503 0.010616525 0.00083455263
000360 0f 74 9b 3c 64 1e 2c 3d 6b ec eb 3c 9f ea 59 bd
       0.01897624 0.04202117 0.028799256 -0.053202268
000370 16 93 2d 3d cf 2b 00 bd e0 54 3e bd be de 8b bc
       0.0423766 -0.03129178 -0.04646766 -0.017073985
000380 d1 98 0a 3e a8 aa 5e 3c d9 36 a1 3a b2 fe 54 bd
       0.13534857 0.013590492 0.0012299671 -0.05200071
000390 b0 be e9 bd ec f1 07 3d e8 61 52 3d 18 f8 56 bc
       -0.11413324 0.0331897 0.051362902 -0.013120674
0003a0 7a 69 31 3c c7 0e cd bc e3 f3 1e 3c 76 46 d7 bc
       0.01082837 -0.02503146 0.009701702 -0.026278716
0003b0 82 cf 1a 3d bc 4e 12 3d 8c fb a1 bc 5e 72 12 be
       0.03779555 0.03571962 -0.019773267 -0.1430144
0003c0 ef 3d 2f 3b 56 f0 e9 bc 79 fc e9 3c 46 04 ae bc
       0.0026739796 -0.028556984 0.028562771 -0.021242272
0003d0 ab a9 88 bd 75 95 e8 bd 31 2b 81 bd 86 20 58 bd
       -0.066729866 -0.11356632 -0.06307066 -0.05276539
0003e0 47 50 22 3d 37 0a bd 3c 03 3d 24 bd 6c 4e 45 3d
       0.03962734 0.02307616 -0.040097248 0.048170492
0003f0 76 8c 73 3c 91 a0 1f bd 33 9f 58 3d e7 b9 02 bd
       0.0148650315 -0.038971487 0.0528862 -0.03191557
