data/baumgartner_C-N/benzamide_emulator/aniline_bm_predictor_3.pt (torch, 38367 bytes, 3 tensors)

input_layer.weight f4 [512, 16]
0	0xbe771188	-0.24127781
1	0xbe4c2fb2	-0.1994007
2	0xbe6eb692	-0.23311833
3	0xbdf26351	-0.11835349
4	0xbe164bca	-0.14677349
5	0xbe2b51cf	-0.16730426
6	0xbdd02660	-0.101635695
7	0xbdbf25dc	-0.09333393
8	0x3e1c6e8c	0.15276545
9	0xbc978da9	-0.018500166
10	0x3e32a838	0.17446983
11	0x3d9d0a60	0.076679945
12	0xbcba31e0	-0.02272886
13	0xbe1ffbc8	-0.1562339
14	0x3e6511db	0.22370093
15	0x3e5e2f3e	0.21697709
16	0x3e5fceb7	0.21856199
17	0x3bb49680	0.005511105
18	0xbd5dbbc7	-0.054134157
19	0x3db2fe39	0.087398954
20	0xbe28b1b1	-0.16474034
21	0x3e3bf414	0.18354827
22	0xbe47fd2a	-0.19530168
23	0x3dc4bd58	0.09606427
24	0xbd23bb36	-0.03997346
25	0x3e6e0b56	0.23246512
26	0xbd2a6cd7	-0.041607704
27	0xbe3aa5ca	-0.18227306
28	0xbdc2871c	-0.09498426
29	0x3e6cb1ee	0.2311475
30	0xbd851548	-0.064982
31	0x3c8ea290	0.0174115
32	0x3de31228	0.110874474
33	0x3deaa4c2	0.11457206
34	0x3d9b64d3	0.0758759
35	0x3e21c943	0.15799432
36	0x3e7a2255	0.24427159
37	0x3d87cbd6	0.066306755
38	0x3e4347ac	0.1907031
39	0xbd9602c0	-0.07324743
40	0x3d584bc8	0.052806646
41	0x3e323a6f	0.17405103
42	0x3e2cc0cb	0.1687042
43	0x3de96c98	0.11397666
44	0xbe6a20ec	-0.22864121
45	0x3d596c20	0.05308163
46	0xbe5477bd	-0.20748802
47	0xbdd67ae0	-0.10472655
48	0xbc65ed1e	-0.014033584
49	0xbd452b52	-0.048137017
50	0x3d4d3566	0.050099753
51	0xbda8d0bc	-0.08242938
52	0xbe06e596	-0.13173518
53	0x3d74dee7	0.05978289
54	0x3d5e40b3	0.05426092
55	0x3e19eab6	0.15030941
56	0xbd2f4dd0	-0.042798817
57	0xbe09788c	-0.13424891
58	0x3dae8a3b	0.08522459
59	0xbd8e04dc	-0.069345206
60	0x3bb63680	0.005560696
61	0x3de32404	0.11090854
62	0x3d89ceaa	0.06728871
63	0xbe5372aa	-0.2064921
64	0x3d9847d5	0.07435576
65	0x3de9009e	0.11377071
66	0xbded4fd2	-0.1158749
67	0xbe55e76a	-0.20889059
68	0x3e67f810	0.22653222
69	0xbdc221e0	-0.094791174
70	0x3e69b5a5	0.22823198
71	0xbdf6ee48	-0.12057167
72	0x3e40aef4	0.1881674
73	0xbe177e86	-0.14794359
74	0x3e4c3e45	0.19945629
75	0x3c8aad10	0.016928226
76	0x3e73ebde	0.23820445
77	0xbdab46ec	-0.08363137
78	0x3da558fd	0.08073614
79	0xbe66999a	-0.22519532
80	0xbd72e888	-0.05930379
81	0x3d03de05	0.032194156
82	0xbd60ef2f	-0.054915603
83	0x3e7eabb8	0.24870193
84	0x3d55525e	0.052080505
85	0x3d61772e	0.0550453
86	0x3e3cd82d	0.1844184
87	0x3db1002c	0.08642611
88	0x3c9e4c22	0.019323412
89	0x3e00bec7	0.12572776
90	0x3e7a996e	0.24472591
91	0xbe751930	-0.2393539
92	0x3e52aea6	0.20574436
93	0xbdd1295c	-0.10212967
94	0xbc88da86	-0.016705763
95	0x3e2ecf60	0.17071295
96	0xbe36a974	-0.17838079
97	0x3e174fab	0.14776485
98	0x3ddc05c0	0.10743284
99	0x3dbaae44	0.0911527
100	0x3e3214a8	0.17390692
101	0x3dc9f63b	0.09861418
102	0x3d922c7a	0.071373895
103	0xbd2b32c0	-0.041796446
104	0x3dbf84dc	0.09351513
105	0x3e0bc7a2	0.13650373
106	0xbcb39684	-0.021922357
107	0xbe701fb6	-0.23449597
108	0xbdf052d4	-0.11734548
109	0xbd9ef550	-0.077616334
110	0x3e73cbbd	0.23808189
111	0xbe4a0b2e	-0.19730827
112	0xbe44f518	-0.19234121
113	0xbd80fa56	-0.06297748
114	0xbd8445db	-0.064586364
115	0xbda1c4ef	-0.0789889
116	0x3def4dd7	0.11684769
117	0x3e764811	0.24050929
118	0xbd060983	-0.032723915
119	0xbe63c46e	-0.222429
120	0x3e74ba50	0.23899198
121	0x3e0ba496	0.13637003
122	0x3d270332	0.04077453
123	0x3e37516c	0.17902154
124	0x3dd7e570	0.105418086
125	0x3df379fc	0.11888501
126	0x3e31c623	0.1736074
127	0xbda1dda8	-0.07903606
128	0xbe0726d2	-0.13198403
129	0xbe4b1c5a	-0.19835034
130	0xbdff0eff	-0.12454032
131	0xbd904225	-0.07043866
132	0x3e77d506	0.24202356
133	0xbe4b8e5f	-0.19878529
134	0x3e546436	0.20741352
135	0xbde5a2fc	-0.112127274
136	0xbe0221be	-0.12708184
137	0xbe4bec48	-0.19914353
138	0x3de62f5f	0.11239504
139	0xbe7286b4	-0.23684198
140	0x3e7ea032	0.24865797
141	0x3cab5d40	0.020918489
142	0xbe04c8cb	-0.12967221
143	0xbd999914	-0.074999005
144	0xbe62943f	-0.22126864
145	0x3d2301c9	0.039796624
146	0x3d0a3e0c	0.03375058
147	0x3d40a83b	0.047035437
148	0x3d5efab3	0.054438304
149	0xbe4fa1d8	-0.20276582
150	0x3e2d5404	0.1692658
151	0xbe411508	-0.18855679
152	0xbe7450dc	-0.2385897
153	0x3e45cfaa	0.19317499
154	0xbdc99963	-0.09843709
155	0x3e44d74a	0.19222751
156	0x3b5d2100	0.0033741593
157	0x3c94a7a0	0.018146336
158	0xbd553cec	-0.052060053
159	0x3d3a6728	0.045508534
160	0xbe0a45f4	-0.13503247
161	0x3e27c75b	0.16384642
162	0xbe4725d4	-0.19448024
163	0xbe619451	-0.22029234
164	0xbe5bdb2d	-0.21470328
165	0x3d52c729	0.051459465
166	0xbe1dda5f	-0.15415333
167	0xbe3365e2	-0.17519334
168	0xbce32134	-0.027725793
169	0x3e0c5f88	0.13708317
170	0xbe0d4533	-0.13795929
171	0xbe71f946	-0.23630247
172	0xbddcfd68	-0.10790521
173	0xbe5255ce	-0.20540544
174	0x3e4955cf	0.1966164
175	0x3d60dd80	0.05489874
176	0x3db8e613	0.09028258
177	0x3e36293a	0.17789164
178	0x3e51e248	0.20496476
179	0xbde94e28	-0.1139186
180	0x3e1208e1	0.142612
181	0xbbd83100	-0.006597638
182	0x3d8f400b	0.06994637
183	0x3e1ae9fe	0.15128323
184	0xbc8549f4	-0.016270615
185	0x3e16b4c3	0.14717393
186	0xbdf01870	-0.11723411
187	0xbd71bef8	-0.059020013
188	0x3da41488	0.080117285
189	0xbe16aedc	-0.14715141
190	0xbe1dabc0	-0.15397549
191	0x3e703a38	0.23459709
192	0xbd87a7d9	-0.06623811
193	0xbe6c8d92	-0.2310088
194	0x3bc9fb5f	0.006163999
195	0x3e6627a0	0.22476053
196	0xbe0aa887	-0.1354085
197	0x3d80a257	0.06280964
198	0xbdf47903	-0.11937144
199	0xbdd067bc	-0.10176036
200	0x3d697389	0.05699495
201	0x3e09a3a7	0.13441335
202	0xbda37541	-0.07981349
203	0x3dff1750	0.124556184
204	0x3e2c8d22	0.16850713
205	0x3da2c488	0.079476416
206	0x3dbde035	0.0927128
207	0x3e028586	0.12746248
208	0x3e0c781b	0.13717692
209	0xbdd4e5b6	-0.103953764
210	0xbd93ef1c	-0.07223341
211	0x3e2b3b8d	0.16721936
212	0xbe0fbb33	-0.14036255
213	0x3b007f82	0.001960725
214	0x3dafb15d	0.08578751
215	0xbdd20e60	-0.10256648
216	0x3ddbbf0b	0.10729798
217	0x3e3d0b98	0.18461454
218	0x3d837512	0.06418814
219	0xbe23a2d0	-0.15980077
220	0x3dabc2d8	0.08386773
221	0x3e607b54	0.21922046
222	0x3e5572ea	0.20844617
223	0x3e04888c	0.12942713
224	0x3e7708e1	0.24124481
225	0xbe24da21	-0.16098835
226	0x3e1a34e1	0.15059234
227	0xbd116006	-0.035491966
228	0x3d371cdc	0.044705257
229	0x3e09e759	0.13467158
230	0x3e1b5bc9	0.15171732
231	0x3e74c81e	0.23904464
232	0x3e1e4c0b	0.15458696
233	0xbcbaff1e	-0.022826727
234	0xbe4850da	-0.19562092
235	0x3e5fd9d8	0.21860445
236	0xbe3351ba	-0.17511645
237	0xbe70a3b4	-0.23499948
238	0xbdfb5421	-0.12271906
239	0x3e1f0dee	0.15532658
240	0xbe294e0c	-0.16533679
241	0x3cbf7b0f	0.023374109
242	0x3cd6a500	0.026201725
243	0xbe5ee5f4	-0.21767408
244	0xbe765d8e	-0.24059126
245	0x3e17b61b	0.14815561
246	0xbbc85100	-0.0061131716
247	0x3d5fe3b0	0.0546605
248	0xbe6be026	-0.23034725
249	0x3d1d66d4	0.038428143
250	0x3e063576	0.13106331
251	0x3d02ec18	0.031963438
252	0x3db3538c	0.0875617
253	0x3de6eb2c	0.11275324
254	0xbe1f3f97	-0.15551601
255	0x3e3bbadc	0.18333

input_layer.bias f4 [512]
0	0xbd2d5fc0	-0.042327642
1	0x3d5eaebb	0.054365855
2	0xbc6f297e	-0.014597295
3	0xbe3d5b77	-0.18491922
4	0xbe80bed7	-0.251456
5	0x3e09c45a	0.13453808
6	0xbe30806b	-0.17236488
7	0x3d7d60f5	0.061860044
8	0x3d483201	0.048875812
9	0xbcb09db7	-0.02155958
10	0x3dc1f15f	0.09469866
11	0xbe12da86	-0.14341173
12	0x3dd1aaed	0.1023768
13	0xbdb11d4a	-0.086481646
14	0xbe6115b6	-0.21980938
15	0xbe765e71	-0.24059464
16	0xbe03c881	-0.12869455
17	0xbdea425d	-0.11438439
18	0x3c114f11	0.008868949
19	0xbe0804a4	-0.1328302
20	0xbd949154	-0.07254282
21	0x3cee229a	0.029069234
22	0x3e1e576f	0.15463041
23	0xbe0fa16b	-0.1402642
24	0xbd0c4ddd	-0.034253944
25	0xbd7b7c47	-0.061397817
26	0x3e5adb30	0.21372676
27	0xbd7a6b83	-0.061137687
28	0x3d8861f1	0.06659306
29	0x3e7e4ece	0.24834749
30	0x3e7ca023	0.24670462
31	0x3ddd7b86	0.10814576
32	0x3d47b76a	0.0487589
33	0x3e224eb6	0.15850338
34	0x3e61a347	0.22034942
35	0xbcf57a44	-0.029965527
36	0x3dce0f91	0.10061563
37	0xbd9c8bed	-0.07643876
38	0x3c16aaed	0.009196025
39	0x3d036085	0.03207447
40	0xbe19c639	-0.15017022
41	0x3dec86f4	0.11549178
42	0x3d8237dd	0.06358311
43	0x3cd77449	0.026300566
44	0xbe0fe1fe	-0.14051053
45	0xbc353c04	-0.011061672
46	0xbdb2dea3	-0.08733871
47	0x3e16d6a8	0.14730322
48	0xbdd9fb3a	-0.10643621
49	0xbe77ba59	-0.2419218
50	0xbd6f5ad7	-0.05843624
51	0xbd9ccb8b	-0.0765601
52	0xbe491f12	-0.19640759
53	0x3dc458cd	0.0958725
54	0xbbecb1ea	-0.0072233574
55	0xbe008a5d	-0.12552781
56	0x3d974faf	0.07388245
57	0xbe448f21	-0.19195224
58	0xbe7a0bda	-0.24418584
59	0x3e3a9667	0.18221436
60	0xbe5d7269	-0.21625675
61	0x3c370d1a	0.011172557
62	0xbe1bdd3f	-0.15221117
63	0xbcb8cf31	-0.022559734
64	0x3de96837	0.113968305
65	0x3d140fe3	0.036147963
66	0xbdc9456f	-0.098276965
67	0x3cd7efd6	0.02635948
68	0xbe2d7cc3	-0.16942124
69	0x3e0535b2	0.13008764
70	0x3e347743	0.1762362
71	0x3ca02b05	0.019551763
72	0xbe25065e	-0.1611571
73	0xbe65d567	-0.22444688
74	0x3a6d7d88	0.0009059538
75	0x3e2c6801	0.1683655
76	0x3e17b05a	0.14813367
77	0xbe762e23	-0.24041037
78	0xbe745dcc	-0.23863906
79	0x3dfad9ea	0.12248595
80	0x3d2f45d8	0.042791218
81	0xbe245f14	-0.16051894
82	0x3cc93c70	0.024564952
83	0xbe67b45d	-0.22627397
84	0xbe6dd4c8	-0.23225701
85	0xbe65bb50	-0.22434735
86	0x3defc95f	0.1170833
87	0xbdf6231a	-0.12018414
88	0x3d623cea	0.055233873
89	0xbe341d6b	-0.17589347
90	0x3dcc6bca	0.09981497
91	0x3dbd0c74	0.09230891
92	0x3e38ce47	0.18047439
93	0x3e72377e	0.23653981
94	0x3e0ff9a2	0.14060071
95	0xbd92c059	-0.07165594
96	0x3c61fa21	0.013792546
97	0xbe62ed06	-0.2216073
98	0xbd0be69c	-0.034155473
99	0xbe237952	-0.15964249
100	0x3e7c3d1b	0.24632685
101	0xbe183642	-0.14864448
102	0x3e352439	0.17689599
103	0xbc2261ce	-0.009911014
104	0xbe47fbf0	-0.195297
105	0xbe4baf19	-0.19891013
106	0x3d88bc4a	0.06676538
107	0xbe21f555	-0.15816243
108	0x3d3c5693	0.045981
109	0x3d5d7028	0.05406204
110	0x3e561450	0.20906186
111	0xbdb35988	-0.08757311
112	0xbe37d261	-0.17951347
113	0xbe326f2b	-0.1742522
114	0x3e7422f7	0.23841463
115	0xbccf26f5	-0.02528713
116	0xbe692aa8	-0.22770178
117	0x3e684ebc	0.22686285
118	0x3e20f67d	0.15719028
119	0xbe1965e3	-0.14980273
120	0x3e363a30	0.17795634
121	0xbe44d2bd	-0.19221015
122	0xbdec218d	-0.11529837
123	0xbde97f3e	-0.11401223
124	0x3e1cbd09	0.15306486
125	0xbdd1e386	-0.10248475
126	0xbe154983	-0.14578824
127	0x3e1c35dd	0.15254922
128	0xbe64ed5d	-0.22356172
129	0x3ddb1e0f	0.106990926
130	0x3c414d90	0.0117982775
131	0xbe27f18b	-0.16400735
132	0xbe2bee08	-0.1679002
133	0x3e6d09ec	0.23148316
134	0x3c6f01db	0.014587845
135	0x3e68553e	0.22688767
136	0x3dc9ae96	0.09847753
137	0x3e72c8f4	0.2370947
138	0x3e0699dd	0.13144632
139	0xbe47d662	-0.19515374
140	0xbd5c9fde	-0.0538634
141	0xbdefb38e	-0.11704169
142	0xbe3b94b9	-0.18318452
143	0x3e3f1b9b	0.18662874
144	0xbe4c3f54	-0.19946033
145	0xbd07082f	-0.03296679
146	0xbe44471a	-0.19167748
147	0xbcb119c1	-0.021618726
148	0x3d9c0e4c	0.076199144
149	0x3dd51259	0.1040389
150	0x3df88cb0	0.12136209
151	0xbce47660	-0.027888477
152	0xbe6d46b9	-0.2317151
153	0x3e696162	0.22791055
154	0x3e137f59	0.14404048
155	0x3e73cd50	0.23808789
156	0x3c838970	0.016056746
157	0x3cf643c1	0.030061604
158	0x3d5ce738	0.053931445
159	0x3e170bb8	0.14750564
160	0xbc4a0485	-0.012330179
161	0xbe2f75c2	-0.17134765
162	0x3debfca2	0.11522795
163	0x3e3c9a57	0.18418251
164	0x3e1af5b5	0.15132792
165	0x3dc3c38e	0.095587835
166	0x3e2490d8	0.16070879
167	0xbdf3b787	-0.119002394
168	0x3d003df4	0.031309083
169	0xbe5f0c07	-0.21781932
170	0xbd0764d6	-0.03305515
171	0x3e052ff1	0.1300657
172	0xbd8a1638	-0.06742519
173	0xbd8e08e5	-0.0693529
174	0x3e4a7cfc	0.1977424
175	0x3e07ae98	0.13250196
176	0x3e8189a1	0.25300315
177	0xbe49601d	-0.1966557
178	0x3d1cf745	0.038321752
179	0x3d8aad19	0.06771297
180	0xbe432fb8	-0.19061172
181	0xbbae75d8	-0.0053241067
182	0xbdfba46f	-0.122872226
183	0xbe60aff3	-0.2194212
184	0xbe2741c0	-0.16333675
185	0xbe22e0b6	-0.15906033
186	0x3e40b106	0.18817529
187	0x3e39e517	0.18153797
188	0xbcedb184	-0.02901531
189	0xbe283fca	-0.16430584
190	0x3ce7d872	0.028301451
191	0x3e5f97bd	0.21835227
192	0x3e3b4d1a	0.1829113
193	0x3e582452	0.21107605
194	0xbe523013	-0.20526151
195	0x3df6c434	0.120491415
196	0x3e2bbb1f	0.167706
197	0xbdf0aec7	-0.11752086
198	0x3d6f698d	0.05845027
199	0x3d8b8b58	0.06813687
200	0xbe0188f6	-0.12649903
201	0xbd92ff7d	-0.07177637
202	0x3d91ea5f	0.07124781
203	0x3db5e4ce	0.08881532
204	0xbe367477	-0.17817865
205	0x3e80142a	0.25015384
206	0xbd67c2d4	-0.056582287
207	0xbe408d33	-0.18803863
208	0xbde6b08e	-0.11264144
209	0xbe6278b7	-0.22116362
210	0x3e4bcd2a	0.19902483
211	0x3de5f9bf	0.11229276
212	0x3e62cd6f	0.22148679
213	0xbe2adeef	-0.16686605
214	0x3dae293a	0.08503957
215	0x3e392ed1	0.18084265
216	0x3e5ba6bf	0.21450327
217	0x3de39ace	0.11113511
218	0x3e1be109	0.15222563
219	0x3c8a14cc	0.01685562
220	0xbe30531d	-0.17219205
221	0x3db706c4	0.08936837
222	0x3e2b63f2	0.16737345
223	0x3e0bae01	0.13640596
224	0xbca89824	-0.020580359
225	0xbdd1a45c	-0.10236427
226	0xbe39fd92	-0.18163136
227	0xbd9d75f8	-0.076885164
228	0x3d012747	0.0315316
229	0x3e0a48cb	0.13504331
230	0xbcec55ca	-0.028849501
231	0xbe57e157	-0.21082054
232	0x3e21d994	0.15805656
233	0x3e5f9826	0.21835384
234	0xbddbe74e	-0.10737477
235	0x3d20c577	0.039250817
236	0x3d1c430d	0.038149882
237	0x3dff99e3	0.124805234
238	0xbca67931	-0.02032146
239	0xbc1f9667	-0.009740449
240	0x3dca145e	0.09867166
241	0x3cd14da8	0.025549725
242	0x3e762239	0.24036492
243	0x3e132240	0.14368534
244	0xbc9bf108	-0.019035831
245	0x3d5f0b52	0.054454155
246	0x3e296cb4	0.16545373
247	0x3e2d7fda	0.16943303
248	0xbcdbdf6c	-0.026839934
249	0xbd877686	-0.066144034
250	0xbe1373ba	-0.14399615
251	0x3e104e30	0.14092326
252	0xbbc9e7c8	-0.0061616637
253	0x3e5424cd	0.20717163
254	0xbe518c3a	-0.20463648
255	0x3dcf4f8e	0.10122596

output_layer.weight f4 [1, 512]
0	0xbd6d92c2	-0.058001287
1	0x3cc0a314	0.023515262
2	0xbca1f22f	-0.019768802
3	0xbba98f43	-0.005174549
4	0x3d5f62c9	0.05453757
5	0xbca14abc	-0.019688956
6	0xbcbb0440	-0.022829175
7	0x3bed70a5	0.0072460943
8	0x3d438431	0.04773349
9	0x3d6e8259	0.058229778
10	0x3d9ba696	0.07600133
11	0x3c54066c	0.012940984
12	0x3b8105e8	0.0039374717
13	0xbcdd7e23	-0.027037686
14	0xbd88ef5a	-0.06686278
15	0xbc7f6117	-0.015587113
16	0x3beaee05	0.0071694874
17	0x3cb85981	0.022503616
18	0x3d05619a	0.032563783
19	0xbbbc45a3	-0.005745606
20	0xbd43e3a6	-0.047824524
21	0x3cf66861	0.030079069
22	0xbc9eaec9	-0.019370453
23	0xbd47830e	-0.048708968
24	0x3cfeaa45	0.03108705
25	0x3d7dcc54	0.06196244
26	0xbd5dfa4f	-0.05419379
27	0xbd8e50c8	-0.069490016
28	0x3d8436c8	0.06455761
29	0x3daf038a	0.08545597
30	0x3d6da319	0.05801687
31	0xbcc9d47c	-0.024637453
32	0xbccc7c9e	-0.024961766
33	0xbe014262	-0.1262298
34	0xbd0b77be	-0.034049742
35	0x3d98ad5d	0.074549414
36	0x3d9af7b4	0.07566777
37	0xbd06c7e6	-0.03290548
38	0xbdd9c65c	-0.10633537
39	0xbc0e59c5	-0.008688395
40	0x3d8a1fb9	0.06744332
41	0xbd6f6c92	-0.05845315
42	0x3d33b01f	0.043869134
43	0xbce79679	-0.028269993
44	0xbdc02b09	-0.09383208
45	0x3db2eabc	0.08736178
46	0x3d5654a7	0.052326825
47	0x3d287637	0.041128363
48	0xbd0cc4d2	-0.03436739
49	0xbd54dcaf	-0.051968273
50	0x3db5508c	0.08853254
51	0x3b541d0a	0.0032365941
52	0xbc182a7d	-0.009287474
53	0xbd47c16a	-0.04876844
54	0x3ce78421	0.028261246
55	0x3d7de753	0.061988186
56	0x3b1714c5	0.002305315
57	0x3c31a599	0.010842704
58	0xbd1e0cf9	-0.03858659
59	0x3ab6438f	0.0013905632
60	0xbbaca99e	-0.0052692434
61	0x3defe78d	0.11714087
62	0x3d8a923c	0.06766173
63	0xbd61291b	-0.05497084
64	0x3c99c50c	0.018770717
65	0x3baabb7d	0.0052103386
66	0x3c30eaaf	0.01079814
67	0xba4a6959	-0.00077213865
68	0xbd500b60	-0.050792098
69	0x3d369505	0.04457571
70	0x3d94dd6a	0.07268794
71	0xbd75d9cd	-0.060022164
72	0x3d265272	0.04060597
73	0x3bb8d198	0.00564022
74	0x3c80fd46	0.01574577
75	0xbdb1362d	-0.08652911
76	0xbd314157	-0.043275204
77	0x3d36a7f8	0.04459378
78	0xbc801ceb	-0.01563879
79	0xbcc66cee	-0.024221864
80	0xbccc6aae	-0.024953213
81	0x3d2c7795	0.04210623
82	0xbbeaa248	-0.0071604587
83	0xbc9b92bc	-0.018990867
84	0x3d940f8a	0.07229526
85	0x3d0c22ae	0.03421276
86	0x3db627a7	0.08894282
87	0x3d13e5cd	0.036107827
88	0xbda345a3	-0.079722665
89	0xbc963c76	-0.018339377
90	0x3d0db2a2	0.034594186
91	0xbc828ccc	-0.015936278
92	0x3d64614f	0.055756863
93	0xbd175953	-0.03695042
94	0x3d1d1ed3	0.038359474
95	0x3da82de2	0.082118765
96	0x3dfe73b6	0.12424414
97	0x3cb8093a	0.022465337
98	0xbd10bbf1	-0.035335485
99	0xbcfd7838	-0.030941114
100	0xbd4d07b0	-0.05005616
101	0xbca8f6d0	-0.020625502
102	0xbb0acc5d	-0.002117894
103	0x3b5e44f7	0.0033915618
104	0x3c6ae620	0.014337093
105	0xbcda6cba	-0.026663173
106	0xbcfdc21c	-0.030976348
107	0x3d8e1006	0.0693665
108	0xbdc2edba	-0.09517999
109	0x3d2c9aa7	0.042139675
110	0x3d04437f	0.03229093
111	0x3d8749bf	0.06605863
112	0x3d5326d2	0.051550694
113	0xbd5339f1	-0.05156893
114	0xbd0fb55b	-0.035085063
115	0xbc42b80d	-0.011884701
116	0x3c6a52c6	0.014301961
117	0xbb08f681	-0.002089888
118	0xbc6b7c57	-0.014372907
119	0xbcb7003e	-0.022338983
120	0xbd9841ea	-0.07434447
121	0xbd0e43a1	-0.034732465
122	0x3c773ad9	0.015089714
123	0x3d4f444c	0.050602242
124	0x3d990f2e	0.074735984
125	0x3d89b43f	0.06723832
126	0x3d40f769	0.04711095
127	0xbe0e860f	-0.13918327
128	0xbaf7c87c	-0.0018904353
129	0x3d46a7d6	0.048499905
130	0x3d2c019a	0.041993715
131	0x3b807200	0.00391984
132	0x3d121e8f	0.035673674
133	0xbd8987a2	-0.06715323
134	0x3b716670	0.003683474
135	0x3d49ae89	0.049238715
136	0xbd23ca78	-0.03998801
137	0xbd2ad835	-0.041710097
138	0x3d1b510b	0.037919085
139	0xbcd3c16c	-0.025849067
140	0x3cb2f4cb	0.021845242
141	0x3d958b4c	0.073019594
142	0xbc96bd63	-0.018400853
143	0x3dac1446	0.08402304
144	0x3ca45d1a	0.020063926
145	0x3b9a7603	0.004713775
146	0xbcc7388c	-0.024318956
147	0x3c8d6f10	0.017264873
148	0x3d73a03b	0.05947898
149	0x3c5479f2	0.012968527
150	0x3db76731	0.08955229
151	0xbd223bb1	-0.039607707
152	0x3d12dd50	0.03585559
153	0xbc86b0b7	-0.016441686
154	0x3da1292f	0.07869183
155	0xbda45f41	-0.08025981
156	0xbd35aedd	-0.044356216
157	0xbd13b978	-0.03606555
158	0x3b4e2c3d	0.0031459474
159	0xbce53e0b	-0.027983686
160	0x3ce778b8	0.028255805
161	0x3d261f89	0.040557418
162	0x3b99a721	0.004689113
163	0x3b94335f	0.0045227255
164	0xbd227d47	-0.039670255
165	0x3d2a8846	0.041633867
166	0x3c339c0f	0.0109625
167	0xbd08adae	-0.03336876
168	0xbc21f4a7	-0.00988499
169	0xbd5ac837	-0.053413596
170	0xbd535045	-0.051590223
171	0xbd730836	-0.059334002
172	0x3983d542	0.00025145157
173	0xbca3b39b	-0.019983103
174	0x3b89f171	0.0042096903
175	0x3d2303f9	0.03979871
176	0x3d954658	0.07288808
177	0xbd06bffd	-0.032897938
178	0xbd29742c	-0.041370556
179	0x3ccd8e73	0.02509234
180	0x3b9d10ba	0.0047932537
181	0x3cd03811	0.02541736
182	0x3d81a190	0.06329644
183	0xbc649708	-0.013952024
184	0xbd36f7e9	-0.04467002
185	0xbd1ad517	-0.037800875
186	0x3dae5e8b	0.085141264
187	0xbd95d00a	-0.07315071
188	0xbd98d67a	-0.07462783
189	0x3b7c365c	0.003848455
190	0x3cf5bc3b	0.029996982
191	0x3de1ff82	0.110350624
192	0x3d81b4c0	0.063333035
193	0xbc0c29a6	-0.008554852
194	0xbcdf2fae	-0.027244415
195	0x3c4408cc	0.011964988
196	0xbd22e397	-0.039767828
197	0x3c8bcd3b	0.017065635
198	0x3db9f27c	0.09079453
199	0xbd8fe708	-0.070264876
200	0xbccd40b1	-0.025055261
201	0xbcffca6b	-0.03122445
202	0xbde4c890	-0.11171067
203	0x3e2b879f	0.16750954
204	0xbb2bdcfb	-0.0026224244
205	0xbde2419e	-0.11047672
206	0x3cf2799d	0.029599005
207	0xbd2f4e1e	-0.042799108
208	0x3d03cfa9	0.032180462
209	0xbcb23609	-0.021754282
210	0x3c8a91cd	0.016915226
211	0x3c34756d	0.011014325
212	0x39a78a0f	0.00031955584
213	0xbd431ee2	-0.047636874
214	0x3c9f35ce	0.019434836
215	0xb97fff8a	-0.00024413891
216	0xbda75028	-0.081695855
217	0xbbc86818	-0.0061159246
218	0xbccf71a9	-0.025322752
219	0x3b89994d	0.004199183
220	0xbc54fc30	-0.012999579
221	0xbc222dff	-0.009898662
222	0x3dd46e1a	0.10372563
223	0x3d74d369	0.05977193
224	0xbd05d424	-0.032673016
225	0x3d0c52f1	0.034258787
226	0xbda87bca	-0.08226736
227	0x3d5878b9	0.052849505
228	0xbcfd42c1	-0.03091562
229	0xbc1e562a	-0.009664098
230	0x3c6b33fe	0.014355658
231	0xbcac7f53	-0.021056807
232	0xbc83864b	-0.016055247
233	0xbcef7f1c	-0.029235415
234	0x3c90a0b2	0.01765475
235	0xbd6fc5fc	-0.058538422
236	0xbcbd081b	-0.023075154
237	0x3d9efabe	0.07762669
238	0x3caed47f	0.02134156
239	0xbd1531ee	-0.03642457
240	0xbc8227f0	-0.015888184
241	0xbb22a3a6	-0.002481678
242	0xbdeec917	-0.116594486
243	0x3d62b236	0.055345736
244	0xbdcf17cd	-0.101119615
245	0x3c217f04	0.009856943
246	0xbd84cb00	-0.06484032
247	0x3db181eb	0.08667358
248	0xbc9b2809	-0.018939989
249	0xbd783923	-0.060601365
250	0xbd23fe51	-0.040037457
251	0x3aa9d0a2	0.0012955854
252	0x3cceee4b	0.025260111
253	0xbd5b1cbc	-0.0534942
254	0x3d750e13	0.059827875
255	0xbd6251a3	-0.055253636
