data/baumgartner_C-N/benzamide_emulator/benzamide_bm_predictor_1.pt (torch, 38367 bytes, 3 tensors)

input_layer.weight f4 [512, 16]
0	0xbe4bbbaa	-0.19895807
1	0xbdaed199	-0.08536071
2	0x3d87a1c8	0.06622654
3	0xbe3d254d	-0.1847126
4	0x3db68edb	0.08913966
5	0x3e4d4ecc	0.2004959
6	0x3ddbc953	0.10731759
7	0x3e407b22	0.18796971
8	0xbe4389f6	-0.19095597
9	0xbe0ee64b	-0.13955037
10	0x3e681acb	0.2266647
11	0x3e66c0b8	0.22534454
12	0x3df91dbc	0.121638745
13	0xbe3787b4	-0.1792286
14	0x3e5da648	0.21645463
15	0xbe1c1820	-0.15243578
16	0x3e6487b5	0.22317393
17	0xbe1ed566	-0.15511093
18	0xbcc05de8	-0.023482278
19	0x3e84dc52	0.2594934
20	0x3cd3929c	0.025826745
21	0xbdcfd593	-0.10148158
22	0x3da36f7a	0.07980247
23	0xbdda29a0	-0.106524706
24	0xbda4f17c	-0.08053872
25	0xbe64f80a	-0.22360244
26	0xbdf0bfa3	-0.11755302
27	0xbd2b52b8	-0.041826934
28	0xbe3ed510	-0.18635964
29	0xbe4c35b6	-0.19942364
30	0x3e59d234	0.21271592
31	0x3e12bb28	0.14329207
32	0x3b0911e0	0.0020915195
33	0x3e5126b5	0.20424922
34	0xbe49c38c	-0.19703501
35	0xbdd346e3	-0.10316255
36	0x3d7e5332	0.06209106
37	0xbe24cfb7	-0.16094862
38	0x3e797460	0.243608
39	0xbe1dc5d2	-0.15407494
40	0xbdabdc7b	-0.08391663
41	0x3de32331	0.110906966
42	0x3e50eb81	0.20402338
43	0xbdf8098c	-0.12111196
44	0xbd914744	-0.07093671
45	0x3c03fbc0	0.008055627
46	0x3d9a1cda	0.07525034
47	0xbe21b64c	-0.15792197
48	0x3d787332	0.060656734
49	0x3e7d9846	0.24765119
50	0xbd2dbd12	-0.04241664
51	0xbdd55a1f	-0.1041758
52	0x3bd64f62	0.006540225
53	0xba85f4b0	-0.0010220017
54	0x3e5de1be	0.21668145
55	0xbe3fe556	-0.18739828
56	0xbe515218	-0.20441473
57	0xbca2f4a1	-0.019892039
58	0x3d8693d8	0.06571168
59	0xbc4a7a40	-0.012358248
60	0xbd37a7d0	-0.044837773
61	0xbddfa40c	-0.10919961
62	0x3e3f1cbd	0.18663307
63	0x3d07acb0	0.033123672
64	0x3e26cb53	0.162885
65	0x3e6d333f	0.2316408
66	0x3d248694	0.040167406
67	0xbcb10329	-0.021607952
68	0xbe3054cf	-0.17219852
69	0x3dc70134	0.09717026
70	0xbe880a5a	-0.26570398
71	0xbdfa1c24	-0.12212399
72	0xbe52667d	-0.20546909
73	0xbd6d7650	-0.05797416
74	0xbcc69833	-0.024242496
75	0x3e62c0e2	0.22143891
76	0x3d9932d0	0.07480395
77	0xbdcc655c	-0.0998027
78	0x3e304399	0.17213286
79	0x3db2f914	0.08738914
80	0x3de39772	0.1111287
81	0x3e6aa23c	0.2291345
82	0x3e2c85f1	0.1684797
83	0xbe47034e	-0.19434854
84	0xbc63ee4f	-0.013911798
85	0x3e58d1c8	0.21173775
86	0xbe7414e6	-0.23836097
87	0xbd8b6d90	-0.06808007
88	0xbe365821	-0.17807056
89	0x3d82d801	0.06388856
90	0xbe027ddf	-0.12743329
91	0x3e5be4a2	0.21473935
92	0xbe6cf53a	-0.23140422
93	0x3e475d3c	0.1946916
94	0xbe6e1ec9	-0.23253931
95	0x3e08d9fc	0.13364404
96	0xbe59396d	-0.21213312
97	0x3d4a59af	0.049401935
98	0x3ca365bf	0.019945977
99	0xbe289a46	-0.164651
100	0xbe769e22	-0.2408376
101	0xbe5a61b8	-0.21326339
102	0x3c48ab01	0.012247802
103	0x3ddb9e80	0.10723591
104	0x3dc7a0d1	0.0974747
105	0xbcf034a0	-0.029321969
106	0xbd93fb34	-0.072256476
107	0x3c02f140	0.007992089
108	0x3dea9e44	0.11455968
109	0x3dc49748	0.09599167
110	0xbd862199	-0.06549377
111	0xbd9ae874	-0.07563868
112	0x3da43817	0.08018511
113	0xbd1070ed	-0.035263944
114	0x3ad4304f	0.0016188713
115	0x3e298fcb	0.16558759
116	0x3e13890a	0.14407745
117	0x3e6b867b	0.23000519
118	0x3e3076bc	0.17232794
119	0xbe07ac1e	-0.13249251
120	0x3ddf6fea	0.10910018
121	0x3da7959c	0.081828326
122	0x3da65041	0.08120776
123	0xbc60f280	-0.0137296915
124	0x3e348600	0.17629242
125	0xbe04bab2	-0.12961844
126	0xbe5d9744	-0.21639735
127	0xbe0cffa2	-0.13769391
128	0x3e695d71	0.22789551
129	0x3e1f1fbe	0.15539452
130	0x3e745ddf	0.23863934
131	0xbe18164e	-0.14852259
132	0x3e5efebd	0.21776862
133	0xbe651a6c	-0.2237336
134	0xbe63f8d4	-0.22262889
135	0x3e087aae	0.13328049
136	0xbe7d8346	-0.24757108
137	0xbe29af62	-0.1657081
138	0xbd76302f	-0.060104545
139	0x3e5949b6	0.21219525
140	0x3e6cd7cc	0.23129195
141	0x3e38de8a	0.18053642
142	0xbe5275ad	-0.20552702
143	0xbe675fae	-0.22595093
144	0x3df690f5	0.12039367
145	0x3d88c783	0.06678679
146	0x3e784560	0.24245214
147	0x3dcafc7d	0.099114396
148	0x3d97c82e	0.07411228
149	0xbd930b94	-0.07179943
150	0xbe37e2c1	-0.17957594
151	0xbd9d85b4	-0.076915175
152	0xbe63fd36	-0.22264561
153	0xbe3213b0	-0.17390323
154	0xbd86bba9	-0.06578762
155	0x3e101f86	0.14074525
156	0x3dcd5e64	0.10027769
157	0x3e5eae7e	0.21746251
158	0x3de8cc91	0.11367143
159	0x3d1eb898	0.03875026
160	0xbe83296d	-0.25617543
161	0xbdc997ce	-0.098434076
162	0xbd9f3aec	-0.0777491
163	0xbe4f0579	-0.20216931
164	0x3dd0e877	0.10200589
165	0xbe1c0b9d	-0.15238805
166	0xbe1097b8	-0.14120376
167	0xbce39340	-0.027780175
168	0xbe113d29	-0.14183487
169	0xbd83d929	-0.064379044
170	0xbe6b2b1e	-0.22965667
171	0x3c294be0	0.010333031
172	0x3d7fac48	0.06242016
173	0x3e311c12	0.17295864
174	0x3e2ce2d2	0.168834
175	0x3cbad810	0.022808105
176	0x3b8a96d4	0.004229406
177	0x3ddce551	0.10785926
178	0x3ae70d7f	0.0017627924
179	0x3e29e584	0.1659146
180	0xbb293a69	-0.0025822169
181	0x3c9c0436	0.019044977
182	0x3dff7bbe	0.12474774
183	0xbd5ac370	-0.05340904
184	0xbd7f5074	-0.062332585
185	0xbd9217a6	-0.07133417
186	0x3e7c70d2	0.24652413
187	0xbe1ddb2a	-0.15415636
188	0xbd573680	-0.05254221
189	0x3e167e20	0.1469655
190	0x3d32be3a	0.043638445
191	0x3e6bc5ba	0.23024645
192	0xbe12ec68	-0.14347994
193	0x3e67f402	0.22651675
194	0x3d6f17ae	0.058372192
195	0x3e6279ea	0.22116819
196	0xbd50abf4	-0.050945237
197	0x3e0360f2	0.1282995
198	0x3d4efdad	0.050534893
199	0xbe6f01c2	-0.23340514
200	0xbe2f84ba	-0.17140475
201	0xbe0265e6	-0.12734184
202	0xbe455227	-0.1926962
203	0x3d96c1b8	0.07361168
204	0xbd143918	-0.03618726
205	0x3e50f78a	0.20406929
206	0xbd4e93a0	-0.050433755
207	0xbe42d1d6	-0.19025359
208	0x3e6e4614	0.2326892
209	0x3e50abdd	0.2037806
210	0x3d903823	0.07041957
211	0x3c0a0ea2	0.00842634
212	0x3d1ee815	0.03879555
213	0x3c1bbeed	0.0095059695
214	0x3e2726aa	0.16323343
215	0xbe345ee0	-0.17614317
216	0xbe70f48a	-0.23530784
217	0x3df35a1e	0.11882423
218	0x3dee9adf	0.11650633
219	0x3e43cef0	0.19121909
220	0xbd8efe4c	-0.06982097
221	0xbd9b3a6c	-0.075795025
222	0xbd9f8c0b	-0.07790383
223	0xbe27ecea	-0.1639897
224	0x3df80622	0.12110545
225	0x3b65c6a1	0.003506102
226	0x3cc33531	0.023829075
227	0x3d3a868f	0.04553848
228	0x3e3ee780	0.18642998
229	0x3d8e3b9e	0.06944965
230	0xbe3084f7	-0.17238222
231	0x3e1a0524	0.15041023
232	0x3bc5247d	0.0060163126
233	0xbe0d3a4d	-0.13791771
234	0x3e17eb32	0.14835814
235	0x3dedddc4	0.11614564
236	0xbe1bb95c	-0.15207428
237	0x3e005a24	0.12534386
238	0x3d807df2	0.06274022
239	0xbe685464	-0.22688442
240	0x3e7678f2	0.24069574
241	0xbda40ce1	-0.08010269
242	0x3e36e885	0.17862137
243	0x3da8d8d5	0.082444824
244	0xbdf3ddd4	-0.11907545
245	0xbe09b76d	-0.13448878
246	0xbe265420	-0.16243029
247	0xbe5faefa	-0.21844092
248	0x3e31cbe4	0.17362934
249	0x3d5f5b64	0.054530516
250	0xbe4b064f	-0.19826625
251	0x3e6080f0	0.21924186
252	0x3e081c4a	0.13292041
253	0xbe702418	-0.23451269
254	0x3e395bb8	0.18101394
255	0x3e2806cc	0.16408843

input_layer.bias f4 [512]
0	0x3d7726d9	0.060339782
1	0x3cbbdab0	0.022931427
2	0x3dd62c9a	0.10457726
3	0x3d80d858	0.06291264
4	0x3e6842a9	0.22681679
5	0xbd6c48ac	-0.057686493
6	0xbe3dcb8d	-0.1853468
7	0x3e71f190	0.23627305
8	0xbe15bcff	-0.14622878
9	0xbd80b2bc	-0.06284091
10	0x3dc2e75d	0.09516785
11	0x3dd8f78d	0.105940916
12	0x3e1b2f43	0.15154748
13	0xbe117368	-0.1420418
14	0xbe573441	-0.21016027
15	0xb9b60402	-0.0003471673
16	0x3e7b3492	0.24531773
17	0xbe0830bf	-0.13299845
18	0xbe776b64	-0.2416206
19	0x3e1af35c	0.15131897
20	0x3d068e4e	0.032850556
21	0xbe228d63	-0.15874247
22	0x3e1065be	0.14101312
23	0xbdbb11e6	-0.09134273
24	0x3e19607f	0.14978217
25	0xbe072ff4	-0.13201886
26	0x3d99af34	0.075041205
27	0x3ca82c22	0.020528857
28	0xbe24da17	-0.1609882
29	0x3d8c2afe	0.068441376
30	0xbe76696e	-0.24063656
31	0x3d979c24	0.07402828
32	0xbe12397e	-0.14279744
33	0x3d995648	0.0748716
34	0xbc2361e5	-0.00997207
35	0xbcd72149	-0.026260989
36	0xbe3d71b7	-0.1850041
37	0xbe148813	-0.14505033
38	0xbd2c4594	-0.042058542
39	0xbdf226ea	-0.118238285
40	0x3d88288d	0.066483594
41	0x3cb5cace	0.022191431
42	0x3e7b1cf9	0.24522771
43	0xbd8af2a6	-0.06784563
44	0xbe290b77	-0.1650828
45	0x3e2ad535	0.16682895
46	0x3b44fea7	0.0030059011
47	0x3e0855b5	0.13313945
48	0x3d541751	0.05178005
49	0x3d3b7fbd	0.045776118
50	0xbcc4d538	-0.024027452
51	0xbe384675	-0.17995627
52	0xbe0f5030	-0.13995433
53	0x3dcfad81	0.10140515
54	0x3e0f03fb	0.13966362
55	0xbd9ad8ce	-0.075608835
56	0x3e5e3192	0.21698597
57	0x3e2f502b	0.17120425
58	0x3e632d77	0.22185312
59	0x3e09f992	0.1347411
60	0x3e139e4f	0.14415859
61	0x3e6fc112	0.23413494
62	0xbe6a6894	-0.22891456
63	0xbd55f3f0	-0.05223459
64	0x3e2a842a	0.16651979
65	0x3e424e21	0.18975116
66	0xbdb44404	-0.088020355
67	0xbe553124	-0.20819527
68	0xbbc6a1bb	-0.0060617602
69	0x3cca87a3	0.02472288
70	0x3ce620f4	0.028091885
71	0xbe5ff44a	-0.21870533
72	0x3df34401	0.11878205
73	0x3e48dfa7	0.19616567
74	0xbe4668d9	-0.19375934
75	0xbd3b2361	-0.045688037
76	0xbe42cd4d	-0.19023629
77	0xbe3e868a	-0.1860601
78	0xbdf07a95	-0.11742131
79	0x3dcd4939	0.10023732
80	0xbe6a3500	-0.2287178
81	0x3e052837	0.13003622
82	0x3e814a21	0.25251868
83	0xbba085ea	-0.0048987763
84	0x3e1cb8b2	0.1530483
85	0xbc8af322	-0.016961638
86	0x3e6b826a	0.22998968
87	0x3da4fc74	0.08055964
88	0xbe255a02	-0.16147617
89	0x3da3c56a	0.07996638
90	0xbd05b4e5	-0.032643218
91	0x3e4a338b	0.19746225
92	0x3d135dd7	0.035978165
93	0x3c740bd1	0.014895395
94	0xbe574506	-0.21022424
95	0xbded8f8f	-0.11599647
96	0xbe458539	-0.19289102
97	0x3e3385fa	0.17531577
98	0x3e486cf4	0.19572812
99	0x3dda78a4	0.106675416
100	0x3c42fca6	0.011901056
101	0xbe01bd2f	-0.12669824
102	0xbd9c40c6	-0.07629542
103	0xbe048925	-0.12942941
104	0xbe004fb6	-0.12530407
105	0x3daa9cbc	0.08330676
106	0x3df64646	0.12025122
107	0xbda7071b	-0.08155652
108	0x3e4a4fc5	0.19756992
109	0x3e0e05e2	0.13869432
110	0x3da52c36	0.08065073
111	0xbd5ce019	-0.053924654
112	0xbe2d15e5	-0.16902883
113	0xbe2eae0e	-0.17058584
114	0xbb5e4386	-0.0033914759
115	0xbd1d2974	-0.03836961
116	0x3c95c35d	0.018281633
117	0xbe1f2901	-0.15542985
118	0x3d6d2f6e	0.05790656
119	0x3df99515	0.12186638
120	0x3e571a18	0.21006048
121	0xbe3edd2e	-0.18639061
122	0xbe1dfd6a	-0.15428701
123	0xbdd7e564	-0.105418
124	0x3e36e083	0.17859082
125	0xbd9830e4	-0.074312
126	0xbd8fe0b1	-0.07025278
127	0x3e53a593	0.2066863
128	0x3e4d3d5e	0.20042941
129	0x3e29011c	0.1650433
130	0xbe015929	-0.12631668
131	0xbe59f757	-0.21285759
132	0x3cfebae8	0.031094983
133	0x3e041a1c	0.12900585
134	0xbc87bc57	-0.0165693
135	0xb9a45172	-0.000313412
136	0xbe482526	-0.19545421
137	0xbe3d51a5	-0.18488176
138	0x3d6a06f3	0.057135534
139	0xbdf65491	-0.120278485
140	0x3e83cce5	0.2574226
141	0x3cebfd51	0.028807314
142	0x3e49cdf2	0.19707468
143	0x3e318749	0.17336763
144	0x3c2b85cd	0.010468912
145	0x3ddff091	0.10934556
146	0x3e15187a	0.14560118
147	0xbdeb7fbb	-0.11498972
148	0x3e0f022b	0.13965671
149	0x3d7e6cb6	0.062115394
150	0x3e2669ac	0.16251248
151	0x3d854792	0.065077916
152	0x3e13ae42	0.14421943
153	0xbd76fe0a	-0.060300864
154	0xbc53c82b	-0.012926142
155	0xbdff7439	-0.124733396
156	0x3e2c262b	0.16811435
157	0xbe402211	-0.18762995
158	0xbdf94131	-0.121706374
159	0x3e0b7211	0.13617732
160	0x3e4657e6	0.19369468
161	0x3d02598f	0.03182369
162	0xbd0817a4	-0.03322567
163	0xbd663b71	-0.05620903
164	0xbd7c2c8d	-0.061565924
165	0xbd89eae5	-0.06734256
166	0x3e033eb3	0.12816887
167	0xbbacbaac	-0.0052712765
168	0xbd0ea001	-0.03482056
169	0xbe4b725f	-0.19867848
170	0xbdd5f971	-0.10447968
171	0x3d911145	0.07083372
172	0xbe2f52b9	-0.171214
173	0xbe7a2f16	-0.24432024
174	0x3e47a1a0	0.19495249
175	0xbe77c406	-0.24195871
176	0xbcea0e9b	-0.028571418
177	0xbc0f48cd	-0.008745384
178	0x3e1ec40d	0.15504475
179	0x3d8b3184	0.06796554
180	0x3dca81af	0.098880164
181	0xbd19365f	-0.037405368
182	0x3e065f8e	0.13122389
183	0x3d8bb4aa	0.06821568
184	0xbd0fee3e	-0.035139315
185	0xbe358beb	-0.17729156
186	0x3c0f7b51	0.008757428
187	0x3dd0e45a	0.101998046
188	0xbd053d46	-0.032529138
189	0xbdc25875	-0.09489528
190	0x3d0c3fcf	0.03424054
191	0xbe5fd208	-0.21857464
192	0xbe0a3b4f	-0.13499187
193	0x3e625b68	0.22105181
194	0xbe4490cf	-0.19195865
195	0x3e6e30a2	0.2326074
196	0x3e463623	0.19356589
197	0xbe4a21b7	-0.19739424
198	0xbdb7c3e4	-0.0897291
199	0xbdaee53e	-0.08539818
200	0xbd68bbe9	-0.05681983
201	0x3c8a9b22	0.016919676
202	0x3e41a798	0.18911588
203	0xbd1ddab6	-0.038538657
204	0xbe0c1f81	-0.13683893
205	0xbdb657b8	-0.0890345
206	0x3e5f4653	0.2180417
207	0x3ddab487	0.10678964
208	0xbe401a1c	-0.1875996
209	0x3d8eced8	0.06973046
210	0x3e6a93f3	0.22908
211	0x3e4cfcc5	0.20018299
212	0x3d485648	0.04891041
213	0x3d2e381e	0.042533986
214	0xbd93099e	-0.07179569
215	0x3e480e7e	0.19536778
216	0xbe551e16	-0.20812258
217	0x3e644b1d	0.22294278
218	0x3dae29b8	0.08504051
219	0xbe40346a	-0.18769994
220	0xbe7d028f	-0.24708007
221	0xbe2ee1ba	-0.17078295
222	0xbe34f2a9	-0.17670693
223	0xbc127708	-0.008939512
224	0xbcd0b20c	-0.025475524
225	0xbe3859ff	-0.18003081
226	0x3d83842e	0.06421696
227	0x3d82b9ae	0.06383072
228	0xbd5f0d03	-0.05445577
229	0x3dca76ab	0.09885915
230	0xbda17a94	-0.07884708
231	0xbe619d49	-0.22032656
232	0xbc338311	-0.010956542
233	0x3e02aa12	0.12760189
234	0x3e0976d8	0.13424242
235	0xbdaaf082	-0.083466545
236	0x3ddd66ab	0.10810598
237	0xbe3f8258	-0.18702066
238	0x3e046868	0.12930453
239	0xbe20c3e7	-0.15699731
240	0x3e8306c1	0.2559109
241	0xbdac6c27	-0.08419066
242	0xbe638441	-0.2221842
243	0x3e35d11d	0.17755552
244	0xbe6d0ac1	-0.23148634
245	0xbdc5a906	-0.09651379
246	0x3e74e0ae	0.23913833
247	0xbe257a2e	-0.16159889
248	0x3e803515	0.25040498
249	0x3c8be375	0.017076233
250	0xbc90faef	-0.01769778
251	0x3e5a0305	0.21290214
252	0xbe082525	-0.1329542
253	0xbe35025c	-0.17676681
254	0xbe413967	-0.18869554
255	0xbe146a6e	-0.14493725

output_layer.weight f4 [1, 512]
0	0x3c365669	0.011129
1	0xbd9996fd	-0.07499502
2	0xbcf1a218	-0.029496238
3	0xbd28a370	-0.04117149
4	0x3db21172	0.08694734
5	0xbc152282	-0.009102466
6	0xbcb0500e	-0.021522548
7	0xbc998cbd	-0.018743867
8	0xbce9bbdd	-0.028531963
9	0x3d181b52	0.03713543
10	0xbd1e666b	-0.038671892
11	0xbc81df7e	-0.01585364
12	0xbacf77b9	-0.0015828527
13	0xbdbb1aa3	-0.0913594
14	0xbc8d6952	-0.017262135
15	0xbce563f2	-0.02800176
16	0xbd482136	-0.048859797
17	0x3d282bfb	0.041057568
18	0xbc212efa	-0.00983786
19	0xb9eac4cb	-0.0004477858
20	0xbd2bb699	-0.041922186
21	0xbbcd4c17	-0.006265174
22	0x3c80a365	0.015702913
23	0x3a27ee1a	0.00064060243
24	0xbcb7be8e	-0.02242973
25	0x3c0afad1	0.008482651
26	0xbd13b8b0	-0.036064804
27	0xbcc3f8d8	-0.023922369
28	0x3cc64891	0.024204524
29	0xbd82a143	-0.063784145
30	0x3c0b288f	0.008493557
31	0x3d036d19	0.032086466
32	0xbc94a09b	-0.018142989
33	0xbd2ed3ef	-0.042682584
34	0xbc1bec20	-0.009516746
35	0x3d75e5d6	0.06003364
36	0x3d9c5927	0.07634192
37	0x3d0d84d3	0.0345505
38	0x3c11df34	0.008903313
39	0xbbfbd44a	-0.007685219
40	0xbd039713	-0.032126497
41	0xbd0fdd9a	-0.035123445
42	0x3b8e7b9c	0.0043482315
43	0xbcd56a8a	-0.026051778
44	0x3c451a6a	0.012030223
45	0xbd2bc2b2	-0.041933723
46	0x3c94e615	0.018176118
47	0xbd9b5f0d	-0.07586489
48	0x3d43d879	0.047813866
49	0x3d67b5c4	0.05656983
50	0xbd4fd340	-0.050738573
51	0x3d36eba9	0.044658337
52	0xbcec78a8	-0.028866127
53	0x3d512222	0.051057942
54	0xbd855ad0	-0.06511462
55	0x3cb5cf1a	0.02219348
56	0x3d370d2e	0.044690304
57	0x3de4af23	0.11166217
58	0xbd4d5d36	-0.05013772
59	0xbcfe8277	-0.03106807
60	0xbd054696	-0.03253802
61	0x3d08c234	0.03338833
62	0x3d40cbd9	0.047069404
63	0x3915b914	0.00014278694
64	0x3de81b53	0.11333337
65	0xbd76e2a2	-0.060274728
66	0x3d8b5626	0.06803541
67	0x3bb0933f	0.005388647
68	0xbc2811b2	-0.010258125
69	0x3d55d523	0.052205216
70	0xbc9a5884	-0.018841036
71	0xbd2bd67a	-0.041952588
72	0x3d465ebd	0.048430193
73	0x3dbe4954	0.0929133
74	0x3c08c22a	0.008347074
75	0x3c5981bf	0.013275563
76	0x3cee5552	0.029093418
77	0xbd3d3c24	-0.046199933
78	0x3d8bc60f	0.06824886
79	0xbd415e5b	-0.047209125
80	0x3d063446	0.032764696
81	0xbd3bae3a	-0.045820452
82	0xbd9f8327	-0.07788687
83	0x3bb17784	0.0054158587
84	0xbdca2079	-0.09869475
85	0x3ccd2520	0.025042117
86	0x3b5ca2b0	0.0033666305
87	0xbd98b539	-0.074564405
88	0xbc04649d	-0.008080629
89	0xbc3f339a	-0.011670018
90	0x3cecd32f	0.028909294
91	0xbd8c9a29	-0.06865341
92	0x3c21ed5a	0.009883249
93	0x3d1b65ea	0.03793899
94	0x3c7f3ea3	0.015578899
95	0x3d16dbdb	0.036830764
96	0xbce762d1	-0.028245362
97	0x3d857d6a	0.065180615
98	0x3c47be0b	0.012191306
99	0xbc579e81	-0.013160349
100	0x3c7ce1da	0.015434707
101	0xbd9b2a68	-0.07576448
102	0xbce6079a	-0.028079797
103	0xbcda6b9d	-0.026662642
104	0x3be9e2f6	0.0071376516
105	0xbcc58802	-0.024112705
106	0x3c14654f	0.009057357
107	0xbb67b713	-0.0035356923
108	0x3e4a08b0	0.19729877
109	0x3cce00c9	0.025146859
110	0x3d0ced6d	0.034406114
111	0x3d4207bd	0.04737066
112	0x3cf507ae	0.029910889
113	0xbd097297	-0.033556547
114	0xbd9b0b85	-0.075705566
115	0xbdb7e7e6	-0.08979778
116	0xbc13a395	-0.009011169
117	0x3d3b0802	0.045661934
118	0xbd43f80d	-0.04784398
119	0x3c03d9fa	0.008047575
120	0x3c1b5feb	0.009483318
121	0x3db59c62	0.08867718
122	0xbca1c93f	-0.019749282
123	0xbd2fdfb1	-0.042937938
124	0xbc2b05a8	-0.01043836
125	0x3c82a671	0.015948506
126	0x3beb63a9	0.0071835113
127	0xbca7ea64	-0.020497508
128	0x3d2f2706	0.042761825
129	0x3d7a892e	0.06116598
130	0xbd7ad68c	-0.061239764
131	0xbbdc2e7f	-0.00671941
132	0x3d497e64	0.0491928
133	0xbd0ded97	-0.03465041
134	0xbdb76915	-0.0895559
135	0xbcd711b2	-0.026253555
136	0xbd630890	-0.055428088
137	0xbbabb541	-0.005240113
138	0x3cad20b5	0.02113376
139	0xbc99100c	-0.01868441
140	0xbdef34f7	-0.11680024
141	0xbd2646ec	-0.04059498
142	0x3ca8ef0b	0.020621797
143	0xbc5c899d	-0.013460544
144	0xbbbcb723	-0.0057591363
145	0x3d80d562	0.062906995
146	0xbdbf76d4	-0.093488365
147	0xbcd85b52	-0.026410732
148	0xbc8d750c	-0.017267726
149	0x3cf05342	0.029336575
150	0x3dc2e98a	0.095172
151	0x3d53c981	0.05170584
152	0x3d5cfcde	0.05395209
153	0x3e16a09f	0.1470971
154	0x3d645c31	0.055751983
155	0xbd5a9977	-0.05336901
156	0x3ac25266	0.0014825582
157	0x3d13cdb0	0.03608483
158	0x3ceff3ab	0.029290995
159	0x3dcb9910	0.09941304
160	0x3d4f4d28	0.05061069
161	0x3d8c75b2	0.06858386
162	0xbd1c2b5e	-0.038127296
163	0x3da6340d	0.08115397
164	0xbc94f5cd	-0.018183613
165	0x3d1b2cb3	0.037884425
166	0x3ab270f9	0.0013613991
167	0x3ba425fe	0.005009412
168	0x3d0525a1	0.03250659
169	0x3d4824a9	0.048863087
170	0x3b326817	0.0027222687
171	0x3dc7b822	0.097519174
172	0xbce98d2a	-0.028509695
173	0x3d5b7564	0.05357875
174	0xbd2512af	-0.04030102
175	0x3d52ad2c	0.05143468
176	0xbdaa7b8c	-0.08324346
177	0xbb9c4e93	-0.004770109
178	0x3c01757b	0.007901545
179	0x3d0dc386	0.034610294
180	0x3c842701	0.01613188
181	0xbd58759a	-0.05284653
182	0x3d2e742d	0.042591263
183	0x3dbfaaf8	0.093587816
184	0xbc3d733e	-0.01156312
185	0xbd0ddb02	-0.03463269
186	0x3da89a5d	0.082325675
187	0x3d2fcb50	0.042918503
188	0xbd4c13b8	-0.049823493
189	0x3b9dfdb8	0.0048215054
190	0xbc3fe978	-0.011713378
191	0xbbe72fdf	-0.007055267
192	0x3a968379	0.0011483274
193	0x3dfbf0cf	0.1230179
194	0x3d20c420	0.03924954
195	0x3d852aeb	0.065023266
196	0xbe055ee3	-0.13024478
197	0x3c605759	0.0136927
198	0xbc833905	-0.0160184
199	0x3be5cd8e	0.0070130294
200	0x3bab2891	0.0052233418
201	0xbd8692ae	-0.06570946
202	0x3c30d5dd	0.0107931765
203	0xbcee27a2	-0.029071633
204	0x3bbe0541	0.005798966
205	0x3c4631f9	0.012096875
206	0x3d006765	0.031348605
207	0xbce8cf47	-0.02841915
208	0xbd5538c0	-0.052056074
209	0x39e6d523	0.00044027818
210	0x3d1dbcc7	0.03851011
211	0x3c9b49a4	0.018956013
212	0xbcc6f983	-0.024288898
213	0x3da2a29b	0.07941171
214	0x3d4b0599	0.049565885
215	0x3d1d9026	0.03846755
216	0x3d7860fb	0.060639363
217	0xbcd6cec6	-0.026221644
218	0xbcabbdc7	-0.020964516
219	0xbbcb9db9	-0.0062138704
220	0x3c841a68	0.016125873
221	0xbc3ac0a6	-0.01139847
222	0xbc05eb17	-0.008173726
223	0xbd8f8af0	-0.07008922
224	0x3c2a192a	0.010381976
225	0xbd3830ef	-0.04496854
226	0xbd31e2a8	-0.043429047
227	0xbd07e1a2	-0.033174165
228	0xbaa9746c	-0.0012928373
229	0xbd278700	-0.04090023
230	0xbd6f6578	-0.058446378
231	0x3bd32c7a	0.006444511
232	0x3d30daae	0.0431773
233	0xbc1fe56b	-0.009759287
234	0x3d05b873	0.032646608
235	0xbd55207d	-0.052032936
236	0x3cf224b0	0.02955851
237	0xbca1c31c	-0.019746356
238	0xbd379096	-0.044815622
239	0x3cac9740	0.021068215
240	0xbdc3b458	-0.09555882
241	0x3dd33ab0	0.10313928
242	0xbd9a1fc5	-0.07525591
243	0xbd07dab5	-0.03316756
244	0xbc96c2c5	-0.01840342
245	0x3d4f9262	0.05067671
246	0xbccc348e	-0.024927404
247	0x3ccd8a00	0.025090218
248	0x3d88a586	0.06672196
249	0x3e042115	0.12903245
250	0xbcebc893	-0.028782165
251	0x3d97a08b	0.07403668
252	0x3cd9df10	0.026595622
253	0x3d04d855	0.032432873
254	0x3a771bdd	0.0009426454
255	0xbc9e60ce	-0.01933327
