data/baumgartner_C-N/benzamide_emulator/benzamide_bm_predictor_3.pt (torch, 38367 bytes, 3 tensors)

input_layer.weight f4 [512, 16]
000000 e8 55 9c bc fb b9 56 be 80 aa 25 be ca 29 3a 3d
       -0.019083932 -0.20969383 -0.16178322 0.04545001
000010 e5 5f 44 3e 72 a4 69 3e f3 23 1e be 8e b9 4d 3e
       0.19177206 0.22816637 -0.15443401 0.20090315
000020 0e ec 5d 3d 1f fd 29 be fd b5 33 3e 14 3a c2 3d
       0.054180197 -0.16600464 0.17549892 0.09483734
000030 60 2e 2f 3c f0 a6 ef 3c 26 03 1b be 30 87 28 be
       0.010692209 0.029254407 -0.1513792 -0.1645782
000040 e2 2a c8 bd 05 1d 91 bd c1 48 f9 3d 24 39 0c 3d
       -0.09773804 -0.07085613 0.1217208 0.03423418
000050 ec 55 ae 3c 1b 2c 78 3e 87 41 59 3d 24 10 f8 3d
       0.021281205 0.24235575 0.053041007 0.121124536
000060 bc 1b 18 3e af b2 1a be 8c 19 39 3e a0 89 50 3e
       0.1485433 -0.15107225 0.18076152 0.20365
000070 b0 e4 31 3e 60 ac f0 3c 67 e7 34 3e 92 5f 05 be
       0.17372394 0.02937907 0.17666398 -0.13024738
000080 fa c8 42 be d9 9f 7f be 95 16 37 3d b6 d6 4c be
       -0.19021979 -0.24963321 0.04469927 -0.2000378
000090 6f 78 4e be be c3 b2 3d 42 1b 85 3d 22 df 7d be
       -0.2016313 0.08728741 0.0649934 -0.2479215
0000a0 10 9e 96 bd d5 4b e9 bd bd 95 05 be 12 83 1e 3e
       -0.07354367 -0.11391417 -0.13045402 0.15479687
0000b0 c0 f5 57 be 40 42 d0 bc 9c cb 30 3e dc bc 92 bd
       -0.2108984 -0.025422215 0.17265171 -0.07164928
0000c0 45 40 3d be 50 79 94 bb 97 fd f0 3b 28 40 cb bd
       -0.18481548 -0.004531063 0.007354449 -0.09924346
0000d0 9c f4 50 be 2c 9a 94 3d c5 0e 0f bc 48 e8 3b 3e
       -0.20405811 0.072559685 -0.008731549 0.18350327
0000e0 40 8f 1e 3c b4 df ae 3d ea e9 3a 3e 1a d3 63 be
       0.009677708 0.08538762 0.18253294 -0.22248498
0000f0 38 66 7b be de f4 09 be e4 92 59 be 10 58 24 3d
       -0.24550712 -0.13472316 -0.2124744 0.040123045
000100 e4 d9 a3 3d ae e0 2d 3e 22 54 46 be 80 2e 4f be
       0.08000544 0.1698024 -0.19368032 -0.20232582
000110 f2 0b 2f be 1a cb 64 be f0 53 a4 bd cc 13 ac bd
       -0.170944 -0.22343102 -0.08023822 -0.084022135
000120 00 db ac 3c 28 13 95 3d 68 ce 7c 3d 52 be 32 3e
       0.021100521 0.072790444 0.06172028 0.17455414
000130 de 5a 7f 3e 50 7d f8 bd b2 e1 34 be 58 4a 65 3d
       0.24937007 -0.121332765 -0.17664221 0.055979103
000140 2a 8b 00 3e 60 83 3e 3e a0 42 1f 3d e2 5d 61 be
       0.12553087 0.18604803 0.038881898 -0.2200847
000150 d8 a3 11 3e a4 48 0a be 76 13 56 be 10 0c fb bc
       0.14222658 -0.13504273 -0.20905861 -0.0306454
000160 2e 1b 6c be 3e ea 72 be f8 35 16 bd 40 a3 ca bc
       -0.23057243 -0.23722169 -0.036672562 -0.024736047
000170 00 c2 1c 3a 30 75 dc 3c 1e a2 5b be a8 72 a8 3d
       0.0005979836 0.026911348 -0.21448562 0.08224994
000180 c0 7f bd 3c 6e 86 3e 3e d5 a2 39 3d ec c4 cd 3d
       0.023132205 0.18605968 0.045321304 0.100473255
000190 3a 2b 3d 3d 54 32 f3 3d 73 61 da 3d ce 93 28 3e
       0.046183802 0.11874834 0.10663118 0.16462633
0001a0 23 0a 73 bd a3 d8 85 3d 2a b1 94 3c 50 a3 3f 3e
       -0.05933584 0.06535461 0.018150885 0.18714643
0001b0 1c 34 b6 3d a6 77 01 be 35 60 b8 bd 80 d7 44 bd
       0.08896658 -0.12643299 -0.09002725 -0.04805708
0001c0 56 f9 f1 3d 89 43 51 be 10 a2 7b be c8 dc 4e 3e
       0.11815135 -0.20435919 -0.2457354 0.20201409
0001d0 1b 9b 02 be 29 f1 0a 3d 7c d8 f5 3d 00 6a 0e 3a
       -0.1275448 0.033921394 0.12004182 0.00054326653
0001e0 d7 73 f7 3d ab 79 22 3e 94 1d 07 be 20 5d 60 bc
       0.120826416 0.15866725 -0.13194877 -0.013694078
0001f0 58 65 cb bd b6 96 19 3e f1 0e 74 be 3e 36 32 3e
       -0.09931439 0.14998898 -0.23833825 0.17403504
000200 ee a7 0b be ba 5a 38 bd d9 75 c3 bc 2c 0d 3b 3d
       -0.13638279 -0.0450084 -0.023859905 0.04566686
000210 76 22 2a bd 4d 60 6a bd 9d b9 15 3e 78 a1 58 3d
       -0.04153677 -0.057220746 0.14621587 0.052888364
000220 b4 28 c3 bd 00 80 08 b7 8c ec 4d 3e 1c 89 ef bd
       -0.09529248 -8.136034e-06 0.20109767 -0.116960734
000230 88 cb a7 bd c4 3a 2f 3e f3 d2 68 be aa e9 62 be
       -0.081931174 0.17112261 -0.2273672 -0.22159448
000240 e9 d7 98 bd b4 8a 2b be ac 7a 30 3e e5 6a d2 3d
       -0.074630566 -0.1675213 0.17234296 0.10274295
000250 44 f3 00 bd 89 a8 88 bd da 62 87 3d 40 c7 ea 3c
       -0.031481996 -0.066727705 0.06610651 0.028659463
000260 f4 63 75 3e 31 f2 7a be b5 5f 0d be e6 5f 59 3e
       0.2396391 -0.24506451 -0.1380604 0.21227989
000270 80 50 4a 3c 26 90 13 be 89 98 70 3e ac 69 22 3e
       0.012348294 -0.14410457 0.23495688 0.15860623
000280 05 42 c2 bd e1 86 49 3e 0b 5b 00 bb 6b b5 ed 3d
       -0.094852485 0.19680358 -0.0019585516 0.11606868
000290 cd e2 12 be dd cf 94 3d 61 42 5a 3e 98 e6 56 3d
       -0.1434433 0.07266209 0.21314384 0.052466005
0002a0 b1 47 6c be c8 09 70 3e ed e0 47 ba 64 2f 3c 3e
       -0.23074223 0.23441231 -0.0007624764 0.18377453
0002b0 22 da 2b 3e 38 be 86 bd e9 d6 04 3e 94 e9 54 be
       0.1678243 -0.0657925 0.12972607 -0.20792228
0002c0 f4 bf 34 be 06 4b d7 3d 25 41 c3 3d 2d 42 5a 3c
       -0.1765135 0.105123565 0.0953391 0.013321442
0002d0 69 f9 04 be 29 9e e3 3c 36 47 7f 3e e0 52 6c 3c
       -0.12985767 0.027785378 0.24929509 0.014424056
0002e0 5a eb f1 3d ec 32 6d be fc f2 33 bc c0 48 5e bc
       0.11812468 -0.23163956 -0.010983225 -0.01356715
0002f0 ba 7a 3f 3e a8 2d 5d bd 89 d4 48 bc 84 ca 39 3e
       0.1869916 -0.05399862 -0.012257704 0.1814366
000300 c4 d2 fe 3c 6a 0e 38 be 2b 62 75 3e 40 59 0e be
       0.03110636 -0.17974249 0.2396323 -0.13901234
000310 07 1f c4 bd e6 a8 93 3d 4e f2 ea 3d 60 64 1f bd
       -0.095762305 0.07209949 0.11471997 -0.038914084
000320 c8 ab de bd de 0a cf bd c9 2d 75 bd 90 93 ad bc
       -0.108726084 -0.101094946 -0.059858117 -0.021188527
000330 a8 1e 85 3d 2c 45 37 be 84 5f 7b be 44 68 33 be
       0.06499988 -0.1789748 -0.24548155 -0.17520243
000340 b4 f7 f5 3d 58 46 18 bd 47 e8 0a 3e 0c 44 86 3c
       0.12010136 -0.03717646 0.1356517 0.01638987
000350 e9 ca 21 be 4a 98 4f 3e 5b 1f 4c be d0 1c b7 bd
       -0.1580006 0.20272937 -0.19933836 -0.089410424
000360 57 0a 3c be 5a 67 9a 39 c8 3f 1f be d6 07 3e be
       -0.1836332 0.00029450172 -0.15551674 -0.18557677
000370 40 30 de bc a8 d6 be bd 6e 0f 58 3e c8 d8 38 be
       -0.027122617 -0.09318286 0.21099636 -0.18051445
000380 d4 e0 51 3e 97 3c 1a be ab 1a 4a be 5d ab 23 3d
       0.20495921 -0.15062176 -0.19736736 0.039958347
000390 3c a9 37 3e f8 2e b8 3d ae 00 29 be 90 8c 68 be
       0.17935652 0.089933336 -0.16504166 -0.2270987
0003a0 84 90 a5 3d 0f 94 3e be 2b 7c 96 bd 7a 4b 0a 3e
       0.08084205 -0.18611167 -0.07347902 0.13505355
0003b0 d4 a7 bf bd 2c 49 8e 3d d1 34 2c bd 60 82 ad bc
       -0.093581825 0.0694755 -0.042042557 -0.021180332
0003c0 7c b7 37 bd 17 2a 19 be c2 cb 99 3c 52 e3 60 bc
       -0.04485272 -0.14957462 0.018773917 -0.013726072
0003d0 e1 33 1a be 2a 24 05 bd e8 24 79 be 18 bc 7a bd
       -0.15058853 -0.03250519 -0.24330485 -0.061214536
0003e0 c6 d8 83 3e e4 20 af bd 7e 34 a3 3d b0 ad 92 3c
       0.25751323 -0.08551195 0.079689965 0.017905086
0003f0 42 5f 20 be f6 6c 65 be 3c a9 d1 bd 8c 2a db 3d
       -0.15661338 -0.22404847 -0.10237357 0.107014745

input_layer.bias f4 [512]
000000 6c 02 6f 3d fd 90 0d 3e 32 04 0a 3e d6 58 dc bc
       0.05835192 0.1382484 0.13478163 -0.026897829
000010 f2 f5 3d be 38 90 5c be 65 e9 c3 bd 34 ae a6 bd
       -0.18550852 -0.2153939 -0.09566001 -0.08138695
000020 41 08 81 bb 43 67 08 3e 13 1d 5d 3e 9a b1 bd 3d
       -0.0039377515 0.13320641 0.21593122 0.092623904
000030 16 c4 65 3e d1 38 19 be 92 63 b6 3d d1 f3 18 3c
       0.22438082 -0.1496308 0.0890571 0.009335474
000040 ad e5 fb 3d 54 c5 14 3e c1 d3 bd bd 80 0c 06 3e
       0.122996666 0.145284 -0.092689045 0.13090706
000050 1d 42 0e be ab 12 9e 3d be cf 5c 3d be 3f be bd
       -0.13892408 0.077184044 0.053909056 -0.092895016
000060 84 6e 1f bd ab 26 43 be 2c 35 17 bd de ee eb 3c
       -0.038923755 -0.1905772 -0.036915943 0.028800424
000070 bc a7 3a be e3 ac 04 3d fd c7 13 be 7f a6 a3 bd
       -0.18228048 0.03239144 -0.14431758 -0.07990741
000080 f9 4e 2e 3e df f6 3d 3e 31 85 36 be d2 28 6f be
       0.17022313 0.18551205 -0.17824246 -0.23355415
000090 03 ef 5c 3e b3 38 0a 3d 52 e1 bb 3d 92 a9 77 3e
       0.2157555 0.03374548 0.09173836 0.2418578
0000a0 22 0e 3a be 1e 1c 79 be 5e 63 1c bd c7 85 a5 bd
       -0.18169454 -0.24327132 -0.0381807 -0.08082157
0000b0 2d 02 71 3e 2e 6d f7 bd 74 da 16 be e2 35 9d bc
       0.23535986 -0.12081371 -0.14731771 -0.019190732
0000c0 49 19 69 3e db 1e 00 be c6 d5 a9 bd cd a3 37 3e
       0.22763552 -0.1251177 -0.08292727 0.17933579
0000d0 59 32 fe 3d a6 3d 9c bd 6d 68 41 be f0 eb a7 3d
       0.12411947 -0.07628946 -0.18887492 0.081992984
0000e0 ef a7 1b be 10 2c 91 bc 80 5f 0e bd 32 3e 0a 3e
       -0.1520078 -0.017721206 -0.034759045 0.13500288
0000f0 6c 96 71 be bd d4 52 be 3b b7 63 3d 8f 83 79 3e
       -0.23592538 -0.20588966 0.055594664 0.24366592
000100 85 27 23 3e e4 3c 88 bd 64 c4 3b 3e f1 6d 4d 3d
       0.15933044 -0.06652239 0.18336636 0.050153676
000110 c0 b4 05 be 28 33 86 3c 92 ee 1a be 1c 53 56 3d
       -0.13057232 0.016381815 -0.1513007 0.052325353
000120 79 d1 77 bc f7 fa 36 3b 58 ab 38 be 62 b5 93 bd
       -0.015125626 0.0027920583 -0.18034112 -0.072123304
000130 6f 9d 10 bd a5 cf 09 bd b8 4d e5 bd 70 6f 98 3d
       -0.03530639 -0.03364529 -0.11196464 0.0744313
000140 5c 35 31 be 14 87 bc 3d 46 5e 5b 3d 81 81 33 3e
       -0.17305511 0.092054516 0.053556703 0.1752987
000150 d3 a0 aa bd 56 d8 1d be 2a 88 77 3e 78 be 52 3e
       -0.08331456 -0.15414557 0.24173036 0.2058047
000160 6a d6 61 be 60 53 18 bd ef 3e ae bd 09 f1 28 3e
       -0.22054449 -0.037188888 -0.085080974 0.16498198
000170 cc ef 73 3e 1f 43 f4 bb 40 71 65 be eb 26 0f be
       0.23821944 -0.0074542905 -0.22406483 -0.1397969
000180 d8 26 0d be 7d 61 85 3d fa 03 05 3d d7 eb 33 be
       -0.13784349 0.06512735 0.032474495 -0.17570435
000190 ea 90 e6 3d bd 3b 93 3d ff 30 0b be d6 84 3b 3e
       0.11258109 0.071891285 -0.1359291 0.18312392
0001a0 3e d6 0c 3d c2 73 2e bc f8 73 24 3e f5 5d c9 bc
       0.034384005 -0.010647716 0.16059864 -0.024580935
0001b0 ec 8f 2e 3e 7c 5c 05 be 37 a0 84 bd f2 65 7c bb
       0.1704709 -0.13023561 -0.06475871 -0.0038512913
0001c0 84 dd fa bd fc a7 44 be 29 01 3b 3e bf 82 24 be
       -0.12249282 -0.19204706 0.18262161 -0.160655
0001d0 8d e5 da 3d 9a 23 ec bb 5a 26 38 3e 63 67 ee 3d
       0.106883146 -0.0072063925 0.1798338 0.11640813
0001e0 99 2b eb bc c6 1c 53 be 7d bf 33 3e 18 8d e6 3d
       -0.028707312 -0.20616445 0.17553516 0.1125738
0001f0 e6 af 3a be 4c 7f 2d bd 58 5e a8 3c 40 3a 1c 3d
       -0.18231162 -0.042357728 0.0205528 0.03814149
000200 c3 c0 4e bd a9 66 39 be b0 05 54 3e 6d ad 4b 3e
       -0.0504768 -0.18105568 0.20705295 0.19890375
000210 a8 7a 57 3c 55 9c b1 3d 9d 50 8a 3b e9 05 4a 3d
       0.013151802 0.08672396 0.0042210356 0.049322043
000220 e6 97 6d bd 2c ad 53 be 3d cc 28 bd 2e 75 07 3e
       -0.05800619 -0.20671529 -0.0412104 0.13228294
000230 75 cf 0c bd 1e 6b fd bd 7c 70 61 3e 56 a4 2a 3e
       -0.034377534 -0.123739466 0.22015566 0.16664252
000240 6b 35 09 3d 8d 0c 58 3e f0 ab a5 3c cc c4 70 3e
       0.03349821 0.21098538 0.020223588 0.23512572
000250 1a a8 b6 bd 01 91 ff 3c 89 f1 8c bc fb a5 d7 3d
       -0.089187816 0.031197073 -0.017205017 0.10529705
000260 99 e5 20 3e 0e 87 63 3e 02 42 32 3e c7 73 86 3d
       0.15712585 0.22219488 0.17407992 0.065650515
000270 9a 7e 52 be 16 c7 59 be 07 1e 24 bd 4d 8c d7 bd
       -0.20556107 -0.21267352 -0.0400677 -0.10524807
000280 69 11 68 3e 0e 30 29 bd c5 6d 1b be c8 1a 8d bd
       0.22662891 -0.041305594 -0.15178593 -0.06889874
000290 34 29 2c be 5f a2 ac 3d c5 cc 44 bc 8c 88 20 bd
       -0.16812593 0.08429407 -0.0120117115 -0.03919272
0002a0 5f d0 6c 3e 8c be 9c bd 64 1e 7c 3e 05 30 08 3e
       0.23126362 -0.076535314 0.24620968 0.13299568
0002b0 52 6d 00 be 16 19 b9 bc 22 8e ab bd 02 81 1d be
       -0.12541702 -0.02259497 -0.08376719 -0.15381244
0002c0 33 c8 f3 bd ea 8c 4e 3e f4 3c c2 bd 5a 06 52 3e
       -0.11903419 0.20170942 -0.09484282 0.20510235
0002d0 de 85 e7 bc 78 fc 7e 3e 8f 43 4c 3e 73 e6 a9 bd
       -0.028262075 0.24900997 0.19947647 -0.08295908
0002e0 23 63 f3 3d f2 35 c0 bd c7 32 06 3e 02 21 45 3e
       0.11884143 -0.09385289 0.13105308 0.19250873
0002f0 69 cc 69 3c 76 1d 0b 3e f8 f1 08 be 80 3a ea bd
       0.014269927 0.13585457 -0.13373554 -0.11436939
000300 72 23 75 3d 6b 05 64 3e 61 8c f4 3d 0d b7 4f 3d
       0.059848256 0.22267692 0.11940838 0.05071168
000310 97 5a 2c 3d d8 4e c1 3d 50 65 c2 bd 8d a8 b8 bd
       0.04207858 0.094388664 -0.0949198 -0.090165235
000320 91 7b bd 3d 62 49 35 be 3c 2e 38 3c 82 3e 22 3d
       0.09252084 -0.17703775 0.011241492 0.039610393
000330 ec f7 cb 3c c0 f2 05 3e d5 d4 65 3e 10 9f b8 bc
       0.024898492 0.13080883 0.2244447 -0.022536784
000340 ab 8a 43 3c 65 87 4c be 35 ba 81 bd 55 ad b1 3d
       0.0119349165 -0.19973524 -0.06334344 0.086756386
000350 7c 4d 1c be 4d 56 12 3e fb fd 10 be 52 77 30 be
       -0.15263933 0.14290734 -0.14159386 -0.17233017
000360 cc 97 11 3e e9 2a 69 be 50 01 02 be f1 5e cf 37
       0.14218062 -0.22770275 -0.12695813 2.4720533e-05
000370 1b 60 cf 3d f2 34 04 3e 1c ba 2f 3e 13 62 0a bc
       0.101257525 0.12910822 0.17160839 -0.008446234
000380 bc 07 4c 3c 42 21 2c be bb ce 08 be e4 fe b1 3d
       0.012453016 -0.16809562 -0.13360111 0.08691195
000390 c4 57 03 3e 3c e3 65 be 8e f4 27 be 62 41 d0 bd
       0.12826449 -0.22449964 -0.16401884 -0.10168721
0003a0 01 d9 d4 3c 59 d3 63 3d 6e e6 ae bc 4f 96 1a 3e
       0.025982382 0.05562148 -0.021350112 0.150964
0003b0 03 a8 04 3d b5 3a 3f be 5a 39 2d be 75 c1 f1 3d
       0.03238679 -0.18674739 -0.16916409 0.11804477
0003c0 a5 16 c2 3c ab 64 08 3e ba e4 a1 3d 65 82 38 be
       0.023692438 0.13319652 0.07904954 -0.18018492
0003d0 0c 07 58 3e 68 3b 82 3c 67 c0 5b be 28 46 a4 3d
       0.21096438 0.015897468 -0.21460114 0.08021194
0003e0 52 16 a9 3c 66 5b 12 be e0 75 69 be 0c 33 04 be
       0.020640526 -0.14292678 -0.22798872 -0.12910098
0003f0 40 50 71 3c ab 9f 41 bd 0d 60 86 bd 6a 2b 6c 3d
       0.014728606 -0.047271412 -0.06561289 0.05765859

output_layer.weight f4 [1, 512]
000000 73 aa c2 bb c4 b4 1e bd fb 73 e7 bc 60 d4 9a bc
       -0.0059407293 -0.03874661 -0.028253546 -0.018900096
000010 2a 9d b7 bc f5 6f 0e 3d 71 f5 fa bc 08 f1 1c 3d
       -0.022413809 0.03477474 -0.030634614 0.038315803
000020 cf 3e 25 bd a8 e7 00 be b5 67 a6 3b fd 26 9b bd
       -0.040343102 -0.1258837 0.005078281 -0.07575796
000030 2f d9 6a 3c 2a 63 16 3d 16 8c 8b bd 32 2f e7 bd
       0.014334007 0.036715664 -0.06813829 -0.11288299
000040 3b bc ec bd 80 ce c1 bb db 14 d4 3a 44 a9 8e 3d
       -0.115593396 -0.0059145093 0.0016180532 0.069658786
000050 e7 9a 8b 3b 7b fc f7 bc 89 3a 02 3c c7 d6 95 3d
       0.004260409 -0.03027176 0.007948526 0.07316356
000060 58 89 7a bd d6 47 3f bc 21 9e 5f 3d 64 ee b7 bc
       -0.061166137 -0.011674842 0.054594163 -0.02245254
000070 22 c5 80 3c 77 f5 4b 3c 8c f0 56 bd d9 ca f6 3d
       0.015719 0.01244866 -0.052475497 0.12050409
000080 c6 9a 58 3d 27 a9 05 3d 70 8b 0b bb 25 e8 a1 3c
       0.05288198 0.03263202 -0.0021292828 0.019764015
000090 48 46 ee 3c da fa 16 bd bd 03 a2 3c c8 5c be 3b
       0.029086247 -0.036860324 0.019777173 0.0058094
0000a0 61 39 a1 bc fc 0e 87 bd e9 39 d2 3c 36 65 8a bd
       -0.01968068 -0.06594655 0.02566238 -0.06757586
0000b0 ce f7 1f bc 27 3c be 3c 92 62 e2 bc 3a c0 21 3d
       -0.009763671 0.023222042 -0.027634893 0.039489962
0000c0 74 c7 37 3d 89 09 29 3a 3a 45 80 3d 69 a6 1c 3c
       0.044867948 0.0006448259 0.06263204 0.00956116
0000d0 7d 7a 03 bd 87 04 08 bd 8b af e3 ba fe df 5a 3c
       -0.032099236 -0.033207443 -0.0017371041 0.013359068
0000e0 66 08 a2 3c 70 2c dd 3d a2 a2 33 3d b6 7a 37 bd
       0.019779395 0.107994914 0.04385627 -0.04479476
0000f0 85 d2 00 3d af 41 f1 bc a8 c7 04 3d 64 1d a0 3d
       0.031450767 -0.029450266 0.03241697 0.07818106
000100 27 70 0b be d9 28 da 3d ee 51 d1 3d ea 67 88 bd
       -0.13617001 0.10652322 0.10220705 -0.06660445
000110 ed 30 56 bb 58 ed 9a bd 03 90 82 3d 52 1d 53 bd
       -0.003268297 -0.07564801 0.06375124 -0.051541634
000120 0c d9 2b 3c 37 45 9e 3d 63 c6 97 3b ce 85 0a bd
       0.01048876 0.077280454 0.004631804 -0.033819012
000130 0e 17 91 3d ee 42 3e 3d 8f 6c 9e bd 0d 52 b8 3d
       0.070844755 0.046450548 -0.0773555 0.09000025
000140 ed 8e 01 bd ae 3f b2 3d 7b 19 58 bc f9 8e 4b 3c
       -0.031630445 0.08703552 -0.013189669 0.012424224
000150 28 5f df bc 06 99 5a bc 48 59 82 3d 17 db a1 3c
       -0.027267054 -0.013342148 0.06364685 0.01975779
000160 ed 24 d4 3b 70 1b 87 bd db 69 8d 3c 22 01 da bb
       0.0064741285 -0.0659703 0.01726239 -0.006652967
000170 37 04 5d bc 1c 73 95 bb 7d 8a 79 3b bc eb ab 3c
       -0.013489774 -0.0045608412 0.003807693 0.02098643
000180 8d ed 87 bc 8d 36 8e bb 8a 72 bd bc f3 6f 5a 3d
       -0.016592765 -0.004339999 -0.023125906 0.05332942
000190 90 b4 bf bc 5d 4d 55 3d 59 0c 9b 3c 4c 55 a7 bd
       -0.023401529 0.052075732 0.018926786 -0.08170566
0001a0 a4 d2 18 3d a6 2f c4 bc 28 d7 f2 bd 4b 79 9c 3b
       0.037310258 -0.023948502 -0.11857444 0.0047752014
0001b0 18 70 df 3c a0 50 b0 3d 6b eb 88 3d 41 bd 32 bc
       0.02727513 0.08609128 0.066855274 -0.010909379
0001c0 62 01 f0 bd 8e 00 14 3c c0 9f 3f 3d 15 52 2c bd
       -0.11719014 0.009033335 0.04678321 -0.042070467
0001d0 03 83 cc 3d 08 ae e2 bd cd a6 f4 3b 99 89 49 bd
       0.09985926 -0.1106835 0.0074661733 -0.04920349
0001e0 ac 4c 33 bd e9 0a 1e bc e7 1e 46 3c c9 be 31 3c
       -0.043774292 -0.009646156 0.012092329 0.010848709
0001f0 6a 7a 27 3d 1d 1f 63 3d e1 ca 16 bd 42 cc d7 3d
       0.040888228 0.055449594 -0.036814574 0.10537006
000200 a2 cb cc bc a1 7c 92 bc 7d 31 17 3d d5 88 a8 bc
       -0.024999443 -0.017881693 0.03691243 -0.02057306
000210 51 28 ef bc 7a e1 00 3b 0d 55 7b bd e4 62 18 3d
       -0.029194029 0.0019665645 -0.061360408 0.037203684
000220 4d d5 3f 3c c1 c3 72 3c 32 01 07 3d d1 48 9c 3d
       0.01170857 0.014817179 0.032960124 0.07631076
000230 3a 6e f6 b9 f3 1f f5 3d b7 25 56 3d 38 14 0e bd
       -0.00047002902 0.119689845 0.05228206 -0.03468725
000240 e8 86 ab bc a2 e9 c2 3d f9 fd 0c bd 1c d5 89 3d
       -0.020938352 0.09517218 -0.034421895 0.067301005
000250 9c 79 b4 3d d3 77 37 3d c4 a5 a4 ba 1c ed 33 be
       0.08812258 0.044792008 -0.0012561609 -0.17570919
000260 14 09 13 3d 1c 13 d4 bc 48 e7 4b bd b0 f1 65 3d
       0.03589733 -0.025888018 -0.049781114 0.056138694
000270 3f b6 d5 bc 64 39 99 bc 5b 6d d4 bd 13 ff 3b bd
       -0.026087878 -0.018704124 -0.103724204 -0.045897555
000280 ee 19 05 3e 00 a5 c6 bc 79 11 18 bd 0f 77 34 3d
       0.12998173 -0.0242486 -0.03712604 0.044058856
000290 cb cd 60 3d 9b 6d 48 3b 89 13 80 3b 6f 25 94 bd
       0.05488376 0.0030582908 0.003908579 -0.072337024
0002a0 c5 a4 ae bd 20 1c a7 bb ef 5e 75 bd ac 6a 59 bd
       -0.08527521 -0.0050997883 -0.05990499 -0.053080246
0002b0 7b 66 b4 bb 76 45 5e 3c fe 38 4e 3c 2f fb a1 3d
       -0.0055053807 0.013566365 0.01258683 0.079092376
0002c0 08 71 3b 3c 87 c2 bc 3c 19 f8 8b bc c7 be 8c 3c
       0.011440523 0.023041977 -0.017086076 0.017180813
0002d0 28 92 b4 bc 57 86 16 bd 8b e9 26 bc 52 6e 01 3e
       -0.022042349 -0.03674921 -0.010187517 0.1263974
0002e0 c4 69 45 bd 41 31 22 bd db 4e a4 bc 8d c3 54 3d
       -0.04819657 -0.039597753 -0.020057132 0.051944304
0002f0 94 f1 51 bc c7 2f ac bd 30 d5 18 3d 0d d5 2a bd
       -0.012813944 -0.0840755 0.037312686 -0.041707087
000300 6a 24 3f 3b 19 48 20 bd 3a 4e 63 3d 63 31 5d 3c
       0.0029165992 -0.039131258 0.055494525 0.013500544
000310 31 ca a9 3d bd d3 7f bd be 4d 9f 3c cb ba 10 bd
       0.08290518 -0.06245779 0.01944625 -0.03533439
000320 f6 cd f4 3d 74 48 29 bc f1 5e 3d bc 00 95 5e bd
       0.119533464 -0.010332216 -0.01155828 -0.054341316
000330 d6 98 b3 3c 61 a3 8c bd 3c bf ec bc 9a ff f2 3c
       0.021923464 -0.068670996 -0.028899781 0.029662896
000340 66 1b 95 bb bf a3 07 3c 5e 8e 56 bc b6 b4 4a 3d
       -0.0045503853 0.008278786 -0.013095466 0.049488746
000350 30 6b 99 bb de fd 9c 3b 16 7f 98 3d 31 1c 8e 3d
       -0.004681967 0.0047910055 0.07446115 0.06938971
000360 1c e0 79 bd d7 9d 9f bd 0a 13 bf bd 7a dd 05 bd
       -0.061004743 -0.077937774 -0.09329803 -0.03268192
000370 bf fb 11 3d d8 e5 54 3d dc 9d 96 3d f4 40 13 bc
       0.035640474 0.05197701 0.07354328 -0.008987654
000380 cb 05 9d bd 79 86 be bb f7 9d 70 bb 08 9d a6 3c
       -0.076671205 -0.0058143702 -0.0036715248 0.02033855
000390 45 34 26 bb 10 8f 27 bc 49 0b 15 bd 95 26 28 bc
       -0.0025360745 -0.01022698 -0.036387715 -0.010263105
0003a0 e0 55 ee 3c 55 bf 4c bd b4 03 ca bd d0 b0 69 3d
       0.029093683 -0.049987156 -0.098639876 0.057053387
0003b0 5b 86 a7 3d ee 4a 97 bc f3 02 6d bb ac 21 3a 3c
       0.08179923 -0.018468346 -0.0036165088 0.011360567
0003c0 e8 8c 07 3d cc c0 4b 3c f8 9b 27 3c 4c 84 c9 bc
       0.033093363 0.012436103 0.010230057 -0.024599217
0003d0 41 ec 39 bd ec 5e 8d bd 1c 9b 0e bd 7e a6 a9 3d
       -0.045391325 -0.069028705 -0.034815893 0.08283709
0003e0 8d 82 7e 3c 13 4e 83 3c b1 46 9e bb 48 01 07 bd
       0.015534055 0.01602844 -0.0048302044 -0.032960206
0003f0 60 7a fd 3b 7b 36 9a bd b7 a2 0a bc e8 be 8e 3d
       0.0077355355 -0.075299226 -0.008461646 0.06970006
