data/baumgartner_C-N/benzamide_emulator/benzamide_bm_predictor_4.pt (torch, 38367 bytes, 3 tensors)

input_layer.weight f4 [512, 16]
000000 bd 8d b0 bd 93 3a 3d 3e d8 16 60 bd da 1a 72 3e
       -0.086207844 0.18479376 -0.054709285 0.23643056
000010 bd 11 45 3e 76 a4 0a be 5b c5 ca 3d 80 e1 db 3c
       0.19245048 -0.135393 0.09900924 0.026840925
000020 92 2e 57 3e 18 71 19 bd f3 ae 9f 3d f8 cc ec 3d
       0.21013859 -0.03746137 0.07797041 0.11562532
000030 88 0d a0 3d a2 36 61 be cd 53 7a be 60 27 13 3d
       0.07815081 -0.21993497 -0.2444603 0.035926223
000040 62 38 8c bd c0 9e 24 3e 54 95 2b 3e 2e 39 61 3e
       -0.06846692 0.16076183 0.16756183 0.21994469
000050 70 ff 5b be ae 3a 12 be 8c d0 c9 bd de f4 20 3e
       -0.2148416 -0.14280197 -0.0985423 0.1571841
000060 f8 b4 ea 3d b6 b9 03 3e 5d 15 d0 bd 58 15 1c bd
       0.11460298 0.12863812 -0.10160325 -0.038106292
000070 c8 ac 34 3e 10 9e 8a 3c fe 3a 2c be a0 94 91 3c
       0.17644036 0.016921073 -0.16819379 0.017771065
000080 5d e9 50 be 20 f0 bc 3d 92 34 59 bd fb 8e 30 3d
       -0.20401521 0.09225488 -0.05302865 0.043105107
000090 00 7c 57 3e dc fe 27 3e 1c 53 58 bd 98 34 a3 bd
       0.21043396 0.16405815 -0.052813634 -0.07969016
0000a0 d7 c5 39 3e 7a 9e 04 be a1 07 d5 3d 20 28 4c bd
       0.18141876 -0.12951079 0.10401846 -0.049842954
0000b0 20 b4 c3 bd 78 4f ac 3d 1e dc 75 be 76 29 5a 3e
       -0.095558405 0.08413595 -0.2400975 0.21304879
0000c0 65 2b b4 bd 44 8d 0a 3e 41 4e e4 bc 6b fb b3 bc
       -0.08797339 0.13530451 -0.027869346 -0.021970471
0000d0 3b 1d 0c 3d eb 91 01 3e 3e 6a 11 3e 30 b9 81 bd
       0.034207564 0.1265332 0.14200684 -0.0633415
0000e0 1f 52 62 3e 60 c0 21 be b0 7a 3c 3e 34 68 09 3e
       0.22101639 -0.15796041 0.18406177 0.13418657
0000f0 7c f4 da 3d 26 5f 0f be 1f bd 3e be 5c aa c6 3d
       0.10691163 -0.1400114 -0.18626831 0.09700462
000100 27 09 0f 3e c4 84 14 bd b9 1f 00 3c 9d b2 1c be
       0.13968335 -0.036259428 0.007820063 -0.1530251
000110 67 d8 1b bd 9b f4 f1 bc 27 81 06 3d 6e a3 53 3e
       -0.038048174 -0.029535582 0.032838013 0.20667812
000120 2c ae b6 bd 37 b4 56 be 1a 68 8d 3d 4c 4a 02 be
       -0.089199394 -0.20967184 0.069046214 -0.12723655
000130 fc de e6 bd 8a 21 62 3e a3 ac 24 3e 42 c7 3c 3e
       -0.11273 0.22083107 0.1608148 0.18435386
000140 eb e2 f4 bd 06 96 82 3d 78 d7 50 bd fe a0 87 3d
       -0.11957344 0.06376271 -0.050986737 0.06622504
000150 23 bd 35 bc a2 86 1f be 8a 01 b7 3d 7e c1 7e 3e
       -0.011092457 -0.15578702 0.089358404 0.24878499
000160 67 bd 7d bc b8 2d c5 3d 7c 67 32 3e 24 9d 9f 3d
       -0.015487052 0.09627861 0.17422289 0.07793644
000170 ea 86 79 3e c0 75 06 3c 82 57 b2 3d 54 ae b3 3d
       0.24367872 0.008206785 0.08708097 0.08773485
000180 55 5d 00 bc 6f bb 47 3e 66 45 cf bc f6 f5 51 be
       -0.007834752 0.19505094 -0.025301646 -0.20503983
000190 48 ff 37 3e 59 0e 59 be 0e e5 6e 3e b8 c6 31 bd
       0.17968476 -0.2119688 0.23329565 -0.043402404
0001a0 82 c6 3d 3e f4 82 67 3d 84 72 30 3e 58 c8 6e 3d
       0.18532756 0.05652137 0.17231184 0.05829653
0001b0 d0 51 fa bd 7e ae 64 3e 0b da 39 be a6 fc 5b be
       -0.12222636 0.22332188 -0.18149583 -0.21483096
0001c0 10 86 78 be cd a4 33 3e 7c df 33 3e 7f f5 3e be
       -0.24269891 0.17543335 0.17565721 -0.18648337
0001d0 c5 c9 7d 3e ca 50 ef 3b 42 f9 42 3e b0 af 88 bc
       0.24784 0.007303332 0.19040397 -0.016685337
0001e0 bf 3d 1c 3e 40 f2 05 3d f7 51 72 be d0 ea 54 be
       0.1525793 0.03270173 -0.2366408 -0.20792699
0001f0 ae 45 6e 3e 1c 7a c5 3d bc b5 6a 3d b8 b3 51 bd
       0.23268768 0.09642431 0.05730222 -0.051196784
000200 05 75 43 3e 97 4d 72 be 17 39 ff 3c ea 2e 84 bd
       0.19087608 -0.2366241 0.031155152 -0.06454261
000210 48 ba 8c 3d a6 42 10 3e 8e c4 c5 bd 6c 72 1c be
       0.06871468 0.14087924 -0.096566305 -0.15278023
000220 a9 6d 30 3e 57 12 28 3e dd 5b 7a 3c da 6d 53 3e
       0.17229332 0.16413246 0.015280691 0.20647374
000230 e6 ed 6c be c0 27 2d 3e 34 d8 0a be 68 97 3d 3e
       -0.23137626 0.16909695 -0.13559037 0.18514788
000240 6e 50 76 3d 0a ee 3a 3e 71 e4 08 be 97 d6 4c 3e
       0.060135297 0.18254867 -0.13368393 0.20003735
000250 50 b0 bd 3d 2f b1 d1 bd 57 4d 07 be ae d6 59 be
       0.092621446 -0.10238873 -0.13213097 -0.212733
000260 af 6f 77 be 6a ad 91 3c 74 dd 44 be 90 2c 92 3d
       -0.24163698 0.017782886 -0.19225103 0.07137406
000270 88 69 01 3d 2c 73 10 be 70 a7 6d 3d ea 47 19 3e
       0.031594783 -0.14106435 0.05802101 0.1496884
000280 23 16 f2 3c 6d 07 3b 3d 92 b0 f1 3d eb 21 5f be
       0.029551571 0.04566138 0.11801256 -0.21790282
000290 87 b4 f8 3d 36 cc f9 bd 1c 00 bd bc 1a 45 6b be
       0.12143808 -0.12197153 -0.023071341 -0.22975579
0002a0 c1 6f b9 bd 4b 3c 02 3e bf a4 e6 3c f0 f3 4e 3d
       -0.090545185 0.12718312 0.028154729 0.050525606
0002b0 36 1a 0a be 94 00 75 3e 27 4e 7a 3e d0 a7 5b 3d
       -0.13486561 0.23926002 0.24443875 0.053626835
0002c0 94 6c 58 be 06 9b 22 3e 35 2a a8 3d d1 3d d3 3d
       -0.2113517 0.15879449 0.08211175 0.10314525
0002d0 7d 25 76 bd 7a 64 27 be 7d e7 d3 bd ce c7 0d be
       -0.060094345 -0.16346923 -0.10346887 -0.1384575
0002e0 d5 ef 2a 3e a4 52 58 be 94 56 52 bd 04 68 bc 3d
       0.16693051 -0.21125275 -0.0513521 0.09199527
0002f0 96 40 5b 3e d4 83 b2 bd 65 f8 ca bd 94 a6 7c be
       0.21411356 -0.087165505 -0.09910659 -0.2467292
000300 3f 82 65 3e cb 0a 7c be 49 4a 20 be 3a 90 20 be
       0.22412966 -0.24613492 -0.15653338 -0.15680018
000310 48 f5 50 be 20 b1 0b 3e 33 e6 cc 3d e4 3f 15 be
       -0.20406067 0.13641787 0.100048445 -0.14575154
000320 c6 c5 43 be 06 67 36 be 20 52 1e be 38 a6 5a 3d
       -0.19118413 -0.17812738 -0.15461016 0.053381175
000330 a6 7d 5b be 48 a7 e4 3d 9d 54 4c 3e 20 8e 46 3c
       -0.2143465 0.11164719 0.19954152 0.012118846
000340 2d 55 78 be ed c3 a4 3c 0f ab ad 3d 50 a0 23 be
       -0.24251242 0.020112956 0.084798925 -0.15979123
000350 d7 b8 5b be 4c f8 e5 bc 91 36 b0 bd f4 b4 8e 3d
       -0.2145723 -0.028072499 -0.08604158 0.06968108
000360 3a d3 30 be 2e da 4d 3e 37 1b 8f 3d 48 6c b6 3d
       -0.17268077 0.2010276 0.06987613 0.08907372
000370 d4 f7 64 3e 60 bf a3 3c 07 91 37 be 80 a1 2d be
       0.22360164 0.019988716 -0.17926417 -0.16956139
000380 fb 79 ae 3d 39 a3 94 bb e4 ca 44 3e 7e f9 7e be
       0.0851936 -0.004536059 0.19218022 -0.24899861
000390 e7 e3 3d 3e d2 b9 01 be bc 97 29 be 2c a7 26 3e
       0.18543969 -0.12668541 -0.16561788 0.16274709
0003a0 b8 7c 17 3d b2 f2 5e 3e c0 55 2d 3c 74 4a ff bd
       0.036984175 0.21772268 0.010579526 -0.12465373
0003b0 50 27 35 bd 70 bc 4c bd 2a 07 4c be ae 25 51 3e
       -0.044226944 -0.049984396 -0.19924608 0.2042453
0003c0 d6 6b fa bc d6 a2 77 bd 6d 56 4a 3e 06 d8 1d be
       -0.030568998 -0.060458027 0.19759531 -0.15414438
0003d0 60 0c b2 bc d0 66 0f be a9 4e 6c bd a0 be 64 3c
       -0.021734416 -0.14004064 -0.057692204 0.013961464
0003e0 64 c2 7b 3c 6c b9 8b bb f6 43 1a be 70 e5 7c be
       0.015366171 -0.0042640474 -0.15064988 -0.24696898
0003f0 20 6c a1 bc 44 aa 31 be d7 21 2a be 60 13 64 bc
       -0.019704878 -0.17350107 -0.16614471 -0.013920635

input_layer.bias f4 [512]
000000 03 c0 64 be 3a eb 2b 3e 5d d5 8d bd 56 6d d9 3d
       -0.22338872 0.1678895 -0.069254614 0.10616557
000010 0b 96 cd bc da 79 be 3d 71 ba b1 3d 78 45 ee bd
       -0.02509596 0.09300585 0.08678139 -0.11634344
000020 66 0a 32 be 4f 91 6a 3e 0a 36 1a bd cf e5 d7 3d
       -0.17386779 0.22906993 -0.037649192 0.105418794
000030 b7 0b 4d 3d a3 42 29 3e 04 1e 6c be fa 81 d2 bc
       0.05006 0.16529326 -0.23058325 -0.025696743
000040 c4 70 ba bd 72 0a 02 be 2a 25 78 3e 97 a9 7a 3e
       -0.091035396 -0.12699297 0.24232927 0.24478756
000050 c5 e4 5b bd 57 8a b5 3d d7 9d 04 3e 42 4e 20 bc
       -0.05368497 0.08864277 0.12950836 -0.009784283
000060 e5 62 01 bd 4c d8 14 3e 17 5d ad 3c 64 81 be bb
       -0.031588454 0.14535636 0.021162553 -0.0058137644
000070 45 de f1 3b d8 5b 6c be 78 6b 18 be 9d 74 70 3e
       0.007381233 -0.2308191 -0.14884746 0.23481984
000080 2a 36 7c 3e 0f 54 f4 3d 4a 47 68 be 25 3f 98 3d
       0.24630037 0.119300954 -0.22683445 0.07433919
000090 d1 f5 5d 3e 4d b5 b0 bd 55 10 31 be 13 d5 02 be
       0.21675803 -0.086283304 -0.17291386 -0.12776594
0000a0 d3 3a 33 be 5a 44 71 3c 05 52 73 3c 9b f6 76 be
       -0.17502908 0.014725769 0.014851098 -0.2411751
0000b0 71 20 00 3e 21 6c 08 3e 64 9c b8 bc b1 2d 52 3e
       0.12512375 0.13322498 -0.02253551 0.20525242
0000c0 8d c9 1a 3e 66 9d b6 3d 93 bd d2 bd 63 18 65 3e
       0.15115948 0.0891674 -0.10290065 0.22372584
0000d0 d9 97 6e be 60 f2 f2 bd 41 ea 1d be c7 18 8b bd
       -0.23300113 -0.118626356 -0.15421392 -0.06791835
0000e0 4e ba 90 bd d2 10 6d bd a4 37 46 3e e6 cc c7 3d
       -0.07066785 -0.05787737 0.19357163 0.09755878
0000f0 63 00 09 be c3 1f 1a be e3 c8 d9 bd 26 46 0b be
       -0.13379054 -0.15051179 -0.10634019 -0.13600978
000100 f2 86 56 3d 84 58 d8 bd bc 50 ea bd b0 8e 18 3e
       0.052374788 -0.10563758 -0.1144118 0.14898181
000110 0f f4 76 bd 0e 9b 42 3d af bd 42 3e 80 50 51 3d
       -0.060291346 0.047511153 0.19017671 0.05110216
000120 ac c4 d1 3c 66 aa 60 3e 73 4f e9 3d 9e f2 49 3e
       0.025606476 0.21940002 0.11392107 0.19721457
000130 a9 9a e6 3d b6 ee c6 bd 3d d0 26 be bb 16 51 3d
       0.11259968 -0.09713499 -0.16290374 0.051047068
000140 6a 45 70 3e 9b 1f cb 3b be 8e 09 3e a6 ff 4a be
       0.2346398 0.006198836 0.13433358 -0.19824085
000150 24 43 d3 3d 71 90 91 3d d8 f5 06 3e 61 21 ee bc
       0.103155404 0.07107628 0.1317972 -0.02906865
000160 04 90 37 3e f1 08 56 bd f4 28 5f 3e c3 02 14 bd
       0.17926031 -0.05225462 0.21792966 -0.036135446
000170 5b 4b 39 3e c8 67 61 be d8 8b 0d be 46 fc 81 bb
       0.18095152 -0.22012246 -0.13822877 -0.003966841
000180 b5 35 50 3e 73 5c ee 3c 7f 17 71 3e f3 a7 75 be
       0.20332988 0.029096818 0.2354412 -0.23989849
000190 ea 0c 8a bd 0e d2 a2 3d 83 b1 5d 3d b2 f0 3d be
       -0.067407444 0.07950221 0.054124366 -0.18548849
0001a0 8f 25 d6 3d 01 fc 0c 3e 85 e1 56 3e c9 08 0f 3e
       0.104563825 0.13768007 0.20984466 0.13968195
0001b0 8b a3 97 bd 01 07 28 be 12 23 74 3c ca ea 50 bc
       -0.0740424 -0.16408922 0.01490094 -0.012751291
0001c0 ea 58 8c 3d 2d 53 01 be 12 cc 19 3e 79 a1 9c 3d
       0.068528965 -0.12629385 0.15019253 0.07647986
0001d0 de ba 65 3e 9e 60 57 3c 03 28 e6 bd 28 19 1b 3d
       0.22434565 0.013145594 -0.112381004 0.037865788
0001e0 a3 e4 c6 bd 29 30 d5 bd 50 e5 99 3d 90 70 62 be
       -0.09711578 -0.104095764 0.07514441 -0.22113252
0001f0 fd 9c 04 be ac af 18 3c 65 05 6c be 24 53 28 3e
       -0.12950511 0.009319227 -0.23048933 0.16437966
000200 b9 67 03 bd 59 62 74 3b eb 14 c2 bd d9 66 0b be
       -0.03208134 0.0037290065 -0.09476646 -0.13613452
000210 f8 df 1f be bb 8d 5f 3e 40 e8 a8 3d af c1 62 be
       -0.15612781 0.2183141 0.08247423 -0.22144197
000220 99 3c 2c be 63 3d 11 3e 74 d5 48 be 7e 5e 58 3e
       -0.16819991 0.14183573 -0.19612676 0.21129796
000230 69 07 c7 bc 41 a4 ac bc 61 30 f7 bd a3 5c 13 be
       -0.024295526 -0.021074416 -0.120697744 -0.14390807
000240 42 52 1d be 42 65 3c be e9 e7 1f 3e bb 51 5d 3e
       -0.1536341 -0.18398002 0.1561581 0.21613209
000250 9a e4 e5 bd 51 a7 df 3d f2 b9 f6 3d 8b 82 3a be
       -0.11225243 0.10920585 0.12047185 -0.1821386
000260 93 06 30 bb fe c1 51 3d 1e f4 80 3e 3a 8b 4e be
       -0.0026859387 0.051210396 0.25186247 -0.20170298
000270 6b e5 e7 3d cc c4 23 3e fe e7 16 3e ea 6c 0f 3c
       0.11323055 0.15993041 0.14736935 0.0087539945
000280 3d 5c 02 3e 70 3a 9b bd 0f 8f 52 3e e5 4f 2e be
       0.12730499 -0.075795054 0.20562385 -0.17022665
000290 5b bb ae 3d ec 94 09 be 43 53 99 bd c6 c1 34 be
       0.08531829 -0.13435715 -0.07486584 -0.17652044
0002a0 e4 b0 0d 3e f6 c3 27 3c 10 34 6c 3d 3f 01 68 bc
       0.1383701 0.010239592 0.05766684 -0.014160453
0002b0 5c ba 27 be 88 b4 31 3d d4 12 c9 bc 82 1d 71 be
       -0.16379684 0.04338506 -0.02454511 -0.23546413
0002c0 ce 69 4f be fd aa 18 3d 8a db 29 be 84 9d 3e 3d
       -0.20255205 0.037272442 -0.16587654 0.046536937
0002d0 1f ba 05 be 8a 78 6a be ab a6 71 be 73 7b 80 bd
       -0.13059281 -0.22897545 -0.23598735 -0.06273546
0002e0 35 e8 5e 3d ca 05 78 be b8 22 0b 3e e3 a2 5e 3e
       0.05442067 -0.24220958 0.13587463 0.21741824
0002f0 18 8f ca bd 98 5a 72 3e 03 de e9 3d 5a 1d 52 3e
       -0.09890574 0.23667371 0.114192985 0.20519009
000300 6d 80 77 3e 6a 9c 24 3e 69 bb 8f bd 1a 1f 57 be
       0.24170084 0.16075292 -0.070181675 -0.21007958
000310 ed 40 78 3e 7d c1 b2 bd a9 e5 5c 3e c3 03 47 be
       0.24243517 -0.08728311 0.21571983 -0.19435029
000320 e4 4c 55 be be d3 29 3e ad 6d c9 3d 8e 34 44 be
       -0.20830113 0.1658468 0.09835372 -0.19160673
000330 6e 30 6d 3e 79 2d 0e be 70 f7 c6 bd 84 e7 01 3e
       0.23163006 -0.13884534 -0.09715164 0.12685972
000340 a3 32 2e 3e 35 c1 16 be 89 64 80 3e e2 58 29 3e
       0.17011504 -0.1472214 0.25076702 0.16537812
000350 6a 9a 79 bd c4 54 1d be 92 09 2a be 54 d4 7f bd
       -0.060938276 -0.15364367 -0.16605213 -0.06245835
000360 9b 2e 3a 3e ff 7e 61 be e7 55 09 3e af 0e 4b bd
       0.18181841 -0.22021101 0.13411675 -0.04957455
000370 4a 6b b3 3d 02 1c 7f 3e 97 a7 05 be 18 36 00 be
       0.08760698 0.24913028 -0.13052212 -0.12520635
000380 63 54 5b 3e 78 55 33 be 5c 52 65 be 8f 2d f2 bd
       0.2141891 -0.17513072 -0.22394699 -0.11825096
000390 ea 99 d9 3b 6e db 0d 3d b6 1c 65 be c9 69 1a 3e
       0.0066406624 0.034633093 -0.22374234 0.15079416
0003a0 ba 19 05 be 5d 25 4c 3e 15 cc ee 3d 17 9c fd bc
       -0.12998095 0.19936128 0.11660019 -0.030958219
0003b0 b7 3a bf bd b9 6f cc 3d ab 03 ce 3d a1 c2 f5 3d
       -0.09337371 0.09982247 0.10059293 0.12000013
0003c0 66 a8 9f bc 37 5f 93 bd 94 c8 e9 bd 85 ad 6b 3d
       -0.019489478 -0.07195895 -0.1141521 0.057538528
0003d0 0b 69 99 bc 6b f4 4d 3e c3 0d 22 be 4a 67 14 3e
       -0.018726846 0.2011277 -0.15825562 0.14492527
0003e0 eb 82 4f 3e 0e f4 c8 bd f2 f7 74 be 64 2a 44 3e
       0.20264785 -0.09812175 -0.23922709 0.19156796
0003f0 3d ec 15 3e 54 98 be bd 3b 77 57 be 0a aa 4f 3e
       0.14640899 -0.09306398 -0.21041577 0.20279709

output_layer.weight f4 [1, 512]
000000 56 dc bc bc 06 6b 3b 3d 3e 0c f3 3b a7 22 18 3d
       -0.023054283 0.045756362 0.007417231 0.037142422
000010 08 00 46 3c 3f bb e2 bc 09 d4 04 bd be 11 03 bd
       0.012084968 -0.027677177 -0.032428775 -0.031999342
000020 7a 4d c7 3c fd 08 76 bd de a7 d1 3d 8a bf 2f 3c
       0.024328936 -0.060067166 0.10237096 0.010726819
000030 49 2b 0f bd 09 f8 b6 bb e6 23 67 ba e7 a8 34 3d
       -0.03495339 -0.0055837673 -0.00088173 0.04410639
000040 a8 d4 01 bc b5 6a 94 3d 6a a2 8d bd 1f 4e 1c 3e
       -0.007924236 0.07246915 -0.06915744 0.15264176
000050 9b 5d 05 3c 88 cd 34 3b ab b7 10 3d 8b b0 05 bd
       0.008139993 0.0027588326 0.03533141 -0.032639068
000060 26 a2 32 bd 9f ca b2 bd 1c 1c 8b bc ea a3 1f 3c
       -0.043611668 -0.08730053 -0.016981177 0.00974367
000070 58 c2 b7 3c 38 16 80 3c f3 64 9d 3d 1f 2b 93 bd
       0.022431538 0.015635595 0.0768527 -0.07185959
000080 27 0a 5e 3d 4c 24 ff 3d 31 4a 8d 3d d6 9a fe 3c
       0.0542089 0.12458095 0.068989165 0.03107969
000090 b0 39 04 be 3f f3 ad 3c a3 77 56 3d cb 1a 0c bd
       -0.12912631 0.021234153 0.05236019 -0.03420524
0000a0 f3 e9 07 3d 7f f8 6f bd 09 25 6c bd f4 3f 24 bd
       0.033182096 -0.058586594 -0.057652507 -0.040100053
0000b0 7d 4d 95 bc 92 c1 97 3d c0 7b a2 bd b3 67 bc bc
       -0.018225426 0.074099675 -0.0793376 -0.022998666
0000c0 80 c5 3c bd 07 36 9a 3c 9c 4a 1f bd e1 58 3e bc
       -0.04608679 0.01882459 -0.038889512 -0.01161787
0000d0 95 c2 bb bc 5e d9 4f 3d a6 80 17 bb 2e bc 35 3c
       -0.022919932 0.050744407 -0.0023117452 0.011092229
0000e0 2b f9 ff bb a7 a0 2d 3c 74 ab c6 3d bb b3 2c bd
       -0.0078116856 0.010597385 0.09700671 -0.04216359
0000f0 e2 d4 9c bd 85 d8 b0 bc 51 c1 cf bb 39 6f 6c 3d
       -0.07657792 -0.02158762 -0.006340184 0.057723258
000100 d3 eb bf bd 3f 26 07 bc 02 d1 81 bd ce 59 f3 3d
       -0.09371152 -0.008248865 -0.06338693 0.11882363
000110 8c 44 49 3c b7 c0 ed 3c e0 db 01 bd ef 7b 50 bd
       0.012284409 0.029022558 -0.03170383 -0.050899442
000120 70 ff 53 bd 8b 62 c9 bb 10 86 e8 3d 9d 59 b4 bc
       -0.051757276 -0.0061457804 0.113536954 -0.022015387
000130 71 6d 6f bd 01 36 ab bc a4 d6 76 bd a8 c0 bf 3d
       -0.05845398 -0.020899775 -0.06026329 0.09362918
000140 1f 7c 0f 3d 91 85 88 bc 3b 53 08 bd df c0 22 bc
       0.03503048 -0.016665252 -0.0332825 -0.009933679
000150 72 72 11 3d 47 8b e0 3c 5c 95 b2 bc e2 20 40 3d
       0.035509534 0.027410163 -0.021799736 0.04690636
000160 77 be 1d bd 8a 36 69 3d 87 bd 37 bd 2d b8 c9 3b
       -0.03851172 0.056936778 -0.04485848 0.0061559887
000170 d7 bb 03 bd 10 2e 26 3c 25 49 2e bc f3 dc b8 3d
       -0.03216156 0.010142818 -0.010637556 0.09026518
000180 48 5b 9b bb a0 0c ed bd da c8 05 bd 4d 57 5d bd
       -0.004741106 -0.11574674 -0.03266225 -0.054038335
000190 db 71 8f bc cf 1e 0f be a8 c0 69 bd 45 1e 0c 3d
       -0.017510345 -0.13976596 -0.057068497 0.034208555
0001a0 13 0b 19 bd d2 92 5f 3c f2 c0 2f bd 5b 9e 49 bd
       -0.037364077 0.0136458445 -0.042908616 -0.049223285
0001b0 7a 62 73 bd 39 d2 9a 3c a5 52 bc 3d a6 9e cc 3d
       -0.059420086 0.01889907 0.09195451 0.09991197
0001c0 c9 96 75 3a 7b ee 3f bc 7b 4f 5b 3d e6 87 ab 3c
       0.0009368477 -0.011714573 0.053542595 0.020938825
0001d0 f1 f5 f5 bc 9b 3a 94 bc 9b 74 de 3b 32 4b 72 3d
       -0.0300245 -0.018094352 0.006788803 0.059153743
0001e0 77 4c 95 bd b6 a4 05 3d 0c 68 9e bc e6 cf 88 3c
       -0.07289975 0.032627784 -0.019336723 0.016700696
0001f0 f5 58 f3 ba ed 18 67 3d 04 b5 03 be b5 88 9f 3a
       -0.001856594 0.056420255 -0.1286202 0.0012171479
000200 bd c3 e7 3b 8b 1d cd bd 7a 3c c4 bd 80 91 92 bd
       0.0070728944 -0.100154005 -0.095818475 -0.07156658
000210 0d c4 79 3c 32 a6 62 3b 20 b9 dc 3b 42 66 be bb
       0.015244496 0.0034583923 0.006735936 -0.00581053
000220 72 ae 10 bd 54 2d c1 ba 29 b7 a7 bc 1e 00 5d 3d
       -0.035322614 -0.001473824 -0.02047308 0.05395519
000230 fc 38 84 bc 25 a2 4e 3d 6e 51 d5 bc 75 7b 53 3d
       -0.016140454 0.0504476 -0.026039805 0.05163141
000240 d8 95 d0 bc 0a 26 af 3c e3 ab 32 3d 09 07 6f 3d
       -0.025462076 0.021380443 0.043620955 0.05835632
000250 51 1f a5 3d 70 e7 7e bc 4a 97 a3 3c a9 97 76 bc
       0.08062614 -0.015558109 0.019969601 -0.015050807
000260 97 12 b8 bc 00 09 83 bd c1 6d 10 3e 80 8d 13 bd
       -0.022469802 -0.06398201 0.14104368 -0.036023617
000270 6f ac 4b bd 7f 96 4b 3d 9a d2 cf 3c 76 d4 eb 3d
       -0.049724992 0.04970407 0.025368977 0.11515133
000280 54 a5 2c 3b 8a 2d 8e 3d a3 f2 eb 3b be 28 e4 3c
       0.002634366 0.0694228 0.0072005554 0.027851459
000290 df bd 0e 3d 9a 5e f8 3c 10 27 66 bb 74 e4 51 bc
       0.034849044 0.030318547 -0.0035118498 -0.012810815
0002a0 41 9e 3a bd 58 26 08 bc 7d bb b1 bb e1 a3 9b bd
       -0.04556108 -0.008309923 -0.0054239617 -0.07599617
0002b0 6b 56 3c bd 4e ef fa bc ef 89 fb 3c 93 6e 30 3c
       -0.045980852 -0.030631687 0.03070542 0.01076855
0002c0 5b 35 92 3d cd 44 16 3d 11 64 72 bc 46 42 47 bc
       0.07139083 0.036686707 -0.0147943655 -0.012161797
0002d0 30 71 15 bd 35 25 3d bd 66 d9 4f 3a 63 ab a8 3b
       -0.036484897 -0.04617806 0.0007928818 0.005147384
0002e0 e6 f5 d8 bb 57 f8 df 3a 33 85 c3 bc 59 53 cf bd
       -0.0066211103 0.0017087561 -0.023867225 -0.10123319
0002f0 2e 08 86 bd 62 36 f7 3d 63 a8 6b ba 79 8e 95 3c
       -0.06544529 0.120709196 -0.000898963 0.018256413
000300 84 30 b8 3d 03 1f 83 3d 5b ba ac 3d 5e 26 bc bb
       0.089936286 0.064023994 0.08433982 -0.0057418784
000310 55 93 51 3d b0 d1 06 3b bc 97 b0 bc 88 e8 9d 3d
       0.051165897 0.002057176 -0.021556728 0.077103674
000320 5c b2 22 bd 2e 3e ae 3d 8a 2f 8e bb a1 af 70 3c
       -0.039720878 0.085079536 -0.004339163 0.014690311
000330 f9 65 1c bd 5d 0c 92 3c d3 c0 77 bd 35 88 9a 3c
       -0.038183186 0.01782816 -0.060486626 0.018863777
000340 d3 94 62 3c 84 53 7d bc 88 85 8b 3c eb be 79 bd
       0.013829428 -0.015461806 0.017031446 -0.06097309
000350 f7 f6 37 bb 7a 7a b3 3c c0 95 2a bc a9 64 00 bd
       -0.0028070787 0.021908987 -0.01041168 -0.031345997
000360 b2 c1 3e bd 17 07 31 3d ba c5 30 3d 66 b0 43 3c
       -0.04657144 0.043219652 0.043157317 0.011943912
000370 5c 44 e5 3c 5f 73 d4 bd 0a 47 21 bd 57 b8 32 3d
       0.027986698 -0.10373568 -0.03937439 0.04363283
000380 a1 dc 2a bd 13 74 73 bc ef a9 28 bd 4a 81 1e bc
       -0.041714314 -0.014859217 -0.041177686 -0.00967438
000390 13 d3 07 3d 39 39 ff bd bb 9c aa 3c 6c ef fc 3c
       0.03316028 -0.12462086 0.020826688 0.030875884
0003a0 2f 76 a2 3b 9f b7 a3 3d c4 5f d6 3d 1b b6 86 3c
       0.0049579362 0.07994007 0.104674846 0.016444257
0003b0 9f 4a d7 3c 41 26 96 3c 0f 13 1a 3d 15 e4 64 3d
       0.0262807 0.018328788 0.037615832 0.05588158
0003c0 00 65 99 bc d6 43 50 bd df 84 fc 3c 8e 28 20 3c
       -0.018724918 -0.050845943 0.030825077 0.009775294
0003d0 b1 5d 5c bd b7 37 0a bd c6 f8 b4 3c 15 a1 0f 3d
       -0.05380029 -0.03374454 0.02209128 0.03506573
0003e0 9d 83 07 3e c5 41 46 bd 13 a0 dd bc c3 3b ad bc
       0.132338 -0.048402566 -0.027053868 -0.02114666
0003f0 a0 8a ce 3d d7 64 38 bb f3 fb 3f bd c7 2e ae 3c
       0.10085034 -0.0028136277 -0.046871137 0.02126254
