data/baumgartner_C-N/benzamide_emulator/benzamide_bm_predictor_2.pt (torch, 38367 bytes, 3 tensors)

input_layer.weight f4 [512, 16]
000000 16 e9 46 3e c9 3e b3 3a c6 c6 59 be 90 49 61 3e
       0.19424853 0.0013675328 -0.21267232 0.22000718
000010 54 b6 29 3d ff 75 d6 3d 17 0e 4e 3e 0c 90 b9 bd
       0.041433647 0.10471725 0.20122562 -0.09060678
000020 a5 9a c9 3d 93 db 84 3d 23 ff 67 3e 9c 59 ef 3d
       0.09843949 0.06487193 0.2265592 0.116870135
000030 b8 41 4c 3d 90 6f 1e 3d 29 89 40 3e 88 15 b7 bd
       0.04986736 0.038680613 0.18802322 -0.08939654
000040 d7 40 66 3e 74 ae bf bb 63 bd f1 3d ca 9f 01 be
       0.22485672 -0.005849654 0.11803701 -0.12658611
000050 9c ca 48 3e b8 0f 10 3e 42 43 6d 3e a0 d1 76 bc
       0.1960854 0.14068496 0.23170188 -0.015064627
000060 bf 64 29 3e 9a 37 c6 bd ac 00 81 bd c0 ca 65 bd
       0.16542338 -0.09678574 -0.06298956 -0.05610156
000070 40 aa f5 3d 30 dd 7b 3e 61 e2 1a be 22 4d 48 be
       0.11995363 0.24596095 -0.15125419 -0.19560674
000080 25 94 ff bd da 1f 6d 3e a0 15 03 bd 97 98 70 3d
       -0.12479428 0.23156682 -0.032003045 0.05873927
000090 a0 04 66 3e 06 8b 04 3e eb 17 ad 3c c2 d2 54 3e
       0.22462702 0.12943658 0.021129569 0.20783523
0000a0 68 7f 12 be b4 26 20 3d 8c 94 0d 3e 38 2e 07 be
       -0.14306414 0.03909941 0.13826197 -0.13201225
0000b0 62 03 2c be f8 fd 17 3e 64 e7 5b be 14 b0 95 3d
       -0.16798165 0.14842975 -0.21474987 0.07308975
0000c0 0f fe fb 3d 4d ce 68 be fd 24 7f be 87 0a 52 3e
       0.12304317 -0.22734948 -0.24916454 0.20511828
0000d0 a8 04 c7 3d 0d 5f c5 3d 03 e3 1e 3e f8 d5 b7 3d
       0.09717685 0.0963727 0.15516286 0.08976358
0000e0 ac 33 5b be 66 23 16 be b0 8e 48 be e8 7b a4 bd
       -0.2140643 -0.14661941 -0.19585681 -0.08031446
0000f0 2e cb 29 be f0 33 fc 3d 71 ee 0c 3e 98 2a 89 3d
       -0.16581413 0.12314594 0.13762833 0.06697577
000100 0b ea 59 be 1a b1 7c be fe 3e 42 bd 2d 84 59 3e
       -0.21280687 -0.24676934 -0.047423355 0.21241827
000110 7c 75 8f 3d 11 5a 69 3c 9a 30 10 be 48 e5 80 bd
       0.0700483 0.014242665 -0.1408104 -0.06293732
000120 06 e8 ec 3d 5d 42 57 be ae dc 75 be c0 60 86 bd
       0.115676925 -0.2102141 -0.24009964 -0.06561422
000130 96 b1 25 be 68 bf 32 be a3 49 95 bc 5c 8b 0d 3e
       -0.16181025 -0.17455828 -0.01822359 0.13822693
000140 2e 27 49 3e a0 85 03 be 56 31 1a 3d ba 94 0a be
       0.19643852 -0.12843943 0.037644707 -0.13533297
000150 c9 bd fc 3c 24 f7 65 be 16 3f 3b be 6c d2 2a be
       0.030852215 -0.22457558 -0.18285784 -0.16681832
000160 8e fe 7a 3e ef f5 b8 3d de 6c 36 3e 20 5d 73 be
       0.24511167 0.09031283 0.17814967 -0.23765993
000170 68 51 34 3d 66 aa 38 be 67 a8 ec 3b 38 f8 4d bd
       0.044022948 -0.18033752 0.0072222236 -0.050285548
000180 94 58 0c be 13 27 e2 3d 45 4d 20 be 6a 8b d5 bd
       -0.13705665 0.11042609 -0.15654476 -0.10426982
000190 8b 60 f0 bd 52 55 7d be de 9c 6e be aa 62 23 3e
       -0.11737164 -0.24739578 -0.23302028 0.15955606
0001a0 9e 27 44 be 59 1c 0a 3d f3 eb 04 3e d4 b0 e7 bd
       -0.19155738 0.03371844 0.12980632 -0.11313024
0001b0 80 3b 3f 3c 80 c1 04 3e 2a 7b cd bc 40 a0 01 bd
       0.011671901 0.1296444 -0.025083143 -0.031646967
0001c0 3c 61 57 3d 2d 54 12 3d 1e 30 84 bd 67 12 93 3d
       0.052582964 0.035724808 -0.0645449 0.07181244
0001d0 95 09 33 3e 44 a6 37 bb 72 02 04 3e f6 3c 2b 3e
       0.17484124 -0.0028022686 0.12891558 0.16722474
0001e0 f7 a1 d8 3d 8e 54 1d bd e3 1b c0 bc 78 b6 3c be
       0.10577767 -0.038410716 -0.023450797 -0.18428981
0001f0 d4 eb 5d 3e 78 c6 80 3d d7 70 6b 3e 20 a6 fb 3d
       0.21671993 0.06287855 0.22992264 0.12287545
000200 0a 11 41 be ef 6b 3e 3e b5 1a 3b 3e 71 68 dd 3c
       -0.18854156 0.18595861 0.18271907 0.02702734
000210 4d 84 72 be d1 85 64 be 4a 0f c0 3d 44 fc d1 bd
       -0.23683281 -0.22316672 0.09377916 -0.10253194
000220 71 e4 42 3e 47 da 7d 3e a7 59 88 bd 64 57 b5 bd
       0.19032456 0.24790297 -0.06657725 -0.08854559
000230 34 8a af bd 00 7b aa ba 66 eb c9 bc 04 a8 66 3e
       -0.08571282 -0.0013006628 -0.02464838 0.2252503
000240 41 ea e8 3d 49 d0 e7 bd c6 2b 6d 3e 66 10 1d 3e
       0.113728054 -0.11319024 0.2316123 0.15338287
000250 6f e9 b9 bd 26 15 00 3e 30 df 59 bc 18 71 9e 3d
       -0.09077727 0.12508067 -0.013297841 0.07736415
000260 50 24 00 3e c4 cf 4f 3e 19 8f 59 3d f0 64 d9 bc
       0.12513852 0.202941 0.053114984 -0.026537389
000270 92 4a 0c be 40 4e d2 bc 3e c7 02 bd 74 92 7b 3e
       -0.13700321 -0.025672078 -0.031928293 0.24567586
000280 fc 5b 4f bb ba bc a8 3d a2 f6 55 3e f5 fe b8 bc
       -0.003164052 0.08239122 0.20894864 -0.02258251
000290 9d 09 2b 3e 8f 34 75 3e b3 67 38 be 84 c5 2b be
       0.16702886 0.23945831 -0.18008308 -0.16774565
0002a0 79 99 91 bd 12 0e 42 be 1a 4c 0e 3c 84 dc 5f 3e
       -0.07109351 -0.1895068 0.008685136 0.21861464
0002b0 50 97 e0 bc 68 43 c2 3d 7f f1 b2 3d 50 01 4f 3d
       -0.027415901 0.09485513 0.08737468 0.05053836
0002c0 47 fe 5f bd e2 fb 15 3e 94 ff 9e bd 8a 64 c7 3d
       -0.054685857 0.14646867 -0.077635914 0.09735973
0002d0 c8 cc 64 3e 14 37 92 3d b3 05 93 3d 1a 6e 0c be
       0.22343743 0.071394116 0.071788214 -0.13713875
0002e0 06 6a 64 bd d2 2d 21 be 7a 6d f5 bd dc c8 59 3e
       -0.055765174 -0.15740135 -0.119837716 0.21268028
0002f0 74 e2 6f be 9a ca 04 be 41 da a2 bd 98 85 c6 bd
       -0.23426229 -0.12967911 -0.07951785 -0.0969345
000300 bb 09 76 3e 0c 9b 80 be 5a 3e 05 be 0a b1 a2 3c
       0.2402715 -0.2511829 -0.13012066 0.01985981
000310 5f 41 60 3e 79 bf 03 be 82 d6 50 be a8 ce 71 bd
       0.21899937 -0.1286601 -0.20394328 -0.059034973
000320 f5 c7 cd ba 07 39 38 be 0e 47 49 3e 40 6b a7 bc
       -0.0015699851 -0.17990504 0.19656011 -0.020436883
000330 b4 05 12 3e 20 8e 66 3c 01 da 7d 3b 30 53 d8 bc
       0.14259988 0.014071971 0.0038734677 -0.026406854
000340 aa b0 cb bd 50 11 6f be 4b 67 75 be 36 25 12 3e
       -0.09945805 -0.23346448 -0.23965184 0.14272007
000350 c6 00 f5 bd 5a c4 8a bd bf 6b 80 3e c0 fc 80 3c
       -0.11963038 -0.06775732 0.25082204 0.01574552
000360 11 aa 65 be 64 13 37 bd 6a de cc bc e4 d7 09 be
       -0.22428156 -0.044696227 -0.025008399 -0.13461262
000370 90 1c db bc b8 ce 47 be a9 99 f8 3d 60 5e 4e bd
       -0.026747018 -0.1951245 0.12138683 -0.05038297
000380 59 5d 7f 3d 36 90 09 bd 76 e0 12 be b1 95 32 3d
       0.062344883 -0.033584796 -0.14343438 0.043599788
000390 9c 6a 37 3e 0b bb 50 3c 8f d0 a1 3c 50 7d 06 bd
       0.17911762 0.012739907 0.019752769 -0.03283435
0003a0 db 68 26 3e 03 cb 79 3e e6 a2 26 be 50 83 5b 3d
       0.16250937 0.24393849 -0.16273078 0.053592026
0003b0 00 14 b4 b9 e0 1a 24 bc fa 9e 3b 3d 90 42 6c bd
       -0.00034347177 -0.010016173 0.04580591 -0.057680666
0003c0 95 22 8d bd 5e 30 4b 3e 5c 38 1b be 40 7f 6d 3d
       -0.068913616 0.1984267 -0.15158218 0.057982683
0003d0 db dc 5c be fd 22 2f be be 3d 50 3e 6c 2b ff bd
       -0.21568625 -0.1710319 0.20336053 -0.12459454
0003e0 92 e7 0f be e4 43 04 3e d9 e3 9e bd 6c 5e 23 3e
       -0.14053181 0.12916523 -0.07758302 0.15953988
0003f0 e8 19 1f be b4 c8 84 bd 09 f9 30 be f0 f9 bd 3d
       -0.15537226 -0.064835936 -0.172825 0.092761874

input_layer.bias f4 [512]
000000 c1 e4 0e be 8e bc f8 bd 8c 74 55 be 45 fd 6e be
       -0.1395445 -0.12145339 -0.2084524 -0.23338802
000010 2a 2a 60 be 29 bc 20 be 0a 19 e8 bc 1b dc 9f 3c
       -0.21891084 -0.15696777 -0.028332252 0.019514134
000020 de 3c 6e 3e f8 11 98 bc f5 78 ea bd a6 93 65 3c
       0.23265406 -0.018563256 -0.11448852 0.014012253
000030 5c db f7 3c 55 8a 78 3d a1 99 45 3e af 1d 4c 3e
       0.030255966 0.0606788 0.19296886 0.19933198
000040 64 78 48 3c af 77 5e 3d 51 d1 59 3e 6b 5d 7c be
       0.012235735 0.054313358 0.21271254 -0.24645011
000050 86 24 43 be c4 b0 f1 3d bf 72 71 3e da 9e ed 3d
       -0.19056901 0.118012935 0.23578928 0.11602564
000060 a0 3b 72 3e dd 73 62 3c 4b 36 a7 3d 7a ce 22 3e
       0.23655558 0.013821569 0.081646524 0.15899077
000070 35 08 0d 3d ef 01 cc 3c b5 66 b0 3d cd d7 32 be
       0.034431655 0.024903266 0.0861334 -0.17465134
000080 13 a8 0e 3d 68 26 45 3e fe f9 08 3e 2d 60 45 3d
       0.034828257 0.19252932 0.13376614 0.048187423
000090 af 80 06 3e 41 47 44 3d 9c 7e 2e be c7 19 2a be
       0.13135026 0.047919516 -0.17040485 -0.16611396
0000a0 b4 1c 7a 3e ad 95 45 be 3e cf 5c 3e 69 4f 22 be
       0.24425012 -0.19295378 0.21563432 -0.15850605
0000b0 4b ea 3b be 12 4f 6a 3e be 13 64 3e f0 6f 44 be
       -0.18351094 0.22881725 0.22273156 -0.19183326
0000c0 1e ee 78 3e de 3a e0 bd dd 0e af 3d d2 8d 0d be
       0.24309584 -0.10948728 0.08547757 -0.13823631
0000d0 c5 f0 e5 3d 7a 71 3b 3d 7e 9e 0a 3e ad d7 8b 3c
       0.11227564 0.045762517 0.13537022 0.017070616
0000e0 c9 71 13 3e 66 fc 44 bc 1c f9 a0 bd 47 84 bd 3c
       0.14398874 -0.012023067 -0.07860014 0.023134364
0000f0 50 f6 00 3e 40 24 ad 3c af 75 3e be 99 2c 9f bc
       0.12593961 0.02113545 -0.1859958 -0.019430446
000100 d2 c4 2e be 78 9c 1b 3d 9d 83 d8 bb ea 73 79 be
       -0.17067268 0.037991017 -0.0066074864 -0.24360624
000110 4f 5f 87 bd 1c bc 00 bd 27 34 6a 3e 54 11 9f bc
       -0.066099755 -0.031429395 0.22871457 -0.019417442
000120 59 ab dc bd 35 7a 8c 3d 0f 42 fd 3d ca e3 11 be
       -0.107748695 0.06859247 0.12366115 -0.14247051
000130 99 4d e9 bc 8a c7 85 bd 9e 12 98 bd 0d 1a f9 bd
       -0.028479384 -0.065322 -0.07425426 -0.12163172
000140 ec 69 3c be 31 0c d0 bc 10 98 63 3e 15 8e 64 3c
       -0.18399781 -0.025396438 0.22225976 0.013949891
000150 5c b7 e4 3c 26 a7 ff bd 97 b5 db bd eb c6 19 be
       0.027919464 -0.12483053 -0.10727995 -0.15017287
000160 e0 d1 2c be 66 37 1b 3e ed ea c0 3d fe 1b a6 bd
       -0.16876936 0.15157852 0.094198085 -0.08110808
000170 cd 65 1c be 5f e4 58 3e 44 d6 fe bd ea 93 d5 ba
       -0.15273209 0.21180867 -0.12443212 -0.0016294692
000180 2a e2 e3 bd bb 7c cc 3d d2 f5 07 be 05 83 20 be
       -0.11127122 0.09984728 -0.13277367 -0.1567498
000190 92 36 2e 3e 13 57 4e 3e 5d 79 1c be 50 65 ea 3d
       0.17013004 0.20150404 -0.15280671 0.11445105
0001a0 0f a3 11 3d c8 ed 93 3c ba f9 c0 3d e0 c5 07 be
       0.035555895 0.018057719 0.094226316 -0.13259077
0001b0 d8 98 9a bd 91 d1 64 be cd 11 5e 3d 9e 7f 54 3e
       -0.07548684 -0.22345568 0.054216195 0.20751807
0001c0 c8 c6 31 3e e9 62 d4 bc aa e3 26 3e 2c 7c a4 bd
       0.17360985 -0.02592607 0.16297784 -0.080314964
0001d0 46 a0 6a be 5d 49 e2 bd 6c 27 40 be dc 87 cf 3d
       -0.22912702 -0.11049149 -0.18765038 0.10133335
0001e0 e1 8f 77 bd f0 5c de 3d 34 96 43 3e d0 20 81 bc
       -0.060439948 0.1085757 0.19100267 -0.015762717
0001f0 be d8 1a b8 48 5b 1f be 9c 66 a5 3d a9 f9 ea 3d
       -3.6918318e-05 -0.15562165 0.08076212 0.114734
000200 94 a3 78 3e 6d ea 08 3e 36 ab 49 3e df 1f eb bd
       0.2428115 0.13370676 0.19694218 -0.11480688
000210 98 39 75 3d 24 eb 5d 3d e5 ef 6c be 26 fa 6f bd
       0.05986938 0.054179326 -0.23138388 -0.05858817
000220 48 38 10 3d a2 5a 65 bd 5b 23 c0 3c e8 c9 08 3c
       0.035209924 -0.055994637 0.023454359 0.008348919
000230 75 02 a3 3c 6f ec 33 3e 65 77 82 3c f2 d4 2b 3d
       0.019898633 0.17570661 0.015926072 0.041951127
000240 d0 e0 22 bd 12 aa 79 3e 46 66 78 bd f6 d3 31 3e
       -0.03976518 0.24381283 -0.06064441 0.17366013
000250 2b 02 df bd 5e 07 2c be ec 5d 04 bd be 7f 5e 3e
       -0.108890854 -0.16799685 -0.032316133 0.21728417
000260 a6 24 ee 3d fa 1f 78 be b5 07 53 bc fc d9 02 bd
       0.11628084 -0.24230948 -0.0128802555 -0.031946167
000270 12 d2 fb 3d b4 b1 78 be 8b 5f 6d 3e 11 c8 f7 bc
       0.12295927 -0.24286538 0.23180978 -0.030246766
000280 5d f2 5a 3e da 0f 20 3c 80 5f 65 be ce ee ae 3d
       0.21381517 0.009769404 -0.22399712 0.08541642
000290 b7 8b 6c bd 6b 0b 50 3e 15 d7 79 bb c4 9e 77 3e
       -0.05775043 0.20316856 -0.0038122584 0.24181658
0002a0 91 17 0b bd 3d d4 dc 3d a6 ee d7 3d 97 ea 2f be
       -0.03395802 0.10782669 0.105435655 -0.17179333
0002b0 1f 11 02 3d 43 aa 38 3e c1 e9 6b bd 86 f3 27 3e
       0.03175461 0.180337 -0.057595972 0.1640149
0002c0 38 39 3b 3e f3 e9 0e 3e e0 f6 07 bc 7c b7 87 3d
       0.18283546 0.13956432 -0.008298606 0.06626794
0002d0 87 95 2f 3e f6 de 63 be cb f6 4f 3e 9d 93 53 bb
       0.17146884 -0.22253022 0.20308988 -0.003228403
0002e0 a9 0d b0 3d 38 ce 7e 3e bc 4f 11 3e 27 f3 81 bd
       0.085963555 0.24883354 0.14190573 -0.06345206
0002f0 68 19 72 3e 6c 26 2c 3e f2 af ce bd bc c6 15 3e
       0.23642504 0.16811532 -0.10092153 0.14626592
000300 e8 74 78 bd 93 38 7a 3d be 2f 82 bd d5 e0 0c be
       -0.060658365 0.06108911 -0.06356762 -0.13757642
000310 db 51 37 be 68 4f bc 3d 89 e8 7c 3d e9 a1 d4 bd
       -0.17902319 0.09194833 0.0617452 -0.103824444
000320 d3 70 0e 3e 5d 61 2f 3e a7 12 6a 3e 51 4b 36 be
       0.13910227 0.17126985 0.22858678 -0.17802168
000330 8b 69 a0 3d 11 66 13 be 76 9d 6e be be fa 2c be
       0.07832631 -0.14394404 -0.23302254 -0.16892526
000340 54 5a 4c 3e 81 97 0a 3e 83 a8 fa bc 70 72 13 3e
       0.19956332 0.13534357 -0.03059793 0.14399123
000350 f8 64 01 be ed 7f 58 3e 9a 75 9c ba 2d a2 5e 3e
       -0.12636173 0.2114255 -0.0011936903 0.21741553
000360 f1 ed 62 bd 3b f2 41 3c 0f 00 c9 3c d4 23 80 3d
       -0.0554027 0.011837537 0.02453616 0.06256834
000370 76 3b 30 3e 66 57 97 bd 6b 37 70 3c 19 1c 46 3c
       0.17210183 -0.07389717 0.01466165 0.01209166
000380 c8 e6 fb 3d ba 46 43 be 4e 74 3e bc 1b 04 e8 bc
       0.122998774 -0.19069949 -0.011624409 -0.02832227
000390 d0 85 2a 3e ac f9 cd 3b a4 80 71 3e 32 50 bf 3d
       0.16652608 0.0062858667 0.23584229 0.09341468
0003a0 46 a4 c1 bd 01 d6 14 be 54 ee 33 be 16 fa 79 bd
       -0.09455161 -0.14534761 -0.17571384 -0.061029516
0003b0 41 92 ad 3d 4c d4 6f 3e 5b 89 0a bc 22 7d 0c 3e
       0.08475161 0.23420829 -0.0084556 0.1371961
0003c0 43 80 70 3e 2b 42 cf bd d0 5d 44 bd b0 cb 4f be
       0.23486428 -0.101200424 -0.04794103 -0.20292544
0003d0 91 71 58 bc db 28 83 bd eb e6 a6 3c a4 94 6f be
       -0.01321067 -0.06404277 0.020373782 -0.23396546
0003e0 01 33 58 be 91 95 71 3e 5f ed 21 be 62 70 06 3d
       -0.21113206 0.23592211 -0.15813206 0.03282202
0003f0 98 eb f0 bd 14 42 5f bd 10 e3 03 be e6 96 5e 3e
       -0.11763686 -0.054506376 -0.12879586 0.2173725

output_layer.weight f4 [1, 512]
000000 27 fd d1 bd 66 7b b5 bd 80 62 1f bc b2 80 78 3c
       -0.10253363 -0.08861427 -0.009728074 0.015167402
000010 cc 8a 5c bc bb 07 4c 3d 47 ad 38 3c 0b a5 0b bd
       -0.013460826 0.04981206 0.011271781 -0.034092944
000020 15 62 d2 bb b3 f2 6a 3c 77 54 bc 3d 4a b8 44 bd
       -0.0064203837 0.014340091 0.09195798 -0.048027314
000030 be a4 c4 3b 5c 05 8a 3c 5d 54 74 3d bb 81 16 bd
       0.006001084 0.016848259 0.059650768 -0.036744814
000040 06 0d a6 bc ab dd d8 bc 21 b6 48 3c 72 22 0b 3d
       -0.020269882 -0.026472887 0.012250454 0.033968396
000050 95 09 aa 3c d2 6d 4d bc d8 35 3d 3d 84 91 db bc
       0.020756522 -0.01253839 0.046193928 -0.026802786
000060 38 63 a7 bd b6 55 8f 3d 26 4e 89 3d 4c 49 49 3d
       -0.08173221 0.0699877 0.06704359 0.049142167
000070 a6 ca 91 3d d0 2f 4e 3d ab f3 90 3d 70 7e ca bc
       0.0711873 0.050338566 0.07077726 -0.024718493
000080 16 99 1a bd 46 ee 33 3d fb 59 9c bd 90 db 1f 3c
       -0.03774365 0.043928407 -0.0763435 0.009756938
000090 e0 60 0f bd 3e 23 be 3d 1e 8f 55 3c cc da 8f 3c
       -0.035004497 0.09284066 0.01303461 0.017560385
0000a0 fc 5a 84 3d ac 8a f7 3c 5f cd 39 bd 15 d1 67 bc
       0.064626664 0.030217491 -0.045361873 -0.01414897
0000b0 cb 47 c0 3c c0 7b 04 3d c4 71 9e bb 5d b8 03 3d
       0.023471734 0.03234458 -0.0048353393 0.032158244
0000c0 ae 6a 59 3d 33 fc f3 bb fe 2c 40 3d d8 2f 80 3b
       0.053080253 -0.007445836 0.046917908 0.0039119534
0000d0 9f c7 14 bd 50 1c 14 3d 7b 35 b9 bd f8 33 3f 3d
       -0.036323186 0.036159813 -0.09043404 0.04668042
0000e0 d4 44 3a bd 80 f1 e7 3c 3c 54 4d bd a5 bf 0c 3c
       -0.045475796 0.028313398 -0.05012916 0.0085906135
0000f0 f9 94 8a bd 7a 8a 88 bd 8d 76 17 bc b2 c4 2d 3c
       -0.067666955 -0.06667037 -0.009244573 0.010605978
000100 e5 e0 0e 3c 80 64 59 bd 49 a7 6e bb 0c 72 16 3c
       0.008720611 -0.05307436 -0.0036415628 0.009182464
000110 10 ae ff bc d6 54 16 3b 82 35 07 3d 7f 2a d1 3c
       -0.03121093 0.002293875 0.033010013 0.025532959
000120 76 1d 36 bd d2 99 9e 3c dd 03 b9 bd ca c6 13 3e
       -0.04446169 0.019360457 -0.0903394 0.14431301
000130 00 3c 43 3d 13 69 48 3c be 9e 68 bd 03 ca 7d 3d
       0.047664642 0.012232083 -0.056792013 0.06196023
000140 45 b9 c5 bb 43 ff 9e 3d e2 a4 48 bb 2e 81 eb bc
       -0.0060340487 0.07763531 -0.0030615856 -0.028748121
000150 57 77 3d bd a0 a9 2e bc 6e 3f 77 bd 31 ed 46 3c
       -0.04625639 -0.010660559 -0.060363226 0.012141512
000160 e4 e4 3c 3d ea 4c 13 bd cc f6 21 bd f8 bb f5 3a
       0.046116725 -0.035962023 -0.039542004 0.0018748036
000170 4c 97 57 3b 0f 3a 52 3d 8e 16 98 3d bb 1e 98 bd
       0.0032896576 0.0513249 0.07426177 -0.07427736
000180 62 9c 74 bd 79 2a 92 bc 44 83 5e bd a7 86 34 3d
       -0.05971945 -0.017842518 -0.054324403 0.044073727
000190 0e 7c 87 3d 3c 0e c3 3d e4 ec 07 3d 8d 04 19 bd
       0.066154584 0.09524199 0.0331849 -0.037357856
0001a0 63 b9 04 3d 63 fb 50 bc 11 00 82 ba ac 29 55 bd
       0.03240336 -0.012755248 -0.0009918233 -0.052041695
0001b0 5f 32 f6 bc 39 a5 89 3c 55 8b 33 ba 28 73 fc 3c
       -0.030053316 0.016802417 -0.000684907 0.03081663
0001c0 30 1b 87 bd 84 88 00 3c 2a 19 c2 3d 67 71 26 bd
       -0.065969825 0.007845048 0.09477456 -0.040635493
0001d0 77 42 8a 3c 6a 29 8e 3b 28 b4 a2 bb ee 04 db bc
       0.016877396 0.004338433 -0.004965324 -0.02673575
0001e0 8a 1e 35 3d 48 5a 2c bd 34 6b b5 3c bc 92 46 bd
       0.044218577 -0.042078286 0.022145845 -0.04847978
0001f0 f6 9a a4 bc f4 99 05 bd b7 b6 d3 bc c6 4d ee bc
       -0.020093422 -0.032617524 -0.025843961 -0.02908982
000200 15 12 9d 3d 8d 00 57 bd b9 90 d7 bb 6e 6f e8 b9
       0.076694645 -0.05249076 -0.0065785316 -0.0004433351
000210 40 ae 52 bd 79 c6 8d 3d 7f cc 34 bd 5e d0 96 ba
       -0.05143571 0.06922621 -0.044140335 -0.001150619
000220 2f b4 7a 3c 82 aa 19 3a 69 87 89 bd 58 35 6b bd
       0.015301748 0.00058618945 -0.067152806 -0.05742392
000230 23 42 07 bd 8c 90 50 3d 44 f8 57 3d 86 e6 59 bd
       -0.033022057 0.0509191 0.052727 -0.05319836
000240 5c 81 7d bb 22 b9 2d 3d 85 92 fc 3d 96 96 fa 3c
       -0.003868184 0.042412885 0.12332634 0.030589383
000250 18 b1 7a b9 8a 4f cf 3c fd bf cc 3b 02 e1 af 3c
       -0.0002390783 0.025306482 0.0062484727 0.021469597
000260 d7 3c d9 bc 73 63 a1 3a 83 7d ad bd 01 08 c1 3c
       -0.026518269 0.0012312963 -0.08471205 0.023563387
000270 b8 00 34 3c 85 66 71 3c ee 4f 55 3d 30 fd 66 bd
       0.0109864995 0.014733915 0.05207818 -0.056393802
000280 54 e1 15 bd 45 2e 6b 3d 70 b5 88 bd 1c b7 44 bd
       -0.036591843 0.057417173 -0.066752315 -0.04802619
000290 4b a4 ec 3d ea ce 85 bb 1b 59 81 3d 04 c3 90 3d
       0.11554774 -0.004083504 0.06315824 0.07068446
0002a0 67 f6 1a bb c2 4c 84 bb 06 ca 69 bc 01 90 8e bb
       -0.0023645402 -0.0040374706 -0.014269358 -0.0043506627
0002b0 63 44 21 3d c4 9c 5b 3c 13 ff f2 3c 30 a7 62 3d
       0.03937186 0.013404075 0.029662644 0.055335224
0002c0 16 a4 00 bd 49 a7 f4 bb 0a e1 ab 3d e8 ec 14 bc
       -0.031406485 -0.007466231 0.08392532 -0.009089686
0002d0 44 d9 51 3d ed 67 bc bc 58 67 4b 3b bc ed 47 3d
       0.05123259 -0.022998774 0.003103694 0.048810706
0002e0 b0 c6 70 bd 3b 54 59 bd 61 f4 d8 3c ae cc 35 bd
       -0.058783233 -0.053058844 0.026483716 -0.04438465
0002f0 db 8a 89 bd 6f 59 44 bd ea 08 d5 3a 9a 62 01 bc
       -0.06715938 -0.047936853 0.0016253267 -0.007897044
000300 61 1e a3 3c 4f 63 d0 3d 7d 38 85 bd 61 d6 89 bc
       0.019911947 0.101751916 -0.06504915 -0.016825857
000310 4e 6a 32 3c 4f 32 65 bd fb 7b 13 bc ed 59 6b 3c
       0.010889603 -0.05595618 -0.009001727 0.014364702
000320 93 a9 85 bd ba b6 84 bc 2b a5 04 be f3 34 11 3d
       -0.06526484 -0.016200412 -0.12953632 0.035450887
000330 ad ff 10 3c a6 a9 81 bd d9 7a 66 3c d3 ca 39 bc
       0.00885002 -0.06331186 0.014067375 -0.011339861
000340 68 1c 23 bd 14 bf 70 bd 0e dc ae bd 34 5b 3a 3a
       -0.039822012 -0.058775976 -0.08538066 0.0007108927
000350 6f a5 14 bd e3 b2 e0 bc 3d 5b 60 3d 75 9c a3 bd
       -0.036290582 -0.02742905 0.05477451 -0.07988826
000360 2c 58 7a bb 5f 30 61 3c 46 07 8c 3c 46 71 78 3d
       -0.0038199527 0.013744443 0.017093312 0.0606549
000370 6d 30 13 3e 97 dc 27 bd 85 cc 63 bd d0 53 94 3d
       0.14373942 -0.040981855 -0.055614967 0.072425485
000380 91 e8 df 3c e5 5c 3e 3d 69 8a b9 3d 37 d3 af 3d
       0.027332576 0.04647531 0.09059603 0.08585208
000390 c8 cc a1 3d 3b 4d 47 bc f4 60 de 3d 57 3b 16 bb
       0.07900387 -0.012164409 0.10858336 -0.0022923553
0003a0 62 f8 39 3c 1c f7 cb bb 41 b0 42 3c 00 94 28 3d
       0.011350723 -0.006224526 0.0118828425 0.04115677
0003b0 65 67 98 bd 67 b2 7d bd 44 78 a4 bc b9 b9 87 bc
       -0.07441596 -0.061937716 -0.020076878 -0.016568052
0003c0 b1 8f 14 bb a4 b1 9b 3c 0e c5 a2 ba 1a c0 5c bb
       -0.0022668655 0.019005604 -0.0012418346 -0.0033683837
0003d0 1b f2 86 bc 3e 4d 85 bd 0c 67 16 3d 07 ef 81 bc
       -0.016472867 -0.065088734 0.036719367 -0.015861047
0003e0 d7 18 40 3d d4 61 c4 3d 3f b8 90 3c 7a 78 ec bc
       0.04689869 0.09588972 0.01766598 -0.028866041
0003f0 ca 9e fe bc 3d 53 9f bd db f6 0f bc c6 67 1c 3b
       -0.031081576 -0.07779548 -0.008786882 0.0023865565
