data/baumgartner_C-N/morpholine_emulator/aniline_bm_predictor_2.pt (torch, 38367 bytes, 3 tensors)

input_layer.weight f4 [512, 16]
000000 42 f0 a4 3d 7b 98 37 3c ec 2b 0f 3d 8d 7b 2b 3e
       0.08053638 0.011205788 0.034953997 0.1674635
000010 db de c9 3d d7 5d 06 be 07 ad 8a bc f8 91 12 be
       0.098569594 -0.13121735 -0.016928209 -0.14313495
000020 f1 47 07 3d a1 a4 3c be 5a 43 8b bd 00 49 8a ba
       0.033027593 -0.18422176 -0.06799956 -0.001055032
000030 00 05 8a bb 90 df 4c 3d 4f 11 6a 3e 9c cb ef 3d
       -0.004212022 0.050017893 0.22858165 0.11708757
000040 22 bf 53 3e db 21 30 be 95 37 06 bd 10 79 28 be
       0.2067838 -0.17200415 -0.03276785 -0.16452432
000050 f2 8d 4a be 28 7d 1d 3d d2 b2 2d be 7a e6 1d be
       -0.1978071 0.038449436 -0.16962746 -0.15419951
000060 8f 3e 94 bd 6a a5 e3 3d d5 e7 3d 3e 5e a8 48 3e
       -0.072384946 0.111155346 0.18545468 0.19595477
000070 82 2a 1d be 9e 66 4b be 25 50 8e 3d 50 10 71 3e
       -0.15348247 -0.19863364 0.0694888 0.23541379
000080 c3 20 68 3e 86 cc b6 3d dd 8d 5c 3e 5d 52 30 3e
       0.22668748 0.089257285 0.21538492 0.17218919
000090 6e cd 21 be 33 fd 3e 3e 4c fc ec bd 5c af 31 3e
       -0.15801021 0.18651275 -0.11571559 0.1735205
0000a0 39 bc 7a 3e 32 fc 74 bd 66 a7 42 3e aa 4a 63 be
       0.24485864 -0.059810825 0.1900917 -0.22196451
0000b0 20 76 b9 bd de 41 1d be 6b 16 2b 3d 64 12 61 be
       -0.09055734 -0.15357158 0.041769426 -0.21979672
0000c0 88 3d 7d 3e 31 78 ae 3d 90 d4 13 3d 98 60 5e be
       0.24730504 0.085190184 0.036091387 -0.21716535
0000d0 29 08 9e 3d 4b 94 6f 3d 04 8d 6c 3e 30 76 4e be
       0.077164 0.058491033 0.23100668 -0.20162272
0000e0 7a b0 53 be 45 ba b5 bc 7d af 3b bd 10 bb a9 bd
       -0.20672789 -0.022183547 -0.045821656 -0.082876325
0000f0 d0 b2 fc 3c 68 e5 24 be 4e 89 a6 3d 70 15 41 bd
       0.030846983 -0.16103137 0.081316575 -0.047139585
000100 19 eb f5 3c b7 93 9d bd d8 93 31 3e ca cf 56 3e
       0.03001933 -0.0769419 0.17341554 0.20977703
000110 79 e5 39 be c1 47 6c 3d 49 c8 80 3e 60 35 5c 3d
       -0.18153943 0.057685617 0.25152805 0.05376184
000120 31 50 24 3e 4f 62 b1 bd 0f 90 9d 3d 40 98 7f 3e
       0.16046216 -0.08661329 0.076934926 0.24960423
000130 02 f1 47 3e b8 84 0e 3d 46 39 bc 3d 16 83 31 3e
       0.19525531 0.03479454 0.091906115 0.17335162
000140 0d 8e 06 be 76 c1 50 3b e2 70 06 3d 9d 01 41 3e
       -0.13140126 0.0031853593 0.032822497 0.18848272
000150 73 d9 1f 3e ad 0b 94 bc a6 b0 63 3e 3c 99 0a be
       0.15610294 -0.018071974 0.22235355 -0.13535017
000160 82 37 73 be 1a 25 4c 3e 0f c3 67 3e 44 d4 f1 3d
       -0.23751643 0.19936028 0.22633003 0.118080646
000170 08 2c 57 be 0c 8d d1 bd 25 fd 35 3e 00 53 a7 3c
       -0.2101289 -0.10231981 0.17772348 0.02042532
000180 07 61 83 bd c4 ab e6 3d e9 4b a9 3d aa 65 25 be
       -0.06414991 0.112632304 0.08266432 -0.16152063
000190 11 21 93 bb ee b8 03 be ca 10 72 be 84 f4 93 3d
       -0.004490026 -0.12863514 -0.23639217 0.07224372
0001a0 6c 30 35 3e d6 cb cd 3d 11 f9 6a 3d 18 8e 98 3d
       0.17694253 0.10048644 0.057366434 0.07448977
0001b0 34 6c 52 3e 40 21 77 bd 20 a9 38 be 7c 04 bb bd
       0.20549089 -0.060334444 -0.18033266 -0.09131715
0001c0 4f d5 2b bd cb 60 56 bd b6 08 88 bc 3c b1 c2 bd
       -0.041951474 -0.052338403 -0.016605716 -0.09506461
0001d0 5d bd 13 3d 04 65 ee bc dc dd c7 3d 80 3b c0 3d
       0.036069263 -0.029100902 0.09759113 0.09386349
0001e0 43 84 87 bd c8 f2 58 bd 8d 72 d4 3b 78 f2 c4 bd
       -0.06617024 -0.05296591 0.006483382 -0.0961656
0001f0 d0 8c 32 be 38 bc 23 3e 80 c0 49 3d 9e 30 2d 3e
       -0.17436528 0.15989769 0.049255848 0.16913077
000200 b0 a6 5a be 7e 09 b0 3c 63 8f 19 3d 5e 8b 20 be
       -0.21352649 0.021488901 0.03749026 -0.15678164
000210 36 d7 2d 3e 81 b5 5f 3e 79 c1 9a 3d 66 a5 4e be
       0.16976628 0.21846582 0.07556433 -0.20180282
000220 0d 88 3e 3e 9e 86 a4 bd 44 15 b1 bd 92 5d 68 be
       0.18606587 -0.08033489 -0.08646634 -0.22691944
000230 68 52 74 be 78 05 3d bd 7a 00 e4 3d e4 d8 de bd
       -0.2385956 -0.046147794 0.111329034 -0.10881212
000240 a3 a6 4c 3e 45 1a b5 bd 21 0b 70 3a 00 5d c5 bd
       0.19985442 -0.08842901 0.0009156932 -0.09636879
000250 d4 6f 03 3e 53 de 7d 3e 3e ce 01 3e d0 63 8e bd
       0.12835628 0.24791841 0.12676331 -0.069526315
000260 8e b4 11 be 64 d8 31 3c 78 f9 45 3d 10 99 ce bc
       -0.14229032 0.010854814 0.048333615 -0.02521947
000270 a4 a2 e8 bd 58 45 31 be 3f ff b9 bd e0 f3 79 3c
       -0.11359146 -0.17311609 -0.090818875 0.015255898
000280 3d a9 70 3e 37 08 1b be 86 b3 13 be d8 df 20 3d
       0.2350206 -0.15139852 -0.14423952 0.039275974
000290 79 e1 54 be c1 3f 6f be c6 e1 89 3d e0 66 24 3c
       -0.20789136 -0.23364164 0.06732516 0.010034293
0002a0 88 f0 e2 bc a2 0e 6f 3d 35 89 3b 3e 80 8c f9 bd
       -0.027702585 0.058363564 0.18314059 -0.121850014
0002b0 16 01 76 be ec 99 02 be 69 f4 2a 3e 42 ef 08 be
       -0.24023852 -0.12754029 0.16694798 -0.1337252
0002c0 ea 1c 32 be b5 45 2f 3e 94 2c 16 be d1 d4 51 be
       -0.17393842 0.17116435 -0.14665443 -0.2049134
0002d0 13 ab 4c 3d e1 60 27 bd 17 7d 5d bd 80 8e 54 3d
       0.049967837 -0.040863875 -0.054074373 0.05189371
0002e0 5e 52 88 3d 9d 18 69 3e 05 03 0e 3d 90 80 c5 3d
       0.06656335 0.22763295 0.03467085 0.09643662
0002f0 80 0d 61 bb 00 ae a9 bc 41 c2 f6 3d cc df e2 bd
       -0.0034340322 -0.020712852 0.1204877 -0.11077842
000300 b5 35 23 bd 35 56 f0 3d 8e da 54 be 12 32 20 3e
       -0.03984614 0.11735193 -0.20786497 0.156441
000310 a8 33 cd bd 6a 81 0a be 06 6e 6e 3e c0 0a 33 3c
       -0.10019618 -0.1352593 0.23284158 0.010927856
000320 61 74 49 3e 60 1e 9e bc de e1 09 be 0e 81 6e be
       0.19673301 -0.019301593 -0.13465068 -0.23291418
000330 ce be 24 be f0 c1 14 3e f1 8a 8d bd 70 4a af bd
       -0.16088411 0.14527106 -0.069112666 -0.0855912
000340 37 08 f4 3d 1e 18 36 be 01 13 65 be 27 42 30 be
       0.11915629 -0.17782637 -0.2237053 -0.17212735
000350 84 98 ea 3d 0c 0e 64 3e b5 a5 34 bd 78 cb 2b bd
       0.11454871 0.22270983 -0.044103343 -0.04194209
000360 50 30 c8 3c b2 c6 03 be 65 ca 73 bc c0 01 87 3b
       0.0244371 -0.12868765 -0.014879798 0.0041200817
000370 64 d8 a4 bd 1a 3a 61 3e 15 f4 dc 3d 12 21 4b be
       -0.08049086 0.2199482 0.107887425 -0.19836834
000380 19 94 e5 3d 64 dc 61 3e 56 c3 49 3e fc 87 46 be
       0.11209888 0.22056729 0.19703421 -0.19387811
000390 72 b8 13 bd 9c 32 b8 bd 37 7d 55 3e b4 ab 28 3e
       -0.036064573 -0.08994028 0.20848547 0.1647175
0003a0 16 50 95 bd c0 23 c7 bc 51 ec 8a 3c a0 1c 05 bc
       -0.07290666 -0.02430904 0.016958388 -0.0081245005
0003b0 a0 c9 c8 bd a0 d8 26 3e b9 ee dc bd 14 2b 1b 3e
       -0.09804082 0.16293573 -0.1078772 0.15153152
0003c0 a5 34 d2 bd ab 8a 43 3d 6b 0e dc 3c 0b b9 1c be
       -0.102639474 0.047739666 0.026862344 -0.15304963
0003d0 40 47 b4 3d 02 2e 7a be e2 d5 f0 bd 3a 33 48 be
       0.08802652 -0.24431613 -0.11759545 -0.19550791
0003e0 ba bd 4c be 6f 99 40 be fb c3 36 3e d0 5e 1f bd
       -0.1999425 -0.1880853 0.17848198 -0.03890878
0003f0 88 b6 af bd 50 0c b3 3c 6c b4 78 3e 10 cc 3d 3d
       -0.08579737 0.021856457 0.24287575 0.046337187

input_layer.bias f4 [512]
000000 84 73 8e bd d5 47 4e 3e c4 2f fc bd eb 22 64 be
       -0.069556266 0.20144589 -0.12313798 -0.22278945
000010 76 ab 04 3e 23 6a 18 3e 75 d7 f2 bc e8 7f 72 3d
       0.12956032 0.14884238 -0.029643754 0.059204012
000020 b2 1e 4a 3d 07 63 6a be ee 90 44 3d 5e b2 68 3e
       0.04934568 -0.22889338 0.04798978 0.22724292
000030 98 0e 75 be e6 70 e9 3c c9 0a 78 be 42 c8 7c 3e
       -0.23931348 0.028496217 -0.24222864 0.24685767
000040 c8 ce 9a 3d 18 63 cf 3d f4 be 51 be 3f c8 5f 3e
       0.07558972 0.101263225 -0.20482999 0.21853732
000050 6f b7 06 be ce 73 43 3e 4f f9 05 be 00 7a 08 be
       -0.13155912 0.19087145 -0.13083385 -0.1332779
000060 b4 f7 72 bd 61 53 ed bd 90 c0 eb 3d 8c 6f 1d 3e
       -0.05931826 -0.11588169 0.11511338 0.15374583
000070 de 1a 50 3e 66 f9 4e 3c e1 34 d8 bb 64 c5 37 3e
       0.20322749 0.012632703 -0.0065981005 0.17946392
000080 72 ce 96 3d cb 77 72 3e ec 8f 7b bd b5 48 38 3d
       0.07363595 0.2367851 -0.06141655 0.044991214
000090 d9 c3 ce 3d 06 cb 33 be a8 03 13 bd 07 90 d4 3d
       0.10095949 -0.17557916 -0.03589216 0.103790335
0000a0 d1 1c 7b bd 7c f3 0a 3e db 00 7c bc 40 d9 50 be
       -0.06130678 0.13569444 -0.015381063 -0.20395374
0000b0 3e 2c e0 bd 9f d9 74 3e 88 8c 44 be eb db 43 be
       -0.109459385 0.23911141 -0.19194233 -0.19126861
0000c0 af 21 a1 bd cb bd 37 3e 30 b2 c7 3d 80 3d 4f bd
       -0.07867753 0.17943494 0.097507834 -0.05059576
0000d0 6d 0d d3 bd 69 20 8c bc dc c7 51 bd 3c ae 91 3d
       -0.10305295 -0.017105298 -0.05121599 0.07113311
0000e0 85 d1 14 bb 63 22 6c 3e e0 7d a0 bb 3f 87 1a 3e
       -0.0022707891 0.23059992 -0.004897818 0.15090655
0000f0 e4 b6 00 be 60 51 e2 3d 78 a4 2e 3e c5 be f2 bd
       -0.12569767 0.11050677 0.17054927 -0.11852793
000100 0e 9f fb 3d a1 b6 0e bd eb da c7 3c 5a a7 7a 3e
       0.12286197 -0.034842137 0.02439638 0.24477902
000110 1c f4 29 be be 0a 7e 3e e6 fb 41 3d aa 75 8f 3a
       -0.16597027 0.24808785 0.04735937 0.0010945101
000120 bb 42 a3 3d 93 9b 42 be ae 14 0b 3e 7c f8 44 3e
       0.07971712 -0.1900466 0.13582107 0.19235414
000130 81 d8 48 3e e7 85 d3 bd 4d e5 2f bd 80 b2 06 be
       0.1961384 -0.10328274 -0.042943288 -0.1315403
000140 90 4f 34 ba 1f 27 03 be 80 e5 44 3e 8a 10 cd bd
       -0.0006878311 -0.12807892 0.19228172 -0.1001292
000150 1e 3c 80 bd 60 3c 23 be 32 e3 06 bd e4 96 51 3e
       -0.062614664 -0.15941 -0.032931514 0.20467716
000160 8d 91 26 bc 81 e4 86 bd e6 de 1b be 97 a4 0d bd
       -0.010166538 -0.065865524 -0.15221748 -0.034580793
000170 39 2a 26 39 9a 5b 43 3e 3d d2 b9 3d c7 8e 48 be
       0.00015846723 0.19077912 0.09073303 -0.19585715
000180 64 71 69 3e 6a 77 c4 3c 1d d4 b4 3d fd dd 0c 3e
       0.22797161 0.023982722 0.0882952 0.13756557
000190 8f 50 1b be 1b ea 4d be 22 db 40 be 0d 8e 75 3e
       -0.1516745 -0.20108835 -0.18833593 0.2397997
0001a0 1f d8 19 bd 9d 63 cb 3d 8b ac 7d 3d 1e 2f af 3d
       -0.037559625 0.09931109 0.061932128 0.08553909
0001b0 48 18 18 3e dd f5 8d 3c 69 c2 8e bd 91 bc 0d bd
       0.14853013 0.01732915 -0.069706745 -0.03460366
0001c0 73 ef 2b 3d 4d 0d 71 be b0 52 33 3d a5 0a 14 3e
       0.041976403 -0.2354023 0.04378003 0.14457186
0001d0 0e 99 38 be e7 12 18 be 08 69 46 be d4 be 1b 3d
       -0.18027136 -0.1485096 -0.19376004 0.038023785
0001e0 b4 d7 99 ba 4a a5 1b bc 34 ac 17 bd f4 e1 72 3d
       -0.0011737258 -0.009499857 -0.03702946 0.059297517
0001f0 ab 94 2b bd 9b ce d9 bd 16 2d dd 3c dd 1d 37 3e
       -0.041889828 -0.1063511 0.026999038 0.17882486
000200 3c f8 20 be 5d 06 97 bd 6b d7 ba bd 3e ca 14 be
       -0.15719694 -0.073742606 -0.09123119 -0.14530274
000210 c1 23 4f 3e e1 46 fc bd 61 38 30 3e ed 2e 21 3e
       0.20228483 -0.123182066 0.17209007 0.15740557
000220 3f 74 53 3e d1 b4 6b be a4 50 06 3e 83 74 2c be
       0.20649813 -0.23018195 0.131167 -0.1684132
000230 02 73 49 3d ac c0 8e bd dc bd 70 bd 21 34 db bd
       0.049181946 -0.06970343 -0.058774814 -0.10703302
000240 96 72 8a bd 63 76 15 be b0 ff e9 bd 22 85 08 bd
       -0.06760137 -0.14595942 -0.11425722 -0.03333009
000250 bd b6 0d be 87 33 54 bd f1 70 f9 3c c2 a7 52 be
       -0.1383924 -0.051806953 0.030449362 -0.20571807
000260 33 90 04 be 81 9f 1a bd e7 54 f2 bc bc 24 80 3e
       -0.12945633 -0.03774977 -0.0295815 0.25028026
000270 36 ad 25 3b df 5f 67 be f4 52 af bd ee 41 bc 3d
       0.0025280244 -0.22595166 -0.08560744 0.091922626
000280 a3 de 86 bd 08 34 a5 3d 1f c4 4d 3e da 21 31 3e
       -0.06585433 0.08066565 0.20094346 0.1729807
000290 99 b0 73 3d 7d 20 3b bd 77 48 10 3e 32 18 6f be
       0.05949459 -0.04568528 0.14090143 -0.23349074
0002a0 a1 79 74 be f5 5b 3e be 9d 2d 03 be 4d 36 74 3d
       -0.23874523 -0.18589766 -0.12810369 0.059622098
0002b0 e5 c0 4d 3b 0f d9 04 3d 2f b2 1d 3e 58 8d 7f 3e
       0.0031395492 0.032433566 0.15400003 0.24956262
0002c0 ba f9 3f 3e 5c 87 39 3e f9 7e bf 3d 73 31 e0 3c
       0.18747607 0.18118042 0.0935039 0.02736733
0002d0 2a db 04 be 3c 4a 60 be 26 43 71 3e fc 98 49 3e
       -0.1297423 -0.21903318 0.23560771 0.19687265
0002e0 39 56 1f be 1f d6 fb 3d a6 cf 67 3d bc 02 22 be
       -0.15560235 0.122967 0.056594513 -0.15821356
0002f0 10 94 87 bd b1 31 19 3d ce 91 3e bd f1 cb 2f be
       -0.066200376 0.037400905 -0.04652577 -0.17167641
000300 47 0d 59 be 1b 20 6d 3e 28 9d 7f be f9 db 93 bd
       -0.21196471 0.23156779 -0.24962294 -0.07219691
000310 2b 99 f0 3d f5 53 b8 bd a2 bc b0 3d ba 32 1a 3e
       0.117479645 -0.090003885 0.08629729 0.15058413
000320 f6 cd 3b 3d fd 45 d7 3d 41 38 25 be b0 f0 1d 3e
       0.045850717 0.10511396 -0.1613474 0.15423846
000330 2c 8a 69 3e 0d cf 4b be 05 c0 ef bd 4c 2e 86 3b
       0.22806615 -0.19903202 -0.11706547 0.0040948745
000340 7a bd 3b 3e ff 64 05 3d b2 cc 5c 3e 96 8d 91 3d
       0.18333998 0.03256702 0.2156246 0.071070835
000350 7c ad 60 3e 34 2a 42 be 4e d6 a4 bc 68 3e 6f 3e
       0.21941179 -0.18961412 -0.02012172 0.2336365
000360 1a af 53 be 98 00 6d be 19 95 00 3d 2a be 33 be
       -0.20672265 -0.23144758 0.03139219 -0.1755301
000370 2b d7 40 be 8d 97 6b be 01 3f 5b 3d d7 d2 74 be
       -0.1883208 -0.23007031 0.053526882 -0.23908554
000380 dd 0a 20 3e a5 d7 42 bd c6 c1 fe bd 21 be 41 3e
       0.15629144 -0.047568936 -0.12439303 0.18920185
000390 37 f8 d8 bd 77 e3 45 be e7 5a 14 be 31 d2 6f 3e
       -0.10594218 -0.19325052 -0.14487801 0.23420025
0003a0 60 4c 97 bb 93 d8 43 3c c1 85 97 3d 6c 51 8b 3d
       -0.004617259 0.011953491 0.073985584 0.06802639
0003b0 c0 d2 ff 3d 26 05 76 3e 61 61 77 3e 4e 28 88 bd
       0.12491369 0.24025401 0.24158241 -0.066483125
0003c0 17 eb 72 be bb 67 17 be c5 ea 26 bd 76 ae 21 be
       -0.23722492 -0.14785664 -0.040751237 -0.15789208
0003d0 60 99 24 3d ea c9 b5 3d 5e 75 f9 3d 04 37 c3 3d
       0.040185332 0.08876403 0.12180589 0.09531978
0003e0 f6 f9 d0 3d 58 71 34 3d 18 51 19 3e fc 05 c2 3d
       0.10203926 0.044053406 0.14972341 0.09473798
0003f0 a9 ef 8f bd 14 5c 6f be ce 5a 42 be d7 80 07 3b
       -0.070281334 -0.23374969 -0.18979952 0.002067616

output_layer.weight f4 [1, 512]
000000 0e bd 55 bd 15 bd 9a 3c 14 73 a0 3d d9 6a fe bc
       -0.05218225 0.01888899 0.078344494 -0.031056808
000010 b5 57 d5 bd 86 a4 d3 bc 41 01 4c 3c dc 07 10 3c
       -0.104171194 -0.025835287 0.012451471 0.008790936
000020 26 b6 06 bd 13 dc 13 3d 95 3d ab bd d5 82 a2 3d
       -0.032888554 0.03609855 -0.08361355 0.079351105
000030 1c db ac ba d3 fd 26 3d 73 34 95 3b b0 ae 4b 3d
       -0.0013187858 0.04076941 0.0045533716 0.04972714
000040 a6 c5 ca 3c 4d 64 48 bd 9e 7b cc bc b7 be 2c bc
       0.02475245 -0.04892378 -0.024961289 -0.010543517
000050 08 66 b3 3b bb 29 49 bd c8 71 13 bd ff 1a 90 3c
       0.0054748096 -0.049112063 -0.035997182 0.017590998
000060 fa e5 18 bd 32 16 a0 3d 53 8e 67 bc 29 05 00 bd
       -0.037328698 0.078167334 -0.014133054 -0.03125492
000070 70 20 23 3d 08 a4 57 3d 0e b7 08 3b f3 ee ef 3b
       0.039825857 0.052646667 0.0020861062 0.007322186
000080 8b a3 af 3d b3 71 27 3d 91 fb 72 3d e2 e3 7f 3c
       0.08576115 0.040879916 0.059321944 0.015618296
000090 1b 03 d2 3d be 33 77 3c 32 1d cd 3c 6a 00 21 3c
       0.102544986 0.01508802 0.025038335 0.009826759
0000a0 c2 44 85 3d a6 9f e7 bc f8 a1 38 3d f7 58 37 bc
       0.06507255 -0.028274368 0.04507634 -0.011190644
0000b0 77 82 23 3d d1 5f 9e bd 7f 27 44 3d 52 8b 08 bd
       0.039919343 -0.07733119 0.04788923 -0.03333599
0000c0 23 d6 31 be 89 4b 8c bd 0f 4c 9a 3d 2a 3e 77 3d
       -0.17366843 -0.06850345 0.07534038 0.06036202
0000d0 ed 12 59 bd 1e 6c 9a bc 7f 2d 04 bd e0 b3 a1 bb
       -0.052996565 -0.018850382 -0.03226995 -0.004934773
0000e0 1a 49 4a bd 56 40 b6 bc e1 15 07 bd 66 8d 2a bb
       -0.04938612 -0.022247475 -0.03297985 -0.0026024221
0000f0 91 bb e6 3c ec 21 31 3d 3c 47 a2 3d ca 77 95 3d
       0.02816561 0.04324524 0.07923743 0.072982386
000100 12 25 ab 3c 38 57 74 bb de 5b 86 3b bf 41 3f bd
       0.0208917 -0.0037283432 0.004100307 -0.04669356
000110 c8 08 bd bb 1d 30 07 be ae 33 12 bd 92 5a 75 3d
       -0.005768869 -0.13201948 -0.035693817 0.059900828
000120 12 f7 95 3d 9a 28 65 bd 53 4e 0a bd 41 c1 4d bd
       0.073225155 -0.055946924 -0.033766102 -0.05023313
000130 e2 4a ba bd 7e c7 a7 3d 89 9e 74 bc b5 83 5a 3a
       -0.09096314 0.08192347 -0.014930376 0.0008335666
000140 ce ed 5c 3d 7d bc 76 3d 90 5f a2 bd ea e7 97 3d
       0.053937726 0.06023835 -0.07928383 0.07417281
000150 4d 25 ef bc 36 e7 61 bc 33 f4 8a bd 55 61 dc bc
       -0.029192591 -0.013788035 -0.067848586 -0.02690188
000160 b4 d3 86 bb c2 e7 fb 3b 0f c6 0f ba db d9 1f 3c
       -0.0041145924 0.00768754 -0.000548453 0.009756531
000170 23 6d 50 bd 2c f0 1b 3d 7a 72 0a bc ef 57 c1 3c
       -0.05088533 0.038070843 -0.008450145 0.0236015
000180 25 a8 ef bc 93 08 e5 bc 15 a6 67 3d 1f 46 45 3d
       -0.029254982 -0.02795819 0.056554873 0.048162576
000190 ee c7 99 bd 92 e0 af 3b b9 3a 57 bd 0e 92 9a bc
       -0.07508837 0.005367347 -0.052546237 -0.018868472
0001a0 d9 7f 4f 3c a0 04 c8 3c 32 79 c5 3c a1 8b 78 3d
       0.012664759 0.024416268 0.024105642 0.060680036
0001b0 08 7d f8 bc 4f 20 a7 bc 30 c1 03 be d2 8b 99 bd
       -0.030333057 -0.020401148 -0.12866664 -0.07497372
0001c0 07 0f 0f bd 88 7d 8b bc 4a 32 11 bd 85 9d dd 3c
       -0.03492644 -0.017027631 -0.03544835 0.02705265
0001d0 2e 79 0c 3a 45 a2 75 ba 01 cf b2 b9 87 d2 8d bd
       0.00053586334 -0.00093701883 -0.00034105036 -0.069249205
0001e0 ac 1e d7 bc 11 ae 07 bd 47 76 70 bd 86 b9 d0 39
       -0.026259743 -0.033124987 -0.058706548 0.00039811077
0001f0 3a 58 21 3d 08 e0 85 b9 40 ff 22 3d fd 1c 5e 3b
       0.03939078 -0.00025534653 0.039794207 0.003389179
000200 7a 08 91 bb e3 9d 25 bd 95 1c c4 3d f7 30 84 bc
       -0.0044260593 -0.040433776 0.09575764 -0.01613663
000210 2b f9 85 3d 45 3f 53 3d 3f 58 a0 3d 4e fb da bc
       0.06541666 0.05157401 0.078293316 -0.02673116
000220 7b cb 1f 3d 69 30 30 bc 17 48 1e bc 57 f9 6e bd
       0.039012413 -0.010753729 -0.009660742 -0.058343258
000230 1c bd 1f 3b 91 50 65 3d d1 ea 57 3d f8 4c 86 bd
       0.0024374193 0.055985037 0.052714173 -0.065576494
000240 c7 3d 87 bd ed ad 90 bc ba 41 0b 3c 46 32 2d bd
       -0.0660358 -0.01766106 0.008499557 -0.042284273
000250 4e 4c 71 bc de 48 c6 bc 0d c4 97 3c d3 ee c9 bc
       -0.014727665 -0.024204668 0.018526101 -0.024650013
000260 c8 59 9b bd 52 88 0a 3d 20 e5 0e 3d 67 f7 e3 3d
       -0.07585484 0.03382141 0.03488648 0.111311726
000270 2f 8e 56 3c f5 3c aa bc 1e c8 b3 bc 47 ec ab 3c
       0.013095423 -0.02078102 -0.02194601 0.02098669
000280 8f d3 05 3e 03 66 4c bd 79 19 2d 3d 27 5f 7f 3d
       0.13068984 -0.049901973 0.04226062 0.062346604
000290 00 2f 1e 3d 50 37 1f bb 6c 98 9d 3d bf 8f 25 3d
       0.03861904 -0.0024294443 0.07695088 0.04042029
0002a0 a3 45 03 bd e5 be 20 3d 8c a0 f6 3c 35 3a 37 bd
       -0.032048833 0.03924455 0.030105852 -0.044733245
0002b0 ee dc 3c bd d0 4a 7d bd 19 09 b2 3c b0 e0 29 3d
       -0.046109132 -0.061838925 0.021732854 0.041474044
0002c0 4d 8a f4 bc a4 33 0e be 9b 90 de 3c 02 91 07 ba
       -0.029851103 -0.13886887 0.027168563 -0.0005171449
0002d0 5a be 9f bd 15 58 bd 3c 43 99 03 3d 48 20 9a bc
       -0.077999786 0.02311329 0.032128584 -0.018814221
0002e0 38 5b c4 bc 88 b2 19 3e ee c5 95 3c 43 8b 8a bb
       -0.023969278 0.1500951 0.018282857 -0.004228027
0002f0 c1 9f 10 bd 3a c2 cb bd 9d 62 1e 3d 3d 8b 8a bc
       -0.035308603 -0.09949155 0.038668264 -0.016912097
000300 00 b1 02 bd cb 1f 13 3d 68 04 10 3c b2 3f a5 bd
       -0.03190708 0.035918992 0.008790113 -0.080687895
000310 b6 96 81 3d e5 b9 01 bc 0a 4f 15 3d b1 cd 08 3d
       0.06327574 -0.007917856 0.03645233 0.033399288
000320 cd 0d b9 ba b9 8c 6c 3d 25 a2 db bb 41 bc 40 3d
       -0.0014118493 0.05775139 -0.0067026787 0.047054533
000330 ac d7 f6 3c c6 c0 9d bc d5 85 8e 3c 9d 5b 89 bd
       0.030132137 -0.01925696 0.0173978 -0.06706927
000340 d4 dd 16 bd eb 97 c8 3c 37 e2 0c bd 19 fe 7e bd
       -0.036832646 0.024486503 -0.034395423 -0.062254045
000350 27 d2 ca bd ef ae f6 3c 9f 18 60 bc e8 08 7f 3c
       -0.09903365 0.030112712 -0.013677745 0.015566088
000360 36 e7 5d 39 89 cd d4 bc 55 55 fe bb bc 55 b1 bc
       0.00021162335 -0.025976913 -0.007761637 -0.021647327
000370 30 88 1b bc 01 3a bd 3d cf 0d b1 bc 73 ce ca 3c
       -0.009492919 0.09239579 -0.02161303 0.024756646
000380 dc 44 b1 bd 40 f9 57 3d bb 97 cf 3b 87 e2 0f bc
       -0.08655712 0.052727938 0.0063352264 -0.008782036
000390 07 3c ef bc 93 e7 92 3d 68 51 57 3d 59 b0 20 3d
       -0.029203428 0.071730755 0.05256787 0.03923068
0003a0 24 e0 22 3c dc 05 25 3d 5a 0e 8b 3c a9 af 3a bd
       0.009941135 0.04028879 0.016974617 -0.04557768
0003b0 7d 39 b2 bd 37 cf e7 bc d1 90 b8 ba 85 8c e9 3c
       -0.08702371 -0.02829705 -0.0014081245 0.028509388
0003c0 91 28 85 bc ed 3b 77 3d a6 8a f2 3c e3 79 3e 3b
       -0.016254695 0.060359884 0.029607128 0.002906435
0003d0 77 81 84 bd 9e b6 69 3d 17 ce 89 3c b9 01 80 3c
       -0.06470006 0.057058923 0.016821904 0.015625821
0003e0 53 fa 95 bd 8d 4f bc 3d 20 fc 2f bc 24 5d 9b bb
       -0.07323136 0.091948606 -0.010741264 -0.004741328
0003f0 52 58 da b9 d1 b6 94 3d f8 bb 12 bc df bd b1 bc
       -0.00041646004 0.07261432 -0.008955948 -0.021696983
