data/baumgartner_C-N/morpholine_emulator/aniline_bm_predictor_3.pt (torch, 38367 bytes, 3 tensors)

input_layer.weight f4 [512, 16]
0	0x3cf37fc8	0.029724017
1	0x3de45bb3	0.11150303
2	0xbe7bf41e	-0.24604842
3	0x3d8392f6	0.06424515
4	0x3e7c1e4f	0.24620937
5	0xbe27f07f	-0.16400336
6	0xbde40ec9	-0.111356325
7	0xbbce8a80	-0.0063031316
8	0x3def6805	0.11689762
9	0xbdf07caa	-0.11742528
10	0x3e447dc9	0.19188608
11	0x3e7088c0	0.23489666
12	0xbd2aff50	-0.04174739
13	0xbd6170b8	-0.055039138
14	0xbcfb7226	-0.030694079
15	0x3dfd4e78	0.12368482
16	0xbe2859a3	-0.16440444
17	0xbd6012d8	-0.05470547
18	0x3e42f04c	0.19036978
19	0xba1a877e	-0.00058948237
20	0x3d1ce19a	0.038301088
21	0x3df1cc44	0.11806539
22	0xbda06598	-0.078318775
23	0x3e406366	0.18787917
24	0x3e731269	0.23737492
25	0xbe204599	-0.1565155
26	0xbdc5c4d2	-0.09656681
27	0xbe0caaa0	-0.13736963
28	0xbe7cbba2	-0.24680951
29	0x3e2e42f0	0.17017722
30	0xbe61c1a4	-0.22046524
31	0xbe5a0524	-0.21291023
32	0x3e2f40ab	0.17114513
33	0x3e6f49bb	0.2336797
34	0xbe676c19	-0.2259983
35	0x3cd1ffa1	0.025634589
36	0xbdd99cc3	-0.10625603
37	0x3d6600a9	0.056152973
38	0xbd20498e	-0.039132647
39	0x3d83e6e0	0.0644052
40	0xbd11ed51	-0.035626713
41	0x3c80f02d	0.015739525
42	0xbcb179ab	-0.021664461
43	0xbb3c5680	-0.0028738081
44	0x3da70ae4	0.08156374
45	0xbdcae86c	-0.09907612
46	0xbdfaa592	-0.12238611
47	0x3d976d40	0.07393885
48	0x3dfe194b	0.12407168
49	0x3e6f806f	0.23388837
50	0x3e7b3c5c	0.24534744
51	0xbdaa999b	-0.08330079
52	0x37e96842	2.7824313e-05
53	0x3e76fe2a	0.24120393
54	0x3c534969	0.01289592
55	0x3e68dc36	0.22740254
56	0xbc210761	-0.009828419
57	0xbe505539	-0.2034501
58	0x3dfa2a95	0.12215153
59	0xbcd9ee50	-0.026602894
60	0x3e242f7c	0.16033739
61	0xbd4ec5a0	-0.05048144
62	0x3e0aa168	0.13538134
63	0x3dfa3318	0.122167766
64	0xbd5b8893	-0.053597044
65	0xbe5e7085	-0.2172261
66	0xbe68c28a	-0.22730461
67	0x3df49da9	0.11944134
68	0xbd7188cd	-0.058968354
69	0xbe693b61	-0.22776558
70	0xbdb8ff10	-0.09033024
71	0xbd8df2e4	-0.06931093
72	0x3e5aabe2	0.2135463
73	0x3e222218	0.15833318
74	0xbdb966f2	-0.090528384
75	0x3ceb8410	0.028749496
76	0x3e737030	0.23773265
77	0xbba2a680	-0.004963696
78	0xbd99a8a0	-0.07502866
79	0x3e1f0ddc	0.1553263
80	0x3d83f350	0.064428926
81	0xbcb292d0	-0.021798521
82	0xbe13b2fa	-0.14423743
83	0x3d7deb90	0.061992228
84	0xbe393cc2	-0.18089584
85	0x3e27acba	0.16374484
86	0xbe704e2e	-0.23467323
87	0xbdf29f30	-0.11846769
88	0xbdd4b744	-0.10386518
89	0x3d02d5a0	0.03194201
90	0xbe1db7da	-0.15402165
91	0xbe0b6c7c	-0.13615602
92	0x3d6aaa78	0.057291478
93	0x3dafd528	0.08585578
94	0xbe4de560	-0.20107031
95	0xbc830b70	-0.015996665
96	0xbe5124ab	-0.20424144
97	0x3e45dadf	0.19321774
98	0xbe234a24	-0.15946251
99	0x3e09fe2a	0.13475862
100	0x3e585d01	0.21129228
101	0xbe0f5c74	-0.14000112
102	0x3e36e70f	0.1786158
103	0x3dd82eb0	0.1055578
104	0xbda7a978	-0.081866205
105	0x3d72b246	0.059252046
106	0x3e2c29a0	0.16812754
107	0xbe5f3eaa	-0.21801248
108	0xbd626ce0	-0.055279613
109	0x3d5be740	0.053687334
110	0x3e6bb01a	0.23016396
111	0x3e7087de	0.23489329
112	0x3ddeebc4	0.108848125
113	0xbe1b0cc5	-0.1514159
114	0xbe53be68	-0.20678103
115	0xbdd0f64e	-0.10203229
116	0xbe5a683e	-0.21328828
117	0xbcb1841e	-0.021669444
118	0x3da2dbbc	0.07952067
119	0xbe5f7786	-0.21822938
120	0xbccd918d	-0.025093818
121	0x3e519632	0.20467451
122	0x3e696704	0.22793204
123	0x3d8624f0	0.06550014
124	0x3e478a7a	0.19486418
125	0xbe426920	-0.18985415
126	0x3e42934b	0.190015
127	0xbe3048a2	-0.17215207
128	0xbde73b5b	-0.11290618
129	0xbde5db2e	-0.11223446
130	0xbd60f156	-0.054917656
131	0x3d0cb20c	0.034349486
132	0x3e2f0b90	0.17094254
133	0x3e7fe2fe	0.24988934
134	0xbe01d8ba	-0.12680331
135	0x3e2e8f78	0.17046916
136	0x3e515a6a	0.20444646
137	0xbdc56679	-0.09638686
138	0x3e73345f	0.23750447
139	0xbdfd229c	-0.12360117
140	0x3df9af18	0.121915996
141	0x3df6305c	0.120209426
142	0x3e115fef	0.14196752
143	0x3e78e368	0.24305499
144	0x3d8294ed	0.063760616
145	0x3d36eb84	0.0446582
146	0xbe27542d	-0.16340704
147	0xbe4efcf0	-0.20213675
148	0xbdf768c4	-0.12080529
149	0x3ce247e5	0.027622173
150	0xbe806145	-0.2507421
151	0x3d9fd8e4	0.078050405
152	0x3d8602ca	0.06543501
153	0xbda210b3	-0.079133414
154	0x3d583d27	0.052792694
155	0xbe7d82a4	-0.24756867
156	0x3dd4b6b8	0.10386413
157	0x3bf152c0	0.007364601
158	0x3e70b8fc	0.23508066
159	0x3d8d6b80	0.069052696
160	0x3e197d4b	0.14989202
161	0xbdaf2dc8	-0.08553654
162	0xbe3b0604	-0.18264014
163	0xbe06289a	-0.13101426
164	0xbdfeb608	-0.124370635
165	0x3e497c6d	0.19676371
166	0xbe3a3a52	-0.1818631
167	0x3d58cf98	0.05293235
168	0xbe64c599	-0.22341003
169	0xbe2a23c9	-0.16615213
170	0xbcc3d094	-0.023903169
171	0x3e67a9ac	0.22623318
172	0x3e0ec59c	0.1394257
173	0xbe5f4fb8	-0.21807754
174	0xbe2f6ae1	-0.17130615
175	0x3d4f9f48	0.05068901
176	0x3e4eb110	0.20184731
177	0x3dfef8b5	0.12449781
178	0xbcbe6875	-0.023243168
179	0x3e08d3c0	0.13362026
180	0x3e758cc9	0.23979487
181	0x3debdd80	0.11516857
182	0x3d39b5b7	0.045339312
183	0xbd0d07a0	-0.0344311
184	0xbdd52dd8	-0.104091346
185	0x3ce3e1f4	0.027817704
186	0xbe463349	-0.19355501
187	0x3dd10b7c	0.102072686
188	0xbe6878b4	-0.22702295
189	0x3e2eba40	0.17063236
190	0xbdfe10d4	-0.124055535
191	0xbdc83fb8	-0.097777784
192	0xbe74934a	-0.23884311
193	0x3e0e57cd	0.13900681
194	0xbe08db36	-0.13364872
195	0xbd74e43b	-0.05978797
196	0x3e45dd6e	0.1932275
197	0xbdc35c93	-0.095391415
198	0x3d9975a0	0.07493138
199	0xbd8a063c	-0.0673947
200	0xbd81f69c	-0.06345865
201	0x3dc84a1a	0.09779759
202	0x3e1c38ea	0.15256086
203	0xbe50ea5a	-0.20401898
204	0x3b1c6780	0.0023865402
205	0x3d1a1258	0.03761515
206	0x3d268a7c	0.040659413
207	0xbda76778	-0.08174032
208	0xbe49522a	-0.1966025
209	0x3dc0a500	0.09406471
210	0xbbbc9250	-0.0057547465
211	0x3ade4b84	0.0016959761
212	0xbdc3d296	-0.095616505
213	0x3cccab08	0.024983898
214	0x3e444ce9	0.19169964
215	0xbe06aeba	-0.1315259
216	0x3d2abae1	0.041682128
217	0x3e4bfebe	0.19921395
218	0xbda8d4c8	-0.0824371
219	0xbe29bdb4	-0.16576272
220	0x3dd02578	0.101633966
221	0xbd560760	-0.052253127
222	0xbe6669c1	-0.2250128
223	0x3d620580	0.055181026
224	0x3e2e3b7e	0.17014882
225	0x3e80f12d	0.25184003
226	0xbd488a80	-0.04896021
227	0xbe0f84f3	-0.1401556
228	0xbd808cf1	-0.062768824
229	0x3d5a344b	0.053272527
230	0xbe3523aa	-0.17689386
231	0x3e3226aa	0.17397562
232	0xbdfe5cd9	-0.12420053
233	0xbe01349e	-0.12617728
234	0x3d3ba7e5	0.045814414
235	0x3e7fe094	0.24988014
236	0xbe691c4a	-0.22764698
237	0x3cd41fe0	0.025894105
238	0xbd6224e6	-0.05521097
239	0xbde848ac	-0.11341986
240	0xbe80e881	-0.25177386
241	0xbe344950	-0.17606091
242	0x3e13bca3	0.14427428
243	0xbe1c2d03	-0.15251546
244	0x3e417dfc	0.18895715
245	0x3d497ecb	0.049193185
246	0x3e100404	0.14064032
247	0xbe2dc7e4	-0.16970783
248	0x3d5f6aae	0.054545097
249	0xbe3dac3c	-0.18522733
250	0x3bc9a126	0.0061532436
251	0xbe24b0b2	-0.16083029
252	0xbdf87a70	-0.12132728
253	0x3e7287fa	0.23684683
254	0x3e0d5421	0.13801624
255	0x3d083540	0.03325391

input_layer.bias f4 [512]
0	0x3e77b62c	0.24190587
1	0x3e45163a	0.1924676
2	0x3e0145e7	0.12624322
3	0x3e32a4e8	0.17445719
4	0xbc8d6694	-0.017260827
5	0xbde35ca0	-0.11101651
6	0xbe50b32e	-0.20380852
7	0xbdf9210b	-0.121645056
8	0xbe733a45	-0.23752697
9	0xbc10280b	-0.0087986095
10	0x3ca3c11e	0.019989546
11	0xbe2563ef	-0.16151403
12	0x3dc91cfc	0.098199815
13	0xbce8c699	-0.028415011
14	0x3e5bc492	0.21461704
15	0x3dc1b63c	0.094585866
16	0x3d3ec8e1	0.04657829
17	0xbd2d72d7	-0.042345848
18	0xbe51c8c7	-0.20486747
19	0x3daee68b	0.08540066
20	0xbd81c7d8	-0.06336945
21	0xbe39ecba	-0.1815671
22	0xbdc473b1	-0.09592379
23	0xbc918cc2	-0.017767314
24	0xbdc276f3	-0.09495344
25	0xbd53a872	-0.051674314
26	0xbe512f23	-0.20428137
27	0x3d6b2a73	0.05741353
28	0x3e5e2814	0.21694976
29	0xbda322c8	-0.07965618
30	0x3c941801	0.018077852
31	0xbcf9404c	-0.030426167
32	0x3e0a5c73	0.13511829
33	0xbde0d5db	-0.1097829
34	0xbe71e23c	-0.23621458
35	0xbe7d9d33	-0.24766998
36	0x3c89d897	0.01682691
37	0xbdb008bf	-0.08595418
38	0x3e77ea80	0.24210548
39	0xbe31ab9c	-0.1735062
40	0xbd22369b	-0.039602857
41	0xbe52c256	-0.20581946
42	0xbe5553b0	-0.20832705
43	0x3c90f1ed	0.017693484
44	0x3ddf4539	0.10901875
45	0x3e2c1da7	0.16808186
46	0xbd5fead2	-0.0546673
47	0xbdf2238d	-0.11823187
48	0xbe7a3b78	-0.24436748
49	0x3e12fa9a	0.1435341
50	0x3e6a1aeb	0.22861831
51	0xbe6bea17	-0.23038517
52	0xbb6e01f7	-0.003631709
53	0xbe75ed4b	-0.24016301
54	0xbd149cde	-0.036282413
55	0x3d4063dd	0.046970237
56	0xbd982569	-0.074290104
57	0x3d6a6b4a	0.057231225
58	0x3d433b8f	0.04766422
59	0x3e803e62	0.25047594
60	0x3df2cabf	0.11855077
61	0xbcc75747	-0.02433361
62	0xbe01f151	-0.12689711
63	0xbe3d9cf2	-0.18516901
64	0xbe5c54ee	-0.21516773
65	0xbd4d3ad5	-0.050104935
66	0x3e71de2a	0.23619905
67	0x3e2a3ed2	0.16625527
68	0xbe582dea	-0.21111265
69	0x3c0fa63f	0.0087676635
70	0x3e76257e	0.2403774
71	0xbe0125f5	-0.12612136
72	0xbe44541a	-0.19172707
73	0xbe3d8971	-0.18509461
74	0x3e48cef4	0.19610196
75	0x3e183a3b	0.14865963
76	0x3c6c549a	0.014424467
77	0x3dadad28	0.084802926
78	0xbddda8c3	-0.10823204
79	0xbc8e5e59	-0.017378973
80	0xbe0a020c	-0.13477343
81	0xbe6043b5	-0.21900828
82	0x3d88ea72	0.06685342
83	0xbdbe80fa	-0.09301944
84	0x3dc0e314	0.09418312
85	0x3dcb7364	0.099341184
86	0xbe209673	-0.15682392
87	0x3e6f9765	0.23397596
88	0x3e1c0d91	0.1523955
89	0xbe101848	-0.14071763
90	0x3e2d1794	0.16903526
91	0xbe472ae3	-0.19449954
92	0xbe3a4889	-0.18191732
93	0x3df3e448	0.119087756
94	0xbe2c2091	-0.16809298
95	0xbe19f839	-0.15036096
96	0x3ddc05bd	0.10743282
97	0x3e2add90	0.16686082
98	0x3e34beeb	0.17650954
99	0x3d358eb7	0.044325557
100	0x3d950e8d	0.07278166
101	0x3dd42834	0.10359231
102	0x3e1dd930	0.15414882
103	0xbe13f53b	-0.14449017
104	0x3e25a843	0.16177468
105	0x3b7d5f94	0.0038661705
106	0x3d737797	0.05944022
107	0xbe0e19d0	-0.13877034
108	0x3d276482	0.040867336
109	0xbd69a782	-0.057044514
110	0x3dc24789	0.094863005
111	0x3dc4c5a9	0.09608013
112	0xbe088b68	-0.1333443
113	0xbb9991bd	-0.004686563
114	0x3e304ac9	0.17216028
115	0x3e31b85a	0.17355481
116	0x3e40b347	0.18818389
117	0x3d3b3813	0.045707773
118	0x3e527b85	0.20554931
119	0xbd2627a4	-0.040565148
120	0xbe21e104	-0.15808493
121	0x3e07fbff	0.13279723
122	0x3dc37a41	0.095448025
123	0xbe6c177b	-0.23055832
124	0x3e84c8a1	0.25934318
125	0xbe55b762	-0.20870736
126	0xbd30224a	-0.04300145
127	0xbe5f3128	-0.21796095
128	0x3dce9004	0.100860626
129	0xbe3ccbce	-0.1843712
130	0xbe622c26	-0.22087154
131	0x3e63e652	0.22255829
132	0x3cc1c990	0.023655683
133	0x3e6adb20	0.22935152
134	0xbdf6c870	-0.12049949
135	0x3e6ea628	0.23305571
136	0x3e3025d5	0.17201932
137	0x3e7376a6	0.2377573
138	0x3d1e2530	0.038609684
139	0xbd865c34	-0.06560555
140	0xbe03a6bf	-0.12856577
141	0xbdf7c4c3	-0.12098076
142	0x3db40a58	0.087910354
143	0xbe3c576b	-0.18392722
144	0x3e4d38c5	0.20041187
145	0x3cffc25a	0.031220604
146	0x3dbec363	0.09314611
147	0xbd5ec3ed	-0.054386068
148	0xbd828858	-0.06373662
149	0xbcc02534	-0.02345524
150	0x3c81f176	0.015862208
151	0x3d0dae5c	0.03459011
152	0xbd95f278	-0.07321638
153	0x3e7bdb83	0.24595456
154	0x3e42d0f8	0.19025028
155	0xbe031da7	-0.1280428
156	0x3e45d659	0.19320048
157	0x3cdfa25b	0.027299097
158	0xbe1bcdef	-0.15215276
159	0xbdf09588	-0.11747271
160	0xbe05cca1	-0.13066341
161	0x3d6d0c68	0.05787316
162	0xbe2cce95	-0.1687568
163	0xbe056cb7	-0.13029753
164	0x3e59736b	0.21235435
165	0xbd281b55	-0.04104169
166	0x3e15c989	0.14627661
167	0xbd8ea493	-0.06964984
168	0x3d6aa784	0.05728866
169	0x3d80be2d	0.06286273
170	0x3e3da568	0.18520129
171	0xbe5708bf	-0.2099943
172	0x3acb585d	0.0015514005
173	0x3e6e5dd5	0.23277982
174	0xbb686743	-0.003546194
175	0xbdc326c9	-0.09528882
176	0xbbe88b2a	-0.007096668
177	0xbd2f144b	-0.042743962
178	0x3e642fbf	0.22283839
179	0x3e477100	0.194767
180	0x3e0a8d8b	0.13530557
181	0xbdd8802d	-0.105713226
182	0x3e522c09	0.2052461
183	0x3c0579a5	0.008146678
184	0x3d41bfdf	0.047302123
185	0xbe3eb32f	-0.1862304
186	0xbe69c800	-0.228302
187	0x3da22747	0.07917648
188	0x3e70f0f7	0.23529421
189	0x3d1316c8	0.035910398
190	0xbdaa228a	-0.08307369
191	0xbe6d341b	-0.23164408
192	0x3d33f117	0.043931093
193	0xbe130b11	-0.1435969
194	0x3e29d40c	0.16584796
195	0xbdea6ab6	-0.11446135
196	0xbd9ece77	-0.07754224
197	0x3d6b317c	0.05742024
198	0xbe7bd0a7	-0.24591313
199	0xbe3dd955	-0.18539937
200	0x3e7a0559	0.24416102
201	0xbe1e01d3	-0.15430383
202	0xbdcfcb40	-0.10146189
203	0xbe12cc0b	-0.14335649
204	0x3d1f4260	0.03888166
205	0xbda99b40	-0.08281565
206	0xbde52c87	-0.111901335
207	0xbe6f1803	-0.23349003
208	0xbd7d8725	-0.061896462
209	0x3cb5c9c9	0.022190945
210	0x3e60e4a5	0.21962221
211	0x3dd27adc	0.1027734
212	0x3d2518da	0.040306903
213	0xbe79e383	-0.24403195
214	0xbd0a1c3d	-0.033718336
215	0x3e306bfa	0.1722869
216	0xbdcb7c8d	-0.099358656
217	0xbda7c35f	-0.08191561
218	0xbc8c7fd7	-0.017150803
219	0xbdc590ee	-0.09646784
220	0xbd77b590	-0.060475886
221	0xbdf85804	-0.12126163
222	0x3e5290f8	0.20563114
223	0xbe12bb0a	-0.14329162
224	0xbe22a5a9	-0.15883507
225	0xbe0d1dc3	-0.13780884
226	0xbc2cddd6	-0.010550937
227	0x3da186d3	0.07887044
228	0xbe08b2b3	-0.13349418
229	0xbdce7629	-0.10081131
230	0xbd58fbca	-0.0529745
231	0x3e0c3fd4	0.13696223
232	0x3e70a150	0.23499036
233	0xbe212a57	-0.15738808
234	0x3a8edb68	0.0010899128
235	0xbe6a42d5	-0.22877057
236	0x3e43d02d	0.19122382
237	0x3df6e7e9	0.12055952
238	0xbcfa4138	-0.030548677
239	0xbe6ba28c	-0.23011225
240	0xbde0b51c	-0.10972044
241	0x3e7f1331	0.24909665
242	0x3e34deb1	0.17663075
243	0x3e437e51	0.19091155
244	0xbdfb7e94	-0.12280002
245	0xbd862795	-0.065505184
246	0xbe3fbfed	-0.18725558
247	0x3e278b00	0.16361618
248	0xbbe7d0d6	-0.0070744557
249	0x3d16cec8	0.036818296
250	0x3d36f917	0.044671144
251	0xbdb87015	-0.09005753
252	0xbe262c8a	-0.16227928
253	0x3d9aa364	0.075506955
254	0x3c2d916b	0.010593752
255	0x3e65a720	0.22427034

output_layer.weight f4 [1, 512]
0	0x3c942903	0.018085962
1	0xbdb72ded	-0.089443065
2	0x3cb4a7c4	0.022052653
3	0xbca8b514	-0.020594157
4	0xbc51cf2e	-0.012805743
5	0xbc329c98	-0.010901593
6	0xbd7c51c8	-0.06160143
7	0x3d1db83c	0.038505778
8	0x3cb0dd83	0.02159
9	0x3d500600	0.050786972
10	0xbbbfc3ce	-0.005852199
11	0x3ca0815e	0.019592937
12	0x3c635b25	0.013876711
13	0xbd469d38	-0.04848978
14	0x3dcc4be4	0.099754125
15	0xbd8237c6	-0.06358294
16	0x3d871f5a	0.06597777
17	0x3bbebec2	0.00582108
18	0x3b5b2989	0.0033441505
19	0xbd7fe067	-0.062469866
20	0x3d6d0530	0.057866275
21	0x3cb6a857	0.022297068
22	0x3b045dd3	0.0020197525
23	0x3b8e67b9	0.004345861
24	0x3b8d7315	0.0043166974
25	0xbb7d0b7e	-0.0038611586
26	0xbd499d34	-0.049222186
27	0x3cfd3c65	0.030912587
28	0x3d31356a	0.04326383
29	0xbd1367f1	-0.035987798
30	0xbd5384da	-0.05164037
31	0x3dcc6b40	0.09981394
32	0xbd42ae30	-0.0475294
33	0xbca0b113	-0.019615686
34	0x3cde0629	0.027102547
35	0xbccd6aac	-0.02507528
36	0xbd1d3ccb	-0.038388055
37	0xbbc37de7	-0.0059659365
38	0xbd413430	-0.04716891
39	0xbd94d11a	-0.072664455
40	0x3d668f15	0.056288797
41	0x3c5a71db	0.013332809
42	0x3d8a6778	0.06758016
43	0x3c9976ee	0.018733468
44	0x3c99ab3b	0.018758407
45	0xbca7c2f1	-0.020478697
46	0xbb57e5cc	-0.0032943366
47	0xbc66040b	-0.01403905
48	0x3d22c861	0.039741877
49	0x3b9dadf6	0.0048119975
50	0x3da5cf47	0.08096176
51	0xbd086278	-0.033297032
52	0xbd8b3250	-0.06796706
53	0x3cab3aa8	0.020901993
54	0xbd4ea80a	-0.050453223
55	0xb9d2232f	-0.00040080535
56	0x3b423551	0.002963383
57	0x3d46cbd0	0.048534214
58	0xbc94c768	-0.01816149
59	0x3cd8b124	0.026451655
60	0xbd881e03	-0.06646349
61	0x3d2bba29	0.041925583
62	0x3d5d01c5	0.053956766
63	0x3d8cf94b	0.06883486
64	0x3b3dd058	0.0028963294
65	0xbbaf5cde	-0.005351647
66	0xbce0e53e	-0.027453061
67	0x3d5ddaa6	0.054163598
68	0xbd7b7cc5	-0.061398286
69	0x3d1eba0f	0.038751658
70	0x3da93a37	0.08263057
71	0x3ae9013d	0.0017776858
72	0x3b88f5e1	0.0041797017
73	0xbd020872	-0.031746335
74	0x3cc626a5	0.024188349
75	0xbbef9c70	-0.00731235
76	0x3bba50e2	0.0056859115
77	0x3d444111	0.047913615
78	0xbc5a0f1b	-0.0133092655
79	0x3c9dafe0	0.019248903
80	0x3d936ac2	0.07198097
81	0x3cacda31	0.021100136
82	0x3d3fb95b	0.046807628
83	0xbd66f23c	-0.056383356
84	0xbda7c82a	-0.08192475
85	0x3d2b0e5d	0.041761745
86	0x3bb05c5b	0.0053821034
87	0x3d33538a	0.04378084
88	0xbd9cd9a0	-0.07658696
89	0x3db13798	0.08653182
90	0x3d79e181	0.061006073
91	0xbbd200a7	-0.006408769
92	0x3d6a81e4	0.05725278
93	0x3d672bfc	0.05643843
94	0x3c422664	0.011849973
95	0x3d09a293	0.03360231
96	0xbdcedb38	-0.101004064
97	0xbd1d6e78	-0.03843543
98	0xbcaaaaa7	-0.020833327
99	0x3ce78e66	0.028266143
100	0x3cbaa093	0.022781646
101	0x3c3c83ba	0.011506015
102	0x3b81a48e	0.003956384
103	0xbcadbdc5	-0.021208653
104	0xbd7b67db	-0.06137834
105	0x3bd028e6	0.0063525317
106	0x3d0a132f	0.0337097
107	0x3c7baf76	0.015361657
108	0xbc91bed0	-0.017791182
109	0xbca7fdc4	-0.020506747
110	0xbc121a86	-0.0089174565
111	0xbc8201da	-0.015870024
112	0xbd0df66b	-0.03465883
113	0xbd7a2957	-0.06107458
114	0xb998dbc2	-0.00029155432
115	0x3d028695	0.03186663
116	0xbd43207e	-0.04763841
117	0xbc2fa689	-0.010720857
118	0xbd4dfbb1	-0.05028886
119	0xbd2af8af	-0.04174107
120	0x3cad07a3	0.021121806
121	0xbd3b9b02	-0.045802124
122	0xbcdfa9e1	-0.027302684
123	0xbca6c4ad	-0.020357454
124	0xbd8c3fd4	-0.06848112
125	0xbcd8ad2b	-0.02644976
126	0x3c65da57	0.014029107
127	0x3da4399f	0.08018803
128	0x3d12878d	0.035773803
129	0xbce1e62e	-0.027575579
130	0x3b508ec8	0.0031823386
131	0x3ba95df7	0.005168672
132	0x3dc786dc	0.09742519
133	0x3d8bf1eb	0.068332516
134	0xbc4e192c	-0.012579244
135	0xbce2256a	-0.027605731
136	0xbe056680	-0.13027382
137	0xbc6854a9	-0.014180341
138	0xbd281583	-0.04103614
139	0xbcf30f9f	-0.029670535
140	0xbd1fd0ad	-0.039017368
141	0xbbc3f9cd	-0.0059807063
142	0xbd376f65	-0.04478397
143	0xbc3d7ab7	-0.011564902
144	0xbb396853	-0.0028290942
145	0xbd19c0d7	-0.037537422
146	0x3c655e41	0.013999523
147	0xbd166c4f	-0.036724385
148	0x3dab71f3	0.083713435
149	0x3d03cf38	0.03218004
150	0x3cdb10d3	0.02674142
151	0xbcc1b1d9	-0.023644375
152	0xbc956d39	-0.018240558
153	0xbd103237	-0.03520414
154	0xbd396aa6	-0.045267724
155	0x3d00cc9f	0.031445142
156	0xbd690b30	-0.056895435
157	0xbd0d7413	-0.034534525
158	0x3ba78ef9	0.005113479
159	0x3c86d6b0	0.016459793
160	0x3b464e38	0.0030259024
161	0xbd418a06	-0.04725077
162	0x3c5f76d2	0.013639169
163	0xbd4ed176	-0.050492726
164	0xbd27b838	-0.04094717
165	0xbd6d2d34	-0.057904437
166	0xbc7d77f6	-0.015470495
167	0x3d4d109f	0.05006468
168	0xbc900c76	-0.017584067
169	0x3cf15173	0.029457783
170	0xbcbade2d	-0.02281102
171	0x3d40c42a	0.047062077
172	0x3b579754	0.0032896595
173	0x3b9e0e26	0.004823464
174	0x3df54973	0.119769
175	0x3cd9e72c	0.02659949
176	0xbcdf575f	-0.027263341
177	0x3cebda3f	0.028790591
178	0x3e1e663c	0.15468687
179	0x3d18986a	0.03725473
180	0xbd8d2507	-0.06891828
181	0xbd46b296	-0.048510157
182	0xbd557961	-0.05211771
183	0xbccc7125	-0.024956295
184	0x3d1d7c70	0.03844875
185	0xbcda2b7f	-0.026632069
186	0x3c2af275	0.010433783
187	0xbc940aef	-0.01807162
188	0xbc71763b	-0.014737661
189	0xbbef1336	-0.0072959913
190	0x3d8ec59d	0.069712855
191	0x3bb3b9eb	0.0054848096
192	0x3d234a99	0.039866064
193	0x3dd8fe9a	0.105954364
194	0xbd2aced8	-0.041701168
195	0x3c8ef7fa	0.017452229
196	0xbd54ca43	-0.051950704
197	0x3cecabfa	0.028890599
198	0xbc2e1f5f	-0.010627597
199	0xbd532649	-0.051550183
200	0x3d9f5935	0.07780687
201	0xbb835bb0	-0.0040087327
202	0xbb96fd28	-0.0046078153
203	0xbda9bb82	-0.082877174
204	0xbc842e44	-0.016135342
205	0xbbbec239	-0.005821493
206	0x3cd318f7	0.02576874
207	0xbc9d30ce	-0.019188311
208	0xbc1d7ab9	-0.009611779
209	0x3d4618f2	0.048363633
210	0x3da687c4	0.08131364
211	0x3c9b338f	0.018945483
212	0xbbde4870	-0.0067835376
213	0xbd578032	-0.05261249
214	0xbe114340	-0.1418581
215	0x3ccfdf6e	0.025375094
216	0xbd08a0b7	-0.033356395
217	0xbd4019b9	-0.04689953
218	0x3d3fa324	0.046786442
219	0xbc35475f	-0.0110643795
220	0xbb9517c8	-0.004549954
221	0x3cde2210	0.027115852
222	0xbdc78a6f	-0.09743201
223	0xbd52cef3	-0.051466893
224	0x3cdcc5af	0.026949732
225	0xbc8aedb2	-0.016959045
226	0xbcd2c26e	-0.025727477
227	0xbd31ae8f	-0.043379363
228	0x3d948224	0.07251385
229	0xbcc0a448	-0.023515835
230	0x3c526f6d	0.012843949
231	0x3bd2e51c	0.0064360034
232	0xbcff20c3	-0.031143552
233	0x3c17c993	0.009264368
234	0x3d504b93	0.050853323
235	0xbd09f879	-0.033684228
236	0xbdcb8f01	-0.09939385
237	0x3ab6393f	0.0013902559
238	0xbd869391	-0.06571115
239	0x3c8d9af3	0.0172858
240	0x3ce93831	0.028469177
241	0xbd6507a0	-0.055915475
242	0xbda59fed	-0.08087144
243	0xbda2744b	-0.079323374
244	0x3c601203	0.013676169
245	0xbc303d73	-0.010756838
246	0x3d7af3a5	0.061267514
247	0x3c9ed105	0.019386778
248	0x3d632363	0.05545367
249	0xbc074992	-0.008257287
250	0x3c46ac25	0.012126003
251	0xbd12408d	-0.03570609
252	0x3c7d27e0	0.0154514015
253	0x3cd3b9a4	0.025845356
254	0x3e143e48	0.14476883
255	0xbd87e3c0	-0.06635237
