data/baumgartner_C-N/morpholine_emulator/aniline_bm_predictor_1.pt (torch, 38367 bytes, 3 tensors)

input_layer.weight f4 [512, 16]
00000000: 00c8 7a3e 502d 35be 4625 48be 56a8 543e
00000010: fe04 f7bd 4248 e9bd 4118 02be b0b3 863c
00000020: c19f 35be 3437 29be 4b1f 413d 4006 94bd
00000030: 786a 72be d0c6 1cbd 36fc 71be 6866 c9bd
00000040: 11b6 163e 118d 08be b431 003d a1b0 643e
00000050: a282 32be 0bf6 51be 13f4 3d3d f286 313e
00000060: 6de3 3bbe 94e7 c13c 2ad6 333e 9c9c b5bd
00000070: d057 ae3c 66ab 59be 62b2 933d 285d 0cbd
00000080: 0e41 033e f37a 013e d3fb dabd 21ef 4a3d
00000090: 72e3 08be f078 44be fb4f ba3d e66c 3f3e
000000a0: 1b34 1f3e ed3f cc3d 0267 7e3e a849 063d
000000b0: aefd 67be 70a3 6ebe 88b3 6cbe 98fd 0e3d
000000c0: 5b36 f6bd cccd c63d a442 b2bd 48de 9b3d
000000d0: 2ad3 74be 8b8f 113e 3729 3f3e 90b1 67be
000000e0: 5051 013e 1a9c 163e 643e 44be a828 d4bd
000000f0: 889a 5bbd e0ce debd 2391 7bbe 6c03 f73d
00000100: 1a91 70be 6f0e af3d 307e 09bd 7d89 723e
00000110: 501d 75be 0a7f 89bd a67c 85bd d0c4 aa3d
00000120: 8b60 18be f8c3 553e e10c 533e 520a 73be
00000130: 98bc 353e 18e1 323e e6d0 e63d f03f f53d
00000140: f333 54be 26bf eebc 6205 4a3e 6821 16be
00000150: 85e4 2a3e 5d96 883d e071 093d 8022 54bd
00000160: d16e 593d 1ee6 643d e495 91bc a266 46be
00000170: f0ce 67bd a47e ad3d 972b 573e 5c97 05be
00000180: 3d4e 74be 4323 6cbe b66a 213e 4927 033e
00000190: 79ef 09be d4b8 16be e65a 813b c8c6 49bd
000001a0: 2afa e9bc 872b 003e ea91 7cbe 905e 04bd
000001b0: 1868 f5bd da2f 5bbe aece 643e c067 113c
000001c0: f188 afba 6e8b 03bd 741b 283e fd84 cd3d
000001d0: 266b 62be 4ecc 723e d4e8 65be b0ef 513e
000001e0: a8d8 90bd 9072 80bd 03b0 b73d 8023 0ebb
000001f0: eadf 6bbe 1c35 99bd 31e1 8eb9 c833 9cbd
00000200: c439 f939 f0d6 47be c507 5ebd 452d 12bd
00000210: 8369 4e3e 0d44 323e 2414 7dbe f8fb 833d
00000220: 9075 3fbe 5fa7 043e 544d b4bc c005 e9bb
00000230: 9098 a33d 1c69 88bd 288e 7b3e 008e a63a
00000240: eabb 40be 327e f0bc 7622 5abe eda2 9dbd
00000250: c21c 15be 0552 5d3d f1b2 c4bc 4021 613e
00000260: d278 34be 44b3 92bd 7a2d 423e f88e c83d
00000270: 508f 74be d05f b13c 21c0 4ebe 204f f1bc
00000280: b1ce 103e c46e a53d ef8a 5d3d 4860 4fbe
00000290: f843 303e 0e8c 703e f62b 22be 687b 1abd
000002a0: 624a e03d eb11 d23d bb39 3c3e 0a05 363e
000002b0: 888d 6f3d d028 0cbe d0af d63d 148d 2a3e
000002c0: f765 7b3e 1757 58be 9c54 df3c 8656 53be
000002d0: 5a54 e03d ac81 623e e1d3 24bd 902c f6bd
000002e0: 9a02 d13d b6a4 c7bd 997f d5bd e0f7 09bd
000002f0: 5c52 5cbe f898 3fbe 3e17 2dbe 7246 0abe
00000300: 580a debd b397 26be ba20 efbc 34a0 13be
00000310: 41b2 0f3e 7366 22bc 3a3d 6abe e04d d3bd
00000320: 0568 343e 4120 de3d 1303 7fbe 1c4f 2c3e
00000330: 80eb 30bc 2232 793e c9bc 1d3e 3e0d 37be
00000340: 7d5d 40be b932 4bbe 3fdb 553e 7850 ce3d
00000350: ccca a63d a008 b93d 2e16 803e c047 b83b
00000360: 86c1 8abd dce3 5cbe 8f7a 4cbe 5c45 91bd
00000370: 00f5 213d 12d2 75be 879b 8cbd c891 483e
00000380: 94c6 c03d a3cf d9bd 95ca 89bd 2bf1 1dbe
00000390: 5a90 4a3e 0713 b2bd aecf 593d 1cf4 7b3e
000003a0: ca17 803d eb25 843e 36e9 4a3e 8ce2 2d3e
000003b0: 721a 60be 40e3 79bd f6b1 963d d0eb 32be
000003c0: 3f63 963d 8820 003e e70e 4b3e 0727 593e
000003d0: 9c11 0abe 0fda 623e 1e63 85bd 724b 63be
000003e0: 42f0 6bbd 8afc 313e 5d2a 5f3d 167f 48be
000003f0: 4056 55bd 94a6 e33d b6ed 50be e846 4dbe
0.24490356 -0.17693067 -0.19545469 0.2076734 -0.12061499 -0.11390735 -0.12704565 0.016443104
-0.17736723 -0.16524965 0.047148984 -0.072277546 -0.23673427 -0.03827554 -0.23631367 -0.098339856
0.1471789 -0.13335063 0.0312974 0.22333004 -0.17432645 -0.20504014 0.046375345 0.17336634
-0.18348475 0.023669995 0.17562166 -0.088677615 0.021282107 -0.2125679 0.07211758 -0.03426853
0.12817785 0.12644558 -0.10692563 0.049544457 -0.13368014 -0.19186759 0.09097286 0.18693885
0.1554722 0.099731304 0.24843982 0.032785088 -0.22655365 -0.23304534 -0.2311536 0.034909815
-0.12022086 0.097072214 -0.08704117 0.07610756 -0.23908678 0.14214914 0.18668066 -0.22626328
0.12628675 0.14707986 -0.19164425 -0.10359317 -0.05361417 -0.10879302 -0.24567084 0.120611995
-0.23492852 0.08547675 -0.033567607 0.2368526 -0.23936963 -0.06713684 -0.065179154 0.0833832
-0.14880578 0.20875537 0.20610382 -0.23734406 0.17747724 0.17468679 0.11270313 0.11975086
-0.20722942 -0.029143881 0.19728616 -0.14661181 0.16688736 0.066693045 0.033555865 -0.051790714
0.0530842 0.05588352 -0.017771669 -0.19375089 -0.056593835 0.084714204 0.21012722 -0.1304602
-0.2385797 -0.23060326 0.15763363 0.12807955 -0.13470258 -0.14718944 0.0039476035 -0.04926184
-0.02856167 0.12516604 -0.24665037 -0.032316744 -0.11982745 -0.21404973 0.22344467 0.008874834
-0.0013392252 -0.032115392 0.16416723 0.10035131 -0.22111186 0.23710749 -0.22452098 0.2050159
-0.07072574 -0.06271851 0.089691184 -0.002168864 -0.23034635 -0.07480833 -0.0002725213 -0.07627064
0.0004753602 -0.19515586 -0.05420663 -0.035687704 0.20157437 0.17408772 -0.24714714 0.064445436
-0.1869719 0.12954472 -0.02200953 -0.007111281 0.07988083 -0.06660673 0.24565947 0.0012707114
-0.18821684 -0.02935705 -0.21302208 -0.07697091 -0.14561751 0.054033298 -0.024011107 0.2198534
-0.17624214 -0.071630985 0.1896266 0.09792894 -0.23882794 0.021652132 -0.20190479 -0.029456675
0.14141347 0.080777675 0.054087576 -0.20251572 0.17213428 0.23490927 -0.15837082 -0.037715346
0.109516874 0.10257324 0.18381397 0.1777536 0.058484584 -0.13687444 0.10482752 0.1665538
0.24550615 -0.21126972 0.027262025 -0.20638475 0.10953589 0.22119778 -0.040241126 -0.12020218
0.10205574 -0.09748213 -0.10424728 -0.033683658 -0.21515793 -0.18710697 -0.16903397 -0.13503435
-0.10841817 -0.16268806 -0.02919041 -0.14416581 0.14032842 -0.009912121 -0.22874919 -0.10317588
0.17617805 0.10845996 -0.24903516 0.16827053 -0.010798335 0.2433553 0.15404047 -0.17876145
-0.18785663 -0.19843568 0.20884417 0.10073942 0.08144149 0.09034848 0.25016922 0.0056237876
-0.06775193 -0.21571296 -0.19968627 -0.070933074 0.03954029 -0.24005917 -0.06865602 0.19586861
0.09412876 -0.10635307 -0.067280926 -0.1542403 0.19781628 -0.086950354 0.053176574 0.24604839
0.062545374 0.2581018 0.19815525 0.16980952 -0.21885088 -0.061007738 0.07358162 -0.17472768
0.073431484 0.1251241 0.19829904 0.21206294 -0.1348328 0.22153495 -0.06513046 -0.22196749
-0.057602175 0.17381492 0.05448376 -0.1957973 -0.052084208 0.11115757 -0.2040318 -0.2004658

input_layer.bias f4 [512]
00000000: 08a4 1c3c 7c9f 2f3e 3e67 02be 031b bc3d
00000010: 5c53 623d e0bc 203c 7b6a 693d 6de0 6fbe
00000020: ea71 5cbe e1ab 183e 9823 42be b62b 23bc
00000030: 01bc 03be 7ee5 023e 144f 223e fe1b e3bd
00000040: 1280 643d 033f 46be 527f 7c3e c533 bbbd
00000050: 433d bbbc e5e8 6e3d 1197 f53d 830c e7bd
00000060: aa1f 513e 6641 14be 45f0 663c e634 12be
00000070: 6077 56bd c5f9 463d 6be1 debc b0f2 b93d
00000080: d081 70be f15b c63d d3d3 0c3e 143a cbbd
00000090: 493d 41be e112 303e 8f4a 843e a60b 6abe
000000a0: d7ff 2c3e 6d46 0fbe 8614 b6bc 982c 45be
000000b0: d8e8 aabd c2fe b83d 294d 493e fb25 e9bd
000000c0: 463b 4a3d ada4 00be 23a8 4b3d a485 f2bc
000000d0: 052a 2d3e d17e 70be 6abd 9f3b 9563 37be
000000e0: 2154 263e ba29 783e 8368 3d3e a6c1 65bd
000000f0: 6ac6 293e 4249 0b3e 1dff c33d c1a3 793e
00000100: 48ed 88bb 4aa6 193e 3c86 613e fba7 2dbe
00000110: aedf 0dbe 9a28 bebd 7e59 763c 2315 8f3d
00000120: 48d0 693e 7472 933d 9488 b5bd 0fde c03b
00000130: f956 1f3c 37d7 823e d287 733c 741a 373e
00000140: 5e20 2f3e 49e3 3b3d d799 4abd 46f3 53be
00000150: 7c0b 0a3d 70b1 71be 71af 1bbe d5f5 7bbe
00000160: 59d7 553e 3706 143e ff91 b0bd 7ec4 4f3e
00000170: 3ec8 323e dff9 4cbe 72ad 133e fd5c 23be
00000180: e1f6 b4bb 90c0 38bd 5b71 633e 8967 b5bd
00000190: 3e9c 05bd 23ad 4cbe 54f6 4d3e 658e 2ebe
000001a0: be7d 67be 4850 babd 9ff1 32be 29f3 5e3e
000001b0: c975 ab3b bd65 0bbe 1874 d93d 2482 393d
000001c0: ea0d bcbd 7729 5bbe 9539 06be f010 263d
000001d0: 261e c03d 56b9 673e 0b3d 2a3e 16c2 1d3e
000001e0: 16c3 3fbe a6dd 233e 6d00 7bbe 025a 5fbe
000001f0: 75b0 333e 23d8 1abe 6eb0 8cbd 9be6 133d
00000200: 1066 423d e05c 95bd 07e0 13be 5979 16be
00000210: bc5c 0c3e b0e9 33be 1164 e13d d1a4 7ebe
00000220: 6168 79be 296d 67be 05ec 2abe 11d8 1abd
00000230: 3941 89bd b3a1 cebd 7ecf 663d 30c1 5c3c
00000240: b7c1 333e 18d2 7c3e b867 3f3e a8dd 8bbc
00000250: c03f 293e be2d e4bc 9ffa 733d 2a35 9c3c
00000260: 7336 47be 23a2 6dbe f5c2 c2bd 29ce 323d
00000270: 6be0 b2bd f862 1f3c d652 48be fd36 af3c
00000280: 8aa0 653c c339 543e f0ae 163e 263c 3ebe
00000290: a0d9 c03d f561 103d 311e 23be db88 863d
000002a0: 7c2f 513e cd14 4abe 516f 643e 1642 41be
000002b0: b47a 3cbe eab8 223e a158 ce3d d880 9e3d
000002c0: 51b6 453c d8cc 53be a160 2a3e 71c7 bdbb
000002d0: 0324 cb3d 2bda 2abe 4160 373d 9765 45be
000002e0: 9b23 553e 0edc 393e 60e2 593e dd08 c83d
000002f0: a353 153e 2f5e 64be c0cd 59bd 990f ca3d
00000300: efb5 4a3d 564e fe3d 0202 90bd 940a 52be
00000310: 6bf5 5fbc 88ed 25be 7529 0c3e a63c 93bd
00000320: 0a86 f73d 02f1 d33d cf7a f43d b63f 03be
00000330: 4499 713e d312 ebbd 8d49 a93b 0920 46be
00000340: d5ac 9cbd d494 17be 8bd5 4f3d bd46 d73d
00000350: 036a 003e 8151 a0bb e27b 773b 6239 b0bd
00000360: 9182 d9bd 3c37 613e cdc5 3c3d 1754 153e
00000370: 2f41 023d 3440 343e 5d88 513c ae16 e93d
00000380: e06b 2fbd 3f85 76be 31e3 8ebd 87a3 753e
00000390: 401a 23be 0be9 22be 4f35 02be 0766 32be
000003a0: 62ce ddbd 659e 603e ad8b 06be 6104 a0bd
000003b0: 1427 e23d 1e18 013d df2d 18be 5ada 8ebd
000003c0: 8839 f4bd 09a2 20be 2469 94bd 3d28 05be
000003d0: 7243 2bbd 0c30 08bd 57a5 cabd 5391 293d
000003e0: fe93 afbd 5e18 3cbe e85e 903d fbe0 563b
000003f0: 65d2 1fbe 194a 5dbd f85c 0cbe ef8b 903d
0.0095605925 0.17150682 -0.12734696 0.091848396 0.05525528 0.009810656 0.056986313 -0.23425455
-0.2152783 0.14909317 -0.1895889 -0.009959152 -0.12864687 0.12782857 0.15850478 -0.110893235
0.0557862 -0.19359975 0.24657944 -0.09140734 -0.02285636 0.058327574 0.11991704 -0.11281683
0.20422235 -0.14478073 0.014095371 -0.14277992 -0.05235994 0.048578043 -0.027207097 0.09079492
-0.2348702 0.09685505 0.1375268 -0.09923187 -0.18871035 0.17194702 0.25838134 -0.22856006
0.1689447 -0.13991709 -0.022226583 -0.19255292 -0.08345193 0.09032966 0.1965834 -0.11384197
0.049372934 -0.12562819 0.049720895 -0.02960474 0.1691056 -0.23485877 0.004874875 -0.17909081
0.1624303 0.24234667 0.184969 -0.05609288 0.16579595 0.13602164 0.09570143 0.24378873
-0.0041786768 0.1500484 0.22023863 -0.1695861 -0.13854858 -0.09285088 0.015035985 0.069864534
0.22833359 0.071995646 -0.08863941 0.0058858464 0.009725326 0.2555482 0.014863925 0.17881185
0.17102191 0.045871053 -0.04946312 -0.2069827 0.03370236 -0.23602843 -0.15203644 -0.24605496
0.2088293 0.14455496 -0.086215965 0.202898 0.17459199 -0.20017193 0.14421633 -0.15953441
-0.0055225943 -0.045105517 0.2221121 -0.088576384 -0.032619707 -0.19987921 0.20113498 -0.17046507
-0.2260656 -0.09097344 -0.17474984 0.21772446 0.005232547 -0.13613029 0.10617846 0.045290127
-0.091823414 -0.21402536 -0.13107903 0.040543497 0.0938075 0.22629294 0.16624849 0.15406069
-0.18726763 0.16002521 -0.24511881 -0.21811679 0.17547782 -0.15121512 -0.06869589 0.036108594
0.047460616 -0.07293105 -0.14440928 -0.14694728 0.1370725 -0.17569613 0.11005414 -0.2486756
-0.24356224 -0.22600235 -0.16691597 -0.037803713 -0.06701893 -0.100894354 0.056350224 0.013473794
0.17554365 0.2468952 0.1869191 -0.017073467 0.16528225 -0.027853843 0.059565183 0.01906832
-0.19454364 -0.23206381 -0.09509841 0.04365364 -0.087342106 0.009728186 -0.1956285 0.021388525
0.014015326 0.2072516 0.14715171 -0.18577632 0.09416509 0.03524967 -0.15929486 0.06569072
0.2042827 -0.19734497 0.22308089 -0.18872866 -0.18406183 0.15890852 0.10075498 0.07739419
0.012067393 -0.2068361 0.16638424 -0.0057915975 0.09918978 -0.16684787 0.04476953 -0.19277035
0.20814364 0.1815035 0.21277761 0.097673155 0.14582686 -0.22301553 -0.053174734 0.09866256
0.04948991 0.12417285 -0.07031633 -0.20511848 -0.013669352 -0.16203892 0.1368769 -0.07189302
0.12086113 0.10348703 0.119374864 -0.12817273 0.23593622 -0.114782 0.0051662386 -0.19348158
-0.076501526 -0.14802867 0.05074076 0.10511539 0.1254044 -0.0048925285 0.003776305 -0.08604695
-0.10620607 0.21993726 0.046087075 0.14582859 0.031800445 0.17602617 0.012788859 0.11381279
-0.042827487 -0.24074267 -0.06976927 0.23988162 -0.15927982 -0.15909211 -0.12715648 -0.17421733
-0.1083038 0.21935423 -0.1313922 -0.07813335 0.1104261 0.03151714 -0.14861248 -0.06975241
-0.11925036 -0.15686812 -0.072466165 -0.13003631 -0.041812368 -0.033248946 -0.09894817 0.041398358
-0.08573149 -0.1836867 0.07049352 0.0032787907 -0.15607603 -0.054025743 -0.1370734 0.0705794

output_layer.weight f4 [1, 512]
00000000: 8668 b0bc b0c8 31bd 9e94 6fbd 836e 4e3c
00000010: 8890 49bc 4128 11bd 8a2a 5a3c 921b 2ebc
00000020: 131a 933d 3a56 57bd 8ce1 253e 7c79 21bd
00000030: 3bb3 a2bb 77d3 a6bd b794 d53d 93f4 283d
00000040: b317 d63c 34b0 5dbd 766a 8b3c fddf fb3b
00000050: ddd5 373d 20b5 38bd 19f2 5fbd bdfe b93c
00000060: c350 dabd 8d15 46bd 218e 1fbd 37b9 38bc
00000070: 52cd 8abc e133 c0bd 93da f93c 392b d83c
00000080: f660 133d 9322 2cbd 3f0d 7dbd ce11 373c
00000090: 5ce2 023e b86d 83bd 13e0 843d 6eeb 22bd
000000a0: 331f f8bc 3e00 61bc 26ec 5b3d 55c1 4abc
000000b0: 2845 1d3b 14e1 2e3d aebc 46bc bcc7 51bd
000000c0: 25c8 013d 85bf 1f3d 3851 463c 05f8 55bd
000000d0: 5078 3f3d 155f 53bc c273 143c a2af 8b3d
000000e0: 4d3b 3b3d cd86 20bd 3254 8eba 62e3 9ebc
000000f0: 3bb8 813d 6882 bbbd 35c7 013e af75 e0bd
00000100: a183 463c 2281 70bc f4f1 31bd 6e4d f53b
00000110: 744d 6c3d dda4 ccbb e944 01bd 8113 343d
00000120: cb68 afbb 9c48 37bd d8c8 4f3b e4a7 f03c
00000130: eab3 00bb b2e8 79bd 98e9 6b3c 37f5 3abd
00000140: 8e7a febd a58f a4bc 69b6 81bd f84b f33c
00000150: f14e ffbc b8e5 563a 54f0 0d3d ae97 afba
00000160: 453f 5fbd d1ec 76bd 2620 87bc d324 2abd
00000170: f061 0f3d e134 ec3d c169 46bd e3f5 a23d
00000180: 6e37 e63c 2148 2b3a 85dc 06bd 4cd4 82bd
00000190: 0ca0 03bc b3f5 373c 627b a33d e272 b6bc
000001a0: ed16 1b3d 38fa 973c a8fc 41bd 8b81 16bc
000001b0: cdae 3f3c eb58 c13d 4534 4fbd 0338 b3bb
000001c0: 05c9 2d3d a431 55bd 41d2 883c 0921 b239
000001d0: ffe0 35bd abd8 543c 6bf3 a73c af5f 69bc
000001e0: 2159 9c3c 6177 19be f1b0 8dbb 05dd 4ebd
000001f0: a30b 603c f0ba 66bd a0c1 30bd d859 013d
00000200: 489b 92bd 400a a4bc ca94 9bbc a118 69bc
00000210: 5cef 8b3c baeb 063d 6278 bfbb 1eca e23c
00000220: aa0d 183d 5c31 b6bc 8a99 19bd 5810 efbc
00000230: 0172 163b 0385 5ebd 11be 63bd c0a7 2dbd
00000240: ab33 473c 85d8 2ebd 3a0c ae3c e61c 09bd
00000250: c9c8 213e 39e2 5fbd d598 0f3e 9cfe 19bc
00000260: 022a 56bc 6e16 483d baf6 753d 66b7 22bd
00000270: 8be6 20bd 1428 73bd 69df 43bc 9108 473d
00000280: e0f8 45bd 6803 28bd b24d eb3b 2372 d2bc
00000290: 8e5b da3c 7d20 313d daf8 f7bc 36f0 7f3c
000002a0: c095 443d d730 b33c 9281 183c b584 d3bc
000002b0: 409b 07bd b0bd 29bd 9846 293c 0dc9 a4bc
000002c0: 51f3 b0bd 5259 2cbd e6ea 8abb 4cb5 383d
000002d0: 4a2a 89bc e283 3c3b cda8 bfbd 72d0 00bd
000002e0: 2b6d 6fbc fe57 e7bd fce3 b239 fe40 00bb
000002f0: 6aac 03bc cbc8 5abc 81f9 c83d 3773 5e3d
00000300: 95ae aa3c 803a 12bd b4ba 573d 6045 593d
00000310: fa1e d23c 6083 6e3d d6fd 433d 3928 24bc
00000320: 3b12 1ebd d7e7 1fbb ea34 42bd 20d1 f6ba
00000330: aa89 5bbc e8a0 77bc b039 383d b9f7 99bb
00000340: 9eb6 ed3c 05c0 09bd eb12 0d3c 6169 573c
00000350: 5ba0 a53d 7402 183d c910 3c3d 8223 4a3c
00000360: 2687 9d3a debe 97bc 1ec6 c53c b5cf ffbc
00000370: 2158 113e a974 cebd 4848 10bc 999b 953a
00000380: e616 97bc c7b6 ba3c 7f33 b93c c1c9 1ebe
00000390: 8995 62bc 3197 f0ba 727b 55bc e77d eb3d
000003a0: ea57 d9bc 5017 0e3c 6617 c53b e125 0d3e
000003b0: b578 f9bc 9465 27bc c8c8 79b9 09a2 e83c
000003c0: fecc 64bc 4a71 82bc 3420 55bd 31ad 8c3d
000003d0: a78e 4fbc b789 9d3d 2720 f5bc d5ad b6bc
000003e0: 3dff 8bbd b3b8 f5bc 5ec5 1bbc 67b9 f8bb
000003f0: f5c5 afbc 87fd 6cbd 9e25 553d aaf0 393c
-0.021534216 -0.04340428 -0.05849134 0.01259959 -0.012302525 -0.03543878 0.013315806 -0.01062669
0.07182708 -0.052572466 0.1619932 -0.039422497 -0.0049652136 -0.081458025 0.10428756 0.04124887
0.026134348 -0.05412312 0.017018538 0.0076866136 0.04488169 -0.04509461 -0.05467424 0.022704476
-0.10659935 -0.048360396 -0.038953904 -0.011274627 -0.016943607 -0.09384895 0.030499732 0.026387798
0.03598114 -0.04202516 -0.06178021 0.011173679 0.12781662 -0.064174116 0.06488051 -0.039775304
-0.030288314 -0.013732968 0.053692006 -0.0123751955 0.002399752 0.04269512 -0.012129946 -0.051215872
0.031685013 0.039001007 0.012104325 -0.052238483 0.0467456 -0.012901087 0.009060802 0.06820609
0.04571085 -0.039191056 -0.0010858832 -0.019395534 0.06333967 -0.091557324 0.12673648 -0.10959946
0.012116344 -0.014679225 -0.043443635 0.007486037 0.057691053 -0.006245239 -0.03155986 0.043963913
-0.0053530685 -0.04474698 0.0031705406 0.029376931 -0.0019638487 -0.06101293 0.014398955 -0.04564401
-0.12425719 -0.020088026 -0.0633362 0.02969931 -0.031165572 0.0008197683 0.034653023 -0.0013396644
-0.054503698 -0.06028444 -0.016494822 -0.041539025 0.03500551 0.11533523 -0.0484407 0.079570554
0.028102603 0.00065338804 -0.032925148 -0.06388149 -0.008033764 0.011228013 0.07982518 -0.022271577
0.03786366 0.01855193 -0.047360092 -0.009186159 0.011699391 0.09440788 -0.050586957 -0.0054693236
0.042428035 -0.052049294 0.01670182 0.0003397542 -0.044404026 0.012991111 0.020501813 -0.014244004
0.019085469 -0.14986946 -0.0043240716 -0.05050375 0.013674649 -0.05633062 -0.043153405 0.031579822
-0.07158524 -0.020024419 -0.018991847 -0.014227063 0.017081909 0.03293965 -0.005843208 0.027684268
0.037122406 -0.022240333 -0.037499942 -0.029182598 0.0022956135 -0.05432607 -0.055601183 -0.042396307
0.012158315 -0.042686958 0.021246064 -0.033474825 0.1579925 -0.054659102 0.14023145 -0.0093990825
-0.013071539 0.048849516 0.06004975 -0.039725684 -0.039282363 -0.059364393 -0.011955121 0.048592154
-0.04833305 -0.041018873 0.007180893 -0.02568919 0.026654985 0.043243874 -0.030270029 0.015621236
0.047994375 0.021873875 0.009308236 -0.025820116 -0.033107042 -0.041440666 0.010331772 -0.0201154
-0.08640159 -0.04207737 -0.004239428 0.045094773 -0.016743798 0.0028765132 -0.09358368 -0.03144879
-0.01461343 -0.1129608 0.00034120667 -0.0019569988 -0.008036712 -0.013353537 0.09813214 0.054309096
0.0208352 -0.03570032 0.05266829 0.053044677 0.025649536 0.058230758 0.0478495 -0.010019355
-0.038591605 -0.0024399662 -0.047413744 -0.0018830635 -0.013399521 -0.015114047 0.04497689 -0.0046987203
0.029017743 -0.03363039 0.008610467 0.013147683 0.08087226 0.037111714 0.045914445 0.012337567
0.0012018427 -0.01852363 0.024142321 -0.031226972 0.14193775 -0.10080845 -0.008806296 0.001141417
-0.018443536 0.022792233 0.022607563 -0.1550665 -0.013829597 -0.0018355605 -0.01302992 0.11498623
-0.026531179 0.00867255 0.006014752 0.13783981 -0.030453065 -0.010217089 -0.00023821287 0.028397577
-0.01396489 -0.015923161 -0.052032664 0.06868971 -0.012668288 0.07692283 -0.029922558 -0.022299686
-0.06835792 -0.029995298 -0.009507505 -0.007590461 -0.021456698 -0.05785897 0.052037828 0.011348883
