data/baumgartner_C-N/morpholine_emulator/aniline_bm_predictor_0.pt (torch, 38367 bytes, 3 tensors)

input_layer.weight f4 [512, 16]
00000000: 3487 4a3e b1a9 5c3e ede4 633d 06bd 28be
00000010: 132c 7e3d a575 d73d 2d5c 49be 304e 1ebe
00000020: 0e9c 0ebd 9ca6 cdbd daca 6b3c 2cce f6bd
00000030: 50d8 6cbd 883e 633d 8bd4 963d 5a2a 753e
00000040: d3f2 0b3d de81 00bc 2a24 11be 944a a8bd
00000050: 6f5e 973d 0877 18bb db39 9abd 5809 a23d
00000060: af98 29be 83e3 a2bd 425d 9cbd 0665 73be
00000070: 6094 3c3d 5c98 f33d 42b3 7e3e 5ec8 573e
00000080: 726b c0bd f4e8 1a3e b486 acbd f25e 6bbe
00000090: 1208 cc3d 16d2 31be fe23 c53d e0df 2d3e
000000a0: e042 43be d451 6cbe 9a14 54be 88cb 48be
000000b0: 76fc 63be e064 553c be5f 03bd 927d 293e
000000c0: a75a 083e 83c3 5d3d aab6 173e 3267 8ebd
000000d0: bb09 6bbe 72e8 443e 4961 813e fe25 1cbe
000000e0: c01c 4fbe 3900 653e fa98 5b3e 20f1 72bd
000000f0: f0a3 7c3d 302f 193d bf13 7f3e 281e fa3d
00000100: ad0f 5c3e 9a4e 123c ef05 163e 326b 153e
00000110: 0dd0 98bd e90b f3bd b237 b4bd e4a2 d53d
00000120: 0f59 f7bd b92d 263e 3b79 333b 2e45 2d3e
00000130: 5842 543d 141d 813d 89c5 493c 087b 653e
00000140: e655 afbd 91aa 6bbe a58b 80b9 a3c4 693d
00000150: d9e0 9cbd a99e 1c3e b29f 6fbe ee35 423e
00000160: b00b 07b7 46c8 95bd d037 9abd b6fe 1f3e
00000170: 32c3 233e 7846 7cbe 61f8 96bd 283c 6fbe
00000180: 039b 03be eff9 173e 01af 9b3d a783 a03d
00000190: 6c12 f8bd edd1 a0bd 2247 09be 9635 173e
000001a0: 40d0 d6bd a50e 3abd f39b 7c3d b448 99bd
000001b0: 40ef 70be ace7 6cbe 8be7 28bd c203 14be
000001c0: 80b1 013d f8b0 14bd e066 79bc f096 b23c
000001d0: 105a d4bc 91c1 4f3e b016 a8bd 40d4 843b
000001e0: 20b6 9e3c 7b85 313e a097 07be 2095 7b3c
000001f0: 1c9d 1ebe 2cdd e73d e34b 6bbe 30a4 133e
00000200: 952f 1abe f259 ef3d e973 4b3d 675c a83d
00000210: 4690 6dbe 8a2a 36be a5a6 aebd 502a 86bc
00000220: aae6 313b 8280 6c3d 6100 17bd 0c44 903d
00000230: e00e dcbc a04e 753c 4d45 053e 96b5 173e
00000240: e03a 56be 6eba 88bd 616c fabd f4be 02be
00000250: 4568 a4bd 2436 97bd 76d5 583d 1a39 013e
00000260: 0376 2d3c 791f afbc ade4 3a3d 9080 723d
00000270: 788e 50be 9800 19be 7c74 3b3e 9801 e7bd
00000280: 6fd2 773d c1cf f3bd 5662 6d3e 149b 423e
00000290: 4bce 993c 5d96 393e 9099 223e 7218 793e
000002a0: 1963 97bd e79b 4dbe f0d9 8b3c 40c2 73bd
000002b0: 10bd 41be 3835 db3d 37bd 5abe 14fc 6e3e
000002c0: a7f6 3bbe 4daf 34be 5956 3f3e 5358 553e
000002d0: 5f4b 233d 50d5 56be b5ec f7bd 7004 91bd
000002e0: be9c c03d b6d7 febd 3f23 c7bd d086 113e
000002f0: acd8 b5bd be96 2dbe 059f de3d 7438 963d
00000300: 6fbd a3bd 8503 e53d 1150 823e e7d2 453e
00000310: 8aef 5dbe 7a00 663e eb4e 203e 7884 673d
00000320: 3d72 2dbe fd17 66bc fb76 c7bd 0079 50bb
00000330: 80ab 7b3c 0490 45be 2152 5bbd f2cd 6b3e
00000340: 1e0e 25bd ed07 183e 62be e4bd 5d86 2f3e
00000350: 34cc 503d d577 123e 641d 543e f494 003e
00000360: 6aac 39be 53ab 493e da0d 783e 30e0 b5bd
00000370: d80e 6ebd 2c25 143e df59 cbbd 944f 5a3e
00000380: 3c9d 00be 1618 453d 6aa5 5a3c 4ef6 443c
00000390: 7f8c 323e 4ad0 1ebe 3242 303d eea4 2b3e
000003a0: e4c1 b03c 2ec4 05be 232f ecbd 8870 043e
000003b0: 4c9d d5bd a8a3 793e f814 fabd 1e53 513e
000003c0: 835d 04bd d4ae dc3d 394a 8cbd 50b7 cb3c
000003d0: 6a7d 2c3d 2669 b8bd 5b78 f73d f42b 753e
000003e0: d106 38be 9b75 6bbe 5c2f 75be dc25 553e
000003f0: 602a 82bc ec70 efbd 873a 553e be92 203e
0.19778138 0.21549107 0.055638243 -0.16478357 0.06205375 0.10520486 -0.19664069 -0.15459514
-0.034816794 -0.10041544 0.014391625 -0.12051043 -0.05782348 0.055479556 0.07364758 0.23941937
0.034167122 -0.007843463 -0.14173952 -0.0821735 0.07391059 -0.0023264308 -0.07530566 0.079119384
-0.1656215 -0.07953551 -0.07634975 -0.23769006 0.04603994 0.118942946 0.24873069 0.21072528
-0.093954936 0.15127927 -0.0842413 -0.22985438 0.09962477 -0.17365298 0.096260056 0.16979933
-0.1906848 -0.2307809 -0.20710984 -0.19608891 -0.22264275 0.013024539 -0.03207373 0.16551808
0.13315831 0.054141533 0.14815775 -0.06953277 -0.2295293 0.19229296 0.25269535 -0.15248868
-0.20225811 0.22363366 0.21445075 -0.059311986 0.06167978 0.037398517 0.24909876 0.12212783
0.21490355 0.008929873 0.14650701 0.14591673 -0.074615575 -0.11867506 -0.087996855 0.104314595
-0.120775335 0.1622838 0.0027385491 0.16920921 0.051821083 0.06304374 0.012315162 0.22410214
-0.08561306 -0.23014285 -0.00024518106 0.057072293 -0.07660074 0.15294899 -0.23400763 0.18965885
-8.049348e-06 -0.0731359 -0.07530177 0.15624508 0.1599243 -0.24636257 -0.07371593 -0.23362792
-0.12852101 0.14841436 0.07601739 0.07837611 -0.12112889 -0.0785254 -0.13406041 0.14766535
-0.10488939 -0.045424122 0.061672162 -0.0748457 -0.23528767 -0.23135251 -0.04123644 -0.14454558
0.031663418 -0.036301583 -0.015222281 0.021800488 -0.025921851 0.20288683 -0.08207452 0.0040536225
0.019373953 0.17336075 -0.13241434 0.015355378 -0.1548962 0.11321482 -0.22978167 0.14418101
-0.15057214 0.116870776 0.049671087 0.08220749 -0.23199567 -0.17789665 -0.08527879 -0.016377598
0.0027145543 0.057739742 -0.036865596 0.07044229 -0.026862562 0.014972359 0.13014717 0.14815363
-0.20920897 -0.06676184 -0.12227703 -0.12768155 -0.080277 -0.073833734 0.052937947 0.12619439
0.010587218 -0.021377312 0.04562824 0.059204638 -0.20366848 -0.14941633 0.18306154 -0.11279601
0.06050342 -0.1190486 0.23182043 0.1900447 0.018775126 0.18123765 0.15878892 0.24325731
-0.07391948 -0.20079003 0.017071694 -0.059511423 -0.18919778 0.1070351 -0.21361242 0.23338348
-0.18355809 -0.17644997 0.18685283 0.20834474 0.0398668 -0.2097981 -0.12105695 -0.070809245
0.09404896 -0.12443487 -0.097235195 0.14211583 -0.088792175 -0.16952035 0.10870174 0.07334986
-0.07995116 0.11182312 0.2545171 0.19318734 -0.21673408 0.2246112 0.15655105 0.056522816
-0.1693811 -0.014043805 -0.097394906 -0.0031810403 0.015360713 -0.19293219 -0.05354512 0.2302778
-0.040296666 0.14846773 -0.11169125 0.171411 0.050975993 0.14303525 0.20714337 0.12556821
-0.18132177 0.19694261 0.24224034 -0.08880651 -0.058119625 0.14467305 -0.09929251 0.21319419
-0.1255998 0.048118673 0.013345102 0.012021614 0.17436408 -0.15509143 0.04303188 0.16762134
0.02157683 -0.13063118 -0.11532428 0.12933552 -0.104303926 0.24378836 -0.12211031 0.20441863
-0.032315742 0.10775533 -0.06850094 0.024867684 0.04211179 -0.090044305 0.12083503 0.23942548
-0.1797135 -0.22994082 -0.23943847 0.20815223 -0.015889347 -0.1169146 0.20823108 0.15680978

input_layer.bias f4 [512]
00000000: 733b e13d a0c4 973d dd43 46be 5d3e 673e
00000010: 73f9 a0bc 69a3 b7bd c0a0 1cbe 6d51 19be
00000020: b52c 69be cad0 dcbd 8aa6 fa3c 5e4c 86bd
00000030: c4e2 28be 0a4b 503d dff0 313e 3144 0fbd
00000040: 952e 61be 1899 a5bd b09a 143d 5a6f 033d
00000050: fbd3 a2bc 4ed1 643e d676 afbd 09ec 383e
00000060: b7ae 30be 301a fbbd 27ac 543c de48 743d
00000070: 9bfe 4a3e 8b52 00be 944f 0e3e 3e32 0b3e
00000080: 635e 17be 58b6 64be 5511 22be fe17 49be
00000090: 601c 21be 954c dbbd 09c3 373c 0d15 503e
000000a0: 2793 5dbe 1241 82bd 4633 0abe ab54 f7bd
000000b0: 307f 7b3e 1abb 6ebe 6220 b8bc c547 863d
000000c0: 585e 653e 5b3b ad3d eb2a 593e a1d7 a2bc
000000d0: 8c76 583e 8509 3abe a60d 9bbd 1bb1 c7bd
000000e0: 7373 00be 0325 2ebe d602 9b3c baad c73d
000000f0: 55f1 743d f639 87bd 8827 43be cc10 26bd
00000100: 4c85 f4bd eef3 a23c 1686 76be 6913 cc3d
00000110: 4122 10be 100a e7bb b31e 9bbd 6003 dc3d
00000120: cb19 e83c 7cd5 d83d ef0d 73be 9af4 413e
00000130: cf25 6e3d b282 6cbe 76d3 bb3c 1a90 6abd
00000140: 4c31 e33c 242a c3bc 7ac2 7ebd b23f 833d
00000150: 6429 393e 11b0 473e 00da a8bd d9a8 d4bc
00000160: 4909 acbc b7b0 c63c 1046 4fbe 2b24 de3c
00000170: 1d90 823c b458 64be 382f f8bd 83a2 b73d
00000180: 494f 843d 7a80 443e 99e1 84bd e645 693e
00000190: 6517 353e 1158 733e 4328 783e b887 52be
000001a0: a870 b83d 12b7 56be 947f bdbd d817 70bd
000001b0: b65f 80be 080b 56be 6575 663e a1a3 f33c
000001c0: 9ce4 41be b323 573d 701a 913d 52c3 533c
000001d0: 4cbc 47be 3498 aebd bf3c 2fbc 699f dbbd
000001e0: 7c28 553e 7114 5a3e d864 5dbe 7659 dc3d
000001f0: ccd2 72be 2f70 753e a554 c8bb b29a 5fbd
00000200: 8e3f 713e 2743 5abd cdd9 483d af85 4c3e
00000210: 4ed3 25bc d532 3dbc d1c6 63bd c058 ee3d
00000220: e9fe 1abe 8708 093e 9c14 9ebd 74ae abbd
00000230: 25ad ec3d 673e 6f3e d259 3abe 46cf c0bd
00000240: 0f95 913b 324e 043d 713e cf3d 5a3a 403e
00000250: 0ea9 53be 69a8 ce3d 1b3a 80bd 2f95 653e
00000260: 4ad2 72be bfbf 763d 4489 5d3e 5e15 1e3e
00000270: cc6e f2bd f3fa 2b3e cd68 343e 0b02 edbd
00000280: 065c 473e 9091 4b3e c7d1 bbbc fc82 703e
00000290: 0607 3fbe 1b1c 51be fcbf d13d 0d3f c1bd
000002a0: 107f 0a3e 202e 57be fe3a 593e 23dc c9bd
000002b0: 798b 463e fe4f a6bd d0e7 2dbe 339a 70be
000002c0: da66 013e 453c 6abe f7d1 c0bd 28b6 72be
000002d0: 5154 473e 8b0e 43be 3e1b 9f3d 094a c23d
000002e0: 4e3b 383e 2b38 753e c4df 1ebe 26b5 d8bd
000002f0: d3c4 da3d feb6 713d fbf0 033e 91b3 12be
00000300: 8ace 22bc b4f0 1cbe 9fb1 b23d a82f b5bd
00000310: c3d9 b2bc 1ffa 693e 8576 21be 2086 43be
00000320: e359 183e e8f7 41bc c4ce 223e 609c 4fbc
00000330: 189e 4abe ec3b e7bc 644d d03d 4e0e 1a3e
00000340: 59c9 313e 3e93 c03d 32aa 513e e42c 79be
00000350: 5171 993c d2fa 373e 854e 58be 0984 ba3d
00000360: 564e f7bd 4cf6 bdbd 61c5 9f3d de6a cebc
00000370: 1053 8fbc e8a8 42bd 8033 0c3e 932e 1b3e
00000380: cd91 93bd 1d08 afbd b759 c83d 1046 863d
00000390: a6c7 403e 3aee 803e a0a3 74be ed7a 9c3d
000003a0: 4260 22be ad05 a6bd 2502 983d 7f4e aabd
000003b0: ce53 c83d ead0 4bbe 0fb3 1f3e 78f5 593e
000003c0: c7be 153d 3fe0 6abe e33c 653c 0186 9e3c
000003d0: 0bd2 8d3c 9a15 353e 72a1 7f3e 5977 3c3e
000003e0: b274 dd3c 02c9 99bd 3b20 3cbe 0b46 5abe
000003f0: e93b 7abd a46e d6bd 06a2 983d 5876 b03d
0.10997667 0.0741055 -0.19361825 0.22582383 -0.019650197 -0.08966715 -0.15295696 -0.14972468
-0.2277096 -0.10782011 0.03059699 -0.06557535 -0.16492754 0.050852813 0.17377041 -0.03497714
-0.21990426 -0.08085841 0.036280334 0.032088615 -0.01987647 0.22345468 -0.08567588 0.1805879
-0.17254148 -0.12260854 0.012980497 0.059639804 0.19823687 -0.12531488 0.13897544 0.13593385
-0.147821 -0.22335184 -0.15826924 -0.19638059 -0.1573348 -0.10707966 0.011215934 0.2032053
-0.21638165 -0.063600674 -0.13496122 -0.12076696 0.24560237 -0.23313561 -0.022476379 0.06556658
0.2239927 0.08458587 0.21207778 -0.01987821 0.21138972 -0.18167694 -0.075709626 -0.09750577
-0.1254404 -0.17006306 0.01892225 0.097499326 0.059800465 -0.06602852 -0.19058049 -0.040543362
-0.11939487 0.019891705 -0.24074587 0.0996464 -0.14075567 -0.00705076 -0.07574215 0.10742831
0.028332612 0.10587594 -0.23735784 0.18940964 0.058141526 -0.23096731 0.02292798 -0.057266332
0.027733468 -0.023823805 -0.062197186 0.06408633 0.18082196 0.19500758 -0.08244705 -0.02595942
-0.021000521 0.024254186 -0.2024157 0.027116856 0.01593786 -0.22299463 -0.12118381 0.089665435
0.06460435 0.19189635 -0.06488342 0.2278057 0.17684706 0.23764063 0.24234109 -0.20559585
0.090058625 -0.20968273 -0.09252849 -0.05861649 -0.25073022 -0.20902646 0.2250572 0.02974111
-0.18934864 0.05252428 0.07085121 0.012924986 -0.19505423 -0.08525124 -0.010695635 -0.107237644
0.20816225 0.2129686 -0.216205 0.10759251 -0.23713225 0.23968576 -0.006113606 -0.05459089
0.235594 -0.053286698 0.049035836 0.19972871 -0.01012118 -0.011547764 -0.055609528 0.116380215
-0.15136303 0.13382159 -0.07718775 -0.08382884 0.11556462 0.23363648 -0.18198326 -0.09414534
0.004442818 0.032301135 0.10119332 0.1877226 -0.20669958 0.100907154 -0.06261083 0.2242019
-0.23713031 0.060241457 0.21634394 0.15437838 -0.11837539 0.16794948 0.17618103 -0.11572655
0.19468698 0.19879746 -0.022927178 0.23487467 -0.18655023 -0.20420878 0.10241696 -0.09435854
0.13525033 -0.21013689 0.2121391 -0.09856441 0.19389142 -0.08120726 -0.1698296 -0.23496322
0.12636891 -0.22874554 -0.094150476 -0.237023 0.19465758 -0.19048516 0.07768868 0.09486777
0.17991373 0.23947208 -0.15515047 -0.10581426 0.106820725 0.059012406 0.12884896 -0.14326312
-0.009936938 -0.15326196 0.08725285 -0.0884698 -0.021832353 0.2284932 -0.15767868 -0.19094133
0.14878039 -0.011838891 0.15899187 -0.01267156 -0.1978687 -0.028226815 0.10171011 0.1504452
0.17361964 0.09403084 0.2047508 -0.2433353 0.018730791 0.17966774 -0.21123703 0.09107215
-0.12075488 -0.09275493 0.07801319 -0.025197443 -0.017495662 -0.047524363 0.1369152 0.15154485
-0.07205544 -0.08546469 0.09782737 0.06556332 0.1882616 0.25181752 -0.23890543 0.07640634
-0.15857032 -0.08106551 0.07422284 -0.08315753 0.097816095 -0.19903913 0.15595649 0.21285045
0.036558893 -0.22937106 0.013991567 0.019351007 0.01731207 0.17684022 0.2496393 0.18404903
0.027033184 -0.07509042 -0.1837167 -0.21315782 -0.06109229 -0.10470322 0.074527785 0.08616322

output_layer.weight f4 [1, 512]
00000000: 0663 a43d 655b e5bc 4f30 cabb 84e4 24bc
00000010: 68f6 f93c 2dd3 b83c 5c76 09bd 321a fabc
00000020: f16f 33bd a284 22bd 9f50 87bb 57a8 70bd
00000030: b606 65bd 6622 00bd 1779 393c 9c8d bfbd
00000040: 003c 1bbc 2f31 113d 5ab6 873c c5da f53a
00000050: 2c11 8d3d 0b9f 853c 6e09 093d f487 b63d
00000060: 55bd f43a 5a29 6f3d 1273 07bd 8150 86bd
00000070: dde5 4bbd 48cd a8bc 0924 d13d 32f3 4fbc
00000080: d12e 1a3d e342 50b9 9d1e 143c 59d6 c0bc
00000090: ca04 55bc 44dd 93bd 163c ae3d 95f7 a4bc
000000a0: 2bc5 f5bc 7f96 a9bb 2a15 0a3d fa8f 2d3b
000000b0: 2f14 9fbc a236 3d3d e87f 9b3d 5e44 c1bb
000000c0: 799c 8e3d cc53 60bd fa5e f83b e4cd 5ebd
000000d0: 3896 a9bc 009d 74bd 2c64 fd3d fcc1 9f3b
000000e0: c5a3 273d 5fbc 73bc 4ba0 4a3d dbac 8ebc
000000f0: 25ca b43d dff5 9abd b4da 82bb b472 19bd
00000100: 3ff4 abbc a567 dd3c 71b4 fabb a575 503d
00000110: 7386 3cbd 22ad 9a3d bfcb 93bc dbc5 c3bd
00000120: e43b 00be 6033 043e 5d6c 7cbd c00f 00be
00000130: c7e6 40bd f77a cc3c 0067 c8bd 89d7 3dbb
00000140: c22c fbbc 97a5 39bc d491 89bd e44c babd
00000150: 05ce e43c 4a61 41bb 8bb6 e9bc 4dd1 aebc
00000160: 1e99 56bb 35c2 1d3b 7c23 e73c ea0b 18bd
00000170: d9ef 87bd bf9e e5bc f42a ebbb c189 943d
00000180: 243a f23c 4fd6 87bd ba06 233d 7397 bebc
00000190: 00b0 03bb 3d15 ee3c 7ee7 0abd 2a52 d7bc
000001a0: 5b43 ec3d 8362 92bd ed23 f33c 46ab 953d
000001b0: 4518 36bd 3550 663c 3e79 e43b 3943 773c
000001c0: 4792 03bd d888 7cbc 1baa a3bd be74 06bd
000001d0: 604e bf3b 3bf6 39bd 8a68 a1bd 7eba dc3c
000001e0: 0b05 e1bc ce12 00bc 04b5 223d 7eb2 c93d
000001f0: d79d 5c3c d31c 743d c2a6 f4b9 1673 bcbc
00000200: 216e 8ebd 1207 933d 9102 433d a677 d3bc
00000210: 4bf2 c6bd 0b76 4e3d 29a4 10bd a16e 733d
00000220: 9984 f73d 6ba3 a4bb 2a39 063d e25c 9e3c
00000230: 2090 6ebc b998 5ebd c684 8cbc 1711 b1bd
00000240: 5acf 7d3d 2dad 233e fa4c 1a3d 73be 303d
00000250: 69b7 66bd 45e6 993c 22b3 fb3c f2c0 c53b
00000260: 41b2 0bbc e3db 63bd 1814 e83d 3b78 85bc
00000270: ea8e 16bc 6408 033d 06ec 59bd c9cd 153c
00000280: ae8e babc 7521 83bc 2884 26bd 3a34 f5bb
00000290: 80ec e23a f1eb b3bd 3067 773d 3d9a 1abd
000002a0: f1dc a43b 1bb1 123b 983e b4bd ec0f f43c
000002b0: ad3b 213b c8b6 07bc 5ee4 163e b33b 503c
000002c0: a143 8f3d 62ce afbc 2032 d73c 01d9 09bc
000002d0: 42c8 7fbd 4119 2ebd 1447 993c cc56 dbbd
000002e0: f515 27bc ce33 44bd b9aa 023e f32e 58bd
000002f0: e0a2 073d 7d6a 593d 7c51 da3a 6f88 96bd
00000300: 8801 1bbc 1154 2cbd 577a a0bc 13f3 ebbc
00000310: 6a9f 32bd ce1c 8abd eca5 d63b 9dde e5bb
00000320: 722f 413c 7113 9ebd 8f0b af3c 7514 bdbd
00000330: 6b97 383b 7c44 1c3d 5aa8 f23b bafa 873c
00000340: f33d afbb bc89 80bd cc77 073e badd 723c
00000350: d7c6 39bc c734 41bd b774 003d b377 903d
00000360: 87d3 b73d a7ed 233d 257d 5dbb 1d96 b5bd
00000370: ff07 b0bc ffbe 1fbd bbda 64bc 36c6 45bd
00000380: 986a 053d 8b63 063d 5791 98bd b7ad fc3c
00000390: 8502 313a d6fa df3d 44eb e8bc c43a 583b
000003a0: c5f3 53bc 0134 4bbd 3eee df3c d91a 083d
000003b0: 9ff1 3f3c c81e 9c3b 8f99 b0bd f226 a13b
000003c0: f008 9bbc 84e0 1d3d c08d 2d3d 5124 9abd
000003d0: e84d 10bd de75 903d cc4f 8d3b fee5 58bb
000003e0: 55ec e6bc 5132 a5bc e130 c9bc 32ad 23bd
000003f0: 3f02 2e3d 295f 1fbd e936 b93c 1983 863d
0.080267 -0.027997682 -0.0061703096 -0.010064248 0.030513003 0.022561634 -0.033560142 -0.030530069
-0.043807928 -0.03967727 -0.004129484 -0.05875429 -0.055914603 -0.031282805 0.011320374 -0.09353182
-0.009474754 0.035447296 0.016566444 0.0018757215 0.06888041 0.01631119 0.03345626 0.0891265
0.0018672148 0.058389045 -0.033068724 -0.06558324 -0.04977976 -0.020605698 0.10211951 -0.01269226
0.037642304 -0.00019861343 0.009040502 -0.023539709 -0.01300163 -0.072199374 0.08507554 -0.020137588
-0.030001244 -0.0051754112 0.03371159 0.0026483522 -0.019418804 0.04619468 0.075927556 -0.0058980426
0.069634385 -0.054767415 0.0075796815 -0.05439557 -0.020701513 -0.05972004 0.12372622 0.0048754197
0.040927667 -0.014876454 0.049469274 -0.017416408 0.088276185 -0.075664274 -0.0039933566 -0.037462905
-0.020990489 0.02702696 -0.007650905 0.050893445 -0.04602666 0.07552554 -0.01804149 -0.09559222
-0.12522846 0.12910223 -0.06162678 -0.12506008 -0.047095086 0.024960978 -0.09785271 -0.002896758
-0.03066099 -0.011330984 -0.06717268 -0.09096697 0.027930269 -0.0029507452 -0.028529426 -0.021340037
-0.0032745074 0.0024072055 0.028215162 -0.037120737 -0.06637544 -0.028029798 -0.0071767513 0.07252837
0.02956874 -0.06632673 0.039801337 -0.023265576 -0.0020093918 0.029062862 -0.033912174 -0.026284296
0.115362845 -0.07147696 0.029680217 0.073080584 -0.04445674 0.014057209 0.006972461 0.015091711
-0.032121923 -0.0154134855 -0.079914294 -0.032826178 0.0058382004 -0.04540084 -0.07881267 0.026944395
-0.027468225 -0.007816983 0.03972341 0.09848498 0.013465366 0.0595978 -0.0004666355 -0.023004096
-0.06954599 0.07179083 0.04760987 -0.025813889 -0.097141825 0.050405543 -0.035312805 0.059431676
0.12085838 -0.0050243638 0.03276936 0.0193314 -0.014560729 -0.054344866 -0.017153155 -0.08645838
0.061965324 0.1598403 0.037671067 0.043150377 -0.056327257 0.018786559 0.030725066 0.0060349638
-0.008526386 -0.055629622 0.113319576 -0.016292682 -0.009189347 0.031990424 -0.053203605 0.009143301
-0.022773113 -0.016007164 -0.040653378 -0.0074830325 0.0017312914 -0.087852366 0.06040114 -0.03774475
0.005031221 0.0022383395 -0.08801001 0.029792748 0.002460222 -0.008283325 0.14735553 0.012709546
0.06995321 -0.021460716 0.026269019 -0.008413554 -0.06244684 -0.042504553 0.01871065 -0.107099146
-0.010198106 -0.047900967 0.12760438 -0.05277915 0.033114314 0.05308007 0.0016656364 -0.073502414
-0.009460814 -0.04207236 -0.019589586 -0.02880243 -0.04360906 -0.06743775 0.006550541 -0.007015063
0.011791097 -0.07718552 0.021367816 -0.092324175 0.0028166424 0.03815125 0.007405323 0.016599048
-0.005347961 -0.06276271 0.13229293 0.014823372 -0.011338911 -0.047169473 0.031361308 0.07054081
0.089758925 0.040021565 -0.0033796516 -0.088665225 -0.021488188 -0.039000507 -0.013968165 -0.04828473
0.03257236 0.032809775 -0.074495964 0.030844552 0.00067523896 0.10936515 -0.028432496 0.0032994011
-0.012936537 -0.04961014 0.027335282 0.03322873 0.011715322 0.0047644116 -0.08623039 0.0049179727
-0.01892516 0.038544193 0.04237151 -0.07526458 -0.035230547 0.070537314 0.004312491 -0.003309607
-0.028188864 -0.020165594 -0.02455944 -0.039960094 0.04248261 -0.03890911 0.022609191 0.06567974
