data/baumgartner_C-N/morpholine_emulator/morpholine_bm_predictor_2.pt (torch, 38367 bytes, 3 tensors)

input_layer.weight f4 [512, 16]
0	0xbe17e392	-0.14832905
1	0xbd76aa77	-0.06022116
2	0x3cea8095	0.028625766
3	0x3d8ca911	0.06868184
4	0x3cbde191	0.023178848
5	0x3c12a0f0	0.008949503
6	0x3b9a7f2b	0.0047148666
7	0x3e18ca62	0.14920953
8	0xbe73c8f6	-0.2380713
9	0x3e0c667a	0.13710967
10	0xbce8a5fe	-0.028399464
11	0xbdfbae44	-0.12289098
12	0x3d20e3f0	0.03927988
13	0x3e311f04	0.17296988
14	0x3c8f65c3	0.017504578
15	0x3db05b24	0.08611134
16	0x3e58a344	0.21156031
17	0x3da44d91	0.08022607
18	0xbdc8fa79	-0.09813399
19	0xbd9058f4	-0.070482165
20	0xbce0bcf4	-0.02743385
21	0x3d2d3322	0.042285092
22	0xbde92dbe	-0.11385678
23	0xbcc7da00	-0.024395943
24	0xbe2051e6	-0.15656242
25	0x3db0a542	0.086252704
26	0x3e74b3b6	0.2389668
27	0x3e75bb5a	0.2399725
28	0xbd4b3d98	-0.049619287
29	0xbe796e7e	-0.24358556
30	0xbdbcf1dc	-0.092258185
31	0xbe502ea4	-0.20330292
32	0xbe7b6380	-0.24549675
33	0xbe531c55	-0.20616277
34	0xbd982990	-0.074298024
35	0x3dbbadb9	0.09163994
36	0xbd847b8a	-0.06468876
37	0xbdb6227f	-0.08893298
38	0xbe7e5a5a	-0.24839154
39	0xbdde2a68	-0.10847932
40	0x3db802c5	0.08984903
41	0xbd9d6450	-0.07685149
42	0x3e68585d	0.22689958
43	0xbd2c01e8	-0.041994005
44	0xbdf5d91c	-0.12004301
45	0xbe78c62e	-0.2429435
46	0x3dfcebed	0.12349687
47	0x3e558a48	0.20853531
48	0x3e6db445	0.23213299
49	0x3ddad69f	0.10685467
50	0xbe5e1622	-0.2168813
51	0x3e35686e	0.17715618
52	0x3e3e8e0a	0.18608871
53	0x3e69487f	0.22781561
54	0xbd4c8a65	-0.04993667
55	0xbdff680c	-0.12471017
56	0x3dff0674	0.12452403
57	0xbe72abd0	-0.23698354
58	0xbe2818c6	-0.164157
59	0x3e7cd68a	0.24691215
60	0xbe170ce2	-0.14751008
61	0x3e64af96	0.22332606
62	0x3daa3566	0.08310966
63	0x3dcb0100	0.099123
64	0x3e11db92	0.14243916
65	0x3d16a43d	0.036777724
66	0xbe3cb7f3	-0.18429546
67	0xbe259005	-0.1616822
68	0xbce43746	-0.027858388
69	0xbd87eb3d	-0.06636665
70	0x3e334695	0.17507394
71	0x3db6ce68	0.089260876
72	0x3ba612bd	0.0050681517
73	0xbd885554	-0.066569
74	0x3e37e486	0.17958269
75	0x3ba14300	0.004921317
76	0x3cb916d0	0.022593886
77	0xbbdca1c0	-0.0067331493
78	0x3cd742db	0.026276996
79	0x3e0d2152	0.13782242
80	0x3dbf4aa5	0.09340409
81	0x3e431d95	0.19054253
82	0xbcfef4e8	-0.03112264
83	0xbe41520d	-0.18878956
84	0xbc8540fc	-0.016266339
85	0x3e71bdd9	0.23607577
86	0x3e19e534	0.1502884
87	0xbd16bda8	-0.036801964
88	0xbd566718	-0.05234441
89	0xbe3e3d3a	-0.18578044
90	0xbe441495	-0.19148476
91	0xbdc190c4	-0.0945144
92	0x3e1dc698	0.15407789
93	0xbe6711d8	-0.225654
94	0xbe278364	-0.16358715
95	0xbdd061cc	-0.10174903
96	0xbdb17009	-0.08663947
97	0x3e043147	0.12909423
98	0xbe24a930	-0.16080165
99	0xbe36e668	-0.1786133
100	0xbdb0a68c	-0.08625516
101	0x3e389bcd	0.18028183
102	0x3ce79f74	0.028274275
103	0xbd8080a0	-0.06274533
104	0x3cadc1c8	0.021210566
105	0xbe281978	-0.16415966
106	0xbe57ec22	-0.21086171
107	0xbdb9ab48	-0.090658724
108	0xbdb6bd58	-0.08922833
109	0x3e261fc2	0.16223052
110	0x3e6a47cd	0.22878952
111	0xbe2e2cca	-0.17009273
112	0x3d4af208	0.049547225
113	0x3e24e387	0.1610242
114	0xbc857cc0	-0.016294837
115	0x3e25d549	0.16194643
116	0x3dfab2ff	0.12241172
117	0x3e481259	0.19538249
118	0xbe30229e	-0.17200705
119	0x3e5a07da	0.21292058
120	0xbe161dc4	-0.14659792
121	0x3c5b7fc8	0.013397165
122	0xbb3ea722	-0.0029091318
123	0xbd4a6a90	-0.049418032
124	0x3e1a621a	0.15076485
125	0x3e56c074	0.20971853
126	0xbd98259b	-0.07429048
127	0xbd37e588	-0.044896632
128	0x3de4daf1	0.11174572
129	0x3dc77ad0	0.097402215
130	0xbe50ea07	-0.20401774
131	0x3e3d49d3	0.18485193
132	0xbd81fb43	-0.063467525
133	0x3e2cc1d7	0.16870819
134	0x3da98542	0.0827737
135	0xbd717388	-0.05894807
136	0xbce7c696	-0.028292935
137	0xbe68271d	-0.2267117
138	0x3db3fa9a	0.08788033
139	0xbd90d178	-0.07071203
140	0x3da8bedc	0.082395285
141	0xbe0fe2ea	-0.14051405
142	0x3e5e46fc	0.21706766
143	0xbd9bf448	-0.07614952
144	0x3e5bdd95	0.21471246
145	0x3d7c47ee	0.061592035
146	0x3e0cc35f	0.13746403
147	0x3df1a6e9	0.11799414
148	0x3ca01257	0.019539995
149	0x3e755026	0.23956355
150	0x3e50caf0	0.20389915
151	0x3dcc53b4	0.099769026
152	0x3e5f239e	0.2179093
153	0x3e7cac94	0.24675208
154	0xbc9aaaa1	-0.01888019
155	0x3e2176de	0.15768
156	0xbe3ff3f0	-0.18745399
157	0x3db54254	0.08850542
158	0xbd9491a8	-0.07254344
159	0xbd979ef4	-0.07403365
160	0x3e649ce1	0.2232547
161	0xbc88bffc	-0.016693108
162	0xbe7a0ca3	-0.24418883
163	0xbe7d3548	-0.24727356
164	0xbd967409	-0.07346351
165	0xbdc1768e	-0.09446441
166	0xbca93572	-0.020655368
167	0xbd9a6844	-0.07539418
168	0xbdf69106	-0.1203938
169	0xbdb20a60	-0.08693385
170	0x3e6ff9ca	0.2343513
171	0x3e13754e	0.14400217
172	0x3db4bf88	0.08825594
173	0xbd9dd6ec	-0.07707009
174	0x3e2c4ad2	0.16825417
175	0xbe5262f4	-0.2054556
176	0xbe50a90b	-0.20376985
177	0x3e383160	0.17987585
178	0x3e5dd5cd	0.2166359
179	0x3e77bb85	0.24192627
180	0x3e370998	0.17874753
181	0x3da1f849	0.07908685
182	0xbe40d27b	-0.18830292
183	0xbceab820	-0.02865225
184	0x3d34a7c1	0.044105295
185	0x3daf6b68	0.08565408
186	0x3cd2dd51	0.025740298
187	0xbe466838	-0.19375694
188	0x3e57fc26	0.21092281
189	0xbe349440	-0.17634678
190	0xbdd4e1af	-0.10394608
191	0xbe443bae	-0.19163391
192	0x3e2855dc	0.16439003
193	0x3d8c4e98	0.06850928
194	0xbe546b34	-0.2074402
195	0x3e263cb6	0.16234097
196	0xbe4a90cb	-0.19781797
197	0xbdcbfba0	-0.09960103
198	0xbe6b07a0	-0.22952127
199	0x3e622a5e	0.22086474
200	0xbbff22c0	-0.007786125
201	0x3e45f844	0.19332987
202	0xbd14f7bb	-0.036369067
203	0xbda22744	-0.079176456
204	0x3e5325a4	0.20619828
205	0xbcf8acb0	-0.030355781
206	0xbde05907	-0.109544806
207	0x3ddff368	0.10935098
208	0x3e5dd645	0.21663769
209	0xbd8000c4	-0.06250146
210	0xbe1e3292	-0.15448979
211	0xbe6bad47	-0.23015319
212	0xbde19fbe	-0.110167965
213	0x3dec6fdf	0.11544775
214	0xbdf43e3a	-0.11925931
215	0xbe559f88	-0.20861638
216	0xbe09450b	-0.13405244
217	0xbe052e1f	-0.13005875
218	0xbe267f29	-0.16259445
219	0xbe3c52a2	-0.18390897
220	0xbbb95300	-0.0056556463
221	0xbe520e26	-0.2051321
222	0x3e6b8dc0	0.23003292
223	0xbdcfe13c	-0.10150382
224	0xbe58ac18	-0.21159399
225	0xbe434ae2	-0.19071534
226	0xbc2710ba	-0.010196859
227	0x3ded5e95	0.11590306
228	0xbe11efa6	-0.14251575
229	0xbd835145	-0.06411985
230	0x3e299732	0.16561583
231	0x3c043c00	0.008070946
232	0x3e74f271	0.23920609
233	0xbdcdb9e8	-0.100452244
234	0x3e026ab9	0.12736024
235	0xbbdfe180	-0.0068323016
236	0xbd448180	-0.047975063
237	0xbe04fe7e	-0.12987706
238	0xbda43863	-0.080185674
239	0x3e77f9be	0.24216363
240	0x3e6a21f3	0.22864513
241	0xbe61395a	-0.21994534
242	0x3d00de84	0.031462207
243	0xbe53c5d4	-0.20680934
244	0xbdbd732b	-0.09250482
245	0xbde9787a	-0.11399932
246	0x3dc7d53c	0.09757468
247	0x3c852aa0	0.016255677
248	0xbe586e2f	-0.21135782
249	0x3e500f1e	0.20318267
250	0xbe372bca	-0.17887798
251	0xbdebeb40	-0.1151948
252	0xbe0eec00	-0.13957214
253	0xbe662e20	-0.22478533
254	0xbd63e257	-0.055635776
255	0x3dd6d5f0	0.10490024

input_layer.bias f4 [512]
0	0xbe63fc1b	-0.2226414
1	0x3e4d3c9a	0.20042649
2	0xbe30ea39	-0.17276849
3	0xbe2bef54	-0.16790515
4	0xbcefbd95	-0.029265204
5	0x3c9a3dbb	0.018828264
6	0xbe4bdee5	-0.19909246
7	0xbe390b76	-0.18070778
8	0x3e4873d3	0.19575433
9	0x3e274484	0.1633473
10	0xbce4e9e7	-0.027943565
11	0xbd88c6af	-0.06678521
12	0xbddc629b	-0.10760995
13	0x3e4db1ec	0.20087403
14	0x3af6b02d	0.0018820815
15	0x3e1ddd97	0.15416561
16	0x3d617a37	0.055048194
17	0x3ba35270	0.0049841926
18	0x3e6a996e	0.22910091
19	0xbe1d23ea	-0.15345731
20	0x3e14cee7	0.14532052
21	0xbe3d44fe	-0.1848335
22	0x3e4b365e	0.19844958
23	0xbe021fb3	-0.12707405
24	0xbe7aa8d7	-0.2447847
25	0x3d19856d	0.03748076
26	0xbe2046fd	-0.1565208
27	0x3e3029ea	0.17203489
28	0xbe0cd72c	-0.13753957
29	0x3c7f4e02	0.015582563
30	0xbdc5ecc2	-0.096642986
31	0xbde691ec	-0.11258301
32	0xbe055490	-0.1302054
33	0xba6366ea	-0.0008674698
34	0xbdbd68d3	-0.09248509
35	0x3e44dd65	0.1922508
36	0xbd253cc1	-0.040341143
37	0x3d6908b6	0.056893073
38	0xbd3db463	-0.04631461
39	0x3d41a625	0.04727759
40	0x3dabe358	0.08392972
41	0x3e5a3d7a	0.21312514
42	0xbe7782a5	-0.2417093
43	0x3d9eff0b	0.07763489
44	0xbe74e63b	-0.23915951
45	0x3d932915	0.0718557
46	0x3c76b65e	0.015058128
47	0x3ba13c15	0.0049204924
48	0x3dcf4696	0.10120885
49	0x3e4afade	0.1982226
50	0x3dd6dca0	0.104913
51	0x3e72fea7	0.23729955
52	0x3e09c5af	0.13454317
53	0xbdf9964c	-0.1218687
54	0xbbf0cde7	-0.007348764
55	0x3dba4f2c	0.09097132
56	0x3e26ed4e	0.16301462
57	0xbe77a5cb	-0.24184339
58	0xbc0521d4	-0.008125741
59	0xbd1f4689	-0.038885627
60	0xbe3f2005	-0.18664558
61	0xbcd1d725	-0.025615284
62	0xbe458ecd	-0.19292755
63	0xbac77b76	-0.0015219289
64	0xbe5ed675	-0.21761496
65	0xbda1613c	-0.07879874
66	0xbdbd86dc	-0.09254238
67	0xbe54892c	-0.20755452
68	0xbe71ae4b	-0.23601644
69	0xbd3167a7	-0.04331174
70	0x3e3728c3	0.17886643
71	0x3d6a7c90	0.0572477
72	0x3d9c056d	0.076182224
73	0x3daf24d6	0.08551948
74	0x3d8bd248	0.06827217
75	0xbdcfbeb7	-0.10143798
76	0x3e5d23ec	0.21595734
77	0xbd8ae31e	-0.067816004
78	0xbe2010be	-0.15631387
79	0xbe4d884e	-0.20071527
80	0xbd9799d2	-0.07402386
81	0x3e0cd514	0.13753158
82	0xbe352730	-0.1769073
83	0xbe35c7fb	-0.17752068
84	0x3e1ad7f0	0.15121436
85	0x3d6816f0	0.0566625
86	0x3db1d831	0.08683813
87	0x3d88b885	0.06675819
88	0xbe341ed3	-0.17589884
89	0xbd860e84	-0.065457374
90	0x3e740bed	0.23832674
91	0x3e398eb5	0.18120845
92	0xbe6416e6	-0.2227436
93	0x3e723352	0.2365239
94	0xbe718c27	-0.2358862
95	0x3e3a6b5a	0.18205014
96	0xbe4d7408	-0.20063794
97	0x3ad1063e	0.0015947295
98	0xbe5912e5	-0.21198614
99	0x3dfe2f22	0.124113336
100	0x3e62e87a	0.22158995
101	0x3e5b63ea	0.21424833
102	0xbdda8607	-0.10670095
103	0xbe0835c8	-0.13301766
104	0x3cc207ef	0.023685424
105	0x3dd8d43c	0.105873555
106	0x3e488ba4	0.19584519
107	0xbe27926e	-0.16364452
108	0x3d879ff4	0.066223055
109	0x3dcd4fd6	0.10024993
110	0x3e36153e	0.17781541
111	0xbe037ff9	-0.12841786
112	0x3c50033c	0.012696084
113	0x3d700b28	0.05860439
114	0x3d36fd9a	0.044675447
115	0x3e257df6	0.16161332
116	0x3ce49b6d	0.027906144
117	0x3e47a656	0.19497046
118	0x3e449a33	0.19199447
119	0x3e66f00e	0.22552511
120	0xbc0746d4	-0.008256633
121	0xbc9c28cc	-0.019062422
122	0xbe333451	-0.17500426
123	0x3d572f70	0.052535474
124	0xbd23c38d	-0.039981414
125	0xbe7de613	-0.24794798
126	0xbdea19dc	-0.114307135
127	0x3d9042e4	0.070440084
128	0xbc4c6cc1	-0.012477101
129	0x3e6699b3	0.22519569
130	0xbe7cb03c	-0.24676603
131	0x3e5cec91	0.21574618
132	0x3cc19921	0.023632588
133	0xbe07e5fc	-0.13271326
134	0xbe392c4a	-0.18083301
135	0xbd2c35ae	-0.04204338
136	0x3dad4d14	0.08461967
137	0xbe3fe574	-0.18739873
138	0xbe1add25	-0.15123422
139	0x3d910587	0.070811324
140	0xbe6e9d7b	-0.23302262
141	0x3e767c30	0.24070811
142	0x3dbe108f	0.09280502
143	0x3e59a5f9	0.2125472
144	0xbdc7c8bc	-0.09755084
145	0x3e6b1fab	0.22961299
146	0xbe6d8bcb	-0.23197858
147	0x3dd3606e	0.10321127
148	0xbe398b0c	-0.18119448
149	0xbcc6bc46	-0.024259698
150	0xbe05442b	-0.13014285
151	0xbe554a5e	-0.2082915
152	0x3df766b8	0.12080139
153	0x3e1ed591	0.15511157
154	0xbe13bd78	-0.14427745
155	0x3e546af5	0.20743926
156	0x3e6113e6	0.21980247
157	0xbe2a05fa	-0.16603842
158	0xbd57578c	-0.052573726
159	0xbe2c47be	-0.16824242
160	0x3e4edc3b	0.20201199
161	0xbcc60a01	-0.024174692
162	0xbd9bfa27	-0.07616072
163	0x3ce4f875	0.027950505
164	0xbd4aecce	-0.04954224
165	0xbdfd04e1	-0.12354446
166	0xbe6f631b	-0.2337765
167	0x3d7025b6	0.058629714
168	0x3d1e836c	0.038699552
169	0xbe21999a	-0.1578125
170	0xbe14af4d	-0.14519997
171	0xbca90046	-0.020630013
172	0xbd7d5c10	-0.061855376
173	0x3e5ddbfe	0.21665952
174	0x3e19a9d2	0.15006188
175	0x3e6e65bf	0.23281
176	0x3c2d1132	0.010563182
177	0xbda3599b	-0.07976075
178	0xbe7cc408	-0.24684155
179	0x3e2636cb	0.1623184
180	0xbd5ec8e6	-0.05439081
181	0x3df57d57	0.11986797
182	0x3d95a6f4	0.073072344
183	0x3e143951	0.1447499
184	0x3e2c09e0	0.16800642
185	0xbe5feb03	-0.21866994
186	0xbd9a0cd6	-0.075219795
187	0x3e457d64	0.19286114
188	0x3e694415	0.22779877
189	0x3cb24645	0.021762023
190	0x3e6693f7	0.22517382
191	0xbe23b522	-0.15987065
192	0x3c87d644	0.016581662
193	0xbd0e4cec	-0.034741327
194	0xbe3ce8cd	-0.18448181
195	0x3d4c8320	0.049929738
196	0x3e59da85	0.21274765
197	0x3c43462d	0.011918587
198	0xbd55ffc8	-0.052245885
199	0x3e37e095	0.17956765
200	0xbcc16915	-0.023609677
201	0xbe1f50e8	-0.15558207
202	0xb9b658b9	-0.0003477985
203	0xbe614145	-0.21997555
204	0x3e3ee66f	0.18642591
205	0x3e6c7170	0.23090148
206	0xbe645b39	-0.22300424
207	0xbd9bec7e	-0.07613467
208	0xbe13437e	-0.14381215
209	0x3d3ed1c1	0.046586756
210	0xbda34b7c	-0.07973382
211	0x3cfe38e8	0.031032994
212	0x3c4fcd88	0.01268328
213	0x3e161143	0.14655022
214	0xbe37f32d	-0.17963858
215	0xbd397408	-0.04527667
216	0xbe502cc4	-0.20329577
217	0xbd43b0ab	-0.047775906
218	0xbe56d9fe	-0.20981595
219	0x3e1b8933	0.15189056
220	0xbc281ec8	-0.010261245
221	0xbe1dcad1	-0.154094
222	0x3c455402	0.012043955
223	0x3e2242fa	0.15845862
224	0xbd903564	-0.070414335
225	0xbd8cedbe	-0.06881283
226	0xbe645d00	-0.22301102
227	0xbd869ed5	-0.065732636
228	0xbe22d052	-0.1589978
229	0xbd09bbf9	-0.03362653
230	0xbe5d157b	-0.21590225
231	0xbe1ff470	-0.1562059
232	0xbe536da4	-0.20647293
233	0x3e6084df	0.21925686
234	0xbe78b207	-0.24286662
235	0xbe010562	-0.1259971
236	0x3c01015d	0.00787386
237	0xbdc478f7	-0.09593385
238	0xbe7091c1	-0.234931
239	0x3e1d6cc4	0.15373522
240	0x3e11c88a	0.14236656
241	0x3c844a8f	0.016148834
242	0xbd7147b5	-0.058906276
243	0xbe5c5033	-0.21514969
244	0xbde0a989	-0.10969836
245	0x3c1af248	0.009457178
246	0x3e3606ce	0.17776033
247	0x3de2e6ce	0.11079179
248	0xbe57b496	-0.21064982
249	0x3d51b8a8	0.051201493
250	0xbe542024	-0.20715386
251	0x3dfac38b	0.12244328
252	0x3accca97	0.0015624341
253	0xbe095c11	-0.13414027
254	0xbdbe12e1	-0.092809446
255	0x3da47824	0.080307275

output_layer.weight f4 [1, 512]
0	0x3b27cf8f	0.0025605892
1	0x3da361f9	0.07977671
2	0xbdbb3e62	-0.09142758
3	0xba427e15	-0.00074193004
4	0x3b8171c8	0.0039503314
5	0xbda2b3c7	-0.07944446
6	0xbcf79a50	-0.03022495
7	0xbc784b7e	-0.0151547175
8	0xbd72ace5	-0.059246916
9	0x3c2736c3	0.010205927
10	0x3d8453de	0.06461309
11	0x3beefcd4	0.007293323
12	0xbb6ba0dc	-0.0035954034
13	0x3c8c1ff0	0.017105073
14	0xbdc2f557	-0.09519451
15	0x3d6551ec	0.05598633
16	0xbd6dca78	-0.058054417
17	0xbc6a766e	-0.014310462
18	0x3cea0d01	0.028570654
19	0xba8be97a	-0.001067444
20	0x3b768748	0.0037617255
21	0x3cbb3665	0.022853086
22	0xbc6c3a86	-0.01441825
23	0x3d297fd6	0.04138168
24	0xbc9718ab	-0.01844438
25	0x3c35d95e	0.011099188
26	0x3b2e2816	0.0026574186
27	0x3d96a813	0.07356276
28	0xbc74f7db	-0.0149516715
29	0xbd483185	-0.04887535
30	0xbbc9fe82	-0.006164373
31	0x3d18dac2	0.037318
32	0xbc6d3549	-0.014478036
33	0xbcad83c2	-0.021180991
34	0xbd1095a5	-0.035298962
35	0xbd9791f8	-0.07400888
36	0xbd335c44	-0.043789163
37	0x3d21977c	0.039451107
38	0x3be529d6	0.0069935126
39	0xbd985b72	-0.07439317
40	0xbd999042	-0.07498218
41	0x3bac0076	0.0052490784
42	0x3cd35696	0.025798123
43	0x3d364e04	0.044507995
44	0x3d661f9b	0.056182485
45	0x3dbd5f20	0.09246659
46	0x3d0ae01d	0.033905137
47	0xbd9b8211	-0.075931676
48	0xbc80b981	-0.015713455
49	0xbd92f1e5	-0.07175044
50	0xbb76d92b	-0.0037666063
51	0xbd3823f0	-0.044956148
52	0xbd786cfc	-0.06065081
53	0xbd5cb45f	-0.053882953
54	0x3d379a53	0.04482491
55	0x3d8fc6c7	0.07020336
56	0x3d08b6d1	0.033377472
57	0x3bcabc1a	0.0061869742
58	0xbd64c2e1	-0.055849914
59	0x3c176764	0.009240959
60	0xbcf8fc11	-0.030393632
61	0x3d521f75	0.05129953
62	0x3c6fa93a	0.014627749
63	0xbd5a6aa9	-0.053324375
64	0x3cff089d	0.031132037
65	0xbda15c93	-0.07878985
66	0xbcb314cc	-0.021860503
67	0xbd345ecc	-0.044035718
68	0xbc02b085	-0.007976656
69	0xbcffa35b	-0.031205824
70	0xbd0497c6	-0.032371305
71	0x3d1a7020	0.037704587
72	0x3a8a93ab	0.0010572573
73	0x3dd426a9	0.10358936
74	0xbda7c2c9	-0.08191449
75	0x3bdc1fe3	0.0067176684
76	0x3d075663	0.03304137
77	0x3cb880d0	0.02252236
78	0xbd77d9c1	-0.0605104
79	0x3c2684a2	0.010163458
80	0xbd0dbac1	-0.03460193
81	0x3d387355	0.045031864
82	0x3d9bc397	0.07605665
83	0xbcbdb535	-0.023157695
84	0x3b4de916	0.0031419448
85	0x3d8358e3	0.06413438
86	0xbd3231a8	-0.043504387
87	0x3ca90230	0.020630926
88	0xbaeed35b	-0.0018220948
89	0x3d57406d	0.052551676
90	0xbca1208a	-0.019668836
91	0x3cf3c321	0.02975613
92	0xbccea25c	-0.025223903
93	0x3d998822	0.074966684
94	0xbcc6da84	-0.024274118
95	0x3d941c8b	0.07232007
96	0x3dad6f0b	0.084684454
97	0x3d3d04cb	0.04614715
98	0xbd42cf1e	-0.047560804
99	0xba1b5ed2	-0.000592691
100	0x3cc402f4	0.02392719
101	0x3d6f7779	0.058463547
102	0x3d166471	0.036716882
103	0x396497eb	0.00021800368
104	0x3cff4b66	0.031163882
105	0xbc72aedd	-0.0148121985
106	0xb9cada46	-0.0003869107
107	0xbc9d333e	-0.019189473
108	0xbd593e2a	-0.0530378
109	0xbd591207	-0.052995708
110	0xbd31c5e9	-0.043401632
111	0xbcf64296	-0.030061048
112	0x3c64eb57	0.013972125
113	0xbde229a3	-0.11043098
114	0x3bdc3fa4	0.0067214537
115	0xbd0cccc0	-0.034374952
116	0xbdb95fb6	-0.090514585
117	0x3d89aa5a	0.06721945
118	0xbc43f84c	-0.011961054
119	0x3d739464	0.05946769
120	0xbcb6a4ac	-0.022295319
121	0xbc119b4c	-0.008887123
122	0x3c1701ab	0.009216706
123	0xbd72bbdf	-0.0592612
124	0xbc811a0c	-0.01575949
125	0xbccecffa	-0.025245655
126	0x3c97d3cf	0.018533615
127	0x3d81b72f	0.063337676
128	0x3dd91f33	0.10601654
129	0x3db608b3	0.08888378
130	0xbc2d0338	-0.010559849
131	0xbdc09ef0	-0.09405315
132	0xbd03f806	-0.032218955
133	0xbd2fd4c6	-0.042927526
134	0xbd060550	-0.03271991
135	0xbd63ef97	-0.055648413
136	0xbd9ff069	-0.078095265
137	0xbcb76b1f	-0.022389947
138	0x3c23e886	0.010004168
139	0xbcf45583	-0.029825931
140	0xbc0cee1e	-0.008601693
141	0xbde19f1d	-0.110166766
142	0xbd7eb8f5	-0.062188108
143	0x3c8e710d	0.017387891
144	0xbd2afa9c	-0.041742906
145	0x3c88853a	0.01666509
146	0x3d260c9b	0.040539365
147	0xbd6ad75a	-0.05733428
148	0x3d9f251e	0.077707514
149	0xbd9dd50b	-0.0770665
150	0xbc3c04e2	-0.0114757735
151	0xbce54706	-0.027987968
152	0x3da67ffb	0.08129879
153	0x3cba07eb	0.022708854
154	0xbd1590fc	-0.03651522
155	0x3c2b9ecc	0.010474872
156	0x3cadac6f	0.021200387
157	0xbc705d10	-0.014670625
158	0xbdacba36	-0.084339544
159	0x3c321918	0.010870241
160	0xbd0d81ef	-0.034547742
161	0x3ca82a0c	0.020527862
162	0x3e0a0102	0.13476947
163	0xbcac1573	-0.021006322
164	0xbc4b1102	-0.012394192
165	0x38e6bb12	0.00011002099
166	0x3dbc8b3a	0.09206243
167	0xbc1402fd	-0.009033916
168	0xbdbdd80b	-0.092697226
169	0x3ce9e002	0.028549198
170	0x3cd68caf	0.02619013
171	0x3cf49e7a	0.029860724
172	0x3d10ba17	0.03533372
173	0x3bf40c7c	0.0074477773
174	0x3c382bf3	0.011240947
175	0xbc534fed	-0.012897474
176	0xbccdef5c	-0.02513855
177	0x3dc148b1	0.09437693
178	0x3ce6b9fe	0.02816486
179	0x3dd92a43	0.10603764
180	0x3bf7fe6a	0.0075681703
181	0xbd53e174	-0.05172868
182	0xbde9183e	-0.11381577
183	0xbdb759ed	-0.08952699
184	0x3d0084bb	0.03137658
185	0xbcd842ed	-0.0263991
186	0x3d0564ae	0.03256672
187	0x3decc688	0.11561304
188	0xbdfd57d7	-0.1237027
189	0x3bf2c506	0.007408741
190	0x3d967582	0.073466316
191	0x3b8080f7	0.003921624
192	0xbd42c62a	-0.047552265
193	0x3c5a72af	0.013333007
194	0x3ca38e78	0.019965395
195	0x3ccd5b00	0.025067806
196	0x3d40fc51	0.047115628
197	0xbd900bab	-0.070334755
198	0x3b6a58f1	0.003575858
199	0x3d874acb	0.066060625
200	0xbd860ace	-0.065450296
201	0x3cf809f2	0.03027818
202	0x3c3deab7	0.011591605
203	0xbd69a564	-0.057042494
204	0x3d8d3f28	0.06896812
205	0x3d820b5c	0.06349823
206	0xbd31caae	-0.04340618
207	0x3cf4334f	0.029809622
208	0xbd14ae00	-0.03629875
209	0x3ab00f52	0.00134323
210	0x3dfa65c1	0.12226439
211	0x3d5d99b6	0.05410167
212	0x3cbc7e83	0.023009544
213	0x3d1c3a35	0.038141448
214	0x3d7d517f	0.0618453
215	0xbd0f9fb3	-0.03506441
216	0xbd1aa14a	-0.037751473
217	0xbd674ad4	-0.056467846
218	0xbd2b070f	-0.04175478
219	0xbd4f5093	-0.05061395
220	0xbb2f8803	-0.002678395
221	0x3c5650d4	0.013080794
222	0xbb73be4b	-0.003719228
223	0xbc5cfb8e	-0.01348771
224	0x3cb78cce	0.022406008
225	0xbc8aa03a	-0.016922105
226	0xbc8316cb	-0.01600208
227	0xbda7d1d3	-0.08194318
228	0x3d399f86	0.04531815
229	0x3c6c3467	0.014416791
230	0xbcbe6876	-0.02324317
231	0xbd599b81	-0.053126816
232	0x3d52da31	0.051477615
233	0xbc9d02a2	-0.019166294
234	0xbd15002b	-0.036377113
235	0x3d15d441	0.036579374
236	0xbc24d076	-0.010059467
237	0xbcd4b6fc	-0.02596616
238	0xbc75e999	-0.015009307
239	0x3d35afe9	0.044357214
240	0x3c2419f2	0.0100159515
241	0xbc43e269	-0.011955836
242	0x3dc686ee	0.096937045
243	0x3d863877	0.065537386
244	0x3d0e9f38	0.03481981
245	0x3df8b6c4	0.12144235
246	0x3d79d5fd	0.06099509
247	0xbc2ef12f	-0.01067762
248	0x3d2c4d73	0.04206605
249	0xbbe28cb4	-0.006913746
250	0xbd17a760	-0.037024856
251	0xbce39c71	-0.027784558
252	0xbdf570bc	-0.11984393
253	0x3c849aeb	0.016187152
254	0xbde2112d	-0.11038432
255	0xbd188c91	-0.03724343
