data/baumgartner_C-N/morpholine_emulator/morpholine_bm_predictor_3.pt (torch, 38367 bytes, 3 tensors)

input_layer.weight f4 [512, 16]
-0.10534472 0.17505884 -0.12742968 -0.19533609 0.2199111 -0.0238681 0.21132056 -0.08946663
0.1440809 -0.22520381 -0.054527633 0.06740752 0.03727123 -0.12577757 0.08254146 -0.09443867
-0.095829055 0.1661557 0.24457446 0.038318086 0.06432584 -0.20866302 -0.12272545 0.23192975
0.1052058 0.22511815 -0.22070588 -0.20980516 -0.025527537 0.19532773 -0.1709338 0.03985998
0.18865573 0.20647356 -0.0854741 -0.23893064 -0.016289998 -0.01639883 0.046241563 0.036524206
-0.14212343 0.24981198 0.1427646 0.073102266 0.21605891 0.17072105 -0.18917497 -0.0137939155
-0.05636115 0.13970703 -0.13290077 -0.10579345 -0.049576253 0.02381741 -0.22816032 -0.1914494
0.22725916 -0.1506865 0.0624052 -0.014213026 0.101399094 0.23016357 -0.22755533 -0.0904395
-0.17543255 -0.15220018 0.0794488 -0.23429316 -0.07884644 -0.23111857 -0.16288488 0.092889816
0.11401277 0.035057105 0.082352005 -0.2017076 0.22666484 0.07594207 0.24252377 -0.103538156
0.05514674 -0.16021481 -0.1078958 -0.24127313 0.03763106 -0.13960482 0.11201868 -0.11887908
-0.2141223 0.11946407 0.20070736 -0.15723243 0.10771051 -0.2454592 0.103159055 0.1720067
0.009534766 0.14475134 -0.19184843 0.2297161 0.1378169 0.21864542 -0.24731849 -0.0012856424
-0.00072045956 0.23982367 0.1996992 0.030217826 0.07083318 0.10280627 0.12917288 -0.021053255
0.080509275 0.14554738 0.25208107 -0.19414294 0.18230885 -0.20977536 0.08186835 0.050664783
0.24904133 -0.10743244 0.2488509 -0.11840314 0.16317478 -0.20542222 0.15126535 0.0017443299
0.14123234 0.06633621 -0.054418 -0.06986385 0.079703055 -0.18131961 0.07142858 0.070676446
0.07685551 0.1386147 0.0046706325 -0.20937797 -0.2444771 -0.038174808 0.076689154 0.24439237
0.14672634 0.13151927 0.027613467 0.04594971 -0.18207365 0.022844765 0.040599845 -0.19023782
-0.19288975 -0.10692181 0.12468478 0.24930573 0.068314046 0.036670953 0.17695546 -0.028861672
-0.16028804 -0.2184201 -0.04148894 -0.07387503 0.041421786 0.0015524012 0.021406138 -0.038037956
-0.016571209 0.03780395 0.2186288 -0.16553202 0.099520564 -0.09152007 -0.03600882 -0.13528863
-0.23073274 0.07710531 0.14584395 -0.035290036 -0.066989124 -0.10134108 -0.012011247 -0.20855162
0.0341665 0.031312246 0.058384553 0.07839072 0.004339248 0.07428414 0.11260133 0.1251342
0.20868708 0.075590394 0.04249874 -0.15689579 0.0017740726 0.01829958 -0.06623936 -0.115023136
-0.1666224 -0.24645582 0.07850271 0.059569478 -0.07366705 0.21902514 -0.21065956 -0.24612927
-0.059300065 0.16681486 0.19937007 -0.24879074 0.25410128 0.19758992 0.09050477 -0.24301147
-0.112426005 0.27187404 0.16132626 0.008521974 0.08598232 0.098771214 -0.008653058 0.23581564
-0.09424528 0.14658737 -0.18078174 0.2035788 -0.18792643 0.11734855 0.002948385 -0.08393291
0.03251627 -0.16805819 0.04759682 -0.16164109 0.17113796 -0.2108053 0.00016415387 -0.19506276
0.08038603 -0.06728932 0.16595732 0.13116096 -0.24269861 -0.23619416 0.13886228 -0.010607958
0.13317469 -0.22204813 -0.19093691 0.124752015 0.12841967 -0.08947435 -0.052161567 0.13120571
00000000: f9be d7bd a042 333e ed7c 02be 2f06 48be
00000010: 6030 613e 0987 c3bc 6b64 583e 483a b7bd
00000020: f289 133e d49b 66be 5e58 5fbd f40c 8a3d
00000030: b8a9 183d d6cb 00be 7f0b a93d 1069 c1bd
00000040: 0642 c4bd b824 2a3e ba71 7a3e 6df3 1c3d
00000050: 44bd 833d c2ab 55be 7b57 fbbd fe7e 6d3e
00000060: 2376 d73d 5f85 663e b900 62be 2ad7 56be
00000070: 201f d1bc fe03 483e 4509 2fbe 3844 233d
00000080: f82e 413e ce6d 533e 0c0d afbd 3caa 74be
00000090: 9a72 85bc d756 86bc cb67 3d3d 689a 153d
000000a0: ce88 11be b6ce 7f3e e230 123e a4b6 953d
000000b0: 8c3e 5d3e 80d1 2e3e 15b7 41be e0ff 61bc
000000c0: f3da 66bd 5c0f 0f3e 2417 08be 3caa d8bd
000000d0: 7810 4bbd bb1c c33c dca2 69be 500b 44be
000000e0: a0b6 683e 904d 1abe 989c 7f3d c0dd 68bc
000000f0: 54aa cf3d 00b0 6b3e 4404 69be 5838 b9bd
00000100: 97a4 33be 5dda 1bbe 0db6 a23d 8cea 6fbe
00000110: 3e7a a1bd 59aa 6cbe 4bcb 26be 043d be3d
00000120: 877f e93d 0a98 0f3d 2ba8 a83d 708c 4ebe
00000130: d41a 683e 8487 9b3d 2758 783e d00b d4bd
00000140: 8ce1 613d 5a0f 24be 79f8 dcbd 4e10 77be
00000150: 0723 1a3d 91f4 0ebe 0d6a e53d e076 f3bd
00000160: e042 5bbe 94a9 f43d 3b86 4d3e 8a01 21be
00000170: 5497 dc3d a859 7bbe 0e45 d33d 8622 303e
00000180: b537 1c3c b239 143e ea73 44be b33a 6b3e
00000190: e01f 0d3e 96e4 5f3e 0f41 7dbe 0083 a8ba
000001a0: 39dd 3cba 5694 753e f27d 4c3e 608b f73c
000001b0: fc10 913d 188c d23d e545 043e e077 acbc
000001c0: 0ce2 a43d 5f0a 153e c510 813e 68cd 46be
000001d0: 2caf 3a3e 5acf 56be 98aa a73d e085 4f3d
000001e0: b104 7f3e 8a05 dcbd c5d2 7e3e 587d f2bd
000001f0: 4a17 273e 345a 52be 4ee5 1a3e 00a2 e43a
00000200: 369f 103e 47db 873d 69e5 5ebd c714 8fbd
00000210: 5b3b a33d d9ab 39be 2649 923d d0be 903d
00000220: 6c66 9d3d 03f1 0d3e 1b0c 993b 2e67 56be
00000230: 3458 7abe 305d 1cbd 340f 9d3d fe41 7a3e
00000240: 6e3f 163e fdac 063e a335 e23c c335 3c3d
00000250: 8471 3abe f224 bb3c 064c 263d b4cd 42be
00000260: e484 45be d2f9 dabd bc5a ff3d 004a 7f3e
00000270: 3ce8 8b3d 4834 163d d033 353e 506f ecbc
00000280: 8c22 24be 85a9 5fbe 4ff0 29bd cb4b 97bd
00000290: e4a9 293d f179 cb3a ed5b af3c b0cd 1bbd
000002a0: 58c0 87bc 51d8 1a3d 3ae0 5f3e 3a81 29be
000002b0: 70d1 cb3d e06e bbbd fc7d 13bd 1a89 0abe
000002c0: 3445 6cbe 64e9 9d3d 1e58 153e 498c 10bd
000002d0: 9831 89bd ea8b cfbd d2ca 44bc 8e8e 55be
000002e0: 2cf2 0b3d 4541 003d a424 6f3d 508b a03d
000002f0: 4030 8e3b 4822 983d 879b e63d 2e23 003e
00000300: 11b2 553e 23cf 9a3d 2913 2e3d 4aa9 20be
00000310: 0088 e83a 00e9 953c 80a8 87bd 4091 ebbd
00000320: 109f 2abe ea5e 7cbe 07c6 a03d 20ff 733d
00000330: c0de 96bd 2048 603e 24b7 57be 5009 7cbe
00000340: a0e4 72bd 84d1 2a3e ab27 4c3e 00c3 7ebe
00000350: 9019 823e 0355 4a3e 915a b93d 00d8 78be
00000360: 9b3f e6bd 1333 8b3e b632 253e c09f 0b3c
00000370: 8017 b03d 9048 ca3d 8ec5 0dbc a879 713e
00000380: ab03 c1bd 001b 163e d91e 39be f676 503e
00000390: c96f 40be 7054 f03d b139 413b 04e5 abbd
000003a0: c82f 053d 7217 2cbe e2f4 423d 3e85 25be
000003b0: ca3e 2f3e 58dd 57be b820 2c39 88be 47be
000003c0: 6ea1 a43d fcce 89bd b7f0 293e 0f4f 063e
000003d0: fc85 78be e2dc 71be ea31 0e3e 00cd 2dbc
000003e0: f25e 083e 9660 63be f784 43be fc7d ff3d
000003f0: 7280 033e 543e b7bd 5ea7 55bd ca5a 063e

input_layer.bias f4 [512]
0.014775617 0.0155496355 0.1182313 -0.069071844 0.076418765 0.10521667 -0.14328651 0.01031403
-0.016907249 -0.076450504 -0.10579464 -0.15801343 -0.24591848 0.20924333 0.22173566 0.08155362
0.18628758 -0.16627903 0.14835031 -0.17714225 0.1583534 -0.17513318 0.104480766 0.13147263
-0.104661226 0.17987414 0.1614129 -0.07194178 -0.22726212 -0.13385497 -0.16475664 0.2146782
-0.19625898 0.22165269 0.07642795 -0.14986354 0.13547114 0.053201992 0.06539259 -0.06553472
0.053033557 0.2109949 0.21939923 0.09623438 0.17388956 -0.18229264 -0.175114 -0.18118207
0.04913114 -0.22634092 0.11279839 -0.040185828 -0.21808864 0.20809665 0.008323412 -0.21349503
-0.050015677 -0.19700548 -0.19201699 0.23236617 0.066768646 0.09488566 0.094373345 0.23414396
-0.07830253 0.22855304 -0.116024055 -0.068233386 0.0016456647 0.097389385 -0.1338093 0.14390385
-0.23544046 -0.10956162 -0.14506708 0.02096878 -0.16588931 0.054577984 0.19509 -0.058157984
0.24478382 -0.18117137 -0.23872761 -0.18456149 -0.13969755 0.12052376 0.23434022 0.10486895
-0.17259605 -0.034244552 -0.22872551 0.06804627 -0.052062254 0.15029621 0.13939798 -0.015322067
-0.1384155 0.08888781 0.23863477 -0.23871574 0.19623896 -0.18106553 0.119512714 -0.19219106
-0.013165767 0.04992907 -0.008513775 0.029401343 0.21273069 0.09291262 0.2068515 -0.04295872
0.16998681 0.23066987 0.18051101 -0.081316024 0.13642283 -0.1932998 -0.12198547 -0.18626201
-0.099265665 0.0976383 -0.12974988 0.008162995 -0.19456646 0.2354143 -0.22534382 0.16172813
0.23057434 0.0446616 -0.2187337 0.09176935 0.14869283 -0.08155433 0.12415943 0.21405791
0.18938898 0.12353533 -0.11224868 0.06154176 -0.025453325 -0.07795944 0.017282704 -0.15211199
0.05600201 0.12840232 -0.19731176 -0.09955429 0.07436196 -0.102599114 -0.20507759 -0.24969867
-0.18847695 -0.13520914 0.15082875 0.04336904 -0.07042457 0.21333897 0.016173 -0.16434541
-0.16058894 -0.01650717 -0.2017583 -0.23099205 0.14001453 -0.17230752 0.16807978 0.14267482
0.19129384 0.21989252 -0.17555486 0.01582665 -0.034008484 -0.22615466 -0.058852904 -0.1404025
0.2407548 0.09667411 -0.2313025 0.086719394 0.03508835 -0.10820439 0.20512344 0.25434953
0.073648006 -0.051335346 -0.012961087 0.04405528 -0.023127288 0.21328527 -0.022697318 0.15336782
0.08200975 0.2277278 0.017066179 0.16039385 0.18210399 0.03886304 -0.20843172 0.18400359
0.15260568 -0.22160989 -0.0275663 0.018355887 8.834801e-05 0.047829557 -0.20508842 -0.040143304
-0.2095625 -0.23758744 -0.20180508 0.23276508 0.23517363 0.08391937 -0.01972553 0.05487313
-0.020203657 -0.12360532 0.11591056 -0.036212835 -0.14691588 -0.17913891 -0.18314144 -0.17143764
-0.064858414 0.12849832 0.042632658 0.118886195 -0.07630473 -0.025072435 -0.21895458 0.045962613
0.21477415 -0.2224332 -0.043195486 0.11751524 0.24165013 -0.10960551 0.18515173 -0.2202601
-0.08772983 0.08286888 -0.14997476 -0.016308717 0.21753298 0.1708608 0.14958872 0.20677184
-0.110085554 -0.21504205 -0.015229878 -0.045864556 0.2094975 0.12718543 0.19011816 0.039158214
00000000: 6e15 723c e6c3 7e3c 4023 f23d 8a75 8dbd
00000010: 7181 9c3d d67b d73d b3b9 12be 2dfc 283c
00000020: 1281 8abc 1592 9cbd dcaa d8bd 46ce 21be
00000030: 0ed2 7bbe e243 563e ac0e 633e 9605 a73d
00000040: 2cc2 3e3e 0d45 2abe 25e9 173e c764 35be
00000050: 6527 223e 1d56 33be 03fa d53d c3a0 063e
00000060: a058 d6bd ed30 383e 6c49 253e 3656 93bd
00000070: 67b7 68be 4711 09be f7b5 28be 9ad4 5b3e
00000080: 1df8 48be ecf8 623e 4286 9c3d d475 19be
00000090: f2b8 0a3e 55ea 593d 8dec 853d 1137 86bd
000000a0: b739 593d 0c0f 583e 31aa 603e 8816 c53d
000000b0: 1b10 323e ecaa 3abe 1651 33be cb87 39be
000000c0: bc3d 493d eac5 67be d802 e73d e599 24bd
000000d0: a152 5fbe 4a17 553e ec5e 083c 719e 5abe
000000e0: 3ddd 4cbd cebb 49be 1aa0 44be 66f1 6d3e
000000f0: 00be 883d 6a53 c23d d046 c13d 6fc3 6f3e
00000100: 145d a0bd cf09 6a3e 059e edbd f2bd 8bbd
00000110: 58b3 d73a 1674 c73d 4e05 09be 885b 133e
00000120: 4e17 71be d861 e0bd 778c 14be b8c6 ab3c
00000130: e3de 29be 2a8d 5f3d acc5 473e 1137 6ebd
00000140: 9ca8 7a3e fd84 39be 0375 74be b0fd 3cbe
00000150: e00c 0fbe 29d5 f63d e2f6 6f3e 88c5 d63d
00000160: 05bd 30be 0444 0cbd 0537 6abe d85b 8b3d
00000170: 3b3f 55bd 40e7 193e 58be 0e3e 6809 7bbc
00000180: cbbc 0dbe d00a b63d ac5c 743e e671 74be
00000190: def2 483e 3e69 39be 15c3 f43d bccd 44be
000001a0: 3bb5 57bc 6d82 4c3d 5c7d 0bbc 16db f03c
000001b0: 13d6 593e f948 be3d e1d0 533e 7cf5 2fbd
000001c0: 0611 2e3e b934 6c3e e1d7 383e 0489 a6bd
000001d0: 6db2 0b3e 62f0 45be 85d3 f9bd 78bb 3ebe
000001e0: cc4b cbbd 97f6 c73d 27dd 04be 15be 053c
000001f0: 6e3c 47be 7210 713e 88c0 66be 0f9c 253e
00000200: ae1b 6c3e 15ef 363d bafb 5fbe 92f1 bb3d
00000210: ef42 183e f505 a7bd 4d47 fe3d ff31 5b3e
00000220: 2fef 413e 1700 fd3d a3e2 e5bd 3613 7c3d
00000230: 7e83 d0bc 33a9 9fbd 7594 8d3c 3fc3 1bbe
00000240: 5d62 653d e67b 033e 180c 4abe 1fe3 cbbd
00000250: 154b 983d 7c1f d2bd dcff 51be 02b1 7fbe
00000260: 1a00 41be 4474 0abe da72 1a3e bca3 313d
00000270: c23a 90bd 8875 5a3e 3d7d 843c 2a4a 28be
00000280: 6d71 24be 0b3a 87bc ba99 4ebe 2e89 6cbe
00000290: f85f 0f3e 6271 30be 1b1d 2c3e 5919 123e
000002a0: 88e2 433e 812b 613e a7c4 33be e4a6 813c
000002b0: 7b4c 0bbd 1695 67be be0f 71bd acc5 0fbe
000002c0: 6d88 763e 13fd c53d 90da 6cbe f099 b13d
000002d0: cdb8 0f3d 439a ddbd e10b 523e 1a3a 823e
000002e0: c4d4 963d 0345 52bd bd5a 54bc 4f73 343d
000002f0: 7075 bdbc 7467 5a3e baef b9bc 740c 1d3e
00000300: baf4 a73d 7a31 693e 5fce 8b3c 493e 243e
00000310: 7879 3a3e da2e 1f3d 206f 55be 706b 3c3e
00000320: aa44 1c3e b4ed 62be b9d2 e1bc 165f 963c
00000330: 7a47 b938 ede8 433d b302 52be 4e6d 24bd
00000340: 8d97 56be 1f4a 73be fea5 4ebe f859 6e3e
00000350: 5bd1 703e ebdd ab3d 6f97 a1bc a6c2 603d
00000360: 2482 a5bc c924 fdbd 8462 ed3d e953 14bd
00000370: 1e71 16be 3170 37be 6e89 3bbe 598d 2fbe
00000380: 7dd4 84bd 1095 033e 959f 2e3d 9b7a f33d
00000390: a745 9cbd b564 cdbc a135 60be 4b43 3c3d
000003a0: c1ed 5b3e 87c5 63be c0ed 30bd d5ab f03d
000003b0: 2273 773e db78 e0bd 6a98 3d3e dd8b 61be
000003c0: b2ab b3bd 29b7 a93d fc92 19be dc99 85bc
000003d0: f7c0 5e3e 22f6 2e3e c92d 193e ffbb 533e
000003e0: 8974 e1bd fc33 5cbe bd86 79bc 79dc 3bbd
000003f0: 8386 563e e63c 023e 56ae 423e 5d64 203d

output_layer.weight f4 [1, 512]
-0.05627116 0.0130964685 0.007054463 -0.00837519 -0.006292125 0.030712 0.048860684 0.063106075
-0.019173747 -0.074938886 0.016674193 -0.041845597 -0.037982497 0.17141904 -0.068702005 0.008696168
-0.056577686 0.031910665 -0.05487177 0.12456255 -0.0116229355 -0.042221304 0.106022686 -0.0353624
0.041520186 0.02775216 -0.06770069 0.009550698 -0.05642694 0.025235437 0.035627734 -0.03526215
-0.016710157 -0.10051461 -0.051501524 -0.0791001 -0.017185915 0.025667 0.0009352011 -0.032863837
-0.07299965 -0.030035889 -0.014534669 -0.07544125 0.0017378996 -0.04392901 -0.04257894 0.011813783
-0.050706655 0.047434185 -0.028333193 0.018451521 -0.08044083 -0.03171856 -0.023938527 0.069572985
0.028703118 0.061537173 -0.017570563 0.09820607 -0.03887363 -0.010601767 -0.06363545 0.066513106
-0.05310348 -0.046110354 -0.04965561 -0.039471753 -0.029504182 0.008495472 0.027444737 0.021384994
0.041415308 -0.07190702 0.041649703 0.05339041 -0.028433057 -0.027081186 -0.05515908 -0.022287011
0.046568476 -0.019017987 0.0030586282 -0.014475652 -0.028475534 0.038005527 0.05412151 -0.014339445
-0.050458316 -0.023854023 -0.011869637 -0.040742494 0.22225206 0.039203204 0.0413839 -0.14777422
-0.030619198 -0.061346 -0.09098594 -0.06247586 -0.055293754 0.04353967 -0.112332456 0.037812248
-0.042178936 0.00662728 0.022236727 0.06513685 -0.05364228 -0.045779284 0.07471389 -0.030061385
0.035718527 -0.12117483 -0.045470882 0.07996377 -0.011846185 -0.04921071 -0.00737061 -0.035281643
0.023146853 -0.0037312831 0.016179442 -0.029590214 0.045681156 0.12369421 -0.04410057 0.004870333
0.045083314 0.020742167 -0.009838191 0.020013882 0.13542822 0.042275958 0.05886079 0.049287472
-0.031547505 -0.013353006 0.026613632 -0.0006336891 0.029328208 -0.017072774 -0.00898333 -0.00594097
0.030724948 0.0072333203 0.0051759616 -0.06253299 -0.061321322 -0.0053855083 0.029316198 -0.012127952
-0.019494867 0.011716612 0.062062614 0.0010630102 0.045934383 0.059498966 -0.018970624 -0.040659253
0.07084166 0.0041434565 0.030387243 0.024833228 -0.030052288 -0.024281202 -0.066128425 0.028792137
-0.017189145 0.017571658 -0.057135448 0.010936945 -0.06867112 -0.005366671 0.0464168 0.083229445
0.056073446 -0.034490943 0.03661835 0.029081002 0.0373378 -0.03564703 0.14177263 -0.101548985
0.025775569 -0.06164069 -0.028401067 -0.04988821 -0.016681075 0.12284387 -0.04216527 -0.003773204
-0.033639386 -0.0137182325 0.033112753 -0.06330961 0.011704745 -0.04910305 0.045610767 -0.0484669
-0.08965007 0.044419218 -0.070237294 0.03189265 0.05431502 0.03353433 -0.036289427 -0.0039959988
-0.13585779 0.13283329 -0.031074641 0.0063727153 0.029202204 0.016205646 -0.044227567 0.047423594
0.045890957 0.019056307 -0.028891897 -0.047488004 0.01551634 -0.0040480425 0.011639561 -0.050507586
0.009117845 -0.04026279 0.053624615 0.013067567 0.07142288 -0.04779504 -0.003695911 -0.054881133
-0.019189762 -0.018078245 -0.037336435 -0.015666198 0.0048594265 0.03254373 -0.0038932997 -0.01522359
0.039052203 0.008577259 0.0073392093 0.0059081675 0.080001935 -0.089213744 -0.07235889 0.10684006
-0.074698746 0.042361088 -0.037161987 0.043662135 0.068590656 -0.12743154 -0.010991792 -0.1427213
00000000: 967c 66bd 9292 563c 2029 e73b 1838 09bc
00000010: 2c2e cebb bb97 fb3c 2422 483d c23d 813d
00000020: 4312 9dbc 8f79 99bd 5198 883c 4a66 2bbd
00000030: 8993 1bbd 7988 2f3e a3b3 8cbd 5f7a 0e3c
00000040: 01be 67bd c2b4 023d 39c1 60bd a61a ff3d
00000050: 206e 3ebc 3ff0 2cbd 6c22 d93d 2ad8 10bd
00000060: 1211 2a3d 7f58 e33c a9a6 8abd 887a 1c3c
00000070: ef1f 67bd 8cba ce3c 63ee 113d 0b6f 10bd
00000080: bde3 88bc 9bda cdbd 43f3 52bd 3cff a1bd
00000090: 7ac9 8cbc 9a43 d23c 4928 753a 3b9c 06bd
000000a0: d780 95bd d30d f6bc d222 6ebc f180 9abd
000000b0: 3cca e33a e8ee 33bd 4167 2ebd 998e 413c
000000c0: c8b1 4fbd 594a 423d 031b e8bc a527 973c
000000d0: 29be a4bd 52eb 01bd bb1a c4bc 487c 8e3d
000000e0: cd22 eb3c 670e 7c3d 24f0 8fbc 4420 c93d
000000f0: f539 1fbd 09b3 2dbc 4e53 82bd 0638 883d
00000100: 0983 59bd 36de 3cbd ae63 4bbd 22ad 21bd
00000110: c1b2 f1bc 9830 0b3c c9d3 e03c 952f af3c
00000120: 19a3 293d fd43 93bd e198 2a3d e7af 5a3d
00000130: 71ec e8bc 5dd9 ddbc 7dee 61bd 4093 b6bc
00000140: 96be 3e3d 9ccb 9bbc 4473 483b 492b 6dbc
00000150: 8645 e9bc afab 1b3d 84ae 5d3d feef 6abc
00000160: 61ad 4ebd 8369 c3bc de78 42bc 9ae1 26bd
00000170: 0b96 633e 8a93 203d 2a82 293d 2052 17be
00000180: 1dd5 fabc f145 7bbd d656 babd b0e6 7fbd
00000190: b47b 62bd a756 323d 8f0e e6bd 04e1 1a3d
000001a0: d2c3 2cbd a729 d93b cc29 b63c 7866 853d
000001b0: 02b8 5bbd 0f83 3bbd 9903 993d 4b43 f6bc
000001c0: 974d 123d 822a f8bd ad3f 3abd 0cc4 a33d
000001d0: 8016 42bc 2b91 49bd 2885 f1bb 7c83 10bd
000001e0: 789e bd3c 8b88 74bb c08a 843c 2d67 f2bc
000001f0: 2a1c 3b3d 6453 fd3d cda2 34bd 5097 9f3b
00000200: 48a9 383d 7aeb a93c 5d30 21bc 27f4 a33c
00000210: b2ad 0a3e 8e29 2d3d 0318 713d a9e1 493d
00000220: f537 01bd 91c6 5abc d504 da3c 281e 26ba
00000230: b641 f03c 34dc 8bbc d12e 13bc 78ac c2bb
00000240: e3b2 fb3c 7d05 ed3b 1d9b a93b 4c11 80bd
00000250: 112c 7bbd eb78 b0bb 8628 f03c 51b4 46bc
00000260: b3b3 9fbc 08f7 3f3c 5e35 7e3d b454 8b3a
00000270: b125 3c3d 30b5 733d 4868 9bbc 518a 26bd
00000280: 6f15 913d d5c5 873b abee f83c 0e6f cb3c
00000290: 3730 f6bc 5fe9 c6bc 576e 87bd 7ddd eb3c
000002a0: 40d0 8cbc 70f2 8f3c dc06 6abd df30 333c
000002b0: 72a3 8cbd e6da afbb 8b1f 3e3d 3374 aa3d
000002c0: 45ad 653d 6046 0dbd 1ffd 153d 483b ee3c
000002d0: 85ef 183d 9f02 12bd d82c 113e eaf8 cfbd
000002e0: 4927 d33c f37a 7cbd 5ba9 e8bc 9457 4cbd
000002f0: c0a6 88bc 9195 fb3d 7db5 2cbd dc47 77bb
00000300: 74c9 09bd 70c2 60bc 3da1 073d 78a8 81bd
00000310: 42c5 3f3c 4820 49bd 5bd2 3a3d 3a85 46bd
00000320: 759a b7bd edf0 353d 92d8 8fbd dea1 023d
00000330: 6d79 5e3d 4b5b 093d 39a4 14bd def0 82bb
00000340: 4e1e 0bbe 7305 083e 3f90 febc 36d2 d03b
00000350: 7639 ef3c b4c1 843c f727 35bd 3e3f 423d
00000360: 28f8 3b3d f91b 9c3c b3ae ecbc c882 42bd
00000370: 3f38 7e3c 71a5 84bb dbb3 3e3c 0be1 4ebd
00000380: 0463 153c 98ea 24bd 7ca5 5b3d 5919 563c
00000390: 2946 923d bbc4 43bd 1937 72bb 0acb 60bd
000003a0: d933 9dbc d418 94bc 17ee 18bd 6656 80bc
000003b0: d33b 9f3b 934c 053d bb26 7fbb 5d6c 79bc
000003c0: 34f5 1f3d a287 0c3c c07d f03b 4d99 c13b
000003d0: 0ed8 a33d b2b5 b6bd e630 94bd f6ce da3d
000003e0: a8fb 98bd d282 2d3d 2b37 18bd 11d7 323d
000003f0: 4279 8c3d 6a7d 02be eb16 34bc 8825 12be
