data/baumgartner_C-N/morpholine_emulator/morpholine_bm_predictor_0.pt (torch, 38367 bytes, 3 tensors)

input_layer.weight f4 [512, 16]
00000000: 8380 2fbe a2df 93bc 83c4 75bd b8ab e3bd
00000010: 32a0 bdbd af61 ca3d 6b0b 293d f253 5f3e
00000020: 151c 7b3c 1027 f23c 308f a1bd 227e 4abe
00000030: d6c2 043e 08d5 5fbe 5b8c 353e 305d 543e
00000040: 7a4f 573c 563d d93c c18e 51be 5231 03be
00000050: 32fa 0dbe 0d63 633e db95 32bd 38d6 a73d
00000060: 31d7 4abc 06c0 f13d da86 fc3d 2035 4abc
00000070: 2035 acbc 62dc 713e fd51 2b3e 1c94 41be
00000080: 168c 4c3e 2871 6ebe 3f26 743e e800 543e
00000090: 9a3e 13be 3173 acbc 6a16 70be b452 a3bd
000000a0: 9737 d4bb d639 7cbe 37a0 55be 2ea4 35be
000000b0: 6055 313e d44a f6bd e5c9 e83d e07f 24be
000000c0: 5276 dcbd 4064 423d b1c2 5c3e 237b ccbd
000000d0: a51a 523e c014 cd3d ec38 ec3d 9edc 09be
000000e0: 3048 78be 98ac 663e f8ee 3cbd 18f1 7cbd
000000f0: 5c4f f3bd f216 01be cbff c8bd 8c77 51be
00000100: 15be 1fbd a43b 5fbe ebb8 333e 1e04 2abe
00000110: 836a 33bd 53c2 81bd c717 7c3e 16d7 4f3e
00000120: dd42 4c3e bc3d 2abe ea0a 62bc 06b3 273e
00000130: 3a4f 753e b835 0f3e 98d6 5fbe 100a 853d
00000140: 4814 69be 8433 703d 2f9d 4bbe 03de 533e
00000150: 13e2 0e3e 5d60 af3d deb1 9cbd f2f1 063e
00000160: b4db dc3d b44d 31be 94d2 8c3d 7813 72bd
00000170: 60e5 e63c 9c7e 3d3e 90af 47be 10af 3abe
00000180: c636 19be fd25 2a3e 70eb dfbd 24e9 21be
00000190: de9c 30be a0e8 153e f4e8 56be 0852 60bd
000001a0: 6036 5ebe 6e08 493e b343 1a3e f094 dd3c
000001b0: 70e1 5c3d 14b5 eebd 9689 57be 2604 303e
000001c0: e2c4 2e3e d354 04be 9425 643e b4f5 903c
000001d0: 5833 ebbd 66f8 40be 68cc 3e3d be39 223e
000001e0: 4ba6 8abd 7bc4 58be 5e5a 60ba b046 9ebd
000001f0: 10a7 223e 1072 eb3c 0e6b 9f3d 4891 f1bd
00000200: 3e50 39be 2ac6 c03b 3b44 ae3d ce72 4abe
00000210: 7d2b febb 6a5c 793d bc64 0f3e 2071 f4bc
00000220: a2d1 283e c8ea ffbd c992 723e aa4f 6dbe
00000230: 74ce cc3d 5411 223e 822f 0cbd 3a14 60be
00000240: 2b0e 48be 5a9d 58be 7e46 6c3e e1ee ec3d
00000250: d93d b9bd 2e0b ec3d ec5c 42be f43b cf3d
00000260: 1e67 673e f403 0fbe 40cb 7f3e b802 d8bd
00000270: 5e54 7d3e 32a9 37be bc69 90bd 106e f83c
00000280: 85c8 44bd 3440 1cbe 02c6 693e ae55 2a3e
00000290: 69f2 77bc ca4d cf3d 7979 0dbe d042 f03d
000002a0: 50b9 9a3d 7be8 84be 2598 33be 1291 5d3e
000002b0: f0f2 d93d 4667 753e f42c 99bc 20c3 bdbc
000002c0: 497f 5bbd 8a5e 0ebe b934 c33d 0408 3fbe
000002d0: cecb cd3d 15c7 47bd 74fa 1cbe b88d a63d
000002e0: 3958 45bc aacd 04be cf2e cebc 5833 1abe
000002f0: e0d8 69be f09c fcbd 2f4d 65bd 80a2 a6bd
00000300: 1d9a 223e 0aab 78be 0653 0abe 23f0 a53d
00000310: 1523 093d 4857 79be a521 6b3e 0cea d7bd
00000320: e023 37be 0182 313e 0245 bb3c 30c8 1c3d
00000330: 2403 273e ec36 4a3e 7997 e4bd 5cc8 29be
00000340: 4b62 24be 1595 573e 3d3a 7fbe 1ba6 19be
00000350: 2bda 1d3e ad8b b23b 15fd 0d3e 00d0 22b9
00000360: da41 50be bde4 573e 006e 1bbe 3ca1 b53d
00000370: 6048 0b3c 2014 653e e0ff 0dbe cc01 943d
00000380: 1448 1dbe 7367 e7bd 330f 30bd 238e 43be
00000390: 43ca a0bd 17f7 75bd da72 0fbe 443c 30be
000003a0: a29c 27be 2691 eb3d ba38 c1bd 6673 5e3e
000003b0: 8082 d4bd 043c 01be 1d77 0bbe f239 41be
000003c0: dcc5 06bd 5de9 27be 3ab0 40be 2e67 773e
000003d0: 1038 f63d c32a 533e a6de 48be f499 fc3d
000003e0: 6cfc 80bd 4ced f7bd b7a4 223e b422 fe3d
000003f0: 50cc 923d 14f2 6d3e a2b3 433e 58b1 c2bd
-0.17138867 -0.018050972 -0.06000186 -0.11116737 -0.092590705 0.09881913 0.041270655 0.21809366
0.0153265195 0.029559642 -0.07888639 -0.19774678 0.12964949 -0.21858609 0.17729323 0.20738673
0.013141507 0.026518505 -0.20464613 -0.12811783 -0.13864973 0.22205754 -0.043599945 0.08195156
-0.012380407 0.11804204 0.123304084 -0.012341768 -0.021021426 0.23619226 0.16730495 -0.18904155
0.19975314 -0.23285353 0.23842715 0.2070347 -0.1437935 -0.021051021 -0.2344605 -0.07974759
-0.0064763534 -0.24631438 -0.20861898 -0.17738411 0.17317724 -0.12025991 0.11366633 -0.16064405
-0.10764755 0.047458887 0.21558644 -0.09984424 0.20517977 0.100137234 0.115342945 -0.13463065
-0.24246287 0.22526777 -0.046126336 -0.061753362 -0.11880371 -0.12606409 -0.09814414 -0.2045576
-0.038999636 -0.21800095 0.1755101 -0.16603133 -0.04380275 -0.063358925 0.24618445 0.20296893
0.19947381 -0.16625112 -0.013796547 0.16376886 0.23956004 0.13985336 -0.21859205 0.0649606
-0.22761643 0.05864288 -0.1988418 0.2069016 0.13953428 0.08563302 -0.07651113 0.13178232
0.107840925 -0.17314798 0.06876102 -0.059100598 0.028185546 0.18505329 -0.19500566 -0.18230844
-0.149623 0.16616054 -0.10933578 -0.15811592 -0.1724734 0.1463952 -0.20987302 -0.05476573
-0.2170043 0.19632122 0.15064888 0.027048558 0.05392593 -0.11655632 -0.21048579 0.17189083
0.17067292 -0.12922983 0.2227996 0.017695285 -0.114844024 -0.18844756 0.046581656 0.1584234
-0.06769999 -0.21168701 -0.00085583876 -0.07728326 0.15884042 0.028740913 0.07784091 -0.11795288
-0.18097016 0.005882998 0.08509108 -0.19770357 -0.007756649 0.06087915 0.14003271 -0.029839098
0.16486219 -0.12495953 0.23688807 -0.2317492 0.10000315 0.15826923 -0.034224994 -0.21882716
-0.19536655 -0.21153775 0.23073766 0.11569 -0.09045 0.1152557 -0.1898076 0.10118857
0.2259793 -0.13966352 0.24979877 -0.105473936 0.24739215 -0.17935637 -0.07051417 0.03032592
-0.048042793 -0.15258867 0.2282944 0.16634247 -0.015133479 0.10122259 -0.1381587 0.117314935
0.07554877 -0.2595862 -0.17538507 0.21637371 0.1064204 0.23965177 -0.018698193 -0.023164332
-0.053588185 -0.13903251 0.095315404 -0.18655401 0.10048638 -0.048773844 -0.15329915 0.081324995
-0.01204496 -0.1296908 -0.025168804 -0.15058649 -0.22836637 -0.12334621 -0.05598181 -0.08136463
0.15879102 -0.24283996 -0.13508233 0.08102443 0.033480722 -0.24349701 0.22962053 -0.10542688
-0.17884779 0.17334749 0.022860054 0.03827685 0.16309792 0.19747514 -0.111617036 -0.16580337
-0.16053121 0.21052964 -0.2492456 -0.1500477 0.15415256 0.0054487796 0.13866074 -0.0001552701
-0.2033762 0.2108335 -0.1517868 0.08868644 0.008501142 0.22370958 -0.1386714 0.07226905
-0.15359527 -0.11299028 -0.042983245 -0.1909719 -0.07851078 -0.060050096 -0.14008656 -0.1721049
-0.16368344 0.11502294 -0.09434648 0.21723709 -0.103764534 -0.1262055 -0.13619657 -0.1886976
-0.032903537 -0.16397615 -0.18817225 0.24160454 0.12022412 0.20621781 -0.19616184 0.12334052
-0.06298146 -0.12105808 0.15883146 0.12408963 0.07167876 0.23236877 0.19111493 -0.09506482

input_layer.bias f4 [512]
00000000: d9ac b5bd 7005 a43d 7da9 af3d 25a2 4bbe
00000010: 8e7d 3cbe b4f3 743e 7e5c a5bd b28d 10be
00000020: 8e4c 2bbe c5a3 11be 19af 453e 7363 193e
00000030: 8dec 1bbe a98b 573e b4b5 89bc eec6 39be
00000040: b366 d9bd c72d 493e 74d3 50be 4425 0d3e
00000050: 662a e0bd c6e6 5ebd c126 14be 5116 c03c
00000060: 3f70 bb3d 924c 33be 258b 7a3b d75d 8a3c
00000070: de82 553d ba80 65bb 1e5a d8bd cebc 1cbd
00000080: 6753 2e3e d8e8 60be b36e 783d 45e2 74be
00000090: 96fb dc3d b8c3 78be 4ee4 a23d dcfd 233e
000000a0: 195b 05be ef44 15be 1f73 363e f8e6 e2bc
000000b0: 43a6 0ebd c3aa 83bd d857 f53d 602a 8cbd
000000c0: e75e d33d 8d68 203e edc5 02be f115 043e
000000d0: 62f9 0fbe 0f70 4cbe 05d8 4dbe 761d 12bd
000000e0: 23be d7bd 3d62 553e e8c2 73be 9271 3d3e
000000f0: 97a2 063e e186 453d e7c9 323e 6f78 a4bd
00000100: 50fd 733d d36b 2a3e c673 823d 97bc 3d3d
00000110: 8562 d1bd 4934 293e 7130 983d d622 49be
00000120: e998 d03d 9644 883b f613 f1bd 1876 1abe
00000130: 6c6c 0e3d e04d d63d 6754 db3b b885 763e
00000140: 88d1 28bc 8c91 72be 6e8d 5abe c25b 3a3d
00000150: 2673 88bd 1be5 0d3e 9888 7c3e 88f9 28be
00000160: 2843 4b3d 6469 45be f13f b7bd 2f5f d03d
00000170: 6e42 64be b295 2cbe a7c1 1fbe e672 c03c
00000180: 2a15 0f3e 2cc3 9dbd 5d6e 6c3d 0a9c 093e
00000190: d815 73be 7e8f 333e 86bc 6b3e 9156 403e
000001a0: 30a9 ad3d f98e 7b3e 2a43 10be 0eba 42be
000001b0: 6f8d f83d 76f8 803e 7541 20be 4097 75be
000001c0: ee93 c0bd d62e a9bd 22bb 483e 63ff 3e3e
000001d0: 6782 47be 779d 2cbd ff14 023e 442f 31bc
000001e0: 920d cabd f184 2abe ed6b 54bd 5d6c a03d
000001f0: d3c9 473e 341d 09be ce10 4a3e c8a6 3ebe
00000200: 5eda 20bd add1 583e 20f3 7b3e e122 6ebe
00000210: 7678 17bb 1b48 82bd 18b5 633b 2df6 f0bd
00000220: 20c4 443e 8a37 793e b2c4 4fbd f5a0 c73b
00000230: 42dc 4fbe ee57 3c3e 991c dabc c2dc 553d
00000240: 21a3 9bbc 1148 743e dc2b 7ebd e783 8bbd
00000250: 9642 67be 17f5 36be 052e 803d 06b6 02be
00000260: 9bb2 413e 03fc 61be fdeb 68be 0664 6abe
00000270: 05e6 f13d ac5f 1e3e aed0 3b3d 7699 c7bc
00000280: 2b05 283e d9e3 963d 3fee 35bc 530b 603e
00000290: 2b46 053e 193b 69be caff 75bd b05a 78be
000002a0: 40e7 d8bd 8e97 20be 6105 6e3e 2dc9 503e
000002b0: 0378 533e 0dac 8dbc c146 3e3e 32b7 3f3e
000002c0: 58a3 6cbb 2caa ee3c 011c 3a3e 7b25 81bd
000002d0: ed2a 70bd 5148 e6bc 7701 393e 6cd2 b8bd
000002e0: 1fa4 42bd 9cfd 9abb d2e5 a6bc 8eef c53d
000002f0: 9479 4bbe 09b6 35b9 2bd0 61be 75e0 e93b
00000300: 2087 733b 4e3f 6d3e 7087 4d3e 1880 d7bb
00000310: 9630 3fbe 6daf 10be 47b1 453e f30f 86bd
00000320: 3bac 40be fef3 b9bd f507 293e dbb9 f33d
00000330: f143 cbbd b73b 43be f66f 21be e20a 4e3e
00000340: 2401 6fbd 6b29 6a3d fcb2 91bc 9bdd 5a3d
00000350: d970 ac3c 143f a13c 84a1 18be 72ce 333e
00000360: d7c3 6d3e 94ba 42be f454 b23d 153a d0bd
00000370: 78b2 30be bf47 f5bd ddc7 6d3e 0626 60be
00000380: fdde 6b3e a4f1 bdbd 5a9b 573e db24 42bd
00000390: 41a1 1e3d cd50 843d 69c6 283e da0a 9bbd
000003a0: be86 a13d 65e0 4d3e 642c 34be 7c46 393e
000003b0: d189 073d 78a7 1dbc 24a9 34bc 0212 6f3e
000003c0: 6cc9 1fbe 2aff 5c3e 0493 63be 817a 00be
000003d0: 5630 07be 9f52 373d 0cf1 71be 3153 41bd
000003e0: db9e 50be 7a7c 803e e42f b63d 57db 73be
000003f0: 19db 2cbe 6d68 5fbe 7d7d 36bd 61aa 03be
-0.08870859 0.080088496 0.08577249 -0.19886072 -0.1840727 0.2392109 -0.08074282 -0.14116552
-0.16728422 -0.1422263 0.19305076 0.14979343 -0.15226956 0.2104937 -0.016810276 -0.18142292
-0.106152914 0.19646369 -0.20393163 0.13783747 -0.10945587 -0.0544193 -0.14467908 0.023448141
0.091522686 -0.17509678 0.003822991 0.01689045 0.052126758 -0.0035019354 -0.105640635 -0.038265996
0.17024003 -0.21963823 0.060652446 -0.2391444 0.10790174 -0.24293411 0.07953702 0.16014808
-0.13023032 -0.14577077 0.17817353 -0.027698025 -0.03482653 -0.064290546 0.119796455 -0.0684402
0.103208356 0.15664883 -0.12770815 0.12898995 -0.14059976 -0.19964622 -0.20101936 -0.035672627
-0.105343126 0.20838256 -0.2380482 0.18500355 0.1314796 0.048224334 0.17459832 -0.080307834
0.05956775 0.16642694 0.06369738 0.04632243 -0.10223869 0.16523851 0.074311145 -0.19642195
0.10185415 0.0041585667 -0.11771385 -0.15084112 0.034771368 0.10464072 0.006693411 0.24074447
-0.010303862 -0.23688334 -0.21343014 0.045497663 -0.06662588 0.13856928 0.24661481 -0.16501439
0.049624592 -0.19278485 -0.08947743 0.10174405 -0.22290966 -0.16853979 -0.15601216 0.023492288
0.13972917 -0.07703242 0.057722438 0.1343843 -0.23738801 0.17535207 0.23021135 0.18783022
0.084795356 0.24566258 -0.14088121 -0.19016287 0.12136351 0.2518956 -0.1564997 -0.23983479
-0.09403215 -0.08260886 0.19602636 0.1865211 -0.19483338 -0.042142358 0.12703322 -0.010814492
-0.098658696 -0.16652276 -0.05186074 0.07833169 0.19510584 -0.13390046 0.19732973 -0.1861831
-0.03927075 0.21173735 0.24604464 -0.23255493 -0.0023112572 -0.06361409 0.0034745391 -0.11765704
0.19215441 0.24337593 -0.050724693 0.0060921856 -0.20298865 0.18392918 -0.026624965 0.052212484
-0.018998684 0.23855616 -0.062053546 -0.06812268 -0.22583994 -0.17866932 0.062587775 -0.12764749
0.18915789 -0.22068791 -0.22746272 -0.22889718 0.11811451 0.15466183 0.04585331 -0.024365168
0.16408221 0.07367677 -0.011104166 0.2187932 0.13015048 -0.2277645 -0.060058393 -0.24253345
-0.105909824 -0.15682814 0.2324424 0.20389242 0.2065125 -0.017293954 0.18581678 0.18722227
-0.0036108103 0.029133879 0.18174745 -0.06305977 -0.058634687 -0.028110655 0.18066965 -0.0902451
-0.0475198 -0.0047299396 -0.020373259 0.09664832 -0.19870597 -0.00017329319 -0.22052066 0.007137353
0.0037159398 0.2316868 0.20071197 -0.0065765493 -0.18670878 -0.1412942 0.19305907 -0.06546011
-0.188157 -0.09079741 0.16506942 0.119006835 -0.09925068 -0.19065748 -0.15765366 0.20121339
-0.058350697 0.057168406 -0.017785542 0.053433996 0.021049904 0.019683398 -0.14905363 0.17559221
0.23219238 -0.19016486 0.0870761 -0.10167328 -0.1725558 -0.11976575 0.23220773 -0.21889505
0.23034282 -0.09274605 0.21055356 -0.04739843 0.038728002 0.06460724 0.16481937 -0.07570429
0.07887028 0.20105131 -0.17595059 0.18093294 0.033090416 -0.009622447 -0.011026654 0.23346713
-0.1560418 0.21581712 -0.22224051 -0.12546732 -0.13202032 0.044756528 -0.23627108 -0.047198478
-0.20373099 0.25094968 0.08895853 -0.2381414 -0.16880454 -0.21817179 -0.04455327 -0.12857963

output_layer.weight f4 [1, 512]
00000000: e3e2 80bc 5a99 2d3d 1141 1abc 9597 333d
00000010: 6a4a 38bd 88c7 85bd 19c4 a63c cfaf 50bb
00000020: ed70 98bc fb73 25be 7113 bfbd a80b 90bc
00000030: b9d2 d93b d103 db3c 5565 843c 7935 64bd
00000040: 4808 06bd e40f bc3d b2d9 7b3b 61ed 63bd
00000050: b916 803c 08cc e3bb d198 923d 91d6 92bc
00000060: e541 1abd 48bc cd3c 2b73 dcbc 1897 1e3d
00000070: 64e3 783d 3f1b e7bc 3b5e 963c 5d8e 133d
00000080: 84f2 20bd f7b4 813d 719e 3f3c e9c3 183d
00000090: 790a e6bd 5e86 9d3d 3d3f 20bd 336d 7d3d
000000a0: 6106 e0bd f4e6 77bc c782 97bc bac1 f63d
000000b0: 8a3b 29bd d2b4 c4bc cf2e a03c 8535 55bc
000000c0: d770 ef3c 0fba 963d 3ad1 873d ef3d d8ba
000000d0: d9ce 11bd 4811 e4bc 1bab 853d 8971 8dbc
000000e0: d5e2 2d3d 95a5 05bd ca8e 4b3d 30e2 3ebc
000000f0: ebb2 07bc 8736 27bc a0a0 29bd 9b58 2abd
00000100: 2e4c 883d 5af6 b53a ec53 113e 1bfa aa3b
00000110: 0ee6 be3c ddaf 6f3c 2e2f afbb 1c0f ee3b
00000120: fa46 073d 4655 9ebd 4381 2f3d 7c21 a03c
00000130: bd31 c0bc 9a2a d23d be73 63bc f724 53bd
00000140: 7b4f 81bd 3289 983d 0620 08bd e1a7 dd3b
00000150: 9a2e 6c3d a262 d2bd 860e 25bd de8d 673c
00000160: 653e 4fbd c314 4cbd e9a7 893c 5ad7 293d
00000170: 9dd5 3e3c 2926 8ebb 63a9 563d cfd9 28bd
00000180: e504 f03d 3522 a93d e1fb ba3a db16 cabc
00000190: 12a7 8bbb 8264 48bd f6a2 b2bc 37cc a53d
000001a0: d8a5 0c3d db4b bcbd d090 d53d b771 e03c
000001b0: 1b8c 84bd c813 bfba b1c8 a0bc 3232 b5bb
000001c0: d530 0bbd 6966 223c 9904 1bbc a6cf 64bc
000001d0: 0bca e4bc 4932 22bd 0e12 d83c 3ffe 8b3d
000001e0: 53c3 7c3d 3936 92bc 3367 223c 1724 72bd
000001f0: b0ca aabd 1ffc 6f3b a47c 94bd 7196 d4bc
00000200: d980 ccbc d238 32bc eadf 1f3a 5f69 15bc
00000210: 4c73 7dbd 02bb b1bc e7e7 133d 00a9 b5bc
00000220: abe7 85bb 795b d5bc 347c 3e3d f463 82bd
00000230: bf1b 82bc be46 a4bd 11c7 4cbd 2a0c 793d
00000240: 1048 a5bd 91e7 333d 64ff dc3d 7410 e63c
00000250: a2ca 9f3c f0b7 48bd e214 1abc 111e 843c
00000260: 4000 a53d f3ac 9e3d a3ba 18bd e2b0 fd3c
00000270: cd2e cd3a 26c2 2abb fc9d c13a bafa e7bc
00000280: 8a74 8e3d a8f5 103c f9b1 97bd c6d6 ec3d
00000290: bbc3 87bd f130 f3bc e807 62bd eca1 b23c
000002a0: a926 c1bc 6943 993c 98f8 33bd 7903 9d3d
000002b0: dd22 95bb 5853 9ebc b994 d63c c805 073e
000002c0: e86f 96bd c6cf 9c3c 2071 153d 4312 8e3c
000002d0: 8e9d 4e3d 8714 75bd 0169 0c3d a74e bc3c
000002e0: d5fa 813c 42a2 0d3d 6f46 9a3c 9fae d3bc
000002f0: db86 fb3c 05f7 66bd e4cc 543d 89f3 d7bc
00000300: 67c4 a93d a271 ff3c 459c 2e3d 0c41 96bd
00000310: d249 b1bc bb78 d4ba eb25 9dbc beec e9bc
00000320: b2c0 6cbd 3758 df3b e1d6 6b3d d96f f9bd
00000330: 0764 bbba 0a0e 1c3d 2fb5 be3c c698 903d
00000340: eddb acbb cecd afbc afff e7bc fdb5 1e3e
00000350: f422 91bc 69fc 08bd fc82 adbc 4d30 943d
00000360: c769 aa3c f2a2 2a3d 31fe 8abd 47b0 51bd
00000370: a6f9 b1bd 235a 5e3b a9a8 8c3c 8206 bdbc
00000380: 83a4 02bd 3446 143d 1fbe 963c 7263 b43d
00000390: 3883 2bbd 66a0 093d 0e40 15bd 80db 1b3c
000003a0: 2481 47bc 8bcd d83c 919c 24bc 4399 bc3d
000003b0: 25ba b0bb a33b 233a 8918 0f3d b0bd 99bd
000003c0: 2b44 573b f89a 25bd 5037 883b 09da d0bb
000003d0: a7e7 0e3d 64a2 343d 6268 1bbd 228d 7c3b
000003e0: 2057 b63c 204d 83bd b44e 963d 0318 133b
000003f0: c74e 083d be34 a13c 93ff c5bb 4d1c 54bc
-0.015733188 0.042382576 -0.009414927 0.04384573 -0.04499284 -0.06532198 0.020357179 -0.0031843071
-0.018608535 -0.16157524 -0.0932988 -0.017583683 0.0066474346 0.026735218 0.0161616 -0.055715058
-0.03272274 0.091827184 0.0038429317 -0.055646304 0.015635835 -0.0069518127 0.07158054 -0.017924579
-0.0376605 0.025114194 -0.026910385 0.038718313 0.06076373 -0.028211234 0.01835548 0.03602444
-0.03929378 0.063333444 0.01169549 0.03729621 -0.11232466 0.07691644 -0.03912281 0.06187172
-0.10938717 -0.015130747 -0.018494977 0.12048669 -0.041316546 -0.024012003 0.01955357 -0.013013248
0.02922861 0.073597066 0.06631704 -0.001649795 -0.035597656 -0.027840272 0.065267764 -0.017266052
0.042452652 -0.032628614 0.04969672 -0.011650607 -0.008282403 -0.010205871 -0.04141295 -0.041588407
0.06655155 0.0013882623 0.1419217 0.005217803 0.023303058 0.014629331 -0.0053462004 0.007264985
0.033026673 -0.07731108 0.042847883 0.019547217 -0.023461217 0.10262032 -0.013882576 -0.051548924
-0.06313988 0.07448043 -0.033233665 0.0067643975 0.05766163 -0.10272719 -0.040297054 0.014132945
-0.050596613 -0.049824487 0.016803699 0.04146514 0.011647609 -0.004338045 0.052407634 -0.041223343
0.117196836 0.082584776 0.001426574 -0.024669101 -0.0042618597 -0.048923977 -0.021806221 0.080955915
0.03433785 -0.09194156 0.104280114 0.027397973 -0.064720355 -0.0014578039 -0.019626947 -0.0055296654
-0.033982117 0.009912112 -0.009461545 -0.013965523 -0.027928373 -0.039598737 0.026375797 0.06835603
0.061709713 -0.017848121 0.0099123 -0.05911645 -0.08339441 0.0036618782 -0.07250336 -0.025950642
-0.024963783 -0.010877805 0.00060987344 -0.009119361 -0.061877534 -0.021695618 0.03610983 -0.022175312
-0.004086455 -0.026044594 0.046505168 -0.06366721 -0.015882371 -0.080213055 -0.049994532 0.060802616
-0.080703855 0.04392201 0.107908994 0.028084017 0.019505803 -0.04900354 -0.009404393 0.016127618
0.08056688 0.07747831 -0.037287366 0.030968133 0.0015654207 -0.0026055663 0.0014771814 -0.028317798
0.06955822 0.0088476315 -0.074069925 0.11564402 -0.066291295 -0.029686423 -0.05518332 0.021805726
-0.023578005 0.018708901 -0.04393825 0.07666678 -0.004551275 -0.01932685 0.026193963 0.13185799
-0.07345563 0.019142043 0.036484838 0.017342692 0.050443225 -0.05983403 0.034279827 0.022986723
0.015866676 0.03457857 0.018832413 -0.025840102 0.030703953 -0.05638792 0.05195321 -0.026361244
0.08289414 0.031182114 0.0426295 -0.073366255 -0.021641646 -0.0016210297 -0.01918312 -0.02855527
-0.057800956 0.006815936 0.05757797 -0.12179536 -0.0014296778 0.038099326 0.023279754 0.07060389
-0.0052752406 -0.02146044 -0.028320162 0.1549911 -0.017716862 -0.033443842 -0.021180622 0.07235775
0.020802392 0.041659303 -0.067867644 -0.0511935 -0.08690195 0.0033928237 0.017170267 -0.023074392
-0.03189517 0.036199763 0.018401204 0.0880803 -0.041873187 0.033600233 -0.03643804 0.009512782
-0.012176786 0.026465198 -0.010047094 0.0920892 -0.005393284 0.0006226843 0.034935508 -0.07506883
0.0032847028 -0.040430993 0.0041569844 -0.006373648 0.03488889 0.04410018 -0.037941344 0.003853627
0.022258341 -0.06411195 0.0733923 0.0022444732 0.033278253 0.01967847 -0.0060424297 -0.012946201
