data/baumgartner_C-N/morpholine_emulator/morpholine_bm_predictor_4.pt (torch, 38367 bytes, 3 tensors)

input_layer.weight f4 [512, 16]
000000 40 73 0d be 8c 2d 70 3c ec c9 2d 3d 75 ff 5d 3e
       -0.13813496 0.014659297 0.042428896 0.2167948
000010 b1 70 42 be fe 64 6e be 45 3b f2 bd 40 f5 77 3e
       -0.18988301 -0.23280713 -0.11827711 0.24214649
000020 54 22 36 bb 89 62 69 3e 09 4c d9 3d 00 76 9c 3d
       -0.0027791457 0.22791494 0.10610206 0.07639694
000030 e0 27 25 be 1a 61 17 3e e5 18 21 3e a8 fe 4d bd
       -0.16128492 0.14783135 0.15732153 -0.050291687
000040 cb c1 5d be d0 d8 eb bd 9f c5 75 3d 98 ab 7e 3e
       -0.21655957 -0.11515963 0.06000292 0.24870145
000050 39 1b 9b bc 43 1b 2d 3e 76 32 4b 3d 7c b0 9c 3d
       -0.01893388 0.16904931 0.04960867 0.07650849
000060 71 96 cd bd 99 c3 09 3e b4 09 8b ba 80 6f 19 3b
       -0.1003846 0.13453521 -0.001060775 0.0023412406
000070 50 f4 e2 bd f4 74 10 3e 2b ec 3f be c8 0d 10 3d
       -0.11081755 0.14107114 -0.18742435 0.035169393
000080 bc d8 29 bd 1f 05 01 bd 0d 58 69 3e f7 3d 58 be
       -0.04146646 -0.031499024 0.22787495 -0.21117388
000090 5d 48 23 be 03 d6 20 3e 3b 13 38 3e 90 ab 7e 3e
       -0.15945573 0.15706639 0.17976086 0.24870133
0000a0 28 7d 3d be d9 ef f7 3b 70 5e 3d 3e 16 36 1d 3e
       -0.18504775 0.007566434 0.18493056 0.15352663
0000b0 50 64 d5 bd 68 1c fb bd 6b c8 1a 3e 90 ab 71 3d
       -0.10419524 -0.122612774 0.15115516 0.059001505
0000c0 9c 1d 2b 3e db 68 2e 3d 4d e0 6d 3e 86 a7 39 be
       0.16710514 0.042580467 0.23230095 -0.18130311
0000d0 89 73 0d be 81 a1 04 be e6 19 b5 3c a8 82 75 bd
       -0.13813604 -0.12952234 0.022107076 -0.059939057
0000e0 13 ba 7d be 76 87 29 bd 57 3b 9f 3d 2e fb 20 3e
       -0.24778013 -0.04138895 0.0777499 0.15720817
0000f0 6a c6 5c be 8c cf 29 3e 4e 06 c9 bd 14 cb 4c 3e
       -0.21560064 0.16583079 -0.09815656 0.19999343
000100 d4 c5 92 bd ea bb 3a 3e 9c 47 89 3d 80 7c ef 3c
       -0.07166639 0.18235746 0.067031115 0.02923417
000110 00 bf bd bd 6e db 06 3e 00 4c 39 3d 80 f3 31 be
       -0.09264946 0.13169643 0.045238495 -0.17378044
000120 b0 d2 8b 3d 58 df bf bd 90 9d 93 3c 68 7a 64 bd
       0.06827295 -0.09368771 0.018019468 -0.0557808
000130 28 4c 8a 3d 44 99 34 be f8 e3 74 be d8 c0 1c 3e
       0.06752807 -0.17636591 -0.23915088 0.15307939
000140 fe 55 4d be 50 d3 8c bd fb 4a 49 3e 0e a1 1b be
       -0.20052335 -0.06876242 0.19657509 -0.15198156
000150 80 5b 15 be d3 0b a6 bd e1 56 7b 3e 36 2f 07 3e
       -0.14585686 -0.08107724 0.2454486 0.13201603
000160 7f 18 e9 3c 1c 63 4e be 61 c2 0c be 4c 6d 92 bd
       0.028454063 -0.20154995 -0.13746025 -0.07149753
000170 2a 8b 3f 3e 74 17 5d be c3 1e 83 3e 1c 28 ff 3d
       0.1870543 -0.21590978 0.25609407 0.12458822
000180 cc d4 9a bc 79 64 7e 3e 5c 23 9a bd 40 68 95 3d
       -0.018900298 0.24843015 -0.075262755 0.07295275
000190 15 72 8a bd 4c ec f7 3c 15 cf ee bd 2a a5 01 3e
       -0.06760041 0.030264042 -0.116605915 0.12660661
0001a0 4e 3c 3a bd 68 77 cc bd ca 75 d9 bd 40 1f 17 be
       -0.045467667 -0.099837124 -0.106181696 -0.14758015
0001b0 6a f2 6c be ca 86 74 be 99 03 47 3e c8 14 98 bd
       -0.23139349 -0.23879543 0.19434966 -0.07425839
0001c0 6a ae 2f 3e f0 2e 63 bd c8 22 ac 3d 89 0b 70 bd
       0.17156377 -0.055464685 0.084050715 -0.05860475
0001d0 13 7c c7 bd 55 44 32 be de 7e 29 be 3c cd f3 bd
       -0.09740462 -0.17408879 -0.16552302 -0.1190438
0001e0 50 07 22 3e c2 ce 47 3b a0 d4 54 3d a8 23 6f 3d
       0.15823102 0.0030488227 0.051960588 0.058383614
0001f0 3c be 71 3e 10 63 42 be a2 72 63 3e 14 86 c5 bd
       0.23607725 -0.18983102 0.22211698 -0.09644714
000200 64 a2 f4 bd 91 dd b0 bd d5 9a 13 3e 40 f7 11 3d
       -0.11945036 -0.086360104 0.14414532 0.035636187
000210 ff 22 04 3e 45 e0 43 3d c9 54 9e 3d dc eb 88 bd
       0.12903975 0.047821302 0.07731015 -0.066856116
000220 2a 40 4b 3e 17 a5 18 3e 8d d1 e0 bc 2c 7d 56 be
       0.19848695 0.14906727 -0.027443672 -0.20946187
000230 ba 6a 4c 3e 50 b8 cd 3d 09 af 53 3e 00 aa cd bb
       0.19962588 0.100449204 0.2067224 -0.006276369
000240 bb cf c1 bd 08 c4 7c be 79 e2 24 be d6 62 14 3e
       -0.094634496 -0.24684155 -0.16102017 0.14490828
000250 83 84 97 3d af f3 a8 3d fe 74 33 bd e8 70 33 bd
       0.073983215 0.08249604 -0.043812744 -0.043808848
000260 1e d9 bb 3d f5 6c 71 3d 69 a0 cf 3b 42 61 28 3e
       0.09172271 0.0589418 0.006336261 0.16443351
000270 2a 3b 30 3e d8 be f7 bd ee 6f ae bc 16 b9 02 be
       0.1721007 -0.120969474 -0.021293607 -0.12765917
000280 3a 00 ac bd b3 61 73 bd a8 c5 95 bd 0c e8 d4 bd
       -0.08398481 -0.059419345 -0.073130906 -0.10395822
000290 ee 8a db 3d 73 af 04 3e a4 b8 56 be e4 dc c4 bd
       0.10719858 0.12957554 -0.20968872 -0.09612444
0002a0 a2 1d 69 3d 7c 15 f6 3d 77 71 94 3d 30 58 11 bd
       0.056913026 0.120158166 0.07248204 -0.035484493
0002b0 94 0f a5 bd d8 6e 3f 3e 02 1a 7d be 26 68 2e be
       -0.08059612 0.18694627 -0.24716952 -0.17031917
0002c0 28 a9 f8 bd 05 90 4c be c9 34 57 be 23 2f 94 bd
       -0.12141639 -0.19976814 -0.2101623 -0.07235553
0002d0 5d 41 4f 3e f0 0d f3 3d 64 e2 59 bd e0 f0 0a be
       0.20239778 0.11867893 -0.05319442 -0.13568449
0002e0 d1 e0 5c be 97 34 74 3e 3a e2 3f 3e b8 19 f5 3d
       -0.21570136 0.23848186 0.18738642 0.11967796
0002f0 3e d1 1e be 74 d7 7c 3e dd 31 57 bd 46 5a 7e 3e
       -0.15509507 0.24691564 -0.052537788 0.24839124
000300 8b fc 58 be 41 52 61 3d f7 b7 d6 3d 00 7d 5f 3e
       -0.21190087 0.055010084 0.10484307 0.21825027
000310 68 51 d8 3d 66 75 04 3e 98 61 a4 bd f8 84 bc bd
       0.10562402 0.12935409 -0.08026427 -0.09205049
000320 21 16 47 3e 71 9d d3 bd 23 57 46 be 3e a6 64 be
       0.19442035 -0.10332764 -0.19369178 -0.22329041
000330 d0 55 fd bc 30 68 6e be 3f d3 4e bd ae ab 7e be
       -0.030924708 -0.23281932 -0.05049443 -0.24870178
000340 c1 5e 72 be 53 07 8a 3d be b7 01 3e 00 a1 97 3b
       -0.23668958 0.06739678 0.12667748 0.004627347
000350 b4 79 a5 3d ac fc f6 bd dc 55 ba bd 36 61 3e 3e
       0.08079854 -0.12059912 -0.090984076 0.1859177
000360 29 c1 18 3d 08 91 57 be e8 6c 7d be c8 6f 4b 3d
       0.037293587 -0.21051419 -0.24748576 0.04966715
000370 06 22 53 3e fa 53 53 be 43 87 dd bd c0 3f 4f 3d
       0.20618448 -0.20637503 -0.10816815 0.050597906
000380 70 e0 a6 3d 84 34 b9 3b 6c b1 45 be 48 9e 58 be
       0.08148277 0.0056520123 -0.19305962 -0.2115413
000390 73 69 54 bd 93 dd 43 be 29 a9 2f 3d 60 09 08 bd
       -0.051858377 -0.19127493 0.042885933 -0.033212066
0003a0 6c b1 2f be 5a a8 85 3e b1 6a b2 bd d2 06 07 3e
       -0.17157525 0.26105005 -0.08711756 0.13186195
0003b0 ee 36 28 3e fc e5 24 be 4b b8 3c 3e 18 a4 35 3e
       0.16427204 -0.16103357 0.18429677 0.17738378
0003c0 e3 22 ce 3d 90 39 8f bd c6 23 24 3e b0 ac 4c be
       0.10065248 -0.06993401 0.16029271 -0.1998775
0003d0 8e 0f 6d 3d 26 6a 65 bd 77 85 35 be 44 04 ce bd
       0.057876162 -0.056009434 -0.17726694 -0.10059407
0003e0 6e 68 d4 3d be fb 6c bd 74 87 c2 3d 66 ac 16 be
       0.10371481 -0.057857268 0.09498492 -0.14714202
0003f0 da c0 64 be 12 fe 69 3e 3b b7 19 3d a6 6e 32 3e
       -0.22339192 0.22850826 0.037528258 0.17425022

input_layer.bias f4 [512]
000000 c3 ab c1 bd 0d c8 3e be 2b 22 75 bd e5 7e e5 3c
       -0.09456589 -0.18631001 -0.05984704 0.02801461
000010 4e c4 3c be 63 32 b8 bd 98 00 7c bd 64 81 4b 3b
       -0.1843426 -0.089939855 -0.061524004 0.0031052465
000020 5c eb 5a 3d 4a fd 53 3c 89 12 1b bd 8c e0 28 3e
       0.053447112 0.012938807 -0.037859473 0.16491908
000030 83 fb 32 3b ad 96 34 be 10 fb e3 3d 13 8e e7 bd
       0.0027310557 -0.17635603 0.11131871 -0.113063954
000040 ed a0 59 be d0 a4 22 3b ce 8a f2 bd ae 90 58 3e
       -0.21252795 0.0024817474 -0.11842881 0.21148941
000050 00 4f 9c 3c 90 64 fb bd 9f 56 c5 3d 57 36 58 3d
       0.019080639 -0.1227504 0.09635662 0.052786198
000060 5b d7 80 3d 8e 2c 74 3c e0 71 49 3e 5e 99 6d 3e
       0.06291076 0.014903201 0.19672346 0.23203036
000070 34 5c 4c bd 8a cb 4b 3c ff 26 d3 3d e9 f8 a6 3d
       -0.04989262 0.012438664 0.10310172 0.081529446
000080 82 93 1b 3e d2 b6 b7 bd 82 9d 1b 3e 67 77 ad bd
       0.15192989 -0.08970417 0.15196803 -0.0847004
000090 61 44 3f 3e e8 00 50 bd ce 0a 8f bd 77 48 42 bd
       0.18678428 -0.050782114 -0.06984483 -0.04743239
0000a0 06 bf 91 3c 67 e2 7c bd 72 72 3d 3e 41 8a 0b 3e
       0.017791282 -0.06173935 0.18500689 0.13626958
0000b0 23 75 a7 bd 6f ad f9 3d 06 ac 59 bd 6b 4c 18 3c
       -0.08176639 0.12191283 -0.05314257 0.009295563
0000c0 dd cb cb bd c0 f6 44 be 22 ff ca 3c d8 a8 91 bc
       -0.09950993 -0.19234753 0.02477986 -0.017780706
0000d0 bc 2b 49 be a3 e8 7a 3e 8e d2 e4 bd d4 bd 00 be
       -0.1964559 0.24502806 -0.111729726 -0.12572414
0000e0 cf e3 d8 bd 46 82 02 be 76 c7 63 bd be c6 49 3c
       -0.10590326 -0.12745008 -0.055610143 0.01231545
0000f0 51 6e 67 3e 19 e6 d9 bd 03 41 6b be 08 26 e5 bd
       0.22600676 -0.10639591 -0.22974019 -0.111888945
000100 c1 f0 55 3e a8 86 f3 bd 26 3a be 3d 97 9b 3e be
       0.20892622 -0.11890918 0.09288435 -0.1861404
000110 21 15 53 3e 44 47 60 be 62 1b 42 3e 0b 0a 54 3e
       0.20613529 -0.21902186 0.18955758 0.20706956
000120 cc ed 09 be 42 91 80 3d 10 b5 35 3e 9b 01 20 be
       -0.13469619 0.06277706 0.17744851 -0.15625612
000130 6d 9d 4f 3d 34 cd 71 3e df 8e d0 3d 4b 19 2f bd
       0.050687242 0.23613435 0.101835005 -0.04274873
000140 0b fd 13 be a0 38 e0 bd 99 5c dd 3c ac 1d 35 3e
       -0.14451997 -0.109483 0.027021693 0.176871
000150 53 94 33 be 7b 00 64 be d0 5e d0 3d f6 43 21 3e
       -0.1753705 -0.22265808 0.10174334 0.15748581
000160 76 95 1c 3e 60 fe 11 3e aa cf d7 bd c1 fc 36 be
       0.1529139 0.14257193 -0.10537656 -0.17869855
000170 6b 54 94 bd 53 a8 00 be 9d 01 69 bc 47 21 af 3d
       -0.07242664 -0.1256421 -0.014221576 0.08551269
000180 84 df e0 bc 6f eb a5 3d 83 4b 64 3e 36 b7 53 3e
       -0.02745033 0.08101546 0.2229443 0.20675358
000190 55 8c e5 3d 30 2f e0 3d d8 a9 d3 bd 72 f6 2c be
       0.11208407 0.109465 -0.103351295 -0.16890886
0001a0 ac 68 6d 3d 8e bd 6c bd 7f 06 64 3e e8 76 53 bc
       0.05796115 -0.05779796 0.22268103 -0.012906767
0001b0 de 0f 60 be 07 70 16 3e b4 e1 71 be 35 be f3 bd
       -0.21881053 0.14691173 -0.23621255 -0.119015135
0001c0 4f 84 3e 3d 5d 6e 06 3e 5c 90 37 be 90 5f 09 be
       0.046512898 0.13128038 -0.17926162 -0.1341536
0001d0 08 2a 2f be 69 84 60 3e b1 c1 25 3e 0f 85 3c be
       -0.17105877 0.2192551 0.16187169 -0.18410133
0001e0 8b f6 31 be 42 5c 47 3c 98 93 4c 3e 39 62 5a bb
       -0.17379205 0.012167992 0.19978178 -0.0033322705
0001f0 e9 67 54 be ec 31 40 be 94 5a 39 3e 39 eb 3d be
       -0.20742764 -0.18769044 0.18100959 -0.18546762
000200 1b 27 4e be e1 5e 74 3d 2b 26 07 be 0e 90 78 3e
       -0.20132105 0.059660796 -0.13198154 0.24273703
000210 c2 0c b3 3d 69 60 99 3c bb b7 5a be 69 eb 25 be
       0.08742668 0.01872273 -0.2135915 -0.16203083
000220 c6 22 6d be 65 d8 78 be 5c d9 df 3d 04 9e 05 3c
       -0.23157796 -0.24301298 0.1093013 0.00815535
000230 28 d0 13 bd 11 7c 14 bd 3d 72 0f be 40 12 45 be
       -0.036087185 -0.03625113 -0.14008422 -0.19245243
000240 4b dd 3a 3e ba 5f 73 3e 0c 7a 60 be c5 8f bb 3d
       0.18248479 0.23766986 -0.21921557 0.09158281
000250 22 20 16 3e 45 94 10 3e 89 01 46 be b2 4c b3 bc
       0.14660695 0.1411906 -0.19336523 -0.021887157
000260 3b d8 53 be 83 34 2b 3e ad 63 72 3e 38 1b c4 3d
       -0.20687954 0.1671925 0.23670836 0.09575504
000270 67 66 1d be 73 11 18 3e 6b 2b b4 bd f5 f7 11 3e
       -0.15371095 0.14850406 -0.08797344 0.14254744
000280 9c 4b 47 3e fe 4c c1 3d 81 4b 59 3e 2a b6 61 be
       0.19462436 0.09438513 0.21220209 -0.22042146
000290 a3 6d 7f bd 59 61 e5 bd 03 0d 73 3e b2 38 20 3e
       -0.062360417 -0.11200208 0.23735432 0.15646628
0002a0 ab 28 21 bd a0 ba 6b be 7a b2 eb bd d5 19 16 be
       -0.039345425 -0.2302041 -0.11508651 -0.14658292
0002b0 80 8f 15 3e 9c 21 32 3e 6e 52 0d be 72 c1 ec bd
       0.14605522 0.17395633 -0.13800976 -0.11560334
0002c0 58 b7 a4 3d 77 4d d1 3d 48 1f 11 3e 61 11 72 bd
       0.080427825 0.10219853 0.14172089 -0.059098605
0002d0 83 3a 36 3e 7e a9 2f 3d 03 51 48 bd 04 c9 25 be
       0.17795758 0.04288625 -0.048905384 -0.16189963
0002e0 36 24 f1 3d 5a 59 4d 3e f4 93 d3 3c 9b f6 7d bc
       0.11774485 0.20053616 0.025827385 -0.01550069
0002f0 35 ca 11 be 34 82 50 bd 42 2b 80 3e 14 ab 2e 3e
       -0.14237292 -0.05090542 0.25033003 0.17057449
000300 1a 2f 1b be 84 83 6b 3e c2 c4 24 bd 89 94 5f 3e
       -0.15154687 0.22999388 -0.040226705 0.21834005
000310 c0 03 eb bd 25 c6 37 be 0f 11 b6 bc 55 da 7e be
       -0.11475325 -0.1794668 -0.022224931 -0.24887975
000320 e3 2d 09 3d 5d c8 59 3e d9 44 02 3e 31 98 22 bd
       0.033491027 0.21267839 0.12721576 -0.039695922
000330 4f 99 c9 3d 07 62 d5 3c 6f de 98 3d 67 30 19 3e
       0.098436944 0.02604772 0.07464301 0.1495987
000340 2e 44 78 be ec a7 e9 bd fe 9d 14 be df 95 75 be
       -0.24244758 -0.11408982 -0.14513394 -0.23982953
000350 eb 8c 96 bd 10 60 41 3e c1 97 c2 3b 19 cc 75 3d
       -0.07351097 0.18884301 0.0059385006 0.060009096
000360 4c 14 80 be b1 61 67 be b8 c0 be 3d a4 95 13 bd
       -0.25015485 -0.2259586 0.09314102 -0.03603138
000370 32 8b 24 be e4 75 eb 3d 5e c6 2c 3e fa 7c 7d be
       -0.16068724 0.11497095 0.16872546 -0.24754706
000380 d8 a1 21 be fe ae f1 3d 98 2e 7d 3e d4 40 af 3d
       -0.15784395 0.11800955 0.24724805 0.08557287
000390 4a 7f 70 be 55 ff 38 3e 49 77 1e 3e c7 c8 02 3e
       -0.23486057 0.18066151 0.15475191 0.12771903
0003a0 dd eb 31 be 45 92 4c 3e 15 93 1c be 45 60 4d bd
       -0.17375131 0.19977672 -0.15290482 -0.050140638
0003b0 62 ba 22 bd 96 d5 11 3e eb cf bb bc bd 36 f4 3d
       -0.03972853 0.14241633 -0.022926291 0.11924503
0003c0 26 95 39 3d dd 9f 16 be f7 0f 22 bd 85 29 bf bd
       0.045308255 -0.1470942 -0.039566007 -0.09334091
0003d0 be 59 5f be 17 92 2f 3e 06 0f 95 3b 13 46 62 3e
       -0.21811578 0.17145573 0.00454891 0.22097044
0003e0 8f ab b6 bd de 3f da bc d6 3f 22 3e a1 7c 6d 3e
       -0.08919441 -0.026641782 0.15844664 0.23192073
0003f0 8d 4d ec bd 30 dd 36 3e d4 d7 c8 bb f5 58 9f 3d
       -0.11538229 0.17857814 -0.0061292443 0.07780639

output_layer.weight f4 [1, 512]
000000 8b f0 1c 3d 9f eb 94 3b dc e4 ba 3c eb 10 ca 3c
       0.038315337 0.00454469 0.022814207 0.02466627
000010 f0 d8 11 3c c3 0f c1 bd 66 0f 2a 3b 60 42 85 bc
       0.00890182 -0.094268344 0.002594912 -0.016267002
000020 39 d5 07 3d 7d bf 8a bd 68 9d 8a 39 b2 c1 62 3d
       0.03316233 -0.06774805 0.00026438688 0.055360503
000030 10 15 c8 bc 70 f1 3e bc bb 22 83 3d 09 68 7e 3d
       -0.024424106 -0.011654243 0.06403109 0.062110934
000040 66 6a 8e bb a5 b2 87 3c 27 b8 9c bc c8 12 fc 3d
       -0.00434618 0.016564677 -0.01913078 0.1230827
000050 ad d4 84 bc 62 17 e7 3c ca b0 c4 3d 8b fb c0 bd
       -0.016214693 0.028209392 0.09604032 -0.09422978
000060 44 ec 1c 3c 2c 88 96 3d 14 72 58 3b 9e ef 26 bd
       0.0095778145 0.073501915 0.003302698 -0.04075586
000070 cb f3 1a 3b 43 47 00 bd 6f b5 1a 3b b8 02 c8 3c
       0.0023643847 -0.03131796 0.0023606678 0.024415359
000080 db 36 b0 3b 5e 2a 4f bd e3 7b e3 3c f4 dd 1f 3d
       0.005377633 -0.050577514 0.027769035 0.03903003
000090 11 b6 68 bc c9 2e fc 3c 9b 77 0f bc 9b 58 02 3e
       -0.014203564 0.030784028 -0.0087565435 0.12729113
0000a0 81 e3 e6 3c fe 0a 14 3d 40 d5 2b bb 14 24 11 3d
       0.028184654 0.036143295 -0.0026219636 0.035434797
0000b0 38 ac 83 bd 61 10 7c bd 71 d5 cc bd e4 73 27 3d
       -0.064293325 -0.061539058 -0.10001648 0.040882006
0000c0 2e d6 03 bc c3 3c 5d bc 2b ab 29 bc 12 54 2b 3c
       -0.00804667 -0.013503256 -0.010355751 0.010457056
0000d0 b0 26 15 bd 51 08 ca bc 9a d7 5e 3d 69 78 f6 bc
       -0.03641385 -0.024662169 0.054404832 -0.030086713
0000e0 77 bd c1 3c 64 50 ec bc 38 b6 b8 3c 3d 49 e7 bc
       0.023649914 -0.028846927 0.022547826 -0.028233165
0000f0 17 f8 8f bc ed 06 28 ba b3 d3 82 bc d7 81 2f 3d
       -0.017574353 -0.00064097234 -0.015970087 0.042848434
000100 6c 2a 97 bd cb 7b 6a bc 3f 83 e6 3c 8b 3d db bc
       -0.07381138 -0.014311741 0.028138755 -0.026762744
000110 49 d5 a2 bd d2 20 d0 3c e0 c9 4d 3d fb e4 65 bd
       -0.07950837 0.025406275 0.05024135 -0.056126576
000120 0c 40 a3 3c 73 86 80 bd 89 2c 62 bd d6 59 f5 bc
       0.019928 -0.06275644 -0.055218253 -0.029950064
000130 b0 44 48 3b ed 73 22 3d ab 2d 0a 3c 54 89 8b bd
       0.003055852 0.039661337 0.00843374 -0.06813303
000140 01 43 2e bd b6 41 86 3d c9 cb 6c 3c 15 c7 c4 3b
       -0.04254437 0.06555502 0.014452883 0.0060051777
000150 a3 ca 94 3b 65 2b 4d 3c 0e 3a f9 bb bd e6 60 3d
       0.0045407577 0.012522553 -0.0076057976 0.05490755
000160 6e 17 22 3c d0 2d 2b bc 39 a8 8a 3d e3 88 a0 bd
       0.009893281 -0.010447934 0.06770367 -0.07838609
000170 b4 0f 57 bc cf 7f f3 bb eb 29 60 3d 1f 3f a7 bd
       -0.0131263025 -0.0074310075 0.054727476 -0.08166336
000180 3a 43 10 3d e3 44 0e 3e cd 69 cb bc c2 b6 ca 3d
       0.035220362 0.13893466 -0.024830723 0.098981395
000190 f3 a3 35 3d 3e 7f 0b 3c 74 21 3e 3d 92 e5 07 bd
       0.044345807 0.008514224 0.046418622 -0.03317792
0001a0 09 f4 55 bb 0c 51 f6 bd b8 82 cf 3c 3f 65 dc bb
       -0.0032646677 -0.12027177 0.025330886 -0.0067259367
0001b0 20 34 11 bd 66 c4 4c bd 7e 9d e8 bb 18 84 ef bc
       -0.0354501 -0.049991988 -0.0070988527 -0.029237792
0001c0 d8 09 34 3d 1d 6a f1 bb 93 ef c6 bc bc ad 18 bd
       0.0439547 -0.007367386 -0.02428416 -0.03727506
0001d0 d8 d5 c9 bc b3 ed 31 bd a7 25 b2 3d 04 bb 6c bb
       -0.024638101 -0.04343958 0.08698588 -0.0036122212
0001e0 4b 54 26 3b 58 fa 40 3d 4d 6d cc bd 88 92 9b 3c
       0.0025379832 0.047113746 -0.09981785 0.01899077
0001f0 2c 05 45 bd 71 a9 78 3d 0b b4 43 3d ec bd e7 bc
       -0.048100635 0.060708467 0.047779124 -0.028288804
000200 4b df a9 bc ee 37 81 3d eb fa b0 3b bd 00 45 bc
       -0.020736357 0.06309496 0.0054010055 -0.012024102
000210 a9 ad 2e bd 7e 01 1e 3c 94 dd c5 3c 6a 64 df bc
       -0.042646084 0.00964391 0.024153508 -0.02726956
000220 25 9f d6 bc 2d 09 9c 3c 74 1f 25 bd 5c 2a c5 bb
       -0.026198933 0.019047344 -0.0403132 -0.0060170125
000230 04 7e 03 3d 72 dc 08 3c c1 b4 5c 3d 66 a4 99 3d
       0.0321026 0.0083533395 0.053883318 0.0750206
000240 b6 ea 02 bd 9d 42 c9 bc 2d 53 ee bc 15 48 24 bd
       -0.03196212 -0.024567897 -0.029092396 -0.040107805
000250 d0 ed 99 bd 2c 8a 53 3d a6 0e a8 3c f2 24 c0 bd
       -0.07516062 0.051645443 0.020514797 -0.09382047
000260 1f ec 8e 3d 6b e8 e1 3c f9 69 8f 3b 3e 0d 3c bd
       0.0697863 0.027576646 0.0043766466 -0.045911066
000270 cf 02 81 bd 7a f6 98 bd fc e1 8d 3b 27 5e d6 bd
       -0.06299364 -0.07468887 0.004329918 -0.10467177
000280 6a f1 b7 3d 48 35 c9 bd a4 4e 90 3c 70 8d 0e bc
       0.08981593 -0.09824616 0.017615624 -0.0087007135
000290 46 ce c4 3a 09 3d 3d bd 43 41 53 bd bd da ff 3b
       0.0015015088 -0.046200786 -0.05157591 0.007808058
0002a0 4c d0 e5 bc b6 ee a7 3c a4 1f f5 bb 83 5e 8f 3d
       -0.028053425 0.020499568 -0.0074805785 0.070004486
0002b0 e4 73 6f bd 4f 4b 1b bb 8e cb 22 bc 04 e7 51 3c
       -0.05846013 -0.002369601 -0.0099362265 0.012811426
0002c0 c4 65 b6 3b 2a 94 28 3d 91 f0 85 bc d6 61 67 bd
       0.0055663306 0.041156925 -0.016350063 -0.056489788
0002d0 d7 8c 26 3d 77 7e f4 3c ed e4 0e 3d 33 86 18 bd
       0.04066166 0.02984546 0.03488629 -0.037237357
0002e0 63 9c aa bc 49 7c 18 bd f9 a8 a4 bd f2 60 80 3c
       -0.020826524 -0.037227903 -0.080400415 0.015671227
0002f0 96 5e 1c 3d 74 f4 91 bc a0 6f 44 3d 68 82 f0 3d
       0.03817614 -0.01781676 0.047958016 0.11743623
000300 bf a4 bf 3a d8 8e e9 3b eb cf 10 bc 50 04 dd bb
       0.0014621242 0.007127624 -0.008838634 -0.006744899
000310 9a d3 f9 bc db 5f 83 3d 05 d0 e7 bc d6 2a ee 3c
       -0.030496407 0.06414767 -0.028297434 0.02907316
000320 d8 67 27 bc 62 b4 da 3b a4 6a e5 3b ee 02 be bc
       -0.010217629 0.0066743353 0.007001238 -0.023194756
000330 3c 6a fb 3d 30 b6 21 3d 7e 17 bb bd cd 9e 4b bd
       0.12276122 0.03948039 -0.0913534 -0.04971199
000340 ef ad 1e bd 78 5c 6e 3d 28 1e 1d 3d 98 4e 81 3c
       -0.038740095 0.058193654 0.038358837 0.015784547
000350 d8 b2 50 3c b2 b0 74 bc 01 1c fb 3d bf d1 ea 3d
       0.012737952 -0.014934706 0.12261201 0.11465787
000360 4e 40 2b 3d ed 9c ca bc b2 78 74 3d 2c 46 aa 3d
       0.041809373 -0.024733031 0.059685417 0.083141655
000370 b3 be 15 bc 4b ef 4a bc 96 02 24 3d da 4b e6 3b
       -0.0091397045 -0.012386153 0.04004153 0.007028085
000380 30 2d 64 bb f6 34 57 3d dd 37 19 be 70 ed eb 3c
       -0.0034816973 0.05254074 -0.14962716 0.028799742
000390 cf 60 ea 3c ea 04 67 bb ee ae 43 bb 1e 18 81 bd
       0.028610615 -0.0035250732 -0.0029858905 -0.06303428
0003a0 64 f1 b9 3d 8f e7 9a 3c e6 46 8b 3c c6 5f be 3c
       0.09079245 0.018909244 0.01700158 0.023239028
0003b0 6a 29 0d bd 53 4d 7b bd b2 f6 d4 3c 6e 8e e7 3c
       -0.034463324 -0.06135304 0.02599654 0.028266158
0003c0 14 b6 d0 bc a3 cb a8 3d 0c 77 00 3d f0 84 b4 3a
       -0.025477447 0.082419656 0.031363532 0.0013772529
0003d0 9c ef 9b bc 58 f4 a2 bc eb e9 1f bb 7e d0 89 3d
       -0.019035153 -0.019891903 -0.00244009 0.0672922
0003e0 a5 f4 18 bd 46 ce 90 bc 41 e8 f8 3c 6d 53 04 3d
       -0.037342686 -0.017676484 0.030384185 0.032306124
0003f0 26 75 6b b9 5a 10 92 3c bc 3d cd bc df 23 e6 bc
       -0.00022454988 0.017830063 -0.025053851 -0.028093277
