data/baumgartner_C-N/baumgartner_C-N_emulator/baumgartner_cn_predictor_4.pt (torch, 46559 bytes, 3 tensors)

input_layer.weight f4 [512, 20]
0.0055886274 0.21385801 -0.14761853 0.15929356 0.12860338 0.07585044 -0.0012026901 -0.15387437
-0.21884468 0.20540923 0.24215558 0.20077029 -0.062453374 0.1825519 0.13901536 -0.001266157
0.24683179 0.19737375 -0.038854323 -0.15331349 -0.14361818 0.16988368 0.22388914 -0.07131238
-0.18550673 0.10898243 -0.21710242 -0.1375486 -0.087448806 0.21629299 -0.18401954 0.14316359
-0.09526411 -0.10267391 0.065661155 0.20753422 0.09685758 -0.1050989 -0.0885982 0.041997083
0.1919342 -0.12711342 0.016367048 0.04430264 0.01563338 -0.15116887 -0.17142871 0.18072726
0.1930496 -0.07126776 -0.007691055 0.15101928 0.04470325 -0.16280642 0.15690671 0.18591675
-0.010099584 0.046782136 0.09069385 0.13268597 -0.22635064 0.16571642 -0.024871023 -0.07116206
-0.17087734 0.22885935 0.09868338 -0.1480797 0.19476652 -0.08521286 -0.20444536 -0.052486017
-0.14128405 0.06667357 0.14606601 0.20236793 0.08765133 -0.12129003 -0.16615802 0.082995005
-0.20615886 0.021384379 0.21599562 0.16724388 0.19157577 -0.107681386 0.20142029 -0.08683195
0.15730093 0.029706435 -0.12828583 -0.105669454 0.024330277 -0.075103484 0.011325069 -0.04372808
0.15063465 0.05280736 0.17324492 0.1390917 0.052724596 -0.02601557 0.06024131 -0.008275509
-0.14880966 0.22054489 -0.021075742 -0.13433588 -0.059018664 0.11890552 0.05844299 0.11993617
-0.030406125 0.18838355 -0.147906 -0.0024547447 -0.117997445 -0.20521556 0.21044256 -0.031240024
0.0495742 0.1603444 0.08089426 0.0075829513 -0.25123966 0.13696735 -0.12849443 -0.10109095
-0.17470843 0.0029599376 -0.14495341 -0.056650832 -0.19072957 -0.12328066 0.0012170126 0.089044094
-0.09509116 0.21250784 -0.061977506 0.10420139 0.00028504574 -0.07945606 0.15352054 0.18872973
0.13558714 -0.12117994 -0.11178404 0.037102412 0.23491816 -0.2251157 0.04853548 0.0043647885
0.12848014 -0.008562472 -0.117673896 -0.017978571 -0.2690799 -0.10884722 0.008610607 0.023714144
0.006276693 -0.0053403443 -0.172061 0.0557231 -0.1685009 -0.05193287 0.1424274 -0.06206184
-0.14839552 -0.10840095 0.1884374 0.08705267 0.060118433 -0.00409814 0.022986315 -0.031595953
-0.19833834 0.08179963 0.1960156 -0.025122195 -0.043278474 0.030104216 -0.19774605 0.15320018
0.22250174 -0.18553784 0.1763808 0.13376349 -0.13889162 -0.20577489 0.083708614 -0.17860217
0.037769776 0.20828995 -0.003368533 -0.11307987 -0.118379675 -0.009648651 0.21719497 -0.07892158
-0.12408356 0.22207691 0.093045175 -0.016279098 -0.20897119 0.036050413 -0.0972143 -0.1667412
0.19998859 -0.18821403 0.17889605 0.21154317 -0.15140921 0.10621607 0.006586149 -0.15426448
0.122681335 -0.20418003 -0.048512194 -0.08613136 -0.046033803 0.030135563 -0.08576786 0.048434492
-0.059343938 -0.017113313 -0.058450077 -0.05877415 0.016781723 0.20112512 -0.108423285 0.15803722
0.10212233 -0.038244426 0.15580554 -0.08954246 0.19084606 0.02321349 -0.0076413183 0.16597074
0.16137516 0.13968067 0.05730204 0.03121794 -0.17924617 -0.16552442 -0.19944654 0.20816523
-0.11783256 -0.13034615 0.106562056 -0.029541463 -0.088929035 -0.15500422 0.2532308 -0.016017782
00000000: ce20 b73b 98fd 5a3e 5029 17be da1d 233e
00000010: 9bb0 033e 7a57 9b3d 95a3 9dba 3e91 1dbe
00000020: d218 60be cc56 523e a2f7 773e ba96 4d3e
00000030: 1ccf 7fbd e3ee 3a3e 0b5a 0e3e 2ef5 a5ba
00000040: 79c1 7c3e 581c 4a3e b625 1fbd 36fe 1cbe
00000050: a510 13be fdf5 2d3e 3243 653e 3a0c 92bd
00000060: 7af5 3dbe 2e32 df3d 1950 5ebe 8ad9 0cbe
00000070: 5c18 b3bd e97b 5d3e 9e6f 3cbe 7a99 123e
00000080: d419 c3bd b346 d2bd 5b79 863d da83 543e
00000090: 445d c63d 183e d7bd f972 b5bd 2205 2c3d
000000a0: 668a 443e 052a 02be 3014 863c af76 353d
000000b0: 9311 803c 03cc 1abe 028b 2fbe 9110 393e
000000c0: cbae 453e d5f4 91bd 3f05 fcbb cca4 1a3e
000000d0: c11a 373d bab6 26be 27ac 203e f660 3e3e
000000e0: ba78 25bc a09e 3f3d b2bd b93d d5de 073e
000000f0: 76c8 67be 91b1 293e 51be cbbc 6abd 91bd
00000100: 78fa 2ebe 1b5a 6a3e 831a ca3d 34a2 17be
00000110: e070 473e 1484 aebd 205a 51be 94fb 56bd
00000120: c4ac 10be 278c 883d 5492 153e 8a39 4f3e
00000130: 8a82 b33d e866 f8bd 5425 2abe 49f9 a93d
00000140: 4f1b 53be 4b2e af3c f52d 5d3e fb41 2b3e
00000150: 702c 443e 0f88 dcbd 1f41 4e3e f3d4 b1bd
00000160: 7f13 213e e95a f33c 5c5d 03be 3a69 d8bd
00000170: 4a50 c73c dbcf 99bd c88c 393c 371c 33bd
00000180: f83f 1a3e 884c 583d 1e67 313e 0e6e 0e3e
00000190: bff5 573d 9b1e d5bc 98bf 763d 0096 07bc
000001a0: 8f61 18be 85d6 613e 09a7 acbc 588f 09be
000001b0: 8ebd 71bd bd84 f33d eb61 6f3d 18a1 f53d
000001c0: 4416 f9bc 9ee7 403e ac74 17be c8df 20bb
000001d0: a5a8 f1bd 0724 52be 417e 573e 14eb ffbc
000001e0: 510e 4b3d 5331 243e e4ab a53d 687a f83b
000001f0: 7ca2 80be 2b41 0c3e 0b94 03be c608 cfbd
00000200: c4e6 32be 83fb 413b ab6e 14be b40a 68bd
00000210: 9d4e 43be 927a fcbd 2b84 9f3a c05c b63d
00000220: 27bf c2bd a89b 593e 20dc 7dbd 8a67 d53d
00000230: 3172 9539 dcb9 a2bd 7d34 1d3e 5e42 413e
00000240: 5bd7 0a3e 302d f8bd 08ef e4bd b3f8 173d
00000250: 638e 703e bb84 66be 24cd 463d 8006 8f3b
00000260: 4c90 033e 9c49 0cbc 03ff f0bd cc47 93bc
00000270: d7c4 89be 4beb debd 8113 0d3c 2a44 c23c
00000280: b8ac cd3b 0efe aebb c230 30be e83d 643d
00000290: 808b 2cbe 90b7 54bd 7dd8 113e 8e34 7ebd
000002a0: fff4 17be 5101 debd bcf5 403e ac48 b23d
000002b0: bf3e 763d b149 86bb cc4d bc3c c26a 01bd
000002c0: 3519 4bbe 9086 a73d 50b8 483e 10cd cdbc
000002d0: c544 31bd 1e9d f63c f17d 4abe 82e0 1c3e
000002e0: 7fd7 633e a2fd 3dbe 2b9d 343e 4cf9 083e
000002f0: 9b39 0ebe a7b6 52be 6c6f ab3d 7de3 36be
00000300: 7bb4 1a3d f649 553e 9bc2 5cbb 6b96 e7bd
00000310: 0b71 f2bd 6015 1ebc 5c68 5e3e a3a1 a1bd
00000320: 861f febd 2168 633e 788e be3d be5b 85bc
00000330: 8bfc 55be 99a9 133d 4a18 c7bd 35be 2abe
00000340: cfc9 4c3e 2ebb 40be 8730 373e c69e 583e
00000350: 040b 1bbe d087 d93d 9fd0 d73b 82f7 1dbe
00000360: 5a40 fb3d 9214 51be b9b4 46bd a365 b0bd
00000370: f18d 3cbd dbde f63c 0fa7 afbd 3f63 463d
00000380: a112 73bd 3831 8cbc 5969 6fbd 2abd 70bd
00000390: d379 893c bef3 4d3e 070d debd 82d4 213e
000003a0: 8325 d13d 30a6 1cbd 7d8b 1f3e 0a62 b7bd
000003b0: 266d 433e 382a be3c 0664 fabb 3cf4 293e
000003c0: 883f 253e 7308 0f3e 8bb5 6a3d c4bc ff3c
000003d0: 4f8c 37be 3c7f 29be b73b 4cbe 4429 553e
000003e0: 3252 f1bd 7679 05be 353d da3d f000 f2bc
000003f0: 6d20 b6bd 6db9 1ebe 78a7 813e b937 83bc

input_layer.bias f4 [512]
-0.13748461 -0.018862356 0.038098227 -0.018540643 -0.07669486 -0.21978894 0.13527933 0.16298215
0.06356986 -0.17823838 0.16024254 -0.15901127 -0.0809947 -0.07084437 -0.061708074 0.19631775
-0.09888286 -0.056622177 0.07941174 -0.03619538 -0.0741042 0.043011434 -0.10587718 -0.1529346
0.17969124 -0.13513333 0.13458614 -0.16757227 0.13339618 0.019844547 0.18928187 0.041683685
-0.1967369 0.074472114 0.14165346 -0.18173978 -0.06387251 -0.10499905 0.13783212 -0.18041727
-0.098875955 -0.042594098 0.07793161 0.21796463 0.07066597 -0.19397081 0.17466138 0.018926987
-0.12938787 -0.065656945 -0.020011857 0.08173451 0.07944344 -0.106252536 -0.0028581044 0.072854795
-0.034627203 -0.1369995 0.15677957 0.21470578 -0.030808909 -0.1070168 0.11690844 0.13007848
-0.17946021 0.031622007 -0.116479434 -0.044836234 -0.109904766 0.042743742 -0.21232599 -0.000108302025
0.14151798 0.15361173 0.047923986 -0.047564518 0.18585083 0.12550014 -0.16783322 0.17050442
-0.0002925235 -0.029381359 -0.12251239 0.15532346 -0.07798801 0.14525485 -0.21973152 0.110714704
-0.002564752 0.0775224 -0.20929857 -0.037302144 -0.19780143 -0.15599097 0.046231378 -0.09880347
-0.009068917 -0.13527134 -0.08918769 0.17010754 -0.046013873 0.06218538 0.011473198 -0.12785071
0.12927599 -0.050263353 0.02713061 0.07155174 0.12724127 0.02060001 0.00578793 0.19330554
-0.08815602 -0.19216102 -0.05894237 0.1186989 0.109009124 0.03206309 -0.20530441 0.2265261
0.09194625 -0.012942065 -0.036269404 0.18476442 0.100900196 -0.15099987 -0.18640706 -0.08642909
0.04941919 -0.032357223 -0.13279551 0.081455454 0.22136863 -0.13292433 0.051736347 0.003992392
0.18611905 0.043532144 -0.17979269 0.18594281 0.041172206 0.11319186 0.105001524 0.12232067
0.041144524 0.19266999 -0.013784923 -0.09144293 0.04785512 0.048873585 -0.02205414 -0.17765486
-0.06804551 0.10572156 0.18658833 0.17399535 0.13603278 -0.14421606 -0.19361885 0.011853917
-0.20107654 0.21288317 -0.0067631085 0.13932781 0.14934771 -0.16119735 0.1963622 -0.15186837
0.105224065 -0.13156462 0.07168483 0.18080772 -0.19595797 0.14826517 -0.09283968 -0.2154366
0.06296308 -0.1305075 0.14935423 -0.036140032 0.051275745 0.12240178 0.21762453 0.18578035
0.100282036 -0.072838 0.06330332 0.038074378 -0.10357912 0.079194374 -0.15308894 0.24165943
-0.0203456 0.08169711 -0.2094724 -0.108172886 -0.0012635724 0.12238107 0.11897665 0.001194925
0.037793975 0.13336723 -0.045505054 -0.18657447 0.14546286 -0.15158331 0.15366207 -0.108254716
-0.07059693 -0.03981342 0.1473069 -0.11609782 -0.07035009 0.118339635 0.19002107 0.06498584
0.074447505 -0.12524454 -0.15924856 0.051645707 -0.00041652843 -0.15457863 0.017830458 -0.14865622
0.2307325 -0.13971414 -0.16326909 0.0052804165 -0.038955275 0.10338751 -0.02420222 -0.033622574
0.18237393 -0.058597296 0.23025289 0.011142006 -0.12158766 0.020940691 0.04439635 0.10153798
0.10535233 -0.1597728 -0.07901558 0.15022248 0.05895291 0.10670548 0.15844353 -0.214831
0.20658264 -0.12210185 0.18290837 0.22227103 0.06122943 0.18510482 0.088607565 0.1636059
00000000: c4c8 0cbe 3a85 9abc e30c 1c3d 8ce2 97bc
00000010: 3212 9dbd 5a10 61be aa86 0a3e cbe4 263e
00000020: ea30 823d 1f84 36be 9f16 243e dad3 22be
00000030: 8de0 a5bd da16 91bd 9bc1 7cbd 8507 493e
00000040: 1983 cabd a8ec 67bd 9fa2 a23d 9b41 14bd
00000050: f1c3 97bd c22c 303d 23d6 d8bd e39a 1cbe
00000060: fb00 383e 6460 0abe f3d0 093e 1198 2bbe
00000070: 0299 083e 0891 a23c 1bd3 413e 83bc 2a3d
00000080: 6675 49be d684 983d 9b0d 113e fe19 3abe
00000090: 97cf 82bd be09 d7bd dd23 0d3e 4ebf 38be
000000a0: 7a7f cabd 2677 2ebd 9c9a 9f3d 1f32 5f3e
000000b0: 52b9 903d 49a0 46be 6fda 323e c50c 9b3c
000000c0: 417e 04be 2677 86bd e8ef a3bc 6c64 a73d
000000d0: 3eb3 a23d ee9a d9bd 094f 3bbb e534 953d
000000e0: 41d5 0dbd 9949 0cbe d38a 203e d5db 5b3e
000000f0: f762 fcbc a02b dbbd b16d ef3d 4b33 053e
00000100: 6bc4 37be 1486 013d c58c eebd 33a6 37bd
00000110: c015 e1bd 1014 2f3d fc6b 59be 3520 e3b8
00000120: 17ea 103e 654c 1d3e f14b 443d 03d3 42bd
00000130: ae4f 3e3e 1c83 003e 79dc 2bbe b698 2e3e
00000140: d75d 99b9 2db1 f0bc c7e7 fabd 1d0d 1f3e
00000150: 2eb8 9fbd b0bd 143e 4d01 61be 64be e23d
00000160: 6615 28bb 10c4 9e3d 5d52 56be 22ca 18bd
00000170: 758c 4abe 19bc 1fbe 1d5d 3d3d 7959 cabd
00000180: cb95 14bc 9284 0abe 09a8 b6bd ac30 2e3e
00000190: 0b79 3cbd 19b6 7e3d 15fa 3b3c 4ceb 02be
000001a0: ed60 043e f2e0 4dbd 0341 de3c b889 923d
000001b0: 894b 023e 5ac1 a83c ada8 bd3b e3f1 453e
000001c0: 258b b4bd dcc5 44be 8e6d 71bd 6918 f33d
000001d0: 2d40 df3d 9654 033d 523b 52be 75f6 673e
000001e0: 514e bc3d f40a 54bc 3a8f 14bd e232 3d3e
000001f0: c3a4 ce3d b69f 1abe 7ee1 3ebe bc01 b1bd
00000200: c76b 4a3d 0289 04bd 8cfb 07be 1ed2 a63d
00000210: 75ae 623e 511d 08be 7ee9 533d 9dd2 823b
00000220: fe95 3e3e c34e 323d 931b 38be cb67 3e3e
00000230: 30a4 283d 22d1 e73d 0a0b d73d 4283 fa3d
00000240: 2987 283d 484b 453e 28da 61bc 6e46 bbbd
00000250: bb03 443d ab2f 483d e2aa b4bc 28eb 35be
00000260: 725b 8bbd 8c84 d83d 0311 3f3e d62b 323e
00000270: 2d4c 0b3e 60ad 13be 0544 46be ee36 423c
00000280: 02e7 4dbe 0cfe 593e 119d ddbb f3ab 0e3e
00000290: 9bee 183e eb10 25be 2c13 493e 6283 1bbe
000002a0: b77f d73d e0b8 06be 7fcf 923d a925 393e
000002b0: 35a9 48be d3d2 173e bb22 bebd 699b 5cbe
000002c0: caf2 803d c2a3 05be 51f0 183e 9207 14bd
000002d0: 8406 523d c9ad fa3d f7d8 5e3e 343d 3e3e
000002e0: ab60 cd3d 172c 95bd 2ca5 813d e1f3 1b3d
000002f0: 4a21 d4bd a930 a23d 59c3 1cbe 9275 773e
00000300: d1ab a6bc d050 a73d ef7f 56be bf89 ddbd
00000310: 749e a5ba eda2 fa3d 08aa f33d 089f 9c3a
00000320: dbcd 1a3d 6b91 083e 8263 3abd 610d 3fbe
00000330: 37f4 143e a838 1bbe 9759 1d3e a6b4 ddbd
00000340: 2095 90bd 6613 23bd 9fd7 163e b2c4 edbd
00000350: b513 90bd 0d5c f23d e294 423e 4c17 853d
00000360: ef77 983d 1b40 00be 0e12 23be 738a 533d
00000370: 8061 dab9 dc49 1ebe 2e11 923c 5639 18be
00000380: 2445 6c3e 3911 0fbe 0330 27be 5807 ad3b
00000390: 918f 1fbd d5bc d33d bc43 c6bc d3b7 09bd
000003a0: 3bc0 3a3e b803 70bd 6ac7 6b3e f68c 363c
000003b0: f302 f9bd d08b ab3c f2d8 353d 25f3 cf3d
000003c0: f6c2 d73d 7b9b 23be ecd2 a1bd ecd3 193e
000003d0: 9b78 713d 6788 da3d 053f 223e a8fc 5bbe
000003e0: 668a 533e 8910 fabd 554c 3b3e 049b 633e
000003f0: b6cb 7a3d 1e8c 3d3e e277 b53d 4e88 273e

output_layer.weight f4 [1, 512]
-0.2702602 -0.1105866 -0.044847682 0.21847598 0.059196223 -0.07904216 -0.13511673 -0.18940991
-0.00048944564 0.017315224 0.031263635 -0.0016019641 -0.23033677 -0.043641903 0.04862341 -0.14241363
0.02371088 0.029234106 0.022652695 -0.048305877 -0.056710426 -0.07153261 0.0039715716 0.24214974
0.18544647 0.118452854 -0.2546617 -0.013109577 -0.052428793 -0.03921581 -0.19860858 0.24822156
-0.052272096 -0.11420682 -0.12066319 -0.01813248 -0.058855385 0.16191699 -0.08803422 0.010061151
0.16929738 -0.01387596 -0.012478993 -0.036165725 -0.003158085 0.054156564 -0.044695172 0.060783193
0.0013097277 0.041400574 0.054346874 -0.108314194 0.026714504 0.043173645 -0.149472 -0.087427236
-0.08495661 -0.06697155 -0.07088339 -0.13581967 -0.016124394 0.05342903 0.038519688 -0.17297153
-0.048899297 -0.016141478 -0.045764502 0.3179676 -0.054548252 -0.034593984 -0.05007137 -0.016920302
-0.03213436 0.00624489 -0.010509065 0.0904577 0.04931803 0.039992582 -0.061386533 0.07374391
-0.14336435 0.16875751 -0.029235952 -0.07514964 0.03653939 -0.1186641 -0.075699225 -0.058228366
0.13540645 -0.034929227 -0.07372042 -0.035757605 0.0034696823 -0.034622863 0.043096915 0.12062529
-0.015059481 -0.08936684 -0.03004123 0.017251283 0.011392669 -0.042604998 0.03680769 0.09277759
-0.18184835 0.07158808 0.16538551 -0.060082056 0.16241921 -0.06309147 0.029955583 -0.15097384
0.076261535 -0.15510646 -0.08879392 -0.019649072 0.008111753 -0.070731096 0.09859029 0.08474674
0.11975286 0.07775317 0.069314234 0.0348166 -0.09008866 -0.088686466 0.016566575 -0.020410951
0.14647566 -0.024167702 -0.16711889 -0.23229434 0.029094748 -0.13466217 0.012504716 -0.029337289
0.02794009 0.08368512 -0.06831635 -0.14346331 -0.046904407 0.057133585 -0.11519067 0.12725338
0.003867639 0.0027774915 0.014283186 -0.04388219 -0.07309518 -0.046269175 -0.07416607 -0.095168084
-0.056216855 0.1627425 -0.0062625115 0.14262518 0.01154411 -0.045966335 0.060243726 -0.04693755
-0.010157244 -0.0076435846 -0.004769185 -0.0044364976 -0.15700603 -0.075239174 -0.007902471 -0.07228215
0.042189516 0.22165489 0.22559047 0.021142805 -0.035464223 0.03038321 0.039432976 -0.04819567
-0.032260336 -0.1705815 0.089393735 -0.19225658 -0.105304785 -0.038757723 0.026110023 -0.008193636
-0.11868347 -0.011007552 -0.078836665 0.20212114 0.10032457 0.039843448 0.056228265 0.09707976
0.10229905 0.05291786 -0.078703485 0.17470428 0.0048120115 -0.079868644 0.087871835 -0.1660813
0.04050067 -0.05552755 0.07336635 0.15068518 -0.12601385 0.099453114 -0.2241148 -0.08311542
0.06461189 0.007815544 -0.0943358 -0.06269824 0.0743218 -0.007513233 -0.13148294 0.0459483
0.26956117 -0.019058665 0.04905025 0.02220146 0.106914066 -0.105443895 -0.045858677 0.021621503
0.18780932 0.010274409 -0.15709314 -0.0033652645 0.06276435 -0.1509939 0.06864042 0.064478464
-0.23749796 -0.009057834 0.15416822 -0.0029709912 0.10629773 0.0008287899 0.017643519 0.049310718
0.19739096 0.06594944 -0.13305824 -0.06691063 -0.06609485 0.11432665 0.076158166 -0.019382915
0.13142265 0.013696783 -0.16718459 -0.12926787 -0.023891015 -0.055901006 0.008604857 -0.087857544
00000000: 8c5f 8abe 3a7b e2bd 34b2 37bd 2bb8 5f3e
00000010: bd77 723d dbe0 a1bd 0a5c 0abe acf4 41be
00000020: 244e 00ba a8d8 8d3c 4c0e 003d fff8 d1ba
00000030: 67dd 6bbe dac1 32bd 5729 473d e1d4 11be
00000040: 523d c23c 5d7c ef3c 2592 b93c 62dc 45bd
00000050: 3149 68bd b07f 92bd f523 823b 1af6 773e
00000060: aee5 3d3e 6997 f23d 0563 82be 8dc9 56bc
00000070: 93bf 56bd c2a0 20bd 0c60 4bbe cb2d 7e3e
00000080: 441b 56bd 44e5 e9bd 431e f7bd 918a 94bc
00000090: 5812 71bd 91cd 253e 494b b4bd 87d7 243c
000000a0: 4b5c 2d3e ff57 63bc b174 4cbc 8322 14bd
000000b0: e0f7 4ebb 46d3 5d3d 4912 37bd ccf7 783d
000000c0: 2bab ab3a a693 293d d49a 5e3d d5d3 ddbd
000000d0: 60d8 da3c d9d6 303d 300f 19be 0d0d b3bd
000000e0: bbfd adbd 6128 89bd 502b 91bd 5014 0bbe
000000f0: 4e17 84bc 66d8 5a3d d2c6 1d3d 731f 31be
00000100: a14a 48bd 223b 84bc 8f73 3bbd a6cc a23e
00000110: fd6d 5fbd 6cb2 0dbd a317 4dbd 729c 8abc
00000120: 529f 03bd efa1 cc3b 372e 2cbc e341 b93d
00000130: b401 4a3d 43cf 233d 7270 7bbd 0c07 973d
00000140: 1bce 12be c5ce 2c3e 3c80 efbc 0ee8 99bd
00000150: 54aa 153d 2a06 f3bd 3208 9bbd de80 6ebd
00000160: fda7 0a3e f311 0fbd bbfa 96bd 9176 12bd
00000170: 9c63 633b b4d0 0dbd 6486 303d 640a f73d
00000180: 0bbc 76bc f605 b7bd 0719 f6bc 9052 8d3c
00000190: 51a8 3a3c 9482 2ebd a9c3 163d 2d02 be3d
000001a0: 7436 3abe c59c 923d d25a 293e 9a18 76bd
000001b0: 3951 263e 1a36 81bd 6965 f53c e398 1abe
000001c0: 022f 9c3d 3ad4 1ebe 96d9 b5bd 17f7 a0bc
000001d0: 28e7 043c 77db 90bd b5e9 c93d b38f ad3d
000001e0: fd40 f53d 0e3d 9f3d 9ff4 8d3d da9b 0e3d
000001f0: 6780 b8bd 40a1 b5bd a0b6 873c de34 a7bc
00000200: b7fd 153e 58fb c5bc 3721 2bbe 91de 6dbe
00000210: 1c58 ee3c e1e4 09be 95e0 4c3c c154 f0bc
00000220: 9ee2 e43c 1b63 ab3d 71e9 8bbd 0ce8 12be
00000230: d61e 40bd e804 6a3d 16e9 ebbd b64e 023e
00000240: 3778 7d3b 9306 363b 0604 6a3c d0bd 33bd
00000250: edb2 95bd bf84 3dbd 61e4 97bd 7ce7 c2bd
00000260: a543 66bd f8a5 263e c135 cdbb 560c 123e
00000270: 8223 3d3c 3247 3cbd 20c2 763d 9741 40bd
00000280: 926a 26bc 0977 fabb d346 9cbb 0a60 91bb
00000290: 30c6 20be ff16 9abd 5e79 01bc aa08 94bd
000002a0: eace 2c3d 80f9 623e 3001 673e ad33 ad3c
000002b0: ef42 11bd 36e6 f83c 7984 213d d368 45bd
000002c0: 6a23 04bd ebac 2ebe 1014 b73d e9de 44be
000002d0: 09aa d7bd 6bc0 1ebd b0e4 d53c 9a3e 06bc
000002e0: 5210 f3bd 0559 34bc 1e75 a1bd d8f8 4e3e
000002f0: f876 cd3d e232 233d 9c4f 663d c1d1 c63d
00000300: 2a82 d13d 66c0 583d 4b2f a1bd aee5 323e
00000310: 14ae 9d3b 2c92 a3bd 26f6 b33d 3711 2abe
00000320: 08e4 253d db70 63bd 1941 963d 374d 1a3e
00000330: c609 01be 13ae cb3d 5a7e 65be 6b38 aabd
00000340: 3d53 843d c40c 003c 2133 c1bd ef67 80bd
00000350: 0736 983d 9131 f6bb 77a3 06be 4934 3c3d
00000360: ec03 8a3e eb20 9cbc eae8 483d d6df b53c
00000370: c3f5 da3d f8f2 d7bd 4fd6 3bbd 941f b13c
00000380: 1651 403e ff55 283c 06dd 20be c58b 5cbb
00000390: 988a 803d 259e 1abe 5993 8c3d 490d 843d
000003a0: aa32 73be 4f67 14bc 46de 1d3e f6b4 42bb
000003b0: a0b2 d93d 2643 593a 2489 903c 09fa 493d
000003c0: db20 4a3e 8010 873d 6b40 08be 7108 89bd
000003d0: bd5c 87bd 1724 ea3d d0f8 9b3d ebc8 9ebc
000003e0: a993 063e 7968 603c 7032 2bbe cc5e 04be
000003f0: 17b7 c3bc 74f8 64bd 63fb 0c3c a8ee b3bd
