data/baumgartner_C-N/baumgartner_C-N_emulator/baumgartner_cn_predictor_1.pt (torch, 46559 bytes, 3 tensors)

input_layer.weight f4 [512, 20]
0	0x3e0412fa	0.12897864
1	0xbd7d9426	-0.061908863
2	0xbe5546e0	-0.20827818
3	0xbe466357	-0.19373833
4	0x3e58d5cc	0.21175307
5	0x3dfb9203	0.12283709
6	0x3dea9e88	0.11456019
7	0x3d058514	0.032597616
8	0xbc5388ad	-0.012911004
9	0xbdc3bb83	-0.095572494
10	0xbd5419be	-0.051782362
11	0x3dbbf814	0.091781765
12	0xbe25c880	-0.16189766
13	0x3d83e73d	0.064405896
14	0x3e34adc9	0.17644419
15	0x3df52798	0.119704425
16	0xbd0f52d2	-0.034991093
17	0x3e02cf80	0.12774467
18	0xbe3c3591	-0.18379809
19	0x3dd748ff	0.1051197
20	0x3d938870	0.07203758
21	0xbda96612	-0.082714215
22	0x3bc4e6a4	0.00600894
23	0x3d89e5a4	0.067332536
24	0x3cf7ad15	0.0302339
25	0xbe218693	-0.15773992
26	0xbdd2584f	-0.1027075
27	0xbd42b2e8	-0.0475339
28	0x3e6ac0b6	0.22925076
29	0xbdd43b64	-0.1036289
30	0x3e46e2b3	0.19422416
31	0xbdd09e31	-0.101864226
32	0xbe2911e2	-0.16510728
33	0x3dbe1a23	0.09282329
34	0xbdebfab7	-0.115224294
35	0xbe48c54b	-0.19606511
36	0x3d03e2a0	0.03219855
37	0xbcfb6238	-0.030686483
38	0xbc83613f	-0.016037581
39	0xbe26bfa4	-0.16284043
40	0xbe29b5af	-0.16573213
41	0x3dfddd1d	0.1239569
42	0x3e05000e	0.12988302
43	0xbd172d6d	-0.036908556
44	0x3d9356f2	0.07194318
45	0x3dec28d5	0.115312256
46	0xbde43444	-0.111427814
47	0xbc9f30eb	-0.019432506
48	0xbe0cf424	-0.13765007
49	0x3dbb6128	0.091493905
50	0x3d40712f	0.04698294
51	0xbdfa53f6	-0.122230455
52	0x3dd5f227	0.104465775
53	0x3b863bb2	0.0040964717
54	0x3c806a9b	0.015675833
55	0x3dc6f0a5	0.09713868
56	0x3e3c8a37	0.184121
57	0xbe172fb0	-0.14764285
58	0xbdc2d4fd	-0.095132805
59	0xbb7742e5	-0.0037729081
60	0x3d410fce	0.047134213
61	0xbc02af7c	-0.007976409
62	0x3e1ce369	0.15321125
63	0x3e230606	0.15920267
64	0x3c9df301	0.019280912
65	0xbe08f774	-0.13375646
66	0x3e2512eb	0.16120498
67	0xbdf2b772	-0.11851396
68	0xbe187e30	-0.14891887
69	0x3e41a990	0.18912339
70	0x3c856f6d	0.016288484
71	0xbdffdd56	-0.12493388
72	0xbce780f5	-0.028259734
73	0x3e24c784	0.16091734
74	0xbe13ff17	-0.14452778
75	0xbe508734	-0.20364076
76	0xbd069c06	-0.03286364
77	0x3df0bb18	0.11754435
78	0x3e2cd04c	0.16876334
79	0x3e3564fd	0.17714305
80	0xbd195386	-0.03743317
81	0x3e28419c	0.16431278
82	0xbd79e7fd	-0.061012257
83	0xbd363eec	-0.0444936
84	0x3e1e3258	0.15448892
85	0x3e4bbaee	0.19895527
86	0x3e133577	0.14375864
87	0xbe588352	-0.21143845
88	0xbe1609df	-0.14652203
89	0xbdd38f73	-0.10330095
90	0xbe891772	-0.267757
91	0xbe1a4a34	-0.15067369
92	0x3e0b52da	0.13605824
93	0x3e3fd733	0.18734436
94	0x3e69976f	0.22811674
95	0x3e200057	0.1562513
96	0xbd4a3f72	-0.049376912
97	0xbe237754	-0.15963489
98	0xbdea7b29	-0.11449272
99	0x3d8cda8d	0.06877623
100	0xbdaad687	-0.08341699
101	0xbe2ef119	-0.17084159
102	0x3dd8e5f6	0.105907366
103	0x3c4972f2	0.0122954715
104	0xbe3a636f	-0.18201993
105	0xbcf2483b	-0.029575458
106	0xbd95c56e	-0.07313047
107	0x3beec0cc	0.007286167
108	0xbe211d80	-0.1573391
109	0x3db9db0a	0.090749815
110	0xbe377f37	-0.17919622
111	0xbde25ae4	-0.11052492
112	0xbde609f3	-0.112323664
113	0x3b87f7e1	0.0041494225
114	0x3e36bcbb	0.17845432
115	0x3d0eb66a	0.034841932
116	0x3e0be18f	0.13660263
117	0x3d7a3f70	0.061095655
118	0x3d99eb03	0.07515528
119	0x3e610329	0.21973862
120	0x3dc0e12f	0.0941795
121	0xbd561f92	-0.0522762
122	0xbe4e5298	-0.20148695
123	0xbda3313a	-0.079683736
124	0xbde6ae94	-0.11263767
125	0x3e414037	0.18872152
126	0x3ca1f261	0.019768896
127	0xbe27bf08	-0.16381466
128	0xbdf8f48a	-0.12156017
129	0x3de563f0	0.11200702
130	0xbe00ccdd	-0.12578149
131	0xbd99c896	-0.07508962
132	0x3d10911d	0.03529464
133	0x3e494c98	0.19658124
134	0x3dc8cbba	0.09804483
135	0x3d93ae10	0.07210934
136	0x3e26788f	0.16256927
137	0xbd77be78	-0.06048438
138	0xbdcccf86	-0.100005195
139	0xbe522349	-0.20521273
140	0x3d824243	0.06360295
141	0x3e3d0758	0.18459833
142	0xbe19dbf0	-0.15025306
143	0xbdec8ffe	-0.11550902
144	0xbe52efe2	-0.2059932
145	0x3ccac9ad	0.02475437
146	0x3e0a41d6	0.13501677
147	0xbdd0313d	-0.101656415
148	0x3c4984d0	0.012299731
149	0x3d355cfa	0.044278122
150	0x3d0fc885	0.03510334
151	0x3e1f4204	0.15552527
152	0x3d90fcf0	0.07079494
153	0xbdc41616	-0.09574525
154	0x3c06ac44	0.008219782
155	0xba3b2d3c	-0.00071402243
156	0x3d37c2eb	0.044863623
157	0x3d9b1d5c	0.07573959
158	0xbc2aa559	-0.0104153985
159	0x3e15f123	0.14642768
160	0x3d8ca0ee	0.068666324
161	0xbe039da9	-0.12853111
162	0xbe3656ac	-0.178065
163	0xbd4cc7c6	-0.049995206
164	0x3d96f7aa	0.07371457
165	0xbe616c1b	-0.22013895
166	0xbd376883	-0.044777405
167	0xbe455c5c	-0.19273514
168	0x3e10c633	0.14138107
169	0x3db6f847	0.08934074
170	0x3ca7eb1a	0.020497847
171	0x3beacf60	0.0071658343
172	0x3e406a2d	0.18790503
173	0xbe0f4dba	-0.13994494
174	0x3e4af51a	0.19820061
175	0xbe2dbb23	-0.16965918
176	0x3dcadd89	0.09905536
177	0xbe1a6d0c	-0.1508066
178	0x3dc908a6	0.09816103
179	0xbe4eba03	-0.20188145
180	0x3d7fe251	0.06247169
181	0x3e31a61a	0.17348519
182	0xbded4022	-0.11584498
183	0xbdb6f1bf	-0.08932828
184	0x3cdaea42	0.026723031
185	0xbdd37d15	-0.10326592
186	0xbe3d9b8d	-0.18516369
187	0x3e0f77be	0.14010522
188	0xbd7bb766	-0.0614542
189	0xbe3bb1f5	-0.18329604
190	0xbe039214	-0.12848693
191	0xbdfdd2a0	-0.12393689
192	0x3dd15c2b	0.10222658
193	0xbd9357ad	-0.07194457
194	0xbdd317ab	-0.10307249
195	0x3d34a58e	0.044103198
196	0xbca5bb25	-0.020230839
197	0xbbcfca00	-0.006341219
198	0x3e432ae2	0.19059327
199	0xbe4954bd	-0.19661231
200	0xbdbeca13	-0.09315886
201	0x3e08f074	0.13372976
202	0xbc1b4d1b	-0.009478833
203	0x3e57ab57	0.21061455
204	0x3e0da191	0.13831164
205	0x3de131eb	0.10995849
206	0xbddeacbd	-0.10872791
207	0xbd378e71	-0.044813577
208	0x3d7e529d	0.062090505
209	0x3e2af60f	0.16695426
210	0x3da092cf	0.078405015
211	0x3c7445e0	0.014909238
212	0xbc8c4a9f	-0.017125426
213	0x3dbb1b43	0.09136059
214	0xbc990e6b	-0.018683633
215	0xbe0fb10c	-0.14032382
216	0x3cb451c2	0.022011641
217	0x3db1f7a4	0.08689812
218	0xbe159e4b	-0.14611165
219	0x3daaa056	0.08331363
220	0xbd06bd96	-0.032895647
221	0x3de1460f	0.10999691
222	0x3de9153a	0.11381002
223	0xbe19f851	-0.15036131
224	0xbdf1db2e	-0.11809383
225	0xbe44b657	-0.19210182
226	0xbd6d0418	-0.057865232
227	0x3cf361f6	0.029709797
228	0x3ddae1d1	0.10687602
229	0xbd1fa064	-0.03897132
230	0xbde3f9eb	-0.111316524
231	0xbe18abaa	-0.14909235
232	0xbd8a3091	-0.067475446
233	0x3ce4aa7e	0.027913328
234	0x3d86b285	0.06577019
235	0x3e0b2352	0.13587692
236	0xbe2a8544	-0.166524
237	0xbe58b193	-0.21161489
238	0xbd16b4f3	-0.03679366
239	0xbe000d95	-0.12505181
240	0x3ddb4178	0.107058465
241	0x3e61a19d	0.22034307
242	0x3bbd7f12	0.00578297
243	0x3de6f8b5	0.11277906
244	0xbe0c3047	-0.13690291
245	0xbe3e2111	-0.18567301
246	0xbba612df	-0.0050681676
247	0xbe132654	-0.1437009
248	0xbe488124	-0.19580513
249	0xbe025a4e	-0.12729761
250	0xbd9d2dc8	-0.07674748
251	0xbe33877c	-0.17532152
252	0x3da33342	0.07968761
253	0xbe1ee8ee	-0.15518543
254	0xbdb59d0c	-0.08867845
255	0xbe4ced80	-0.20012474

input_layer.bias f4 [512]
0	0x3e172df9	0.14763631
1	0x3bc23679	0.005926904
2	0x3dd2343a	0.10263868
3	0xbe3c9a57	-0.18418251
4	0xbc700b50	-0.014651135
5	0xbe367765	-0.17818983
6	0x3e2e028f	0.16993164
7	0x3d056e37	0.032575812
8	0x3ce72768	0.028217033
9	0x3d27594e	0.040856652
10	0xbe250e6c	-0.16118783
11	0xbd6f9596	-0.058492266
12	0xbdeb0498	-0.114754856
13	0xbd816040	-0.06317186
14	0xbe44d3b6	-0.19221386
15	0xbd93fc43	-0.072258495
16	0x3c5d1d8c	0.013495814
17	0xbb9364a0	-0.0044980794
18	0xbe2fd28c	-0.17170161
19	0x3e42fbe4	0.19041401
20	0xbd45505e	-0.048172347
21	0x3ddf3bfd	0.10900114
22	0x3d4f0b63	0.05054797
23	0x3e3c9c69	0.1841904
24	0xbe161456	-0.14656195
25	0xbe19738c	-0.14985484
26	0xbdaaa749	-0.08332688
27	0x3e721d6f	0.2364404
28	0x3de5a5be	0.112132534
29	0xbe433c86	-0.19066057
30	0xbd9e0517	-0.077158146
31	0x3e1c7174	0.15277654
32	0xbe309ccb	-0.17247312
33	0xbe4e3e1b	-0.20140879
34	0xbd8d54ee	-0.06900965
35	0xbd745320	-0.059649587
36	0xbbd92d0f	-0.006627686
37	0xbcbe5eb0	-0.02323851
38	0xbd70df9f	-0.05880701
39	0x3ca30f41	0.019904735
40	0xbd8c65fa	-0.06855388
41	0x3d81a98b	0.06331166
42	0xbdd776e9	-0.10520727
43	0xbcda51c6	-0.02665032
44	0x3e49485e	0.19656512
45	0x3c6a4a96	0.014300009
46	0xbd7223c0	-0.059116125
47	0xbc2d5c70	-0.010581121
48	0xbe2b11c6	-0.16705999
49	0xbe0656cb	-0.13119046
50	0xbd63e8b7	-0.055641856
51	0xbe24ff22	-0.1611295
52	0x3e3c71d6	0.184028
53	0x3c9f6b8f	0.019460468
54	0xbe383627	-0.17989407
55	0x3e194b33	0.14970092
56	0xbe32cdd5	-0.17461331
57	0x3d9ffd26	0.07811956
58	0xbe4ca7a4	-0.19985825
59	0xbe5209ef	-0.20511602
60	0xbde8e066	-0.113709256
61	0xbd6f0bde	-0.058360927
62	0x3e2264dc	0.15858787
63	0x3dfab7e9	0.12242109
64	0x3e5f9561	0.21834327
65	0x3e4dbaa5	0.2009073
66	0xbd68dd25	-0.056851525
67	0xbd396cb7	-0.045269694
68	0x3e603e8b	0.21898858
69	0xbe5e77b8	-0.21725357
70	0xbded9df9	-0.116023965
71	0xbd9062cb	-0.07050093
72	0xbe20b541	-0.15694143
73	0xbd6fb78f	-0.058524664
74	0xbe56a56f	-0.20961545
75	0xbe3292f5	-0.17438872
76	0xbe1015fb	-0.14070885
77	0x3befee2f	0.007322095
78	0x3d8a81a8	0.06763011
79	0xbe2c0533	-0.16798858
80	0xbdf62406	-0.1201859
81	0x3e61dfbf	0.22058009
82	0xbd498b2c	-0.04920499
83	0x3dd25848	0.102707446
84	0xbcc1e5e6	-0.023669194
85	0xbe0397be	-0.12850854
86	0xbe2e8ad0	-0.1704514
87	0xbbbb0df4	-0.0057084505
88	0xbbe19ad2	-0.006884911
89	0x3c9630f0	0.018333882
90	0x3e3cc336	0.18433842
91	0xbe08e0f0	-0.13367057
92	0x3c9d22a6	0.01918156
93	0x3e14d491	0.14534213
94	0x3df9f8e3	0.122056745
95	0x3e5383f6	0.20655808
96	0xbdbd8232	-0.092533484
97	0xbe13cb85	-0.14433105
98	0xbe5347b7	-0.20632826
99	0x3e252f16	0.16131243
100	0x3e4dd96b	0.2010247
101	0xbda70b83	-0.081564926
102	0x3e1f0a6c	0.1553132
103	0xbbedc96d	-0.007256678
104	0xbe479be9	-0.19493069
105	0xbe52a380	-0.20570183
106	0x3db9e8fd	0.09077642
107	0xbe2d6193	-0.16931753
108	0x3d0c6b52	0.034282036
109	0xbe53917e	-0.2066097
110	0xbe121723	-0.14266638
111	0xbd0b0d7f	-0.033948418
112	0xbd40e0f6	-0.04708954
113	0x3cc6963e	0.024241563
114	0xbc3c6357	-0.011498294
115	0xbe829503	-0.25504312
116	0xbe4570cb	-0.19281308
117	0xbd2d0f6f	-0.042251047
118	0xbd7fb94a	-0.062432565
119	0x3e31dafb	0.1736869
120	0x3ddba45a	0.10724707
121	0xbd83930c	-0.06424531
122	0x3e4b766d	0.19869395
123	0x3df103ec	0.11768326
124	0xbdd7b8c6	-0.105332896
125	0xbe3c2406	-0.18373117
126	0x3d859a9d	0.06523631
127	0xbcf30044	-0.029663213
128	0xbe59d2e0	-0.21271849
129	0x3e59e12d	0.21277304
130	0x3e3b3b80	0.18284416
131	0xbd1b82da	-0.037966587
132	0xbdb059f3	-0.086109065
133	0x3dbf998c	0.093554586
134	0x3e60dd61	0.2195945
135	0xbdcfa9e4	-0.10139826
136	0xbd4c9278	-0.04994437
137	0xbe3c324a	-0.18378559
138	0xbd0610b7	-0.032730784
139	0x3e56403b	0.2092294
140	0xbdb90f5e	-0.09036134
141	0xbd266476	-0.04062315
142	0xbd6a812a	-0.057252087
143	0xbe321b51	-0.17393233
144	0xbe43e292	-0.19129398
145	0xbe351d9d	-0.17687078
146	0xbd362014	-0.044464186
147	0xbdf55c53	-0.119805
148	0x3db02e8a	0.086026266
149	0xbe124f4f	-0.14288066
150	0xbe4bfd15	-0.19920762
151	0x3d89983d	0.0671849
152	0x3e4a1d0d	0.19737644
153	0x3e424a9f	0.18973778
154	0xbe15f2f0	-0.14643455
155	0x3d9eded6	0.07757346
156	0xbe33c5dd	-0.17555948
157	0x3e0a5a41	0.13510992
158	0xbdcd3664	-0.1002014
159	0x3c950d13	0.01819471
160	0x3cc1fcfc	0.023680203
161	0xbe17dbf0	-0.14829993
162	0x3d93d32b	0.072180115
163	0xbe5b3af5	-0.21409209
164	0xbd5c8c21	-0.053844575
165	0x3c0c50d2	0.008564191
166	0xbe18553f	-0.14876269
167	0x3e2b0fdd	0.1670527
168	0x3da85001	0.082183845
169	0xbd03731d	-0.032092202
170	0x3bbf8615	0.0058448412
171	0xbcd461e5	-0.025925586
172	0x3cf27e54	0.029601254
173	0xbe21e4f3	-0.15809993
174	0xbe38a6af	-0.18032335
175	0x3d7d73da	0.061878063
176	0x3ce5b8cc	0.02804222
177	0xbe0f532c	-0.13996571
178	0xbdfadace	-0.12248765
179	0xbdad9db7	-0.08477347
180	0xbe625288	-0.22101796
181	0xbe5cb5dc	-0.21553749
182	0x3d8989ec	0.0671576
183	0xbe1bcd0d	-0.1521494
184	0xbd3622ab	-0.044466656
185	0x3deb37c7	0.11485248
186	0x3dd16c98	0.10225791
187	0x3cb508c0	0.022098899
188	0x3c90efff	0.017692564
189	0x3d89df8c	0.06732091
190	0x3dbc410a	0.09192093
191	0x3dbd98a6	0.09257631
192	0x3c727bf4	0.014800061
193	0x3e42819c	0.18994755
194	0xbd082506	-0.033238433
195	0xbe0a79f2	-0.13523081
196	0x3dac254a	0.0840555
197	0xbde37427	-0.11106139
198	0x3da6ef6d	0.081511356
199	0x3de17f97	0.11010664
200	0x3d8bf01a	0.06832905
201	0xbdfc73db	-0.12326785
202	0x3dbf2683	0.093335174
203	0x3d245bb7	0.04012653
204	0x3ca8b2da	0.020593096
205	0x3d28886c	0.041145727
206	0x3db0ee10	0.08639157
207	0x3d8e4589	0.069468565
208	0xbbba3357	-0.0056823897
209	0x3dfb3213	0.1226541
210	0x3e4a915b	0.19782011
211	0xbc240ed8	-0.010013305
212	0xbda0aa7c	-0.07845017
213	0x3e10694a	0.14102665
214	0x3da9dd45	0.08294157
215	0xbd03aab6	-0.032145225
216	0xbc1598a9	-0.009130635
217	0xbe213bac	-0.1574542
218	0xbc179cdb	-0.009253706
219	0xbe02302d	-0.1271369
220	0x3d788228	0.060671
221	0xbdc99d5a	-0.098444656
222	0xbbbf69be	-0.005841463
223	0x3e4129e8	0.18863642
224	0x3d23b08c	0.03996329
225	0xbdcea5c2	-0.100902095
226	0xbb17ee28	-0.0023182724
227	0xbe33440b	-0.17506425
228	0x3e49398f	0.19650863
229	0x3e1ed4fb	0.15510933
230	0xbe37a309	-0.17933287
231	0xbdb30808	-0.08741766
232	0x3e19c24b	0.15015523
233	0x3e2a5aa8	0.16636145
234	0x3e29be22	0.16576436
235	0x3d272d65	0.040814776
236	0x3e3bdae1	0.18345214
237	0x3d4e3c1d	0.050350297
238	0x3e085c91	0.13316561
239	0xbd69e186	-0.05709984
240	0xbd080c9f	-0.03321516
241	0xbe6f2210	-0.23352838
242	0xbe2c6520	-0.16835451
243	0xbe44a961	-0.19205238
244	0x3e5d79d9	0.21628512
245	0x3e1a7875	0.15085013
246	0xbdfe9793	-0.12431254
247	0xbde2c263	-0.110722326
248	0x3d3e63f9	0.04648206
249	0x3e5b29de	0.2140269
250	0x3e327809	0.17428602
251	0x3e5b0cd7	0.21391617
252	0x3e014bef	0.12626623
253	0xbdb89065	-0.09011916
254	0x3ce0daa9	0.027448015
255	0x3e495be7	0.19663964

output_layer.weight f4 [1, 512]
0	0x3e545300	0.20734787
1	0x3dddc97c	0.10829446
2	0xbcad4f6c	-0.021156035
3	0xbd396254	-0.04525979
4	0x3ea69ac8	0.32539964
5	0xbdbd12dd	-0.092321135
6	0x3c37cdb8	0.011218481
7	0xbd07113f	-0.03297543
8	0xbdabf6e5	-0.08396701
9	0x3d4440dd	0.04791342
10	0xbd225716	-0.039633833
11	0xbdda8869	-0.106705494
12	0x3d01fed1	0.031737152
13	0xbc94d0d9	-0.018165993
14	0xbd740dc1	-0.05958343
15	0xbdbc24e2	-0.09186722
16	0x3de8b302	0.11362268
17	0xbd9d108f	-0.07669174
18	0x3e100f71	0.1406839
19	0xbe33274b	-0.17495458
20	0x3db38962	0.08766438
21	0xbe8d8838	-0.2764299
22	0x3c0f38a7	0.008741534
23	0x3d8a669f	0.06757855
24	0x3d1b4fb6	0.037917815
25	0xbcf5f5c8	-0.030024424
26	0x3e27f3ad	0.16401549
27	0xbdc6f598	-0.09714812
28	0x3d8c9d94	0.06865993
29	0xbc613ece	-0.013747884
30	0xbdb4e0d6	-0.088319466
31	0xbd85baba	-0.06529756
32	0x3bbfc6f5	0.005852575
33	0x3d01fb6e	0.031733923
34	0xbce11888	-0.027477518
35	0xbd84fec3	-0.064939044
36	0xbe151c08	-0.14561474
37	0xbe124b03	-0.14286427
38	0x3b403fcb	0.0029334899
39	0x3d720b41	0.059092764
40	0xbd8a3ff9	-0.06750483
41	0x3e14d74c	0.14535254
42	0x3d2fcb82	0.04291869
43	0xbe47610f	-0.19470619
44	0x3de48453	0.11158051
45	0xbe0aa7b6	-0.13540539
46	0x3dc6d2aa	0.0970815
47	0x3e2f4d9f	0.17119454
48	0x3e1998cb	0.14999692
49	0xbc5bc9cb	-0.01341481
50	0x3dabf8a7	0.08397036
51	0xbca74a4b	-0.020421168
52	0xbd47ecd4	-0.04880984
53	0xbb18b617	-0.0023301893
54	0x3c025e3c	0.007957038
55	0xbdc87fac	-0.097899765
56	0xbc450e2d	-0.012027306
57	0x3dc2bce7	0.095086865
58	0x3cc55866	0.024090003
59	0xbb4bda5b	-0.0031105492
60	0xbe7b7bf8	-0.24559009
61	0x3ceb7cca	0.028746027
62	0xbd7b37ef	-0.06133264
63	0xbd613fdc	-0.05499254
64	0xbc82b540	-0.015955567
65	0x3e0ee567	0.13954698
66	0xbe1ad6fd	-0.15121074
67	0x3d8e12f2	0.06937207
68	0xbcefbe8a	-0.02926566
69	0x3d18f906	0.037346862
70	0xbbf9d31a	-0.007624042
71	0xbd8ff473	-0.07029047
72	0x3d8779b6	0.066150114
73	0x3e523e0e	0.20531484
74	0x3cc40656	0.023928802
75	0xbd7950f4	-0.06086822
76	0xbda86346	-0.0822206
77	0x3de801d7	0.11328476
78	0x3d81d842	0.06340076
79	0x3c494d42	0.012286486
80	0xbd6efb8e	-0.05834537
81	0x3cfa4e00	0.030554771
82	0xbd30f7c6	-0.043205045
83	0xbb206bad	-0.0024478242
84	0xbc487ab5	-0.012236287
85	0x3dbdc58d	0.092661954
86	0xbba79fbf	-0.0051154788
87	0xbc988135	-0.018616298
88	0x3e092a2c	0.13394994
89	0xbd0580e4	-0.032593623
90	0x3d7168e4	0.058937922
91	0xbd49f0b1	-0.049301807
92	0x3df2e651	0.118603356
93	0xbd9f7e6a	-0.077877834
94	0xbc8ef613	-0.017451322
95	0xbc3835f5	-0.011243333
96	0xbce150dc	-0.027504377
97	0x3e558355	0.2085088
98	0x3d88fcce	0.06688844
99	0xbd9868de	-0.07441877
100	0xbce27114	-0.02764181
101	0x3d8c74e0	0.0685823
102	0xbe4b82ef	-0.19874166
103	0x3d908e8a	0.07058437
104	0x3c982161	0.018570604
105	0xbdae4664	-0.0850952
106	0xbb2960d1	-0.002584506
107	0xbd3d698d	-0.04624324
108	0xbdb61dd6	-0.088924095
109	0x3b937f32	0.004501247
110	0xbd0b446f	-0.03400081
111	0xbd60486d	-0.05475657
112	0xbd157e3f	-0.03649735
113	0xbd281021	-0.041031007
114	0xbc932627	-0.017962528
115	0xbe2c2675	-0.16811545
116	0xbda3e4a0	-0.08002591
117	0x3e3cd9d0	0.18442464
118	0x3c10e363	0.008843276
119	0xbe00e9b5	-0.12589152
120	0xbcff2e29	-0.03114994
121	0x3bee070f	0.007264025
122	0xbd8360b7	-0.06414931
123	0x3bc70c5d	0.006074472
124	0xbe22546d	-0.15852518
125	0xbda4b7c8	-0.08042866
126	0x3c1e4008	0.009658821
127	0x3ce4e4b3	0.027941084
128	0xbd02d1ee	-0.031938486
129	0xbe04c6e6	-0.12966499
130	0xbdbd2acc	-0.092366785
131	0xbd32d3a3	-0.043658864
132	0xbd0c3b66	-0.034236334
133	0xbca40834	-0.020023443
134	0x3e48e865	0.19619901
135	0x3db67f58	0.08911008
136	0xbdd8a0e8	-0.105775654
137	0x3ced36fd	0.028956885
138	0x3e2f35cf	0.1711037
139	0xbc88cd86	-0.016699564
140	0x3dc2e0fb	0.09515568
141	0x3ca03ed3	0.019561207
142	0xbd3b0a0f	-0.04566389
143	0x3a56e0ad	0.00081969314
144	0xbd00b06c	-0.03141825
145	0xbd87d79e	-0.066329226
146	0xbc85ceea	-0.016334016
147	0xbd791ec2	-0.06082035
148	0x3d4cbb6f	0.049983438
149	0xbd8c1444	-0.06839803
150	0x3d64dc8d	0.055874396
151	0x3e33a531	0.17543484
152	0xbd74c30d	-0.059756327
153	0x3e7315ae	0.23738739
154	0x3bdf51ea	0.006815185
155	0x3de1c058	0.11023015
156	0x3d62174e	0.055198006
157	0x3d964561	0.07337452
158	0xbb261cce	-0.0025346759
159	0xbe0cf0b6	-0.13763699
160	0xbd5e6fc9	-0.054305825
161	0x3d22b515	0.039723475
162	0x3d876b5a	0.066122726
163	0x3d19a4e2	0.03751076
164	0xbd7b878a	-0.061408557
165	0x3d807cbf	0.062737934
166	0x3db0e169	0.086367436
167	0x3d12abd6	0.035808407
168	0xba9bb6b9	-0.0011880017
169	0xbd9412ee	-0.07230173
170	0x3e4c78e0	0.19967985
171	0x3dedcfb8	0.11611885
172	0x3d032dff	0.032026287
173	0xbd44bdeb	-0.048032682
174	0x3baef21b	0.00533892
175	0x3b88f950	0.004180111
176	0x3d0a7819	0.03380594
177	0xbd335520	-0.043782353
178	0x3d2fb5cc	0.042897984
179	0x3e297f86	0.16552553
180	0xbd41a11a	-0.04727278
181	0x3d1d4ccf	0.03840333
182	0xbe22b918	-0.1589092
183	0x3a9395dc	0.0011259872
184	0xbd848308	-0.06470305
185	0xbdf68bfa	-0.12038417
186	0x3dd25ebe	0.10271977
187	0x3e1b2542	0.15150931
188	0x3c640400	0.013916969
189	0xbbb02feb	-0.005376806
190	0xbc8b6b64	-0.017018981
191	0x3ded5f02	0.11590387
192	0xbc694e80	-0.014239907
193	0x3cc2b87f	0.023769615
194	0x3de598c4	0.11210778
195	0xbdeb8f2b	-0.115019165
196	0x3e45eba7	0.19328175
197	0xbe03a4c1	-0.12855817
198	0x3e22b647	0.15889846
199	0x3e093783	0.13400082
200	0xbc28c59b	-0.010301019
201	0xbca86596	-0.020556252
202	0x3df3e047	0.11908012
203	0xbe06b43e	-0.13154694
204	0x3c1d0429	0.009583511
205	0xbdf4bfe1	-0.119506605
206	0xbd9ec8f5	-0.07753173
207	0xbdb491d5	-0.08816878
208	0xbd4b95e7	-0.049703505
209	0x3bea3295	0.007147143
210	0xbc4b6e54	-0.012416441
211	0xbdca8da7	-0.09890299
212	0xbd6c0219	-0.057619188
213	0xbd03f59a	-0.032216646
214	0x3df92b1a	0.12166424
215	0xbda972b6	-0.082738325
216	0xbd8edd13	-0.0697576
217	0xbdd284e6	-0.102792546
218	0xbdcd652b	-0.10029062
219	0xbcc5d50a	-0.024149437
220	0x3e0af1ac	0.13568753
221	0x3d3cc8b7	0.046089854
222	0xbccf0651	-0.025271567
223	0x3d189d07	0.037259128
224	0xbd57132c	-0.052508518
225	0xbe04e35a	-0.12977353
226	0xbd3c2fc8	-0.045944005
227	0x3ab65162	0.0013909752
228	0xbcd4a70f	-0.025958566
229	0x3d725872	0.05916638
230	0x3c12fed2	0.008971887
231	0x3d40828b	0.046999495
232	0xbcef6501	-0.029222967
233	0x3dd9387b	0.10606476
234	0xbc01aa9c	-0.007914212
235	0x3d94fa28	0.07274276
236	0xbd9d3d54	-0.07677713
237	0x3d9da97a	0.07698341
238	0x3c8cf35a	0.017205883
239	0xbc2de9a3	-0.010614785
240	0x3d44e2e5	0.048067946
241	0x3d76cb6c	0.060252592
242	0xbdce34bf	-0.10068654
243	0x3d523c88	0.05132726
244	0x3dc107aa	0.0942529
245	0x3d066dab	0.03281943
246	0xbd70a76d	-0.05875342
247	0x3d92b2c9	0.07163007
248	0xbe19b996	-0.15012202
249	0xbce04901	-0.027378561
250	0xbd2b2531	-0.041783515
251	0xbdc9dc65	-0.0985649
252	0x3e08a7f5	0.1334532
253	0xbd3a4464	-0.04547538
254	0x3cc667c1	0.024219396
255	0xbe01fe72	-0.1269472
