data/baumgartner_C-N/baumgartner_C-N_emulator/baumgartner_cn_predictor_3.pt (torch, 46559 bytes, 3 tensors)

input_layer.weight f4 [512, 20]
000000 e3 b0 61 3e 74 1c be 3c 4a 3a e0 bd 48 91 5b be
       0.22040133 0.023206927 -0.10948618 -0.21442139
000010 39 e3 4b be 80 b6 46 bd 2b 6d 17 bd 63 40 d5 bc
       -0.19910897 -0.04851389 -0.036969345 -0.026031679
000020 36 36 e8 bd 97 e9 28 3d 84 38 23 be 4e 9b a5 bd
       -0.11338465 0.041238394 -0.15939528 -0.08086263
000030 fa da d2 bc 45 27 4c 3e 3f 7d 99 3c f3 6f 17 3d
       -0.025739182 0.19936855 0.01873648 0.036971997
000040 e0 d6 45 bd 84 0e 99 3d 70 fa 02 3e 66 d6 07 3e
       -0.048300624 0.07473472 0.12790847 0.1326538
000050 39 3b 3a 3e 81 be 83 bd 0a b4 78 bd e5 b8 28 bd
       0.18186654 -0.0643282 -0.060718574 -0.041191954
000060 dc 63 f3 bd a4 bf 27 3e cb 01 06 3c d2 16 19 be
       -0.11884281 0.16381699 0.008179138 -0.14950112
000070 75 9a 53 be d4 dd 62 3e 8a 05 57 3e 7a 74 62 3e
       -0.2066439 0.22154933 0.20998207 0.22114745
000080 3a 77 1c bd 3a a1 a7 3d af 8f f3 bd 78 44 43 be
       -0.03819964 0.081850484 -0.1189264 -0.19069088
000090 5e 93 33 3e dc 6e 4f 3e 5f f2 46 bd 9e f3 41 be
       0.17536685 0.20257133 -0.048570987 -0.18940589
0000a0 6e 8e 32 be 3d 61 06 be d6 90 4b be 42 63 bd 3d
       -0.17437145 -0.13123031 -0.1987947 0.092474476
0000b0 29 af 02 be 06 76 05 be 96 08 0e 3e 37 4d 99 bd
       -0.12762131 -0.13033304 0.13870463 -0.07485431
0000c0 91 71 3a 3d e6 26 0e bd 41 2e 3d bc f0 0c 68 3d
       0.04551846 -0.034705065 -0.011546672 0.056652963
0000d0 04 b2 d9 bd bc f7 84 bd 32 ed 93 3c 4c 4a 04 3e
       -0.10629657 -0.06492564 0.01805744 0.12918967
0000e0 23 88 79 bd 86 71 1f 3e 9e d7 0b 3e df 40 4e 3d
       -0.060920846 0.1557065 0.1365647 0.050354835
0000f0 be 72 22 be 1d 03 2e be 7d 6f 85 3b 6d 54 bb bd
       -0.15864083 -0.16993375 0.0040721283 -0.09146962
000100 f6 55 c8 bd 07 ee 10 3e 48 89 1c 3d c1 39 8a 3d
       -0.09782021 0.141533 0.03821686 0.06749297
000110 8e 06 cf 3d d2 ab d0 3d 74 4b 8e 3c f6 f4 03 3e
       0.10108672 0.10189022 0.017369963 0.12886414
000120 84 79 5a 3e ac da 60 3d 61 e1 52 3e c9 be 6f 3d
       0.21335417 0.05489604 0.20593788 0.058531556
000130 96 23 24 be ce f8 07 be f1 ad 67 bd 3e f0 04 3e
       -0.160292 -0.13278505 -0.056562368 0.1298227
000140 8a 91 08 3e c9 56 40 be ba 11 e1 bd 0c 85 01 be
       0.13336769 -0.18783106 -0.10989709 -0.1264841
000150 31 43 6d bd f9 1c 69 3e ce ee 43 3c f0 03 d7 bd
       -0.057925407 0.22764958 0.011958791 -0.10498798
000160 e7 18 3c be f4 04 60 be 52 1b 3c 3e 40 4f c3 bd
       -0.18368874 -0.2187689 0.18369797 -0.095366
000170 73 93 22 be 25 30 54 3d f5 a7 4e bd 76 e8 a2 bc
       -0.1587656 0.051803727 -0.050453145 -0.019886237
000180 96 55 f3 3d d8 ee 41 3d 6c 3f c9 bb 2c 92 be bc
       0.118815586 0.04734692 -0.0061415937 -0.02326306
000190 87 5c e4 bd cc 19 ab 3d d2 c3 57 3e 2b 4c 18 3e
       -0.11150461 0.0835453 0.21070793 0.14872806
0001a0 1b 8f 11 3d 34 c8 80 3c e2 c0 b9 ba a3 ae 03 be
       0.035536867 0.015720464 -0.0014171863 -0.12859587
0001b0 c1 55 e1 3d 94 44 de 3a b5 9a 4c 3d e0 e9 b4 3c
       0.110026844 0.0016957694 0.049952228 0.022084177
0001c0 91 5c da bd f1 04 d4 bb a2 f3 0e 3e 0c 40 4e 3d
       -0.10662187 -0.0064703156 0.13960126 0.05035405
0001d0 3b 16 ad 3d 28 6c 55 be 37 46 1f 3e 90 6b 34 be
       0.08451506 -0.2084204 0.15554129 -0.17619157
0001e0 10 93 37 be 6b d5 19 bc 37 15 12 bd 73 c1 7b 3d
       -0.17927194 -0.009389262 -0.035664763 0.061463784
0001f0 16 84 0c 3e 07 d5 99 bd 77 d2 c7 3d 65 25 4b 3d
       0.13722262 -0.07511335 0.0975694 0.04959621
000200 dd f8 27 bd d4 fd 16 3d ae 51 c8 3d 8e 44 49 3e
       -0.04100882 0.036863163 0.09781204 0.19655058
000210 31 e3 89 3d 9d 40 0c be 39 67 1f be eb c6 16 be
       0.067327864 -0.13696523 -0.1556672 -0.14724319
000220 99 28 48 be 68 c9 37 be 25 5b 85 3e 8d ae fb bd
       -0.19546737 -0.17947924 0.260461 -0.12289152
000230 5e 57 59 bd 4e fc dd bc 9f 08 78 bd f3 59 b8 bd
       -0.053061835 -0.027097847 -0.060555097 -0.090015315
000240 31 3b 05 3d 11 42 61 bd e8 b2 ce 3d 77 71 49 3e
       0.032527152 -0.054994646 0.100927174 0.1967219
000250 a2 7f 64 bd 23 ba 26 3d 98 ce 47 3e a4 ea e2 bd
       -0.055785783 0.040704858 0.19512403 -0.110799104
000260 8b c6 61 3e ba c9 54 be 8e 00 dc 3a c3 21 13 3d
       0.22048394 -0.20780078 0.0016784833 0.03592087
000270 6e f0 5a 3e f4 7e b2 bd 82 25 23 3e 16 81 3b be
       0.21380779 -0.08715621 0.15932277 -0.18310961
000280 69 71 19 be 42 0d c7 bd 61 9e ef 3d c5 ca 1d be
       -0.14984669 -0.097193256 0.1170013 -0.15409382
000290 54 91 52 3e 12 d3 77 bd 02 c6 40 3e ec fb 13 3c
       0.20563251 -0.060504027 0.18825534 0.009032231
0002a0 42 5e e3 3c ec 19 02 be ce 83 62 3d c0 0c 7a bb
       0.027754907 -0.12705201 0.05530148 -0.0038154572
0002b0 34 69 29 3e 6e cf 19 be f0 d9 b6 3c b8 6d 60 be
       0.16544038 -0.15020534 0.022320718 -0.21916854
0002c0 3c e3 2c be 90 63 2d bd 17 80 93 bb 8b 1f d2 3d
       -0.16883558 -0.04233128 -0.0045013535 0.102599226
0002d0 c2 dd 0c 3e 69 48 1e 3e 8a 63 62 3d cf 92 32 be
       0.13756469 0.1545731 0.05527071 -0.17438816
0002e0 4a f7 6b bd 94 89 f4 3d bf bb cb 3d 02 44 2c 3e
       -0.05760888 0.119403034 0.09947919 0.16822818
0002f0 1b 89 23 3d ff 59 d9 3d 81 74 f2 bd 90 7a c2 3d
       0.039925676 0.106128685 -0.118386276 0.09496033
000300 55 8c 3e bc 71 97 f4 3c ea 8c 66 bd 75 ba 5f 3d
       -0.011630137 0.02985737 -0.05628673 0.05462118
000310 12 54 f9 bd 34 c7 06 3e b9 d3 40 be d7 8c f6 3d
       -0.12174238 0.13161927 -0.18830766 0.12038582
000320 38 ba df bd 4e 17 22 be f7 81 0f 3e ba a1 19 be
       -0.1092419 -0.15829203 0.14014421 -0.150031
000330 d2 bf 12 3e 75 c8 ed 3c 1d 8b 8b bd 24 b2 03 3e
       0.14330986 0.02902625 -0.06813643 0.12860924
000340 93 8c 34 be d4 2c 06 3e 2a 9c e9 3c 1a dc 3a 3e
       -0.1763175 0.13103038 0.028516848 0.18248025
000350 57 f7 6a 3e ce fa be bd b0 44 2f be ee 03 62 3d
       0.22945915 -0.09325181 -0.17116046 0.05517953
000360 c9 45 53 3d c4 18 0e be 74 cc b3 bd a7 1a 20 bd
       0.051580224 -0.13876635 -0.08779231 -0.039087918
000370 3b 54 fd b7 5b 67 12 be 71 99 b6 3d df d2 8c 3d
       -3.0199173e-05 -0.1429724 0.089159854 0.06876158
000380 2e 03 5a be c9 8c f9 3d 11 8b 88 3d 80 d8 42 be
       -0.21290275 0.12185056 0.0666715 -0.190279
000390 5b 34 47 be 2d 2f c0 3d 75 96 29 bd 78 65 8d 3c
       -0.19453566 0.09383998 -0.041403253 0.017260298
0003a0 98 ad 3b be 73 9f a1 bd c5 d8 5c be fb 69 08 3e
       -0.1832794 -0.07891741 -0.21567066 0.13321678
0003b0 48 62 61 3e 66 3b a2 bd 3f f9 0f be ec 7a 5b 3e
       0.22010148 -0.079214856 -0.14059924 0.2143361
0003c0 9f cf 30 be b1 73 8d bc 29 19 77 bd 9d 1b ec bd
       -0.17266701 -0.01726708 -0.06032673 -0.11528704
0003d0 0a 1c 6b bd a5 ef 0a be ed 99 08 be 5c 3d 51 bd
       -0.057399787 -0.1356798 -0.13339968 -0.051083907
0003e0 80 32 3d 3e 26 bd 47 be c8 8b 12 3d 60 27 ad 3d
       0.18476295 -0.19505748 0.035777837 0.08454776
0003f0 1a 05 71 3d e0 04 86 3d d1 87 81 bd ee 8c 5b 3e
       0.058842756 0.065438986 -0.06324733 0.21440479

input_layer.bias f4 [512]
000000 a4 bb eb bd 65 1f 61 3d 36 3a 82 3d c8 ea c2 3d
       -0.11510399 0.05496158 0.06358759 0.09517437
000010 e5 04 0a be cb 5f e7 3d 7a 47 9f 3b 4e 0e 56 be
       -0.1347843 0.11297568 0.0048608156 -0.20903894
000020 44 7b 42 3e a1 e7 bc 3d 1c 14 08 bd 19 cd 2a 3d
       0.18992335 0.09223867 -0.033222303 0.041699503
000030 98 16 9d 3d b2 fd 1a bd 7a 69 2a be 27 5b 7b 3d
       0.07670325 -0.0378396 -0.16641799 0.061366227
000040 2a a2 a0 bd ea 7a 03 be 8d cc 53 be 88 1f 39 3e
       -0.0784343 -0.12839857 -0.20683499 0.18078434
000050 92 1d ed 3d 4c 8e d3 bd 01 f3 40 3e 00 51 78 bd
       0.11577906 -0.10329875 0.18842699 -0.060624123
000060 2e 96 36 bd e1 18 46 be 00 13 34 be 91 00 f7 3d
       -0.044576816 -0.19345428 -0.17585373 0.12060655
000070 c7 d4 bf bd d0 a9 31 be 6f 14 3b 3e 52 fe 4e 3d
       -0.09366756 -0.17349935 0.18269514 0.050535508
000080 7c db 03 be 66 4c c0 3d b7 8d 4a bd ad f3 f3 bc
       -0.12876695 0.09389572 -0.049451556 -0.02977928
000090 bf 8f 35 3e 9b e9 db 3c 36 e8 bd 3d 32 70 12 3e
       0.17730616 0.02684479 0.09272806 0.14300612
0000a0 7c 88 db bd a3 f8 a4 3d 2a 91 fd 3d 0e 88 7a bd
       -0.10719392 0.08055236 0.123812035 -0.061164908
0000b0 17 6c f8 3c 6c e3 8d 3c 7a e2 a3 3d ca de c5 b8
       0.030324979 0.017320357 0.08002181 -9.43519e-05
0000c0 dc 33 25 be ee 5c c2 bd b3 29 b5 3d 12 f2 34 be
       -0.16133064 -0.09490381 0.08845844 -0.17670467
0000d0 d0 e3 f1 bd b4 c3 8a bd 19 e5 09 3e 11 b3 31 be
       -0.1181103 -0.06775609 0.134663 -0.17353465
0000e0 be ef 14 3e dd 04 bf 3d 71 6b 09 be 39 dc 91 bd
       0.1454458 0.093270995 -0.13419892 -0.07122082
0000f0 5f fa 23 be e3 43 5b be 73 11 97 3c fa 10 1a bd
       -0.16013478 -0.21412615 0.018440938 -0.037613846
000100 00 b6 c0 3c b1 55 31 3d 72 e3 93 3c 81 d7 02 be
       0.023524284 0.043294612 0.01805279 -0.1277752
000110 7a 44 2d 3d 8a 38 38 bc 02 29 09 be 3d 9a 91 3d
       0.042301632 -0.011243949 -0.1339455 0.07109497
000120 fe 42 6a 3a 66 ea 3c be 59 5b 6f 3e 04 1d 0d 3e
       0.0008936374 -0.18448791 0.2337469 0.137806
000130 a9 73 0c 3e 3c 3a 51 bd 0a 8f 75 3d d0 a4 26 be
       0.13715996 -0.051080927 0.059950866 -0.16273808
000140 a0 42 54 be c8 e1 c4 bd 74 da 20 be 7b d4 dc bc
       -0.2072854 -0.09613377 -0.15708333 -0.026956787
000150 d4 26 3a be 24 9a 6a bd 8f 7e 4a be 3b b9 7f bd
       -0.18178874 -0.057275906 -0.19774841 -0.06243251
000160 63 53 9b 3d 75 54 1e be 06 92 fa 3c 8e fb 16 3e
       0.07584264 -0.15461905 0.030587208 0.14744398
000170 6d 98 a6 bd 57 83 ee bd 2b bc 2b 3d cc 07 25 3d
       -0.08134542 -0.11646145 0.041927498 0.04029064
000180 a1 9b 39 be 12 d4 dc 3c b5 eb c3 3d 63 28 1e bd
       -0.18125774 0.026956592 0.09566442 -0.038612735
000190 be 31 e8 bd ce ad 25 3d 45 5d 23 3e 40 a1 b6 bc
       -0.113376126 0.040448956 0.15953548 -0.022293687
0001a0 7e 29 50 3e b5 99 33 3e d8 f8 0b 3d 50 6d 08 3d
       0.20328328 0.17539103 0.034172863 0.033307374
0001b0 7e ca 0d 3e 5d d3 d1 3c bc 1f 80 3c 60 9b d4 bc
       0.13846776 0.025613481 0.015640132 -0.025952995
0001c0 b6 31 44 3e f2 3b 29 bd a5 50 d9 bd c0 23 bd bd
       0.19159588 -0.041316934 -0.10611085 -0.092353344
0001d0 51 9c 99 3b a6 64 5b 3c be 8b c4 3d fe d9 31 3e
       0.004687824 0.013390696 0.09596966 0.17368314
0001e0 e7 24 c2 3d e3 2c b7 bd c8 e2 48 3e 56 ba 50 be
       0.09479695 -0.08944108 0.1961776 -0.20383582
0001f0 63 b0 13 be d0 11 7b 3d 21 01 92 bb 1f 90 4b bd
       -0.14422755 0.061296284 -0.004455701 -0.04969799
000200 e5 f1 13 3c ad 83 9f bc c5 f7 27 3e bb d1 56 be
       0.00902984 -0.019471968 0.1640311 -0.20978443
000210 88 6d 4a 3e 05 5a 1e 3e 59 e0 2d 3e 9c 31 c4 bd
       0.19768345 0.15464027 0.16980113 -0.09579775
000220 21 55 16 3e 33 00 b9 bc f2 48 09 be e0 39 c8 3d
       0.14680912 -0.022583103 -0.13406733 0.09776664
000230 dd b9 27 3e 3c 65 4c 3d 10 d3 1b be 0b f7 2f bd
       0.16379495 0.049901232 -0.15217233 -0.042960208
000240 fa bf 18 3e ea 15 97 bd e2 89 7b 3c ff 7e 86 3d
       0.14916983 -0.07377227 0.015352698 0.06567191
000250 3c 7d 49 3e 4f 5d e8 3d 4a 6b 05 3d 78 6f 37 3d
       0.1967668 0.11345922 0.032573022 0.04478404
000260 a5 dd 0f be 66 7f 06 3e 6c 05 50 bb 18 3f 5c bc
       -0.14049394 0.13134536 -0.0031741513 -0.013442777
000270 a8 6e 3b 3d df 6d 57 3e 56 86 2e 3e 1c 94 05 be
       0.045759827 0.21038006 0.17043433 -0.1304478
000280 60 6c a8 3d 83 3d cb bd 99 84 39 3e 42 99 25 3e
       0.08223796 -0.09923842 0.18116988 0.16171744
000290 87 dd a8 3d e5 a8 1b 3e 85 e2 bd bd a5 3b 3f be
       0.08245378 0.15201147 -0.09271721 -0.18675096
0002a0 51 39 58 3e 0b 2b 87 3b 96 06 b6 3d 1c a0 3d 3c
       0.21115614 0.004125004 0.08887975 0.011573818
0002b0 ca 5a 85 3a 60 24 4b 3d b2 6a be 3d e0 b2 a2 3c
       0.0010174152 0.049595237 0.09297694 0.019860685
0002c0 8d 27 2c 3d f2 83 97 3d df c1 7c bd 7f 1a dd 3c
       0.042029906 0.073982134 -0.061708327 0.026990173
0002d0 ba a6 26 3d 7d e9 17 be 05 a1 c9 bd 53 a6 a5 bd
       0.040686347 -0.14835162 -0.09845165 -0.080883645
0002e0 c7 85 06 3e bb 46 57 3e 97 fd 2c be 88 1c 43 bd
       0.1313697 0.21023075 -0.16893612 -0.04763463
0002f0 50 8b 20 3e e2 4f 8e bd 2e 79 b7 bd 4f 1d 92 bd
       0.15678144 -0.0694883 -0.0895866 -0.071344964
000300 5a 8b a6 bb 21 c0 48 be 2a b7 a8 bd b9 5f 95 bd
       -0.00508253 -0.19604541 -0.08238061 -0.07293648
000310 bc 72 2d 3e f9 b6 ee bb 50 ab 36 be cc 41 91 bd
       0.16938299 -0.0072849956 -0.17838788 -0.07092628
000320 6e 38 0c be 1d 36 20 3e 8d 39 27 3c 2e fc 2b 3e
       -0.13693401 0.15645643 0.010206592 0.16795418
000330 a5 d3 3f be 29 b6 49 3e 46 58 06 be d4 b4 cb bd
       -0.1873308 0.19698395 -0.13119611 -0.099465996
000340 91 58 23 3e 4a 10 3a be 4e 87 41 3e da a2 4b be
       0.15951754 -0.18170276 0.18899271 -0.19886342
000350 8c ca 6e bd c0 3a d4 bb d8 51 8f bc 20 c5 01 3e
       -0.058298633 -0.00647673 -0.01749508 0.12672853
000360 fd e4 30 3d 59 58 b3 bc fd 6a 62 be 60 2c 0f be
       0.04318713 -0.021892713 -0.22111125 -0.13981771
000370 0d 28 fa 3d 6a 30 75 3e 1f 11 36 bd 6d 41 46 3e
       0.1221467 0.2394425 -0.04444992 0.19360895
000380 52 7b 54 be 4c 5b 54 be fd a0 3f 3e 38 de 1a 3e
       -0.20750168 -0.20737952 0.18713756 0.15123832
000390 5f f4 11 be b4 81 e8 3d c5 b6 d9 3d 2d 35 dc 3d
       -0.14253376 0.11352864 0.10630564 0.1075233
0003a0 4c d5 22 3d 43 ad ba bd dc ad 56 bd 80 8c 4a 3d
       0.039754197 -0.09115078 -0.0524119 0.049450397
0003b0 f0 9d d9 3d e2 c5 88 3d 49 83 ee bd 08 00 28 be
       0.10625827 0.06678368 -0.116461344 -0.16406262
0003c0 cb 18 2e 3e 58 76 26 be 05 15 1d 3e 60 04 38 3e
       0.17001645 -0.16256082 0.1534005 0.17970419
0003d0 60 4d 2c 3e f4 dc f4 3d 0d 9a 62 be 81 7e c6 3d
       0.16826391 0.11956206 -0.22129078 0.096920975
0003e0 5d 01 16 be d1 21 06 be c5 bf 9e 3d 97 00 d2 3d
       -0.14648958 -0.13098837 0.07751421 0.10254019
0003f0 2f d6 01 3c 47 ae 7e 3d ba ac 66 bd f7 30 03 3e
       0.0079246005 0.062177923 -0.05631707 0.12811647

output_layer.weight f4 [1, 512]
000000 45 13 a6 bc b5 d0 b1 bd 3d 2a 3d bd 08 f9 fb 3b
       -0.02027286 -0.08682386 -0.04618286 0.007689599
000010 d2 e4 8c bd 44 13 9e bc cb 6c 06 be 03 24 b9 bd
       -0.068795815 -0.019296296 -0.13127439 -0.09040072
000020 56 af 67 bd 4c 86 9f 3d 64 f6 a6 bd 30 a5 72 bd
       -0.056563698 0.07789287 -0.08152464 -0.059239566
000030 dd 96 e5 bd 55 93 0f be 81 f9 c4 bd 3a 9f 2f bd
       -0.112104155 -0.14021046 -0.096179016 -0.04287646
000040 8a a6 e5 bd 25 df b7 3d be a9 f4 bd 75 6b 46 bd
       -0.112134054 0.08978108 -0.11946438 -0.048442323
000050 c3 67 00 be 22 f8 89 bd 3b d6 be bd 8a cf ff 3d
       -0.12539582 -0.06736781 -0.09318205 0.12490757
000060 93 74 33 be 35 e0 43 bd ae 13 83 bd 7e 4d 91 bd
       -0.17524938 -0.047821242 -0.06400238 -0.070948586
000070 75 e4 57 3d 49 96 80 bd d6 eb ad bd 1b ba 95 3e
       0.052708108 -0.062786646 -0.08492248 0.2924355
000080 73 f7 c4 3d 5a d0 d7 bd 16 e0 a2 3a ea 7a 4b bd
       0.0961751 -0.10537787 0.0012426402 -0.049677767
000090 6d 81 b5 3d 9e 79 3c 3d b5 a2 57 3c fd c8 ad bd
       0.08862577 0.04601442 0.013161351 -0.08485601
0000a0 4a 5f 96 3d b9 e3 a7 3d f1 17 2b 3e 52 49 bd bd
       0.07342394 0.081977315 0.16708352 -0.092425
0000b0 b3 42 9f bd 0f 4a 84 3d 13 f7 2a 3a e4 8c 9b 3d
       -0.07776394 0.06459438 0.0006521802 0.07595232
0000c0 07 c9 35 3d 3f ec 93 bd 7d b4 48 bd 96 88 9e bd
       0.044381168 -0.07222795 -0.049000252 -0.077408955
0000d0 40 07 4c bd 3a b9 c5 bb 99 c5 84 3d e3 ba 8a 3d
       -0.0498116 -0.0060340436 0.06483001 0.06773927
0000e0 e6 4e 89 3d 24 6c 5f bd fb 0d 9a bd 46 d7 71 3c
       0.06704502 -0.05454649 -0.07522198 0.014760798
0000f0 cc 0f e8 bc 62 86 27 be f0 69 f0 bc 36 6d 30 3e
       -0.028327845 -0.16359857 -0.02934739 0.1722916
000100 99 1a bf bc 98 01 16 bd 0e 0d 92 bd a0 c3 4b 3d
       -0.023328112 -0.036622614 -0.07131396 0.04974711
000110 d9 1e ed 3b 27 f5 95 3c 75 c7 3d be 77 a7 95 bc
       0.0072363433 0.018305374 -0.18533118 -0.01826833
000120 38 2a 57 3d 1e 2e 08 bd 74 3e 85 3d c1 a2 5e 3c
       0.052530497 -0.033247106 0.065060526 0.013588608
000130 f4 e1 69 3c 47 55 a0 bc 86 70 11 be 7c 6a 98 3d
       0.014275063 -0.019571913 -0.1420308 0.07442185
000140 d4 dd a1 bb 3d e2 10 bd 49 6f e4 3d 7a b9 b8 bc
       -0.004939774 -0.035372008 0.111540385 -0.02254938
000150 29 56 f9 bc 00 7a 13 3d 06 89 f6 bd e9 2c 52 be
       -0.030436592 0.03600502 -0.12037854 -0.20524944
000160 97 47 6b be 75 72 de 3b f2 7c 62 be c9 0c ca 3c
       -0.22976528 0.0067885467 -0.22117975 0.0246643
000170 b7 a3 a2 bb b0 45 2a 3c 94 d5 ac 3c 76 76 ef bc
       -0.004963364 0.010392591 0.021097936 -0.029231291
000180 b4 08 4c 3d 2e c7 09 bd c2 79 24 bd 10 0c 87 3d
       0.049812987 -0.03363722 -0.04015518 0.065940976
000190 80 3e 38 be 68 5a fa bc bf 58 c3 bd 08 91 c1 bc
       -0.17992592 -0.030560687 -0.09538411 -0.023628727
0001a0 a0 44 85 bc 89 43 9d bc 98 c0 8e 3d 95 08 7f bc
       -0.016268075 -0.019197242 0.06970328 -0.015566011
0001b0 8c 75 38 be 88 8d d9 3d c5 75 12 bd 1e 1f b0 bc
       -0.1801359 0.10622698 -0.035756845 -0.021499213
0001c0 9f c1 fa bd 40 71 37 3d c8 90 65 bd cf ad a9 3c
       -0.122439615 0.044785738 -0.056046277 0.020712761
0001d0 7c ca 7f 3d 59 53 dc 3d c9 3a dc 3b a4 fc 83 bd
       0.062448964 0.10758085 0.006720875 -0.06444672
0001e0 13 e0 e5 bd 81 4a 27 3e ba 92 d4 3d 3f 08 83 3d
       -0.112243794 0.16337015 0.10379548 0.06398057
0001f0 ec 0d a8 3d e0 36 a0 bd 21 58 ed bd dd 9c 58 3c
       0.082057804 -0.078229666 -0.11589075 0.013220993
000200 55 7a 9d bd 91 c5 fd 3d 87 77 f4 3d ac f2 8c 3d
       -0.076893486 0.123911984 0.119368605 0.068822235
000210 f4 d9 b2 3d 16 9c 48 bb 1b 63 9a 3c ef a1 13 3e
       0.087329775 -0.0030610613 0.018846085 0.14417242
000220 a5 04 9b 3d 61 1a f7 3d d1 88 49 3e ee 41 dd bd
       0.07569245 0.12065578 0.19681098 -0.10803591
000230 9e af a3 bc 1d f6 ea 3d dc a1 6f bc db f5 22 bd
       -0.019981202 0.11472724 -0.014625993 -0.039785247
000240 88 3e e3 bc e3 2d d7 bd 33 89 42 39 9b 48 c7 bc
       -0.027739778 -0.10506799 0.00018552392 -0.024326613
000250 3c 88 0d be 3c 13 32 3e 59 53 1c be 0d a4 43 bd
       -0.138215 0.1739015 -0.1526617 -0.047763873
000260 98 2d 02 3d 83 9c a2 bd b0 2c 26 bd 86 34 58 bb
       0.031781763 -0.079400085 -0.04056996 -0.003299029
000270 61 4a 05 be d4 06 d3 3d 2d bf 35 3d 99 8e f5 bd
       -0.13016655 0.10304037 0.044371773 -0.11990089
000280 1a ff 0d 3e 28 37 92 bd 29 14 36 3d 1d 32 0a 3d
       0.13866845 -0.071394265 0.04445282 0.033739198
000290 20 cf 81 bd 52 78 08 bd a4 31 a5 bd 36 b9 42 bc
       -0.06338334 -0.03331787 -0.08066109 -0.011884978
0002a0 ca 3c ce 3c 95 36 f6 3d 42 ed 8e bb 22 b3 ca 3e
       0.02517547 0.120221294 -0.0043617794 0.39589792
0002b0 a1 12 3c 3b af 83 a4 3c b0 de 93 bd 86 bc cf bc
       0.0028697627 0.020082323 -0.07220209 -0.02535845
0002c0 11 58 07 bd 88 a4 e1 3d 26 85 50 bd f6 63 6a be
       -0.03304297 0.1101771 -0.05090823 -0.22889695
0002d0 7a 7e 69 3a 60 f2 36 3d bc 2d 75 be fc 1c 2a 3d
       0.0008907091 0.04466474 -0.23943228 0.041531548
0002e0 73 fc 25 3d 66 85 15 3c 28 95 cf 3d ba 0a f1 bc
       0.040523957 0.009126043 0.10135871 -0.02942406
0002f0 e2 fc ae bd 2e 9e 4b be 7a ba aa bc 05 37 61 bd
       -0.08544327 -0.1988456 -0.020840872 -0.05498411
000300 b3 17 8f bd ab 18 af 3c 1e f3 6b bd 4a df c2 bc
       -0.06986942 0.021374067 -0.0576049 -0.023788113
000310 7b 0c 3a bd 93 4b 23 bd 5b a5 37 3d d7 22 6f 3d
       -0.04542206 -0.039866995 0.04483543 0.058382835
000320 89 46 4e 3d bd 8a 91 bd bc b9 b7 bc 2b f3 2e 3e
       0.050360236 -0.0710654 -0.022427432 0.17084949
000330 b3 ba dd 3d 9b 18 a2 3d 5f d6 0f 3d 3f 55 c1 3c
       0.10826626 0.07914849 0.03511655 0.023600219
000340 c3 24 12 3e b7 6a 56 3d de df 91 3c ce 8d bb 3c
       0.14271836 0.052347865 0.017806944 0.022894766
000350 e5 32 2c bd fb 91 33 3e 09 e1 56 3d d8 cd 7a bd
       -0.042040724 0.17536156 0.052460704 -0.061231464
000360 15 ed 40 bd 9d f8 9c 3d e2 86 61 38 59 99 60 3e
       -0.0471011 0.07664607 5.37698e-05 0.21933497
000370 70 5d 15 be dc dd 6f bd c1 a3 8b bd 7d f6 e7 bd
       -0.14586425 -0.05856119 -0.06818343 -0.11326311
000380 d1 28 9a 3b 2d 9d 19 bd b2 cd 96 3e 19 8d f4 3d
       0.0047045727 -0.03750341 0.29453808 0.11940975
000390 0c 0f 3a 3c 39 63 4a 3d b1 c7 2e bd ca ae 35 3d
       0.0113561265 0.049411032 -0.04267091 0.044356145
0003a0 86 74 23 3e 3a 67 80 bd b3 c0 32 be 77 3a 00 3c
       0.15962419 -0.06269689 -0.17456321 0.007826439
0003b0 05 fb 88 3d e2 19 80 3d e5 3b b5 bd fb e6 f1 3c
       0.06688503 0.06254937 -0.088493146 0.029529085
0003c0 ce b9 87 3c 21 bc 8d bd 91 2e bd bd cd 02 c3 3c
       0.01656809 -0.06920648 -0.092373975 0.023805046
0003d0 ce fc c3 bd 41 1c ae bd 4f 08 2b 3d b7 e6 74 bd
       -0.09569703 -0.08501483 0.04175597 -0.05979034
0003e0 e1 18 89 bc 89 18 d0 bd e9 0b 7d 3c 31 2f 3e 3d
       -0.016735496 -0.1016093 0.015444734 0.046431724
0003f0 4c 20 cd bd 11 15 2f 3e 59 fb 93 3c c5 d5 16 3d
       -0.10015926 0.1709788 0.018064188 0.03682496
