data/baumgartner_C-N/baumgartner_C-N_emulator/baumgartner_cn_predictor_0.pt (torch, 46559 bytes, 3 tensors)

input_layer.weight f4 [512, 20]
0	0x3de8ed4e	0.11373387
1	0x3e2a5b7f	0.16636465
2	0xbe09bb1d	-0.13450284
3	0x3db75b7e	0.089529976
4	0x3e27511e	0.16339538
5	0xbe32b1c6	-0.17450628
6	0x3e087562	0.13326028
7	0xbd483791	-0.048881117
8	0xbd8901f4	-0.06689826
9	0xbd988717	-0.07447641
10	0xbe484b94	-0.19560081
11	0xbe28c24b	-0.16480367
12	0x3d9f3307	0.077734046
13	0xbe31cb2c	-0.1736266
14	0x3e0978d4	0.13424999
15	0x3e1fab7b	0.15592758
16	0x3d84b351	0.064795144
17	0xbdb9a7d6	-0.09065215
18	0xbe2a0d28	-0.16606581
19	0xbd40bf88	-0.04705766
20	0x3e530a1a	0.20609322
21	0xbe32df0c	-0.17467898
22	0x3d048115	0.032349665
23	0x3dba7fd4	0.091064125
24	0x3dcb473d	0.09925697
25	0xbdda0612	-0.10645689
26	0xbd3a0660	-0.045416236
27	0x3d976a13	0.07393279
28	0x3d24e2e3	0.04025544
29	0xbe111bac	-0.14170712
30	0x3e1a3f13	0.15063123
31	0x3e1739c0	0.14768124
32	0xbcc06a0d	-0.023488069
33	0x3ddf3129	0.108980484
34	0x3dbab5fa	0.091167405
35	0xbd847843	-0.064682506
36	0xbdd7d5ac	-0.105388016
37	0xbdb94316	-0.09045999
38	0x3e5a63b9	0.21327104
39	0xbe552c82	-0.2081776
40	0xbd8f7a9e	-0.07005809
41	0xbe67e74a	-0.22646824
42	0xbdb0eb94	-0.08638683
43	0x3e0fadd3	0.14031152
44	0xbe5377b5	-0.20651133
45	0xbe361110	-0.17779946
46	0xbdfb8af4	-0.122823626
47	0xbe43e0e5	-0.19128759
48	0xbe41462b	-0.18874423
49	0x3d0e29d1	0.034707848
50	0x3e4f62f0	0.20252585
51	0x3ce0ac20	0.027425826
52	0xbd8ad1e9	-0.067783184
53	0xbd9b66d0	-0.07587969
54	0x3d9a1084	0.07522681
55	0x3e5ab39d	0.2135758
56	0x3e5215b1	0.20516087
57	0x3d1aa870	0.03775829
58	0xbdf41a84	-0.1191912
59	0xbdcb1472	-0.09916009
60	0xbd41d136	-0.04731866
61	0x3df841f7	0.12121957
62	0x3d134ed1	0.035963837
63	0xbe47228e	-0.19446775
64	0x3e187ac4	0.14890581
65	0xbded755c	-0.1159465
66	0xbe599500	-0.21248245
67	0x3d631f49	0.055449758
68	0x3df65c84	0.12029365
69	0xbe5774ab	-0.21040599
70	0x3d7e16f2	0.0620336
71	0x3d363f50	0.044493973
72	0xbc9959a5	-0.018719504
73	0x3e49206d	0.19641276
74	0xbdfc68a9	-0.1232465
75	0xbe06ece1	-0.131763
76	0xbe378d28	-0.1792494
77	0xbe273921	-0.16330387
78	0xbdbacc46	-0.09120993
79	0x3e040b30	0.12894893
80	0x3e2d9431	0.16951062
81	0xbda4ad36	-0.0804085
82	0x3d11177d	0.03542279
83	0x3d818628	0.063244164
84	0xbe040fa2	-0.12896588
85	0x3d53551b	0.051594835
86	0x3e5cf560	0.21577978
87	0x3dd51724	0.10404804
88	0xbdbbb204	-0.09164813
89	0xbe46984b	-0.19394033
90	0x3e3d6898	0.1849693
91	0x3e5b89a6	0.21439227
92	0x3e500b7c	0.20316881
93	0x3cc7d72d	0.024394596
94	0x3e286613	0.16445188
95	0xbcb71822	-0.022350375
96	0xbe53e01e	-0.20690963
97	0x3dc51dc8	0.09624821
98	0xbe139e8e	-0.14415953
99	0x3c3f789f	0.011686473
100	0x3c235f7e	0.009971498
101	0x3cddd937	0.027081115
102	0x3e1231ee	0.14276859
103	0xbe25f5df	-0.16207074
104	0x3d131e9a	0.035917856
105	0x3d879fae	0.06622253
106	0x3da3ea42	0.080036655
107	0xbde26f27	-0.11056357
108	0x3ddb200e	0.10699473
109	0xbd8e3f73	-0.06945696
110	0x3e0b1524	0.13582283
111	0xbd06ded0	-0.032927334
112	0x3e18ce77	0.1492251
113	0x3da50fa4	0.08059624
114	0x3d83949a	0.06424828
115	0xbd241895	-0.040062506
116	0x3e6ba951	0.23013808
117	0xbe29cc88	-0.16581929
118	0xbe0de82b	-0.13858096
119	0x3ddb05d5	0.10694472
120	0xbdbcf25e	-0.09225915
121	0x3d9f2548	0.07770783
122	0x3e3a934b	0.1822025
123	0x3c073206	0.008251673
124	0xbe56e80b	-0.20986955
125	0xbe34a274	-0.17640096
126	0xbe4e6aa3	-0.20157866
127	0xbe142888	-0.14468586
128	0x3e4eecc5	0.20207508
129	0x3df8272b	0.12116846
130	0xbe62e0a7	-0.2215601
131	0xbe2db726	-0.16964397
132	0xbd38bf3a	-0.045104243
133	0xbe2e3a0f	-0.17014335
134	0xbd998bb4	-0.074973494
135	0xbcd9a085	-0.0265658
136	0x3e20b994	0.15695792
137	0x3df49930	0.11943281
138	0x3e47ea12	0.19522884
139	0x3d72ffe7	0.05932608
140	0x3db7ae21	0.08968759
141	0xbd9091e8	-0.070590794
142	0x3d335bd5	0.04378875
143	0xbd91bb19	-0.07115764
144	0x3dd3f02d	0.10348544
145	0x3d29449a	0.04132519
146	0x3dcca99e	0.099932894
147	0x3e3a7d72	0.18211916
148	0x3e10db7b	0.14146225
149	0x3e60654c	0.21913642
150	0x3e03e7db	0.12881415
151	0x3e1204a8	0.14259589
152	0x3e1feb24	0.15617043
153	0xbb9a8d76	-0.0047165705
154	0x3c7197bc	0.014745649
155	0xbda56eb0	-0.080777526
156	0x3e1c3907	0.15256129
157	0xbe331545	-0.17488582
158	0x3e4a91e4	0.19782215
159	0xbde0d77b	-0.109786
160	0xbceca6cb	-0.028888127
161	0xbe31e952	-0.17374161
162	0x3b3cde1d	0.0028818913
163	0xbb335907	-0.0027366297
164	0xbddb1048	-0.10696465
165	0xbe284d1b	-0.16435663
166	0xbe22a9e1	-0.15885116
167	0xbd9195f2	-0.07108678
168	0xbd6c1ff8	-0.057647675
169	0x3e374ed1	0.1790116
170	0xbdf9503e	-0.12173508
171	0xbdf6b6fc	-0.1204662
172	0x3d660d5a	0.056165077
173	0xbd5cb0d0	-0.05387956
174	0xbe41d668	-0.18929446
175	0x3e5dc8db	0.21658652
176	0xbc3b9f2f	-0.011451527
177	0x3e39318c	0.18085307
178	0xbdedf7da	-0.116195396
179	0xbcdc7775	-0.02691243
180	0x3dc648ad	0.096818306
181	0x3e2b79a1	0.16745616
182	0xbcae785d	-0.021297628
183	0xbdce9785	-0.10087494
184	0xbe095fc8	-0.13415444
185	0xb902554c	-0.00012429542
186	0x3df5a00d	0.11993418
187	0xbe2612f2	-0.16218165
188	0x3d0cbb58	0.034358352
189	0x3d612a55	0.05497201
190	0xbe454175	-0.19263251
191	0xbda044de	-0.078256354
192	0x3dc65bca	0.09685476
193	0x3e53eea3	0.20696501
194	0xbdec3cfd	-0.1153507
195	0xbe5fc544	-0.21852595
196	0xbda1da3d	-0.07902954
197	0x3dd2cbe4	0.10292795
198	0xbe1f8f6e	-0.15582058
199	0x3e1b3d58	0.1516012
200	0x3d01d97f	0.03170156
201	0xbe270214	-0.16309386
202	0x3d81119a	0.06302185
203	0x3cce269b	0.025164893
204	0xbe610c3b	-0.21977322
205	0x3d8eb863	0.06968763
206	0xbdcac423	-0.09900691
207	0xbd8acdea	-0.06777556
208	0x3e50a8ba	0.20376864
209	0xbe276ee1	-0.1635089
210	0xbe32a204	-0.17444617
211	0xbc2688a0	-0.01016441
212	0xbe0601f9	-0.1308669
213	0x3de96a4b	0.11397227
214	0xbe091858	-0.13388193
215	0x3e465cfd	0.1937141
216	0xbe43864a	-0.19094196
217	0xbe397df8	-0.1811446
218	0xbd3e5766	-0.04647007
219	0xbe2729da	-0.16324559
220	0x3e5ac0e4	0.21362644
221	0x3d23f940	0.040032625
222	0xbdd210d1	-0.10257114
223	0xbe176010	-0.14782739
224	0x3e5883b7	0.21143995
225	0xbdbb2b42	-0.0913911
226	0x3c4825bb	0.012216027
227	0x3dd49e54	0.10381761
228	0xbe115044	-0.14190775
229	0xbcfb3eca	-0.030669589
230	0xbe048a99	-0.12943496
231	0xbe31bc02	-0.17356876
232	0xbd980e44	-0.07424596
233	0xbdc4de32	-0.09612693
234	0x3d7db1eb	0.061937254
235	0x3db94c61	0.09047771
236	0xbc841964	-0.016125388
237	0x3e56f9e6	0.20993766
238	0xbe309b42	-0.17246726
239	0xbb26f026	-0.002547273
240	0x3e3096db	0.17245047
241	0x3c57de97	0.013175628
242	0x3e67ef3b	0.22649853
243	0xbdb4e37e	-0.08832453
244	0x3dc2fbe9	0.09520704
245	0xbda31b08	-0.0796414
246	0x3d49f27e	0.049303524
247	0x3cad5fc1	0.021163823
248	0xbd54e6c7	-0.0519779
249	0xbe04d690	-0.12972474
250	0xbe736924	-0.23770577
251	0xbde800c3	-0.1132827
252	0x3d5141a9	0.05108801
253	0x3e6e81fc	0.23291773
254	0x3dd3c2e2	0.10339905
255	0xbd73b4d7	-0.059498634

input_layer.bias f4 [512]
0	0x3e3189a9	0.1733767
1	0x3d05ef61	0.032698993
2	0xbc6375e5	-0.013883089
3	0x3e2653cd	0.16242905
4	0x3dcb70c8	0.09933621
5	0xbdd0bdb8	-0.10192436
6	0x3d7a8089	0.061157737
7	0x3e37b64f	0.17940639
8	0xbd251bd1	-0.04030973
9	0x3e52ede7	0.20598565
10	0x3d286cdc	0.04111944
11	0xbc3cc7b8	-0.011522226
12	0xbe4ebbb4	-0.2018879
13	0xbe4d3968	-0.2004143
14	0x3cf66c2f	0.030080883
15	0xbdb61d21	-0.08892275
16	0xbddb2da0	-0.10702062
17	0xbe2970ee	-0.16546986
18	0xbe169dec	-0.1470868
19	0x3dfc4620	0.12318063
20	0x3b2497b2	0.0025114832
21	0x3e0d4f25	0.13799722
22	0x3e61fdf7	0.22069536
23	0xbd02f77b	-0.031974297
24	0xbd70d558	-0.05879721
25	0x3d92f304	0.07175258
26	0xbdb6083a	-0.08888288
27	0xbd3135e3	-0.04326428
28	0x3d62834f	0.055301007
29	0x3e28c1db	0.164802
30	0x3dad7309	0.08469207
31	0xbe1a2c56	-0.15055975
32	0x3d0c0cd9	0.03419194
33	0x3d31df01	0.043425564
34	0xbd974deb	-0.073879085
35	0xbe2ea3df	-0.170547
36	0x3dec9e9f	0.11553692
37	0xbd88ae2f	-0.06673848
38	0x3d576939	0.052590583
39	0xbe2128a9	-0.15738167
40	0x3c90084d	0.017582083
41	0xbe29ad69	-0.16570057
42	0x3ca147de	0.01968759
43	0x3e47643a	0.19471827
44	0xbe373752	-0.17892197
45	0x3e4dfa85	0.20115097
46	0xbe2e52b7	-0.1702374
47	0xbe224c63	-0.15849452
48	0x3d63692f	0.055520233
49	0x3e1363ba	0.14393511
50	0x3d91d9fc	0.07121655
51	0xbd73769b	-0.059439283
52	0x3e46902b	0.19390933
53	0x3cbf24c7	0.023332966
54	0xbd5f2572	-0.05447907
55	0x3e285038	0.16436851
56	0xbd2a44f2	-0.041569658
57	0xbe5a360c	-0.2130968
58	0xbb9b8956	-0.0047465963
59	0xbd9e2be0	-0.07723212
60	0x3d90872a	0.070570305
61	0x3dd21685	0.102582015
62	0xbd3bcfda	-0.04585252
63	0xbc5ad94b	-0.013357471
64	0x3d46a4b3	0.048496913
65	0xbdf9a145	-0.12188963
66	0x3dff8a9a	0.12477608
67	0x3e668cf0	0.22514701
68	0xbd1b73a3	-0.037952077
69	0xbd6cdbd6	-0.05782684
70	0x3db68392	0.08911814
71	0x3e62a690	0.22133851
72	0xbd0163f0	-0.03158945
73	0x3d8549e6	0.06508236
74	0x3df11c4b	0.117729746
75	0x3e5d46d1	0.21609046
76	0xbdf78f2c	-0.12087855
77	0x3e427cce	0.18992922
78	0x3db8bbb3	0.09020176
79	0x3e34cb6e	0.17655727
80	0x3bfa1b14	0.0076326225
81	0xbe318565	-0.17336042
82	0xbd85198f	-0.064990155
83	0xbd47bc45	-0.048763532
84	0x3b1ae118	0.0023632701
85	0x3dd82d3b	0.10555502
86	0x3c85b221	0.01632029
87	0x3e4dd9df	0.20102642
88	0xbe4c6dcd	-0.1996376
89	0x3c222516	0.009896537
90	0x3e60d90f	0.21957801
91	0x3d2edcfe	0.042691223
92	0x3d2f47f7	0.04279324
93	0x3deef3a0	0.116675615
94	0xbc890db9	-0.016730176
95	0xbd781725	-0.060568947
96	0x3e16ca3f	0.14725588
97	0xbe0b5fbd	-0.1361074
98	0xbc9570b9	-0.018242227
99	0xbd6f6a27	-0.058450844
100	0xbd0c46f1	-0.034247342
101	0x3e089a5c	0.13340133
102	0x3e1b5783	0.15170102
103	0x3db8cf97	0.090239696
104	0x3e218077	0.15771662
105	0xbc47b565	-0.012189244
106	0xbe480dae	-0.19536468
107	0x3e0379af	0.12839387
108	0x3e32f169	0.17474903
109	0x3e023af2	0.12717798
110	0xbe623da0	-0.2209382
111	0xbdf4f6be	-0.11961125
112	0x3e63acce	0.22233889
113	0xbe0efc27	-0.13963376
114	0xbe4a9e2b	-0.19786899
115	0x3e327d6d	0.17430659
116	0x3d6b1a37	0.057398047
117	0xbb99a4ff	-0.0046888585
118	0x3c59c2ee	0.013291104
119	0x3e29c7b7	0.16580091
120	0x3e337ef4	0.17528898
121	0x3e3d85de	0.18508098
122	0xbd6fce56	-0.058546387
123	0xbd76be3b	-0.06024001
124	0x3c7d1ee5	0.01544926
125	0xbe543730	-0.20724177
126	0xbe1cbbe0	-0.15306044
127	0x3dbfd529	0.09366829
128	0x3d1b37de	0.037895076
129	0xbd9a91b2	-0.075473204
130	0x3daf0029	0.085449524
131	0x3c86d047	0.016456736
132	0x396d904a	0.00022655833
133	0xbe200b9e	-0.15629432
134	0x3c9ec5dd	0.019381458
135	0xbe2fbd0a	-0.17161956
136	0xbdd79823	-0.10527065
137	0xbdb2d182	-0.08731367
138	0x3e01907b	0.12652771
139	0x3d952f24	0.07284382
140	0xbe122836	-0.14273152
141	0xbd9cf731	-0.076643355
142	0x3e2f3d69	0.1711327
143	0xbca2aa21	-0.019856514
144	0x3e34d6e2	0.17660096
145	0x3c66a77f	0.01407802
146	0xbcd886e5	-0.02643151
147	0xbda8d81e	-0.08244346
148	0x3dae3d8e	0.085078344
149	0x3da513bc	0.08060405
150	0x3dcf1ff4	0.101135164
151	0xbe3e5f06	-0.18590936
152	0xbe4aee25	-0.19817407
153	0xbda0ac4a	-0.078453615
154	0x3e1e4794	0.15456992
155	0x3d271959	0.040795658
156	0xbde7caf8	-0.1131801
157	0x3cc70b94	0.024297513
158	0x3e33e22f	0.17566751
159	0x3e030268	0.12793887
160	0x3e25e035	0.1619881
161	0xbe298083	-0.1655293
162	0xbe22aca8	-0.15886176
163	0x3c0ae958	0.008478485
164	0xbdc5fdc5	-0.09667543
165	0xbabc05df	-0.0014345011
166	0xbd12f507	-0.035878208
167	0xbe32966e	-0.17440197
168	0xbe56093e	-0.20901963
169	0x3e4efc34	0.20213395
170	0xbe224a30	-0.15848613
171	0xbe03759d	-0.12837835
172	0x3e3576bb	0.17721073
173	0xbe28b168	-0.16473925
174	0xbe06cea7	-0.13164769
175	0xbe500d49	-0.20317568
176	0xbe08b3e5	-0.13349874
177	0xbd3789da	-0.0448092
178	0xbdfd1b1d	-0.12358687
179	0xbd510d01	-0.051037792
180	0x3d8af394	0.0678474
181	0xbd78696f	-0.060647424
182	0xbdab22a0	-0.083562136
183	0x3c8771f5	0.016533831
184	0x3d2bcfb4	0.041946128
185	0xbe0342ae	-0.12818405
186	0x3e45b9cf	0.19309162
187	0x3e482979	0.1954707
188	0x3e5bea37	0.21476065
189	0xbd5e7d26	-0.05431857
190	0x3e43bbbd	0.19114585
191	0xbe237200	-0.15961456
192	0x3d366cdb	0.044537406
193	0x3e31683e	0.17324921
194	0x39a5e2b0	0.00031640148
195	0xbe56c370	-0.20972991
196	0x3d0f9be0	0.035060763
197	0x3dedc309	0.11609466
198	0x3e1130e2	0.14178804
199	0xbd2d2082	-0.04226733
200	0x3d1b89f2	0.03797335
201	0xbd46ea56	-0.048563324
202	0x3d8b104f	0.0679022
203	0x3e4bbfe3	0.19897418
204	0x3e0a5ff8	0.13513172
205	0x3e10ce25	0.14141138
206	0x3d9da804	0.07698062
207	0x3d7eb8f1	0.062188093
208	0xbd6e6095	-0.058197577
209	0xbe0f61ba	-0.14002123
210	0xbdbab460	-0.09116435
211	0xbe37b095	-0.17938454
212	0x3cc5760f	0.024104146
213	0xbe270fd0	-0.16314626
214	0xbd081d5e	-0.03323113
215	0x3e40f11f	0.1884198
216	0xbdf85303	-0.12125208
217	0xbe3fd295	-0.18732674
218	0xbe30a639	-0.17250909
219	0x3e024f12	0.12725475
220	0xbd1ee1a4	-0.038789406
221	0x3e5cb861	0.2155471
222	0x3e04a9ec	0.12955445
223	0xbe596fa4	-0.21233994
224	0x3dde7557	0.108622245
225	0x3c930939	0.017948734
226	0xbd8b0980	-0.06788921
227	0x3e01aa74	0.12662679
228	0xbd1890b2	-0.037247367
229	0xbe31d7fa	-0.17367545
230	0xbc5ec76d	-0.0135973515
231	0x3d5d6c14	0.05405815
232	0xbdf1f69a	-0.11814614
233	0xbccf787a	-0.025326002
234	0xbe1a65a1	-0.15077831
235	0x3e5b824b	0.21436422
236	0x3d1a90dd	0.03773581
237	0xbe5dba5e	-0.21653125
238	0xbd8e8574	-0.06959048
239	0xbd948772	-0.07252397
240	0x3e2aee3a	0.16692439
241	0xbd82f8a4	-0.06395081
242	0x3dbb31da	0.09140368
243	0xbe7bd3fb	-0.24592583
244	0xbe21e13b	-0.15808575
245	0x3e607627	0.21920072
246	0x3de86d10	0.11348927
247	0x3cbfbb80	0.023404837
248	0xbe1ec591	-0.15505053
249	0xbd634115	-0.05548199
250	0x3e1fa11b	0.155888
251	0xbe3ab01d	-0.18231244
252	0x3e0c41ab	0.13696925
253	0xbe583a01	-0.21115877
254	0x3deb4cb6	0.11489241
255	0x3e58f584	0.21187407

output_layer.weight f4 [1, 512]
0	0x3de5f5fc	0.112285584
1	0xbd66e9c6	-0.056375287
2	0x3d724536	0.059148036
3	0xbe2a4a91	-0.16630007
4	0xbd78f68f	-0.06078201
5	0x3e0f466b	0.13991706
6	0x3c4c157e	0.012456296
7	0xbd81091a	-0.06300564
8	0x3c6e00d0	0.014526561
9	0x3e1aaa29	0.15103973
10	0xbe3c9882	-0.18417552
11	0x3de8d74c	0.113691896
12	0x3e4e9520	0.20174074
13	0xbdd4d2d0	-0.10391772
14	0x3dff31d0	0.12460673
15	0x3e386524	0.18007332
16	0xbda8c635	-0.0824093
17	0xbd88ef8d	-0.06686316
18	0x3de67e87	0.11254602
19	0xbe017d41	-0.12645437
20	0xbcd002d2	-0.02539197
21	0x3e0d89fb	0.13822167
22	0xbc033138	-0.00800734
23	0xbdb6c0b2	-0.089234725
24	0xbde95c05	-0.113945045
25	0xbc85ae23	-0.016318386
26	0xbd28e326	-0.04123225
27	0xbd941cc1	-0.07232047
28	0x3d50fe35	0.05102368
29	0x3bc3476f	0.0059594433
30	0xbd35ce41	-0.044386152
31	0x3d9250b1	0.07144297
32	0x3d9bb8c0	0.07603598
33	0x3d89c413	0.06726851
34	0xbd7c881d	-0.061653245
35	0xbd4e7370	-0.05040306
36	0x3e25512b	0.16144244
37	0xbcdb838f	-0.02679613
38	0xbe043a49	-0.12912859
39	0xbd7c9add	-0.061671127
40	0x3bfe4a09	0.0077602905
41	0xbd0f4c44	-0.034984842
42	0x3e2e9530	0.17049098
43	0x3d2dfef2	0.042479463
44	0x3d93cfa7	0.07217341
45	0xbdc1e68a	-0.094678
46	0xbe1a5a47	-0.150735
47	0x3b5a0660	0.003326796
48	0xbdb474a0	-0.08811307
49	0xbce75e8c	-0.028243326
50	0x3e08307c	0.13299745
51	0x3e67c020	0.22631884
52	0x3d39e1a9	0.045381222
53	0xbd604895	-0.05475672
54	0xbe090955	-0.13382466
55	0xbe6fb43e	-0.234086
56	0x3e21657f	0.15761374
57	0xbdb3796c	-0.08763394
58	0xbdf1ffb8	-0.118163526
59	0xbb87ddb0	-0.0041463003
60	0xbd9e0759	-0.07716245
61	0xbe446064	-0.19177395
62	0x3c026fed	0.0079612555
63	0xbe3f246b	-0.18666236
64	0x3a921cf3	0.0011147544
65	0x3e09a54a	0.13441959
66	0x3e2b817d	0.16748615
67	0xbdd246b4	-0.10267392
68	0xbc7802ce	-0.015137387
69	0x3d346471	0.0440411
70	0xbd6bf3bb	-0.057605486
71	0xbd164c77	-0.036694016
72	0xbcbc9b01	-0.02302313
73	0x3e263a59	0.16233195
74	0xbd422349	-0.04739693
75	0xb9cd653f	-0.0003917608
76	0x3dfd9563	0.12382009
77	0xbe4448b4	-0.19168359
78	0x3d9d854b	0.07691439
79	0xbd8c8bd9	-0.06862611
80	0xbd7f6ff5	-0.06236263
81	0xbd598cb1	-0.05311269
82	0x3e339885	0.1753865
83	0xbd60232e	-0.05472105
84	0xbd54feec	-0.052000925
85	0x3de20c10	0.11037457
86	0x3cc20934	0.023686029
87	0xbe1a0781	-0.15041925
88	0xbc5d84ba	-0.013520414
89	0x3d627230	0.05528468
90	0x3a0d4afe	0.0005389898
91	0x3e2148ec	0.15750474
92	0xbb6e8126	-0.0036392896
93	0xbdaab6c0	-0.08335638
94	0x3d8efd04	0.06981853
95	0x3da284f9	0.07935519
96	0xbd83c1ea	-0.064334705
97	0x3e146110	0.14490151
98	0xbddb5561	-0.10709644
99	0xbce8af5b	-0.028403929
100	0xbd32cc25	-0.04365172
101	0xbd4e19eb	-0.050317686
102	0xbdcef212	-0.10104765
103	0xbce45225	-0.0278712
104	0xbd1188d7	-0.03553089
105	0xbde681d8	-0.112552345
106	0x3de0c107	0.10974317
107	0x3e49cecb	0.19707792
108	0xbde57ac7	-0.112050585
109	0xbc67a8c9	-0.014139363
110	0x3d183563	0.03716029
111	0xbbbbc744	-0.0057305414
112	0xbd224045	-0.039612073
113	0x3e14ad49	0.14519228
114	0xbcfa6212	-0.030564342
115	0xbde6b2e9	-0.11264593
116	0xbd774d09	-0.0603762
117	0x3c2ecdc7	0.010669178
118	0x3de67c1c	0.11254141
119	0xbbcd5f43	-0.0062674596
120	0x3b9ee7a6	0.004849392
121	0x3d580d4b	0.052747052
122	0xbe25062b	-0.16115634
123	0xbcb9d462	-0.02268428
124	0xb977c11a	-0.00023627692
125	0x3e417766	0.18893203
126	0xbcd31a2e	-0.02576932
127	0xbca8c8ee	-0.020603623
128	0xbe2afee6	-0.16698799
129	0x3e62f7a2	0.22164777
130	0xbd9499b8	-0.07255882
131	0x3cbb9c44	0.022901662
132	0xbe53f6d8	-0.20699632
133	0x3c8118b0	0.015758842
134	0x3dd2d043	0.10293629
135	0xbd3cdf10	-0.046111166
136	0x3dad9792	0.08476175
137	0x3e0fa3fa	0.14027396
138	0xbd102556	-0.035191856
139	0xbd66f25b	-0.056383472
140	0x3d135e13	0.035978388
141	0xbdb2997f	-0.08720683
142	0x3c95f97b	0.018307438
143	0x3d875667	0.06608277
144	0x3de0abe2	0.10970284
145	0x3e063018	0.13104284
146	0x3a93386e	0.0011232027
147	0x3d0e52ce	0.034746937
148	0xbc457d4a	-0.012053797
149	0x3c44c10e	0.012008918
150	0x3ce40e59	0.027838873
151	0xbd31d30f	-0.04341417
152	0xbca64cdb	-0.02030032
153	0x3d38f282	0.04515315
154	0xbc2405ac	-0.010011118
155	0xbe16556d	-0.14681025
156	0x3d4fbcf1	0.050717298
157	0xbce8ccb4	-0.028417923
158	0xbd44ebad	-0.04807632
159	0xbdd6a39e	-0.10480426
160	0xbd81e97b	-0.06343361
161	0x3da34ad5	0.079732575
162	0xbb9b0ffa	-0.004732129
163	0xbd48f87f	-0.04906511
164	0xbd8bc88b	-0.0682536
165	0x3d480706	0.048834823
166	0xbd97c9d4	-0.074115425
167	0x3c74067b	0.014894123
168	0xbc91e571	-0.017809602
169	0x3e0aa627	0.13539945
170	0xbe0da13e	-0.1383104
171	0x3ec21bf7	0.3791196
172	0x3d4c13e8	0.04982367
173	0xbe07be56	-0.13256201
174	0x3b407d4a	0.0029371553
175	0xbdfc2963	-0.123125814
176	0x3ceffddd	0.029295856
177	0x3e00ee88	0.12590992
178	0xbd798c52	-0.060924836
179	0x3e238e58	0.15972269
180	0xbda33430	-0.07968938
181	0xbd2a7498	-0.0416151
182	0x3e3121b6	0.17298016
183	0xbbce7f0f	-0.0063017677
184	0x3db78fe0	0.08962989
185	0xbe0cb3f6	-0.13740525
186	0x3cebc5f4	0.028780915
187	0xbddf632e	-0.10907589
188	0x3c63452e	0.013871474
189	0xbdea55bf	-0.11442136
190	0xbca9fb6e	-0.020749774
191	0x3c246be7	0.010035492
192	0x3e038154	0.12842304
193	0x3e1d6d5c	0.15373749
194	0xbc87594c	-0.016522072
195	0xbd8501c9	-0.06494481
196	0x3e19b4d9	0.15010394
197	0x3c3b8999	0.01144638
198	0x3db05926	0.08610754
199	0xbb8ca390	-0.004291959
200	0xbd8d9a9a	-0.069142535
201	0x3e150d0f	0.14555763
202	0x3d347804	0.04405977
203	0xbcc1a709	-0.023639219
204	0x3be04e28	0.0068452545
205	0x3e5b8981	0.21439172
206	0xbcf43e6b	-0.02981492
207	0xbd2a2d22	-0.04154695
208	0xbd49f43f	-0.049305197
209	0x3dc9d319	0.09854717
210	0xbe189b1a	-0.14902917
211	0x3bab877f	0.0052346583
212	0xbe0ed142	-0.13947013
213	0x3c96cb2f	0.018407432
214	0x3dea27a0	0.11433339
215	0xbd61f2c4	-0.05516316
216	0xbd73d1d6	-0.059526287
217	0xbc972f7a	-0.018455256
218	0xbd839258	-0.06424397
219	0x3e479029	0.19488586
220	0xbd9b228a	-0.07574947
221	0x3d196049	0.03744534
222	0xbdad7ccc	-0.08471069
223	0xbca502e4	-0.02014298
224	0xbe3e4522	-0.1858106
225	0x3d8ab98b	0.06773671
226	0xbe2339b6	-0.15939984
227	0xbe289db0	-0.16466403
228	0xbe25aec9	-0.16179956
229	0xbd6263fa	-0.055271126
230	0xbd8f3a1d	-0.06993506
231	0x3dd9aa5a	0.10628195
232	0xbcb89d7d	-0.022536034
233	0xbdf6aa55	-0.12044207
234	0xbe010559	-0.12599696
235	0xbdf96659	-0.121777244
236	0xbe444163	-0.19165568
237	0x3d2af899	0.041740987
238	0xbc27f525	-0.010251318
239	0x3dffa27e	0.12482165
240	0xbe3881e0	-0.18018293
241	0xbbf68672	-0.0075233513
242	0xbe29e224	-0.16590172
243	0x3e0269ef	0.12735723
244	0xbc6eb578	-0.014569633
245	0xbd9cd1d2	-0.076572075
246	0x3d83f693	0.06443515
247	0xbe0e8eee	-0.13921711
248	0xbd95d518	-0.07316035
249	0xbdfb3715	-0.122663654
250	0x3e3c2094	0.18371803
251	0x3d31ed55	0.043439228
252	0xbe4b8bd0	-0.19877553
253	0x3b99b7a2	0.00469108
254	0x3d988c6d	0.07448659
255	0xbd15613e	-0.03646969
