data/baumgartner_C-N/baumgartner_C-N_emulator/baumgartner_cn_predictor_2.pt (torch, 46559 bytes, 3 tensors)

input_layer.weight f4 [512, 20]
0	0x3e2861bd	0.16443534
1	0x3deb9c86	0.11504464
2	0xbda8a3a2	-0.082343355
3	0x3d27afb2	0.04093904
4	0xbdb35afd	-0.08757589
5	0xbe33ef30	-0.17571712
6	0xbdd4e3e2	-0.10395028
7	0xbde84c65	-0.11342696
8	0xbe4b9913	-0.19882612
9	0xbe1c1505	-0.15242393
10	0x3e47ca6f	0.19510816
11	0xbe0ce58a	-0.13759437
12	0xbe2bcf99	-0.16778411
13	0xbd53758b	-0.05162577
14	0x3cd5de82	0.026107077
15	0xbdb4f622	-0.088360086
16	0xbe1f8b5d	-0.15580507
17	0x3d420678	0.04736945
18	0xbe3043d7	-0.17213379
19	0xbe574900	-0.21023941
20	0x3db6e23f	0.08929872
21	0xbe12e52f	-0.14345239
22	0xbc925f98	-0.017867848
23	0xbd7d28c7	-0.061806466
24	0xbd9ede9d	-0.07757304
25	0xbe48660b	-0.19570176
26	0x3e35508b	0.17706506
27	0x3da588bd	0.080827214
28	0xbe614046	-0.21997175
29	0xbe3cc59f	-0.18434761
30	0xbe0ff12a	-0.1405684
31	0x3d1c1f28	0.03811565
32	0x3e071423	0.13191275
33	0xbac28fd4	-0.001484389
34	0xbe0215c7	-0.1270362
35	0x3d5732e5	0.05253877
36	0x3e5455d3	0.20735864
37	0xbdea3194	-0.114352375
38	0x3e4e3b49	0.20139803
39	0xbcdbd090	-0.026832849
40	0x3d02a6a5	0.031897206
41	0x3c9889e0	0.018620431
42	0xbddd7960	-0.10814166
43	0xbd62273a	-0.05521319
44	0x3e154e49	0.14580645
45	0xbd17427b	-0.036928635
46	0x3d109e38	0.03530714
47	0xbe074389	-0.13209356
48	0xbe720db0	-0.23638034
49	0xbe2e9bdc	-0.17051643
50	0x3e676cae	0.22600052
51	0x3e19deae	0.15026352
52	0x3c66246e	0.014046771
53	0xbe484db9	-0.19560899
54	0x3d8b4953	0.06801095
55	0xbca68021	-0.020324768
56	0x3db9bb5e	0.090689406
57	0x3e354e46	0.1770564
58	0xbc0193d0	-0.007908776
59	0x3cf513a1	0.029916586
60	0xbda81883	-0.082078
61	0x3d87394e	0.06602727
62	0x3b91d7ad	0.0044507594
63	0xbe0240da	-0.12720051
64	0x3e4677a9	0.19381584
65	0x3e5dd05b	0.21661513
66	0x3d794a9c	0.06086217
67	0x3e30d99b	0.1727051
68	0xbddd1799	-0.107955165
69	0xbe804775	-0.25054517
70	0xbddefc26	-0.10887937
71	0x3e1717a2	0.14755109
72	0xbe3f455e	-0.18678805
73	0xbd49f4c3	-0.04930569
74	0xbd425851	-0.047447506
75	0x3dfe710d	0.124239065
76	0x3db134f7	0.0865268
77	0xbe3b061c	-0.1826405
78	0x3d91f584	0.071269065
79	0x3e1401d0	0.14453816
80	0xbc671f61	-0.014106602
81	0xbe577045	-0.21038921
82	0xbdb20331	-0.08692015
83	0x3df72726	0.12068014
84	0xbe27c4a0	-0.163836
85	0x3e3d93a7	0.18513356
86	0x3e50c8ca	0.20389095
87	0x3e27a04b	0.1636974
88	0xbd9c9dbe	-0.076472744
89	0x3cffc707	0.031222833
90	0x3d8596ab	0.06522878
91	0xbe498237	-0.1967858
92	0xbdc6940c	-0.096962065
93	0x3d9afa92	0.07567324
94	0xbe32161c	-0.17391247
95	0x3d36f6f4	0.044669107
96	0xbdee49b0	-0.116351485
97	0xbe3b925d	-0.18317552
98	0x3e63eb6a	0.22257772
99	0x3dcdfce4	0.10058001
100	0xbd84d4d6	-0.06485908
101	0xbe1b10c3	-0.15143113
102	0xbe233351	-0.15937544
103	0x3e250093	0.161135
104	0xbdd57c32	-0.10424079
105	0xbc8513b2	-0.016244743
106	0x3e0079dd	0.12546487
107	0x3d839c69	0.06426317
108	0x3e594d3b	0.21220867
109	0xbcf04dcf	-0.029333977
110	0x3e782f11	0.24236704
111	0xbe0552c8	-0.1301986
112	0x3d993398	0.07480544
113	0xbe3b29c1	-0.18277647
114	0x3e18ad2e	0.14909813
115	0xbe050932	-0.12991789
116	0xbdbeacdd	-0.09310315
117	0x3e566938	0.20938575
118	0x3e058d8a	0.13042274
119	0x3e217d69	0.15770496
120	0x3e3a3da0	0.1818757
121	0x3bbe97f6	0.005816455
122	0xbdc27b79	-0.09496207
123	0xbdf67b85	-0.12035278
124	0x3d9b2681	0.075757034
125	0xbd9d3c0d	-0.076774694
126	0x3ddd0d3b	0.10793539
127	0xbe58a532	-0.21156767
128	0x3dd5c988	0.1043883
129	0x3e00295d	0.12515779
130	0x3de3c237	0.11121028
131	0x3d862808	0.06550604
132	0xbe52ce2f	-0.20586465
133	0x3e011846	0.12606916
134	0x3e1abfc8	0.15112221
135	0xbde89ba7	-0.11357813
136	0x3e3a1969	0.18173756
137	0x3e63e2ce	0.22254488
138	0x3dad61c9	0.08465917
139	0xbe5aad63	-0.21355204
140	0xbe08a817	-0.13345371
141	0x3c511f0e	0.012763752
142	0x3e05f368	0.13081133
143	0xbe4c6166	-0.1995903
144	0xbe2c9d7f	-0.16856955
145	0x3e05faf6	0.13084015
146	0xbe2524de	-0.16127345
147	0xbcfcbe65	-0.030852506
148	0xbe505161	-0.20343544
149	0xbdd1632a	-0.10223992
150	0x3d98d398	0.07462233
151	0x3dcf5118	0.10122889
152	0xbe1954e8	-0.14973795
153	0xbbceeb31	-0.006314658
154	0xbe42aae1	-0.19010498
155	0xbd2ebf49	-0.042662892
156	0xbd714636	-0.05890485
157	0xbe637da3	-0.22215895
158	0xb8e96d92	-0.00011130715
159	0x3e472e29	0.19451202
160	0xbe0de5db	-0.13857214
161	0x3e5ebc20	0.21751451
162	0x3e29d0d8	0.16583574
163	0x3dae6de5	0.085170545
164	0xbdc840c1	-0.09777976
165	0x3e13ca0e	0.14432546
166	0xbc8b0146	-0.01696838
167	0xbe3df954	-0.18552142
168	0x3e4ef201	0.20209505
169	0x3ce47cf7	0.02789162
170	0x3b916c0e	0.00443793
171	0x3c63d6b0	0.013906166
172	0x3e2472ad	0.1605937
173	0x3e57085b	0.20999281
174	0x3d73e8d6	0.05954822
175	0xbd9737bf	-0.073836796
176	0xbcd18fb8	-0.025581226
177	0x3deb7108	0.114961684
178	0x3e10c1aa	0.14136377
179	0xbe4ed16c	-0.20197076
180	0xbd3db084	-0.046310917
181	0x3e23e94c	0.16006964
182	0xbcaf1a7e	-0.021374937
183	0x3db7fbd7	0.089835815
184	0x3e2332c8	0.1593734
185	0x3d5dbf62	0.054137595
186	0xbe590d77	-0.21196543
187	0x3e2f42e6	0.17115363
188	0xbd5197bc	-0.051170096
189	0x3c953b7d	0.018216843
190	0x3d7f06d3	0.062262367
191	0x3dd19790	0.102339864
192	0xbdb72c1e	-0.089439616
193	0x3e0ea247	0.13929091
194	0x3dda6bd9	0.106651016
195	0x3d776f79	0.060409043
196	0xbda1ced7	-0.0790078
197	0x3d3df098	0.046372026
198	0xbb8404ad	-0.0040288777
199	0x3e3f7662	0.18697503
200	0xbe63131a	-0.22175255
201	0x3df0741e	0.117408976
202	0xbb23c5f0	-0.0024989806
203	0xbe44049e	-0.19142386
204	0x3d21d57f	0.039510246
205	0x3ddb13bc	0.106971234
206	0xbde0c2c9	-0.10974652
207	0xbda44279	-0.08020491
208	0xbe5f7cec	-0.21824998
209	0xbda6eef6	-0.08151047
210	0xbe2bc83e	-0.16775605
211	0xbe3877b9	-0.1801442
212	0xbe61c88e	-0.22049162
213	0x3e32e877	0.17471491
214	0x3e1456e5	0.14486273
215	0x3e3ceff5	0.18450911
216	0x3d7daa58	0.06193003
217	0x3d16d3e8	0.036823183
218	0x3dc00dac	0.09377608
219	0x3daf1cce	0.08550416
220	0xbd7d5136	-0.061845027
221	0xbdc65ce2	-0.09685685
222	0x3d029e7b	0.03188942
223	0x3e2d216f	0.16907285
224	0x3cc70130	0.024292558
225	0xbe01cb7d	-0.12675281
226	0x3df28b43	0.11842968
227	0xbe3d92b1	-0.1851299
228	0x3d0fa83e	0.035072558
229	0x3e37c633	0.17946701
230	0x3da21fbf	0.07916211
231	0x3ca21628	0.019785956
232	0xbd053b08	-0.032527
233	0x3d9c741a	0.07639332
234	0xbe190953	-0.14944963
235	0xbd93a724	-0.07209614
236	0x3d82f9c7	0.063952975
237	0xbd0b239c	-0.033969507
238	0xbe6cc27d	-0.23121066
239	0x3e587777	0.21139322
240	0x3e25a302	0.16175464
241	0xbe1373d2	-0.1439965
242	0x3e53e1a8	0.2069155
243	0x3cffd51c	0.031229548
244	0x3e0fdfd7	0.14050232
245	0xbcaf02c0	-0.021363616
246	0x3dc057ae	0.093917236
247	0x3ce7e770	0.0283086
248	0x3e10769a	0.14107743
249	0xbca9b7f6	-0.020717602
250	0x3d29162c	0.04128091
251	0xbe2d6ccb	-0.16936032
252	0x3e5a1eec	0.21300858
253	0x3dc9d6a3	0.09855392
254	0x3de170c9	0.1100784
255	0x3d72cd27	0.05927768

input_layer.bias f4 [512]
0	0x3e2f4f38	0.17120063
1	0xbd81f4d6	-0.06345527
2	0x3e540887	0.20706378
3	0x3e0e4929	0.13895096
4	0x3d0df5f7	0.0346584
5	0xbd337d9a	-0.043820955
6	0x3e1215d7	0.14266144
7	0x3e1ca93f	0.15298937
8	0xbe12c5d9	-0.14333285
9	0x3dcfeff4	0.10153189
10	0xbdf3de2f	-0.119076125
11	0x3e19d483	0.15022473
12	0x3d50bfe6	0.05096426
13	0xbe4a752c	-0.1977126
14	0x3e195e60	0.14977407
15	0x3dd640d2	0.10461582
16	0x3dba4daf	0.09096848
17	0x3d8c4a57	0.06850117
18	0xbd920aae	-0.07130943
19	0xbd9ec0ab	-0.07751592
20	0xbe29bc40	-0.16575718
21	0xbda52272	-0.080632105
22	0xb9de44ce	-0.00042394403
23	0x3db54a92	0.08852114
24	0x3dd9b7c1	0.106307514
25	0x3d69575c	0.056968078
26	0x3d9a0025	0.07519559
27	0xbe2a14ba	-0.16609469
28	0xbda48ee1	-0.080350645
29	0x3e11a857	0.14224373
30	0x3dde0ca6	0.10842256
31	0xbdf4ea2d	-0.11958728
32	0xbdc04405	-0.09387974
33	0xbd372201	-0.044710163
34	0xbd555575	-0.05208345
35	0x3dffde01	0.12493516
36	0x3df5242d	0.119697906
37	0x3e0d0eef	0.13775228
38	0x3db966ed	0.09052835
39	0x3e10a335	0.14124759
40	0x3d9fa844	0.07795766
41	0x3c910b82	0.017705683
42	0x3c9f53bc	0.019449107
43	0xbd5463f6	-0.051853143
44	0xbc14e8ed	-0.009088737
45	0x3dfe9f6e	0.124327525
46	0x3da4e022	0.080505624
47	0x3dfab296	0.12241094
48	0xbde1ccf1	-0.110254176
49	0x3e325be0	0.1741786
50	0xbdcaa16f	-0.09894072
51	0xbda7548a	-0.081704214
52	0xbe4c8238	-0.1997155
53	0x3d39030d	0.045168925
54	0xbbf0819d	-0.00733967
55	0xbe3ea7f5	-0.18618758
56	0x3e53e8aa	0.20694223
57	0xbe11d59e	-0.14241645
58	0xbe19c02e	-0.15014717
59	0xbe2ddb36	-0.16978154
60	0x3e5bc09b	0.21460192
61	0xbe35ab49	-0.17741121
62	0x3e08f207	0.13373576
63	0x3e57aa4a	0.21061054
64	0x3da0c876	0.07850735
65	0x3dad5e99	0.08465309
66	0x3e53dee5	0.20690496
67	0xbe4c9ceb	-0.19981734
68	0xbe317882	-0.17331126
69	0x3e3b6ea5	0.18303926
70	0xbdb7a427	-0.089668564
71	0x3e2a363e	0.16622254
72	0xbd738e6d	-0.059462
73	0xbdbb405a	-0.091431335
74	0xbe180424	-0.1484533
75	0x3e63cbbf	0.22245692
76	0x3e0a01bc	0.13477224
77	0xbe1691a5	-0.14703996
78	0x3d9130d5	0.07089392
79	0x3e3edba6	0.18638477
80	0xbdb25895	-0.08708302
81	0xbd4561dd	-0.048189033
82	0xbe1a303d	-0.15057464
83	0x3e599835	0.21249469
84	0xbe62d2e3	-0.2215076
85	0xbc3ed251	-0.011646823
86	0x3e304c65	0.17216642
87	0x3d32e9c1	0.043679956
88	0x3d992e1a	0.07479496
89	0xbdca6000	-0.09881592
90	0xbdf5c936	-0.120012686
91	0xbdc9153a	-0.09818502
92	0xbcb06634	-0.02153311
93	0x3e314ddb	0.17314856
94	0x3d283523	0.0410663
95	0x3e372a7e	0.17887303
96	0x3e2154f2	0.1575506
97	0x3d8e247a	0.06940551
98	0x3d5fe18c	0.054658458
99	0xbb8e4c81	-0.004342616
100	0x3d8c356b	0.06846126
101	0x3dfbe8ea	0.12300284
102	0x3d1b21a0	0.037873864
103	0xbe04880d	-0.12942524
104	0x3e695b4f	0.22788738
105	0x3d7b5201	0.061357502
106	0x3d82a4a7	0.06379061
107	0xbe18ec54	-0.14933902
108	0xbd3aa26f	-0.045565065
109	0xbd17d741	-0.037070516
110	0xbe1ba93d	-0.15201278
111	0x3e21cdf9	0.15801229
112	0xbe526837	-0.20547567
113	0x3b0b25f5	0.002123234
114	0xbe068751	-0.13137557
115	0x3c04bde2	0.008101912
116	0xbce14dc8	-0.02750291
117	0x3e794862	0.24344018
118	0xbd8cc7d0	-0.06874049
119	0xbdfda795	-0.12385479
120	0x3d9aba49	0.07555062
121	0xbe293fc0	-0.16528225
122	0xbda8d9f2	-0.08244695
123	0x3cc8076f	0.024417607
124	0x3e0206a5	0.12697847
125	0x3de5e2a0	0.11224866
126	0x3dbbc3f8	0.091682374
127	0xbb4bee14	-0.0031117247
128	0x3e265b03	0.16245656
129	0x3d7bc652	0.06146843
130	0x3e52811c	0.20557064
131	0xbd86a5ee	-0.06574617
132	0xbd9576d1	-0.07298053
133	0x3d95fc9b	0.07323571
134	0xbc39f5b7	-0.011350087
135	0x3e2c7938	0.16843116
136	0x3d8a0e7f	0.06741046
137	0xbd6f033b	-0.05835269
138	0x3da20c92	0.07912554
139	0x3b6d1ec5	0.003618167
140	0xbdbc0b13	-0.091818
141	0xbe32050c	-0.17384738
142	0x3e55374f	0.2082188
143	0xbe214efb	-0.15752785
144	0x3d7daf0a	0.06193451
145	0x39198872	0.00014642047
146	0xbd0369e5	-0.03208341
147	0xbe200204	-0.15625769
148	0xbe245d63	-0.16051249
149	0xbd340885	-0.043953437
150	0xbdb56c74	-0.088585764
151	0xbd562589	-0.05228189
152	0x3ce911a5	0.028450796
153	0xbe08cfd3	-0.13360529
154	0xbd81bb4e	-0.06334554
155	0xbdba3e43	-0.09093907
156	0xbd3260c1	-0.043549303
157	0xbe41731c	-0.18891567
158	0x3d17a8de	0.03702628
159	0xbe515419	-0.20442237
160	0x3e4c8e4f	0.19976161
161	0x3dca092b	0.0986503
162	0xbe1b1aa1	-0.15146877
163	0x3e2cb9e5	0.16867788
164	0xbd1c4794	-0.0381542
165	0x3dc36643	0.09540989
166	0x3e044d4c	0.12920111
167	0x3e3a8c3c	0.18217558
168	0xbd235451	-0.039875332
169	0xbcf873d5	-0.03032867
170	0x3e59612d	0.21228476
171	0xbdaec5c5	-0.08533815
172	0x3c77fa68	0.015135385
173	0x3e49a6e3	0.19692568
174	0xbe531afe	-0.20615765
175	0xbe165440	-0.14680576
176	0xbdfc14fc	-0.1230869
177	0x3d62a307	0.055331256
178	0x3dcd9fa9	0.100402184
179	0x3e42f318	0.19038045
180	0x3db7f425	0.08982114
181	0xbe5d0572	-0.21584108
182	0xbe64b8f7	-0.22336183
183	0xbd7462c9	-0.05966452
184	0x3dc7a7f3	0.09748831
185	0x3d937ddb	0.072017394
186	0x3c904922	0.017612997
187	0xbdf35c9f	-0.118829004
188	0x3dc2e4f3	0.09516325
189	0xbd687d8c	-0.056760356
190	0xbdeaa54a	-0.11457308
191	0xbe404051	-0.18774535
192	0x3e1bc7b1	0.15212895
193	0xbd86822d	-0.06567798
194	0x3dea4b80	0.11440182
195	0xbc3e8ff2	-0.011630999
196	0x3dc818b8	0.0977034
197	0xbe3393bd	-0.17536826
198	0xbe0fb96e	-0.1403558
199	0x3e44e5ce	0.19228289
200	0xbc8cf9d8	-0.017208979
201	0xbd50e807	-0.05100253
202	0xbdf011a3	-0.11722114
203	0xbde23521	-0.1104529
204	0xbe5b506f	-0.21417402
205	0x3e392fce	0.18084642
206	0xbe0a7721	-0.13522007
207	0x3c996fbe	0.01873004
208	0x3e0729b4	0.13199502
209	0x3e02b26d	0.12763377
210	0xbdd3075e	-0.103041396
211	0xbc4aa0a7	-0.012367404
212	0xbdb4b224	-0.0882304
213	0xbe48eb1e	-0.1962094
214	0xbd637560	-0.05553186
215	0xbdb18d1b	-0.08669492
216	0x3c50f152	0.012752848
217	0xbe2c27d0	-0.16812062
218	0x3e0274b9	0.12739839
219	0xbdc57abd	-0.09642551
220	0xbcda960d	-0.026682878
221	0xbe5587fb	-0.20852654
222	0xbca78dd7	-0.020453377
223	0xbe39f9ae	-0.18161651
224	0x3ce9613e	0.028488752
225	0x3d8f110d	0.06985674
226	0x3e1522fb	0.14564125
227	0x3d7e2804	0.06204988
228	0x3c65f209	0.014034756
229	0xbd3adb4a	-0.045619287
230	0xbe39b6a9	-0.18136086
231	0xbdd3bc25	-0.1033862
232	0xbdc7db1b	-0.09758588
233	0xbe0f177f	-0.13973807
234	0x3df538b9	0.119737096
235	0x3e215514	0.15755111
236	0x3d456bd4	0.048198536
237	0xbdff6a2e	-0.12471424
238	0x3e382311	0.17982127
239	0x3d967655	0.07346789
240	0xbe4237b0	-0.18966556
241	0x3db5648b	0.08857068
242	0xbcef1e25	-0.029189179
243	0xbcd6e288	-0.026231065
244	0xbcdbe3b2	-0.026841972
245	0x3e28375c	0.16427368
246	0x3e4bb332	0.19892576
247	0xbd224293	-0.03961427
248	0xbc4ff6c5	-0.012693112
249	0xbe213be7	-0.15745507
250	0x3db172ff	0.08664512
251	0x3dab6f84	0.08370879
252	0xbe2b2ed0	-0.16717076
253	0x3e3fd3eb	0.18733184
254	0x3c4e1dd0	0.01258035
255	0xbd81843d	-0.063240506

output_layer.weight f4 [1, 512]
0	0x3c7bb131	0.01536207
1	0x3c479638	0.012181811
2	0xbe0e70d5	-0.1391023
3	0x3e21263f	0.15737246
4	0xbd5a9fe4	-0.05337514
5	0xbe50f9ac	-0.20407742
6	0x3c4eb2d7	0.012615881
7	0xbdf909e4	-0.121600896
8	0x3d16eb5e	0.036845557
9	0xbe213534	-0.15742952
10	0x3d91806c	0.07104573
11	0x3da31c13	0.07964339
12	0xbd5653e9	-0.052326117
13	0x3d0fff07	0.035155322
14	0x3d72dd07	0.05929282
15	0x3d89f318	0.067358196
16	0xbd47027e	-0.04858636
17	0xbd517c6e	-0.051144056
18	0xbddceec7	-0.10787731
19	0xbccff072	-0.025383208
20	0xbd3650a9	-0.044510517
21	0x3d674828	0.056465298
22	0xbc655c91	-0.01399912
23	0xbb917790	-0.004439302
24	0xbd5b3b50	-0.05352336
25	0xbcded532	-0.027201269
26	0xbcab3dc7	-0.020903481
27	0x3e04e3a4	0.12977463
28	0xbd868612	-0.06568541
29	0xbe016040	-0.12634373
30	0x3d3c95d8	0.04604134
31	0x3bb3e039	0.005489376
32	0xbc8a6e3a	-0.016898263
33	0x3e016f14	0.12640029
34	0x3d815e44	0.06316808
35	0x3e48b18f	0.19598983
36	0xbd818cd8	-0.06325692
37	0xbd461754	-0.04836209
38	0xbda9ab3d	-0.08284614
39	0xbd308733	-0.043097686
40	0xbcf6a3ef	-0.030107467
41	0xbdc8d94d	-0.09807072
42	0x3d62225d	0.055208553
43	0x3c8be5b3	0.017077303
44	0x3d685fc8	0.05673197
45	0x3dc1bdd4	0.09460035
46	0xbe05428e	-0.1301367
47	0xbd6ea852	-0.05826599
48	0xbd7309dd	-0.05933558
49	0x3d6ce2ea	0.05783359
50	0xbe05b7f0	-0.13058448
51	0xbdc90e45	-0.09817175
52	0xbe13f4d9	-0.1444887
53	0x3db8950a	0.09012802
54	0x3e0d04b5	0.13771327
55	0x3e1077d9	0.14108218
56	0x3da26528	0.0792945
57	0xbd8763c6	-0.06610827
58	0xbd838731	-0.0642227
59	0x3c7c8a1d	0.015413788
60	0x3d0ffe50	0.03515464
61	0xbcc4627f	-0.023972748
62	0x3d3a1d95	0.045438368
63	0xbd9f2ee7	-0.07772618
64	0xbd7a8045	-0.061157484
65	0x3d19a194	0.03750761
66	0x3be2e27c	0.0069239717
67	0xbdb09c85	-0.08623604
68	0xbcf6f847	-0.030147685
69	0x3d30356d	0.0430197
70	0x3d9fe2eb	0.07806953
71	0x3e0dda87	0.13852893
72	0xbde94b3c	-0.11391303
73	0xbb2c30b7	-0.0026274153
74	0xbd91c849	-0.071182795
75	0x3ccc674b	0.024951598
76	0xbcac69a1	-0.021046462
77	0x3db10151	0.08642829
78	0xbe145a46	-0.14487562
79	0x3e359c64	0.1773544
80	0xbce7652b	-0.028246483
81	0x3da46e73	0.08028879
82	0x3e2f77e0	0.17135572
83	0xbd8015ae	-0.06254135
84	0x3c2ac8f6	0.010423889
85	0x3cc103ea	0.023561437
86	0x3dcee01c	0.10101339
87	0xbdc9d1cb	-0.09854468
88	0xbd7de8ec	-0.06198971
89	0x3e703add	0.23459955
90	0xbd2bb08c	-0.041916415
91	0xbe057c80	-0.13035774
92	0xbe722a14	-0.23648864
93	0xbd14c0ae	-0.036316566
94	0x3e0f31d6	0.13983855
95	0x3d5ff55e	0.05467736
96	0xbbf31ee7	-0.0074194553
97	0xbbbc10c8	-0.005739305
98	0x3e1a8877	0.1509112
99	0xbcbca1d0	-0.023026377
100	0xbdba81f3	-0.09106817
101	0x3e333567	0.1750084
102	0x3d071280	0.032976627
103	0xbc7e77ff	-0.015531539
104	0xbd299c72	-0.041408964
105	0x3d463393	0.04838903
106	0x3c9b9e65	0.018996427
107	0xbd2ec3c4	-0.042667165
108	0xbe53aff2	-0.20672587
109	0xbd2b77d7	-0.041862335
110	0xbd337f33	-0.04382248
111	0xbd5cb940	-0.053887606
112	0xbd0e159b	-0.034688573
113	0xbd654443	-0.055973303
114	0xbd5bf53b	-0.053700667
115	0xbc869110	-0.016426593
116	0xbe378d31	-0.17924954
117	0xbd2f45c6	-0.04279115
118	0xbdf36496	-0.118844196
119	0x3c98f622	0.018672053
120	0x3d575091	0.05256707
121	0xbd5ec53f	-0.054387327
122	0xbd41ab74	-0.04728265
123	0x3e99928d	0.29994622
124	0xbdc6b70f	-0.097028844
125	0xbe5cc3b7	-0.21559034
126	0x3d234dc6	0.039869092
127	0x3d51e095	0.05123957
128	0xbcb4fdff	-0.022093771
129	0xbd9e6cf6	-0.077356264
130	0xbd6b01c7	-0.057374742
131	0xbd047ca7	-0.03234544
132	0x3ddcec78	0.1078729
133	0xbdd09af8	-0.10185808
134	0xbda50c3c	-0.08058974
135	0xbd8c09a6	-0.06837778
136	0xbd34607c	-0.044037327
137	0x3db72c9d	0.08944056
138	0x3e2293e0	0.15876722
139	0x3e1946ac	0.14968365
140	0xbd67e3f2	-0.05661387
141	0x3becdc2e	0.007228396
142	0xbc59ba6a	-0.0132890735
143	0xbd5ae943	-0.053445112
144	0xbe40e45d	-0.18837114
145	0xbb7c08df	-0.0038457436
146	0xbcad7b8d	-0.021177078
147	0xbdb897fb	-0.09013363
148	0x3cda07e2	0.026615087
149	0x3e617727	0.2201811
150	0x3d11afc3	0.03556801
151	0x3d5bfed0	0.053709805
152	0xbe019f58	-0.12658441
153	0xbcaeda6b	-0.021344384
154	0x3cf87126	0.03032739
155	0x3c4c1225	0.012455498
156	0x3bca7fae	0.0061797714
157	0x3b2d629a	0.0026456476
158	0x3d3e6fb0	0.046493232
159	0xbdf7f746	-0.121077105
160	0xbd8f5fcf	-0.07000696
161	0x3e28adf7	0.16472612
162	0x3ceadff6	0.028671246
163	0x3e386fea	0.18011442
164	0xbd33f711	-0.043936793
165	0x3db6bbe8	0.08922559
166	0x3d824832	0.063614264
167	0xbd3a4237	-0.045473304
168	0x3e26b61c	0.16280407
169	0xbd92a005	-0.071594276
170	0xbd2a9184	-0.04164268
171	0x3e30c30d	0.17261906
172	0x3b173dee	0.0023077684
173	0xbdf39baf	-0.11894929
174	0xbd44a945	-0.04801299
175	0xbd41d434	-0.047321513
176	0x3d6d82cd	0.05798607
177	0x3c9c199e	0.019055184
178	0x3dc3c40e	0.09558879
179	0x3dbb4413	0.091438435
180	0x3d932ab5	0.0718588
181	0xbca83a1a	-0.020535517
182	0x3dc796d2	0.097455636
183	0xbdeefef1	-0.1166972
184	0xbeca54ad	-0.39517727
185	0x3e5397b1	0.20663334
186	0x3d74a4b3	0.059727382
187	0xbd308ea7	-0.043104794
188	0xbe287a36	-0.1645287
189	0x3df12891	0.117753156
190	0x3b249314	0.002511208
191	0x3d20ac2c	0.039226696
192	0x3d055745	0.03255393
193	0x3dcb7286	0.09933953
194	0xbe089ab7	-0.13340269
195	0x3dc6dc5b	0.09709998
196	0xbc9b47a3	-0.018955057
197	0xbc8a5de7	-0.01689048
198	0xbcb55489	-0.022135036
199	0xbd66f8d8	-0.05638966
200	0xbdc0e582	-0.09418775
201	0x3d831a7b	0.06401535
202	0xbc5f3ba9	-0.013625064
203	0x3e6ba009	0.23010267
204	0xbb086b4b	-0.0020815905
205	0xbd257cc1	-0.040402178
206	0x3dad53a3	0.08463218
207	0x3d4cacac	0.04996936
208	0xbe667ede	-0.22509333
209	0x3c11a3d1	0.0088891545
210	0x3c70ba6a	0.014692882
211	0xbddaac22	-0.10677363
212	0x3c32b58b	0.010907541
213	0xbbb6eec6	-0.005582663
214	0xbd41e670	-0.047338903
215	0xbc067837	-0.008207372
216	0xbd1309cb	-0.03589801
217	0xbe26f15c	-0.16303009
218	0xbdeb545d	-0.114907004
219	0x3de3be10	0.11120236
220	0xbda59cc7	-0.080865435
221	0x3bf2d33c	0.007410435
222	0xbd21277f	-0.039344307
223	0x3e1139ba	0.14182177
224	0x3dc4dddb	0.09612628
225	0xbdbb177e	-0.0913534
226	0x3e2da972	0.1695917
227	0x3d898a30	0.0671581
228	0x3bf91b49	0.0076021296
229	0xbd9e24cc	-0.07721862
230	0x3e27c058	0.16381967
231	0xbc56d360	-0.013111919
232	0xbd86e687	-0.06586938
233	0xbd9647fb	-0.07337948
234	0x3c74a622	0.014932187
235	0xbe0ae90e	-0.13565466
236	0xbda8fa33	-0.08250847
237	0xbdf9d512	-0.12198843
238	0x3d5ade16	0.053434454
239	0x3a8496dd	0.0010115762
240	0xbdae9066	-0.085236356
241	0xbe0a3088	-0.13495076
242	0x3e243ab7	0.16038023
243	0x3dab9564	0.083781034
244	0xbd61bed5	-0.055113632
245	0xbd00ccf1	-0.031445447
246	0x3e3e6101	0.18591692
247	0x3bce8cf6	0.006303425
248	0xbceb5656	-0.028727692
249	0xbc3fed2f	-0.011714264
250	0xbc7c2f28	-0.015392102
251	0x3d5dfbb8	0.054195136
252	0xbd075935	-0.03304406
253	0xbdd672a8	-0.10471088
254	0x3d37b560	0.044850707
255	0xbd4c0b1f	-0.049815293
