data/baumgartner_C-N/aniline_emulator/aniline_bm_predictor_2.pt (torch, 38367 bytes, 3 tensors)

input_layer.weight f4 [512, 16]
00000000: af29 2abe 289c 9cbd d924 0abe 3bd6 a53b
00000010: 4e47 3ebe a1b7 2cbe 445b 06be f0f7 cbbd
00000020: cafb 20be b529 10be 8c95 39be f41f 033e
00000030: e06a 7ebd b824 423d 3381 fb3d 206d c3bd
00000040: 1b63 503e b2ae 413e 2a0b b8bd 8a10 3bbd
00000050: 720c 6a3d f0e7 97bd 21f8 9c3d 2ceb 343e
00000060: 0486 7cbd 3701 283e f7a6 97bd 2050 a5bc
00000070: 2a2b 503e 9cd2 9abd 53e1 913d a0f8 b33d
00000080: f05e 2d3e 156c 4f3d aded 69be 064c c23d
00000090: 095f 33bc c7fc 7dbe 051b e9bd 3044 f7bd
000000a0: f49e ce3d 5b26 fc3d 62a4 233e 8883 753d
000000b0: 2262 59be 2655 57be 114e 35be f4c9 5bbe
000000c0: 8179 023e ff96 83bd 0c1e 94bd 7af1 39be
000000d0: f749 43be 8d4f 1e3e ae4c 163e cc5a 343e
000000e0: 0577 043e 3c13 f83d f08f 04be ac2e be3d
000000f0: ba1f 7f3e f488 94bd 0271 14bc d824 0abd
00000100: 1a2a 463e 98b7 7c3e 990b 943d d88f 223d
00000110: c61a 2cbe 1312 7a3e e13b 03be 4492 b53d
00000120: 2e0c 2dbd 95a3 5c3e dad6 fc3c e682 633e
00000130: 2c17 b9bd b0ab d43c 19c0 2b3a d250 0dbe
00000140: 57c6 db3c d658 50be 4bea 423e d9e5 863d
00000150: 0852 523e 2b12 12bd 0355 abbd 2429 4cbe
00000160: 0d35 163e 5c87 1bbe f905 56bd fc32 bfbd
00000170: 74ad 8fbd f6cc 6fbe cb8d 303e 909c a3bc
00000180: c0aa 45bc 8618 2e3e 1108 2cbd 777f efbd
00000190: 21a4 7c3e 825f eabd 3cae 2abe d8e8 02bd
000001a0: 405d d13c 9e92 3abe d2b9 08be 4286 1cbe
000001b0: 2cfc a6bd f6c8 3c3e cff7 573e 2c34 3ebe
000001c0: 32d9 323e 2d0a 66bd 07ae 4ebe 085c 773d
000001d0: 3a98 1abd 7855 b53b 5fb6 443e f44b 033e
000001e0: 96f7 e3bd 265a 2b3e 71ff dfbd 2899 533e
000001f0: 5c40 1a3e 8eb1 003e e30f 813e 70f0 c33c
00000200: 45ab f53d b309 12bb dc1e 593e a06e d13d
00000210: 4002 46be ec0f ed3d 9081 9cbd 0419 54be
00000220: 328d 133d aa70 443d ea0f d03d 08a2 70bd
00000230: 000f 5f3c e045 203e 92b7 26be 7a2b 74be
00000240: cbdb 163e 8a59 063e 35ba b03c b70e a9bc
00000250: 81f8 79be f701 e83d 2b5d 113e 0e78 77be
00000260: b723 803e 30a3 a93d de26 66be a0ed 58bc
00000270: 7c3c 15be 30d7 1c3e 8f94 48be 6c72 91bd
00000280: 6515 38be 18a5 71be cc1f 1c3e 4a78 43be
00000290: 754c c2bd 95ea 5c3e 12f3 123e 4029 a3bb
000002a0: 1beb 2f3e 1816 b33d 9302 173e b6dc 4d3e
000002b0: 94ff 32be f0a1 263d 4901 d63d 9053 89bc
000002c0: 9fdc 163e d4ce 34be a657 643e ddd8 263b
000002d0: f6f5 853b 302b 793d e803 d43d 14d1 f13d
000002e0: 247d a4bd 901c 373e 6afa 48be 3ea6 01be
000002f0: 1809 4b3e 901f 593e 9551 90bd 08e2 10be
00000300: 1f2e 693c 1f6c 823c dad3 5dbe ec95 cabd
00000310: 582c e8bd 8af9 873c 08bb 27be 984a 1fbd
00000320: 5648 ad3d 2064 34be 3052 1e3d 420a 3dbe
00000330: 00d5 053e cc9e d33d e56f e03d 0ccf e33d
00000340: 527f 413e a271 073d d57c 48be 170a 47be
00000350: b8cd 263e a936 c63d 370b f33d 44a5 0b3e
00000360: 0513 253c 955f 54be 8ec9 3cbe 1032 da3d
00000370: 2045 003e 8af6 113e e77b 013d c0b6 153e
00000380: 5ff4 6f3e 74ea 223d 5fcc bcbc aea7 49be
00000390: 9e19 ab3a 563b 72be 5bcc b23d c0fa 0f3d
000003a0: 4092 eabd ce49 0ebd b989 103e 0056 f43b
000003b0: f834 78bd c064 a5bd f6cc 183d ec37 d3bd
000003c0: 2247 e03c 70dd 7dbe 3ea0 73bd 4815 933d
000003d0: 7098 62be a845 45bd 9199 7f3e f098 cc3c
000003e0: ea77 05be cc62 9dbd 7647 1abc 005e 46bc
000003f0: 4add 00be 6a90 27be f011 69be d01a 1e3e
-0.16617464 -0.07646972 -0.13490619 0.0050609387 -0.18581888 -0.16866924 -0.13120753 -0.099594
-0.1572105 -0.1407841 -0.18123454 0.12805158 -0.062113643 0.0473983 0.12280502 -0.09542298
0.20350306 0.18914297 -0.089865044 -0.04567007 0.057140775 -0.074172854 0.07664514 0.17667836
-0.061651245 0.16406713 -0.07404893 -0.020179808 0.20328966 -0.07559702 0.07123055 0.08787656
0.16930747 0.050640184 -0.22844572 0.094871566 -0.010947951 -0.24803458 -0.11382107 -0.120735526
0.10088912 0.12312003 0.15980676 0.05993989 -0.21228841 -0.21028575 -0.17705561 -0.21463758
0.12741663 -0.064252846 -0.072322935 -0.18158522 -0.19071184 0.15460034 0.14677688 0.17612761
0.12936027 0.12113044 -0.12945533 0.09286246 0.24914446 -0.07252684 -0.009060146 -0.033726543
0.19351998 0.2467941 0.072287746 0.03968796 -0.16807088 0.24420957 -0.1281581 0.088657886
-0.042247944 0.21546777 0.030864168 0.22217903 -0.09037623 0.025960773 0.0006551757 -0.13800362
0.026827974 -0.20346388 0.19034688 0.06586809 0.20539105 -0.035661858 -0.08365824 -0.19937569
0.14668675 -0.15188354 -0.05225179 -0.093358964 -0.070155054 -0.2341803 0.1724159 -0.019972116
-0.012064636 0.17001542 -0.04199988 -0.11694234 0.24671985 -0.11443998 -0.16668028 -0.03196034
0.02555716 -0.18219993 -0.13352135 -0.1528559 -0.08153567 0.18436036 0.21090625 -0.1857459
0.17465666 -0.056162048 -0.20183574 0.060390502 -0.03774283 0.0055338703 0.19210194 0.12821943
-0.11131208 0.16733608 -0.109373935 0.20663893 0.15063614 0.12567732 0.25207433 0.02391836
0.11995558 -0.0022283613 0.21203178 0.10226178 -0.19336796 0.115753025 -0.076418996 -0.20712668
0.036023326 0.047959007 0.10159285 -0.058748275 0.013614416 0.15651655 -0.16280964 -0.2384471
0.14732282 0.13120094 0.021573165 -0.0206369 -0.24411203 0.113285 0.14195697 -0.24166891
0.25027248 0.08283079 -0.22475764 -0.013240248 -0.14573854 0.15316463 -0.1958792 -0.07101902
-0.17976911 -0.23598135 0.15246505 -0.19088855 -0.09487239 0.21573861 0.14350536 -0.0049792826
0.1717953 0.087444484 0.14747076 0.20103726 -0.17480308 0.04068178 0.10449464 -0.016763479
0.14732598 -0.17657024 0.2229906 0.002545885 0.0040881587 0.060832202 0.103523076 0.118074566
-0.08031681 0.1788199 -0.19626775 -0.12661073 0.19827688 0.21203446 -0.070468105 -0.14148724
0.0142321875 0.015920697 -0.21662846 -0.098918766 -0.11336583 0.016598482 -0.1637994 -0.038889498
0.084610626 -0.1761632 0.0386526 -0.18460944 0.13069534 0.103330225 0.10958842 0.111234754
0.18896225 0.033067353 -0.1957887 -0.19437443 0.16289413 0.09678394 0.118673734 0.13637263
0.010075335 -0.20739587 -0.18436262 0.1065408 0.12526369 0.14254203 0.031612303 0.14620495
0.23433064 0.039774373 -0.02304667 -0.19692871 0.0013053899 -0.23655447 0.08730384 0.035151243
-0.11453676 -0.034738354 0.14115037 0.007456541 -0.06059739 -0.08075857 0.03730484 -0.103134006
0.027377669 -0.24791503 -0.05947899 0.071817935 -0.22128463 -0.048162133 0.24960925 0.02497527
-0.13034025 -0.0768486 -0.009416452 -0.012107372 -0.12584415 -0.16363683 -0.22760749 0.15439916

input_layer.bias f4 [512]
00000000: 1a7d acbc ad87 bd3c 61b4 413e 22cb 0dbc
00000010: a4a1 313e e594 65be 5fe4 303e 02dc 963d
00000020: b65e 62be 28c6 e03d b153 a0bb 09c3 c5bd
00000030: aba9 1fbe 95c0 0ebd b43d b63c a698 48be
00000040: 9218 b83d d522 903d 411d 53be 5070 593e
00000050: 8992 963d f7bc 13be 5efd 36bc 9ca1 283e
00000060: 58dc 21bd aa25 0fbe 6b31 e33d f21f b5bd
00000070: 1d25 013d e5cd 21bc 88fe 3dbe 7c33 7fbd
00000080: c018 6b3e 9e3d e83d 778c 61be ad1d 8e3b
00000090: ef60 173a 0975 22be 9d3d 6f3e b2e0 1d3d
000000a0: 8aa9 7d3d 12cc 3dbe 976a 85bd e859 323d
000000b0: c381 413d cb47 ecbc be92 77be 3b80 e0bd
000000c0: 5140 a83d b8fb 72ba 6cbf 42bd 119d b43c
000000d0: d98a 8a3d 0bf3 7bbd 0855 0a3d 2764 033e
000000e0: 8391 6c3e fc70 8cbd fdef 47be 8608 a2bc
000000f0: 848d 05be 4862 de3c 7fb3 4e3e 7436 07be
00000100: dee3 e8bd 4b18 603e 5758 3fbd fdd9 7e3e
00000110: e4dd a7bd 4da3 14be ac89 bebc 6890 723e
00000120: 24c2 bf3d fd4b 0dbe 6304 5dbe 5f52 f53b
00000130: 1db9 603e 3a08 74be d28d bfb9 3ce0 f0bd
00000140: 438b 193e b628 4a3d 320f 3b3e 4498 813e
00000150: 6ece e6bd 4299 3c3e 9d82 8cbd 6a82 313c
00000160: 2341 f4bd 2626 b4bd 9688 1f3e 62bc 24be
00000170: adae a8bd f1db 773e 5c25 63be 1670 013d
00000180: db4f de3d b35d 70be 6f70 0fbe 0fc3 683e
00000190: 233d 12be cd6f 2b3e 7e25 79be c0f0 173e
000001a0: abc4 733d 87f9 b73d 4f41 473e 5550 af3d
000001b0: fc74 023e dde0 1fbe de63 483c 96db 01be
000001c0: 8aa2 423e 18bc 72bd 41f1 c4bd a8e3 373e
000001d0: 7772 50be 85b1 173e d784 a13c acf2 40be
000001e0: 3bb5 57be 8c6f 54bd 64ea 703c 1216 7e3e
000001f0: 51ba 55bd 9d4a 52bc b616 1bbe ccc0 a33d
00000200: 2acd 183e ebbb 033e fb76 44be f8f0 903d
00000210: f222 82bc 3f56 09be 5947 573c b9e0 49be
00000220: 2857 a7bd 74c6 343e 3b37 b0bd 80da 81bd
00000230: 40fd eabd f0e6 cbbd b730 ab3d 1a65 443e
00000240: ccc7 56be 8f09 11be 9bd6 50bd b813 713d
00000250: 319b 373e 192b 733e 5f45 4fbe 796e 293e
00000260: 006f bdbd f5c7 92bb 5d82 c7bd 8672 cf3d
00000270: e904 9c3d b661 afbd 8283 56be d39b c6bc
00000280: 3b40 bdbd d44b 70be 126d 523e ad56 49be
00000290: 02ff 743e 3cea 46be 8cd9 3a3d 913b 62be
000002a0: d404 93bd 3c26 373d 5c5e 3a3e 9419 303e
000002b0: e262 61bd bc16 543e d1b9 cdbd bcbb 7bbe
000002c0: d33f 813e 6a9f b7bd 9d68 3bbc 327a 72be
000002d0: ef3c 6fbe 48f9 86bd 4581 91bc 4b6d 80be
000002e0: de88 bd3d e243 c53d 79f5 b7bc e9b1 a83d
000002f0: 9af4 6e3e a475 053e 9c8d 5bbe ee10 4a3d
00000300: 92bd 623e 887f eb3d 6996 d8bc 12e9 4bbc
00000310: 6bcc 58be 57ca 5fbe cf1a bcbd ad50 62be
00000320: b5f9 f2bb d186 0fbd 78f8 553e 30c3 723e
00000330: bb1a 80be fe6a 1bbd c706 0d3e bde8 d23c
00000340: 0770 633e 48e0 4d3e c43b 08be 46ff e6bd
00000350: 56d7 803d c47e 64be 911c af3d 2cde 9ebd
00000360: 3bb7 643d e5ac 343e e559 5ebe 88f7 1a3e
00000370: a6e4 5bbe 0658 13be 46e6 08be 347b 1f3e
00000380: 6f2a 0abe c8a2 033e b7a1 663d bf56 033e
00000390: b234 febc 61ce b13d fdfa 533e 718b 3ebe
000003a0: 43c7 403d 7f80 29bd 31f4 fa3d 0326 463d
000003b0: e51e b63d 0fa3 913c 3eab 6d3e 6f7c 1b3c
000003c0: 3413 1fbd 01e4 4f3e f39b 4ebe 29a0 eebd
000003d0: 5bbe 7e3e 913c 3ebc ef66 51bd 7919 d53b
000003e0: c983 26be f8dd 31be e04a 843d 9663 6d3e
000003f0: 4031 6d3d 27c6 1bbe e52e 953b d7d2 213e
-0.021055747 0.023135984 0.18916465 -0.008654388 0.17346817 -0.2242008 0.17274617 0.07366182
-0.22106442 0.10975295 -0.0048927893 -0.09656341 -0.15592067 -0.03485163 0.02224622 -0.19589481
0.089890614 0.07037894 -0.20616628 0.2123425 0.07352168 -0.14427553 -0.011168806 0.16467899
-0.039516777 -0.13979211 0.1109341 -0.08843984 0.031529535 -0.009875749 -0.18554127 -0.06230496
0.2295866 0.113398775 -0.2202624 0.0043370337 0.0005774637 -0.15864958 0.23363347 0.038544364
0.061929263 -0.18534878 -0.06514471 0.043542773 0.04724289 -0.028842827 -0.24177071 -0.10961958
0.082153924 -0.00092690764 -0.047545835 0.022047551 0.06764764 -0.06151108 0.0337725 0.12831174
0.23102383 -0.068574876 -0.19525142 -0.019779455 -0.13042265 0.027146474 0.2018566 -0.13204366
-0.11371587 0.21884267 -0.046715107 0.24887843 -0.08196619 -0.1451542 -0.023259006 0.23687899
0.09363201 -0.13798518 -0.21583705 0.007486626 0.21945615 -0.23831263 -0.00036536023 -0.11761519
0.1499453 0.04935523 0.18267515 0.25311482 -0.11269842 0.18417838 -0.0686085 0.010834316
-0.11926486 -0.08796339 0.15579447 -0.16087487 -0.08236442 0.24204995 -0.2218222 0.031601034
0.10855075 -0.23473243 -0.14007734 0.22730659 -0.14281134 0.16741867 -0.24330708 0.14837933
0.05951373 0.089831404 0.19458507 0.08560244 0.12739938 -0.15613122 0.012230841 -0.12681422
0.19007316 -0.05926141 -0.09616328 0.17957938 -0.20356165 0.14813812 0.019716663 -0.18842572
-0.21065228 -0.051864192 0.014704321 0.24813107 -0.05217964 -0.012835172 -0.15145382 0.079957575
0.14922014 0.12864654 -0.19186012 0.07077211 -0.015885804 -0.13411807 0.013139569 -0.19714631
-0.081709206 0.17653829 -0.086042844 -0.06340504 -0.11474085 -0.09956157 0.08358901 0.19179192
-0.20974654 -0.14163803 -0.050985914 0.058856696 0.17930295 0.23746909 -0.20241307 0.16546048
-0.09249687 -0.004479403 -0.09741662 0.101292655 0.07618124 -0.08563559 -0.20948604 -0.024244225
-0.092407666 -0.23466426 0.2054942 -0.1966197 0.23925403 -0.19425291 0.045617625 -0.22093035
-0.07178655 0.044714198 0.18200058 0.17197257 -0.055025943 0.20711797 -0.10045207 -0.24583334
0.25244007 -0.08965953 -0.011438516 -0.23679426 -0.23363088 -0.065905154 -0.017761836 -0.25083384
0.09254621 0.09632088 -0.022455918 0.08237059 0.23335496 0.13033158 -0.21440738 0.04933255
0.22142628 0.11498934 -0.026438909 -0.012445705 -0.2117173 -0.2185453 -0.09184801 -0.22101088
-0.0074150213 -0.03504068 0.20895565 0.2370727 -0.25020394 -0.037943833 0.13772117 0.025745744
0.22210704 0.20105088 -0.13304049 -0.11279158 0.06291072 -0.22313982 0.085503705 -0.0775722
0.055838805 0.17644079 -0.2171398 0.15133488 -0.21473941 -0.14389047 -0.13369092 0.15574342
-0.1349275 0.12855065 0.056306567 0.1282606 -0.031030986 0.08681942 0.20701213 -0.1860788
0.04706503 -0.04138231 0.12253607 0.048376095 0.088926114 0.017777948 0.23209855 0.0094901165
-0.038836673 0.2030182 -0.20176677 -0.11651642 0.24877302 -0.01161112 -0.051123556 0.0065032807
-0.1626121 -0.1736983 0.06459594 0.2318252 0.057908297 -0.15212308 0.0045527094 0.15803085

output_layer.weight f4 [1, 512]
00000000: b6ac 033d 1304 4ebd f50b dbbc c2d4 9abc
00000010: ece9 003e 9cea 77bd 3d9d ed3b 91fd 5dbd
00000020: 038f d03c 47a7 233d c1aa 533a e974 9b3d
00000030: 3641 dcbb d1bc 82bc 4099 3bbd bbfa 5b3d
00000040: 38da 763d 7845 53bd 1bf1 6bbb 4aee 37bc
00000050: ad75 cdbd 4920 b73d 6cb9 8a3d 2795 24bd
00000060: 3d56 38bc a1ef 37bd 7583 143d 36e9 e5bc
00000070: a44b 9abb 3db9 9abb b3ae 5c3d a199 aebc
00000080: d780 373c 9813 e33b cd5a 88bd ce97 753b
00000090: 75d2 9e3d 87aa f83c 88ea 1bbc b90a 08bd
000000a0: 006e e63d 8f2c 003d ae8f 8cbc 7a48 d6bd
000000b0: e064 813d 3b2d a43c 39d6 11bd d9de 5cbb
000000c0: 3f25 0f3d 7d94 153d 8aca 093b bb24 d23d
000000d0: bb01 be3c a8a9 9cbc fb97 1fba 38b3 debc
000000e0: 5b9d 14bc b956 2ebd 6690 f33c 3a1d f2bc
000000f0: 1dcf 15bd 0652 953d a66a 25bd 6fce 103d
00000100: ee00 c9bd 34b1 23bd bc8c e1ba 4340 43bd
00000110: 8e1c cbbd d572 a4bd a1b4 bdbc ec3b c13d
00000120: 1e9f fabd d9e8 6e3d 2967 71bc cd62 bc3b
00000130: 25a0 19bd 7cbf 19bd f333 643d be2a 06bd
00000140: 2eca b0bd a7f5 fd39 7693 3d3b ea6f fe3c
00000150: 8d0d 8cbd ded7 08bd 5592 c0bc b93e fd3a
00000160: a6d8 7c3d 077d 94bc 96c6 4a3a ccc3 a43a
00000170: 1e80 0c3c 77dc d8bd 7c7f 993c 530f 153d
00000180: 70fc cdbd f408 593c d211 13bc 0dda 033d
00000190: 20b2 4cbd 6bcf a33b 1b47 8bbd 6605 293d
000001a0: c686 94bc 6eb7 063c 6b08 1dbc 934f da3c
000001b0: c6d2 e5bd 2ba5 983c 206b 45bd 81b5 34bd
000001c0: 0990 0a3d 6ee8 e23c 0235 113e cb5c 05bd
000001d0: 811e 933c 9f45 b9bd 146f 0c3d 8dd1 b4bc
000001e0: 1722 debc 2d70 0cbc a062 403d 8363 aebb
000001f0: 2c22 293d 920b 05bd 57e4 483c f277 a03d
00000200: b00a 15bc 4aef b83c bec6 223d 7817 d1bd
00000210: 9695 dfbc a145 12bd 6066 323d ef65 483d
00000220: e9eb 1c3d d308 443c 1325 943c 99f4 b83d
00000230: b287 7fbd e329 a23c ed6c de3d 51ee 4b3d
00000240: 5a03 493d a995 aebc f7d0 293d c656 a6bc
00000250: 09d7 6abc 3f40 15bd 7ea3 45bb 4e08 603d
00000260: c74e e53c 1e87 ccbc 47f1 aabd 81fd 5b3c
00000270: 0659 94bd a1b1 f93c 237d 8e3d 8771 89bd
00000280: d1f8 34bd c0e9 583d b10f a0bc 180c d13c
00000290: 2e45 40bd 60a4 27bd 0806 cebb d57e 1a3d
000002a0: ce90 d03c 54b4 483c 3f2f 0ebd 1a5c afbc
000002b0: 40e6 393d e2a6 81bd 782a 293c a0fe 853a
000002c0: efd1 a73d 5b2f 6c3d 535d 15bd 803d 403c
000002d0: 770c 09bd 6e45 fabc c51d 383d 4863 b7bc
000002e0: 92f4 c1bb 7eca cdbb 4fc1 583d 1993 5cbc
000002f0: 967d 13bd 9515 2ebc d415 463c c989 083e
00000300: f04d dd3d 5589 b9bb 67c6 1fbd 7254 153c
00000310: 8abd bbbc a017 9fbc 3764 b7bd 2aeb 2abd
00000320: b2e3 2f3c 0116 96bd 0933 693d 2100 543c
00000330: 0863 c5bd f281 333d 9322 613a 24ab 43bd
00000340: c282 64bd 082e 263d aef9 8eba df5a 003d
00000350: 476f cbbd 5533 d6bc 046f f03c 4ff6 db3a
00000360: 40f3 c23d 4741 02bd d231 c83c 3953 483c
00000370: 0d2b 04bd 308e adbd 4713 343d a092 7abc
00000380: 22c3 69bc c073 e03b a4ca b63d 4c80 22bd
00000390: a7c7 2bbc dc77 94bd 0dd1 1d3e 8fe9 733d
000003a0: e78c c63d 5dad 4ebd 4150 0e3d cba1 a739
000003b0: 8224 a4bc 684c 7b3d 0d19 d83b dc22 22bd
000003c0: f8f0 56bd 868b ea3c ec91 10bc 263d 0bbe
000003d0: 891e c93d 09c1 44bd 954c 1138 113f 8abc
000003e0: ccc5 b1bc b3d0 323d 0b1d 11bd f231 ebbc
000003f0: 8e50 91bd 3639 6ebd 7ccc 17bc 4392 b13c
0.03214713 -0.050296854 -0.0267391 -0.018900279 0.12589234 -0.060526475 0.0072514103 -0.054196898
0.025458818 0.03995445 0.00080744555 0.07590658 -0.006721641 -0.015959175 -0.045800447 0.053705912
0.060266703 -0.051579922 -0.0036001864 -0.011226246 -0.100322105 0.08941705 0.06773648 -0.040181305
-0.01125103 -0.044906262 0.03625818 -0.028065305 -0.004708724 -0.004721789 0.053877544 -0.02131349
0.011200151 0.006929826 -0.06657944 0.0037474516 0.07754985 0.030354751 -0.009516366 -0.03321335
0.112514496 0.031292494 -0.017158356 -0.104630426 0.063180685 0.020041099 -0.03560469 -0.0033702163
0.03494763 0.036518563 0.0021025264 0.10260912 0.023194185 -0.019123867 -0.00060880155 -0.027185068
-0.00907072 -0.042563174 0.02973194 -0.029554952 -0.03657447 0.07291035 -0.04038491 0.03535312
-0.098146304 -0.039963916 -0.001720808 -0.047668707 -0.09917556 -0.08029715 -0.02315742 0.09435257
-0.122373804 0.05832753 -0.014734068 0.0057490827 -0.03750624 -0.03753613 0.055713605 -0.032755606
-0.08632313 0.00048438946 0.0028927005 0.031059224 -0.06838522 -0.033408992 -0.023507277 0.0019321061
0.06173005 -0.018126024 0.000773528 0.0012570559 0.008575467 -0.10588925 0.018737547 0.036391567
-0.10057914 0.0132467635 -0.008976417 0.03219037 -0.04997456 0.0049990914 -0.06800672 0.041264914
-0.018130671 0.008222444 -0.0095845265 0.026649272 -0.112218425 0.018633446 -0.048197865 -0.044118408
0.03382877 0.027698722 0.14180377 -0.032559197 0.017958881 -0.09046482 0.03428562 -0.022072578
-0.027115865 -0.008571667 0.046969056 -0.0053219213 0.041292354 -0.032481737 0.012261472 0.07835378
-0.009096786 0.02257504 0.039740317 -0.102095544 -0.027293008 -0.035710935 0.043554664 0.048925336
0.03831092 0.0119649945 0.018084085 0.09031028 -0.06238527 0.019795364 0.1086062 0.049787823
0.049075462 -0.021311598 0.04145905 -0.020305049 -0.014333495 -0.036438223 -0.0030157263 0.05469542
0.027991666 -0.024966773 -0.08346801 0.013427139 -0.072435424 0.030480208 0.06957462 -0.06711107
-0.044182602 0.052957296 -0.019538732 0.025518462 -0.046940975 -0.040928245 -0.00628734 0.037718613
0.025459673 0.012250025 -0.034713026 -0.021406222 0.0453856 -0.063306585 0.010325067 0.0010222979
0.081943385 0.05766235 -0.036465954 0.011733413 -0.033459153 -0.030550685 0.044950265 -0.022386208
-0.0059190476 -0.0062802425 0.05291873 -0.013462805 -0.03600844 -0.010625263 0.012090165 0.13333811
0.10805881 -0.005662123 -0.03900757 0.009114372 -0.022917528 -0.019420445 -0.08954661 -0.041728176
0.010735439 -0.07328416 0.056933437 0.012939484 -0.09638029 0.043825097 0.0008588221 -0.047770634
-0.055788763 0.040571243 -0.001090815 0.03133666 -0.09933334 -0.026147524 0.029349811 0.001678178
0.095190525 -0.031800535 0.024437819 0.012226873 -0.03226762 -0.08474386 0.043963697 -0.015293747
-0.014267715 0.006849736 0.089253694 -0.039673135 -0.010484613 -0.07249424 0.15411778 0.05954891
0.09694844 -0.0504583 0.034744505 0.00031973267 -0.02003694 0.061352164 0.006594783 -0.039584026
-0.0524759 0.028630983 -0.008823853 -0.13597545 0.09820277 -0.048035655 3.4642017e-05 -0.016875776
-0.021700762 0.043656062 -0.03542809 -0.02871034 -0.07095443 -0.05816003 -0.0092650615 0.021676188
