data/baumgartner_C-N/aniline_emulator/aniline_bm_predictor_4.pt (torch, 38367 bytes, 3 tensors)

input_layer.weight f4 [512, 16]
00000000: a932 413e fa71 2d3e eed7 a93d ce2d 02be
00000010: fdc8 663e ea1d 06be 7de4 74be 3c90 a93d
00000020: c0c2 593e 86d6 78be 4837 3a3d da62 13be
00000030: b0ad 693e 009a bb3a 0418 d53d 122c 5fbe
00000040: 9f2b 7d3d b33d 7e3e edda 1e3c 35b4 143e
00000050: 6fe5 d63d ce41 fa3d 5be4 bebd 3a02 37be
00000060: 6185 c93d 8cf3 1e3e 2860 39bd c883 51be
00000070: b0ab b7bc b003 da3d cb9c 373d f8a0 3b3e
00000080: 8d72 233d 70b0 b8bd f673 09be f7ae 45be
00000090: 65d8 e93d d4a7 0e3e b6e6 353e ac44 f2bd
000000a0: 51ff 65be 7b8f 033e 0cee 033e d00d 4f3d
000000b0: 9a68 72be c017 05bc cda7 d8bd 787b 563d
000000c0: 554a 0f3d 4e8c b7bd 1cac 92bd a070 65bc
000000d0: 4472 553c f064 80bc 7066 543d 60b0 c03d
000000e0: 689b 9abd 2866 073d eb32 843d f44e 3f3e
000000f0: 7043 3ebe 0851 6ebe 4734 6fbd 187e 1f3e
00000100: 1784 033d b2c7 883d ed38 2c3e 9fa3 883d
00000110: 48ae 7ebe 6491 38bd 24fb cabd d0d5 8a3d
00000120: 3ca6 58be 4c6f 093d a626 3f3e fc45 f2bd
00000130: 82ad 073e 246f b03d 6f6b 303d 1a11 643e
00000140: b4ac d33d 6e39 213e 9261 163e 4be4 e0bc
00000150: 9bd1 dcbd de40 163e 3145 fc3d 14da 9cbd
00000160: a6d5 353c 974e 113e dced 03be 5458 31be
00000170: caca 1a3e cc13 81bd 0185 54bc def5 5b3e
00000180: b0a1 9b3d 2187 32be 99b5 313d 29f5 573e
00000190: 8e17 a83d 3d2f 59be b482 ea3d a405 61be
000001a0: 7047 44be 97f2 6bbd 7a2c 0abd 80ef b43c
000001b0: 5c3e f9bd c2d1 5a3e 1c4a 88bd a056 1e3c
000001c0: 052d 043d 8764 df3d 1440 2ebe 9352 94bd
000001d0: a140 2ebd c948 2fbd 8e47 e53d da70 773e
000001e0: 2004 fdbd 2a9f aabc 7c78 6e3e c090 4cbc
000001f0: fc33 7d3e a280 04be d26c 1ebe 584e 70bd
00000200: d6ee 18be 0f70 03bd 2ad6 663d 3dd8 cb3d
00000210: b4fe 65be 10a7 ddbd 150f 803d ce12 78be
00000220: b328 163e 5b3b 2dbe 1aab 4cbe 2ca8 ebbd
00000230: 2617 10be 0aff 743e 8a9b 913d d07f f7bc
00000240: 1501 0a3e 59ec 8abc 461e 22bd 72fc 06be
00000250: 5d06 a4bc fb8e fa3d 9038 61be 8027 3d3d
00000260: a402 313e 72c4 0d3e f265 693b b8ad 853d
00000270: 607a 1c3d 46e8 213e 6fd8 87bd 2e14 763e
00000280: c468 363e 6eba 74bd 2471 9e3d 7674 513e
00000290: 8d5a 863b a7d4 65be 0c38 6a3e 001a 163d
000002a0: 584f c03b 6d5c 33be bfdf 353d dab3 7e3e
000002b0: 0afc 54be f833 303e b597 193d 40d7 4b3e
000002c0: 5983 193e 4780 2a3e 964e a73c de00 4a3e
000002d0: d8de 86bd c6d8 a4bd 16dd 13be f049 0f3d
000002e0: bdb9 12be 8a34 583e 5487 55bd a0be 72bd
000002f0: 70cd 7c3d 5a92 40be db54 143e e4dc 8c3d
00000300: 5f11 e73d 149c a0bd 29d3 0a3c b439 3cbe
00000310: 998e 473e 333b 473e bc16 da3d 0052 643c
00000320: 6555 0fbc 80d2 39be c0fa f3bc 68af a83d
00000330: 66a3 4ebe 68cf fabd 0b82 1e3d 58f5 fabd
00000340: 8c8d 2cbc 5426 0c3e c01f 1bbd 0e20 6abe
00000350: 20aa c8bd f185 8b3c 488c 2d3e 485d 753d
00000360: f9e5 563e 8891 13bd 34b3 c53d d025 683e
00000370: b6a3 0c3e 2268 47be d9dd 70be 84fb 213e
00000380: 6b18 fc3a b985 66be e006 56bd 1961 cabd
00000390: e4a4 31be e97d 113c 3d7b 9a3a 2e50 763e
000003a0: e7a5 6bbe 4bdf 053e 153d 483e f43d 76be
000003b0: c889 0fbe ce45 453e 2508 713c a8e5 2c3d
000003c0: b860 6abd 5686 363d 6080 cebc f8e9 1f3e
000003d0: 8f8b 7cbe 69c5 293c f6ef 603e ee65 603e
000003e0: bf2e 71be 3ffe fa3b 9d64 dabd e428 54be
000003f0: 345a 0c3e f0b2 1e3d 3a60 b03b 320c 173e
0.18866982 0.1693801 0.082931384 -0.12712786 0.22537608 -0.13097349 -0.23915286 0.08279464
0.21265697 -0.24300584 0.045462877 -0.14393178 0.22820163 0.0014312863 0.10404971 -0.21794155
0.06180918 0.24828224 0.009695751 0.14521869 0.1049298 0.122195825 -0.09320899 -0.17871943
0.09839893 0.15522593 -0.045257717 -0.20460427 -0.022420734 0.106452346 0.044827264 0.18323123
0.039904166 -0.09018028 -0.13423142 -0.19305025 0.11418227 0.13931209 0.1776379 -0.11829504
-0.22460677 0.12847702 0.12883776 0.050550282 -0.23672715 -0.008123338 -0.105788805 0.052363843
0.034982998 -0.08962308 -0.071617335 -0.014003903 0.013027731 -0.01567313 0.051855505 0.09408641
-0.07549173 0.03305641 0.06455024 0.18682462 -0.18580413 -0.23273098 -0.058399465 0.15575445
0.032108393 0.06678714 0.1681859 0.06671833 -0.2487117 -0.04506053 -0.099111825 0.06779063
-0.21157163 0.033553407 0.18667087 -0.11829755 0.13249782 0.086149484 0.043071207 0.22272149
0.10335675 0.15744564 0.14685658 -0.027452609 -0.107821666 0.14673182 0.12317885 -0.076587826
0.011098301 0.14190136 -0.12883705 -0.17318851 0.1511642 -0.06302604 -0.012971164 0.2148051
0.07599199 -0.1743436 0.043386076 0.21089615 0.08207618 -0.21209426 0.11450711 -0.21974808
-0.19167876 -0.0576044 -0.033733822 0.022086859 -0.12170097 0.21369079 -0.0665476 0.009664208
0.032269496 0.10907846 -0.17016631 -0.07242312 -0.042542104 -0.042794023 0.111952886 0.24164143
-0.123543024 -0.020827848 0.23288149 -0.012485683 0.24726862 -0.12939695 -0.15471199 -0.058668464
-0.14934859 -0.03208929 0.056356587 0.099533536 -0.22460443 -0.1082288 0.06252877 -0.24225923
0.14663963 -0.16917174 -0.19987145 -0.115066856 -0.1407133 0.23925415 0.07109745 -0.030212313
0.13476975 -0.016958402 -0.039579652 -0.13182238 -0.020022565 0.122343026 -0.21994233 0.04618025
0.17286164 0.13844469 0.0035613743 0.06527275 0.038202643 0.15811262 -0.06633078 0.24031135
0.17813402 -0.059748106 0.077364236 0.20454583 0.00410015 -0.22444402 0.22872943 0.03664589
0.0058688335 -0.17515726 0.044402834 0.24873295 -0.2079927 0.17207325 0.037498195 0.1990633
0.14991511 0.16650496 0.020423215 0.19726893 -0.06585473 -0.08049159 -0.14439806 0.03498262
-0.14328666 0.21113792 -0.052131012 -0.059263825 0.061719358 -0.18805829 0.14485495 0.06878069
0.1128261 -0.078422695 0.008473196 -0.18381387 0.1948799 0.19456176 0.106488675 0.013935566
-0.008748387 -0.18146706 -0.029782653 0.08236581 -0.20179519 -0.12246591 0.038698237 -0.12253827
-0.010531794 0.13686496 -0.037872076 -0.2286379 -0.09798074 0.017031642 0.16948044 0.059903413
0.20986165 -0.03602746 0.09653321 0.22670674 0.13734326 -0.19473317 -0.23522128 0.15818602
0.0019233351 -0.22511949 -0.05225265 -0.09881801 -0.17348057 0.008880117 0.0011785995 0.24054024
-0.23012505 0.13073461 0.19554551 -0.2404707 -0.14017403 0.1926491 0.014711414 0.042211205
-0.057221144 0.044561706 -0.025207698 0.15616596 -0.24662612 0.010362008 0.21966538 0.21913883
-0.23552988 0.007659703 -0.10663722 -0.20718724 0.13706285 0.038744867 0.005382565 0.14750746

input_layer.bias f4 [512]
00000000: 1686 02be d310 3e3e 6358 de3d 995c 40be
00000010: 0d96 68be f705 1b3e 4423 4b3c 6ac5 0e3e
00000020: f591 4d3b e258 56be 2367 51bd 7958 073e
00000030: b5e6 e43d b24c f4bd 0df0 663e e02b 313d
00000040: 82f2 71be 0915 87bd da13 e6bc ca6a 4f3e
00000050: 549b edbb 8e43 ab3c e82b 28bd dd5a 363e
00000060: a1b6 69be 8a40 c13c 017e f4bd 5ccb 923b
00000070: 3250 ecbc b972 33be 0dc8 b03d c5a2 a1bd
00000080: 3bfe 573e 5237 27be d48b 573e c7bd 61be
00000090: 6a74 aebd dc3b 38be b0a2 abbd c14a a53c
000000a0: 2c89 363d 9a95 5dbe 1eda 46be 1fb2 b6bc
000000b0: c8bd bb3d 1fd0 3d3e da11 07be 92cd 823d
000000c0: 5a4f 61be b554 4d3e 3c3c 633e 8a53 1dbe
000000d0: 45aa 533e c0e8 b0bd f9cb 433e 496f a03b
000000e0: 44e6 333e eee1 2abe 0a91 193d 58fb 39bd
000000f0: ebbe 43be 5d13 eabc 7c8f 43be 6ba3 b0bc
00000100: 0ef9 cf3d 7dd6 2abd 686a cabc 3d6f 9cbd
00000110: ef22 22be 3e21 443e cc9c 16bd ea9d 9c3a
00000120: 5daa 44be ed6a 5a3e a84a 11bd 1d49 5f3e
00000130: 2521 273e 51a5 6e3e 4e3e 10be 6ecc 373d
00000140: 0e2e 08be b606 30be c957 133e 7201 5d3e
00000150: 67a6 373e 7671 3e3e 4bb9 173d 659d 4d3e
00000160: 09e5 d93c 2d63 1fbe d25b 223e cfa6 793e
00000170: 376e dd3c e1fd 8a3d 3a05 333d 0737 67bc
00000180: d420 7f3e 06e5 6e3b 89d1 0a3e 986b 0b3e
00000190: 1a08 4b3e 9889 3fbe 77d7 513d c4f1 4dbe
000001a0: 3024 3ebe 1f24 b6bc 6853 7cbe af31 4d3e
000001b0: 708e 1dbe 7e19 6abe c3e4 a03d 17de 613c
000001c0: 4eba a3bd 7745 4ebe a99b 763e 06e3 76bd
000001d0: 14cf 33be 620e 1dbe 95fb 153d a4d1 e43d
000001e0: 5883 b3bd a2bb 2dbe b9c4 42be f2fa 2ebe
000001f0: 6f04 38be 4a67 8c3c 0f17 eebd 5898 623e
00000200: b1b7 76be c24d 68be dd15 59bd 5ece 3f3d
00000210: 6e6f 37be fe73 31be 6b67 84bc 1f15 62be
00000220: b316 0bbe 731d 933c 09f9 a3bc 1692 293e
00000230: c45a c2bd 9b83 38be abb1 f2bb 6bcc eebd
00000240: d734 433e ac05 67be fea9 49bd 796a 293c
00000250: 74dc fbbd 0e4c 61be 34d2 7a3e 544e 4f3e
00000260: 2f9a d4bd 039b 71be 5a31 413e bc1f f1bd
00000270: 9e79 1d3e 0576 7abe 1fdb 543e c95e d0bd
00000280: dfcc 09be 05f3 e23d 4adf 3ebe 6d9f 40bc
00000290: b3ff febd 26ea a0bd 2f48 19bd 39e5 7f3e
000002a0: b43f 1abd 9bb9 703e 9fa2 5c3d 1adc ea3d
000002b0: 58a9 a0bc b000 6c3d a6ec 2dbe bc14 f3bd
000002c0: 76aa 3abd 43c2 b43c e569 6c3d 3ae4 583e
000002d0: 8b47 f6bd fef7 7f3b ba50 78bd 943b 6abe
000002e0: 4f14 38be 05a3 95bd 8bdf ce3d 5874 0d3d
000002f0: be15 793e 2b0c 7d3e 2c2c d2bd 68b2 cbbd
00000300: ab5a 2a3e a906 4c3c acc5 9cbd 32b5 643e
00000310: ce2a 793e 3873 a93d b35e 6cbe 9c8c 493d
00000320: a6b2 953d 717f 4cbd 4493 703e 3d49 18be
00000330: f868 1bbe 7216 e9bd d6b9 63bc 43b9 0b3e
00000340: 4058 3e3a 9449 72bd 4933 eb3c f3f0 d33d
00000350: c594 423e 4ef0 25be 814e 573d 697e 73be
00000360: e4eb 093b d9f8 82bd 2ef4 78be 692e f13d
00000370: e4e0 4ebd a73a 65be 6bec a0bd 77dd 2f3e
00000380: 00de 553e d988 6abe 92f2 98bd be12 ca3d
00000390: 3fc9 093e a092 1a3e 3c48 18bd 93a3 cf3d
000003a0: c1b6 2f3e de96 153e ca76 3a3e ce19 e3bd
000003b0: af1c cbbd ffb3 e8bd 28d1 73bd 2817 78be
000003c0: 795b 1e3e d427 da3d a8fa 1c3e ff91 983d
000003d0: 0480 e1bb 6a44 2cbe c39b 30be 1777 70be
000003e0: 44db 4f3e 802b 143e 60d6 9a3d 946c 0b3e
000003f0: e179 763e 0d19 80bd a4b4 2abe c188 5b3e
-0.12746462 0.18561105 0.10856702 -0.18785323 -0.2271349 0.15138994 0.012398545 0.13942495
0.0031367515 -0.20932344 -0.05112375 0.13217343 0.111768164 -0.11928691 0.2255251 0.043254733
-0.23627666 -0.06595809 -0.028085638 0.2025558 -0.0072511826 0.020906236 -0.041057497 0.17808099
-0.22823574 0.023590345 -0.11938096 0.0044798087 -0.028846834 -0.17524232 0.08631907 -0.07892374
0.21093075 -0.16329697 0.21049434 -0.2204505 -0.08518298 -0.17991585 -0.083806396 0.020177247
0.04456441 -0.216391 -0.19419143 -0.022301732 0.09167057 0.18536423 -0.13190404 0.06386866
-0.22002926 0.20051844 0.22190946 -0.15363899 0.20670421 -0.086381435 0.19120778 0.0048960787
0.17568308 -0.16687748 0.037491836 -0.045405716 -0.19115798 -0.028573686 -0.19097704 -0.021562299
0.10154925 -0.04170846 -0.024708942 -0.076384045 -0.15833639 0.19153306 -0.036770627 0.0011948918
-0.19205613 0.21329851 -0.03547159 0.21805234 0.16321237 0.2330525 -0.14086267 0.044872694
-0.13298818 -0.1719006 0.14388956 0.21582583 0.17934571 0.1859797 0.037041944 0.20079572
0.02659847 -0.15565176 0.15855339 0.24380039 0.027030094 0.06786705 0.043706156 -0.014112241
0.24914867 0.0036452427 0.13556494 0.13615263 0.19827309 -0.18704832 0.051230874 -0.20111758
-0.18568492 -0.02223402 -0.24641192 0.20038484 -0.15386367 -0.22861287 0.07856133 0.0137858605
-0.07994519 -0.20143686 0.24082817 -0.0602751 -0.17559463 -0.15337518 0.03661688 0.11172798
-0.08765286 -0.16966107 -0.19020356 -0.17087916 -0.17970441 0.017139096 -0.11625492 0.22128427
-0.2409351 -0.22685912 -0.052999366 0.046827666 -0.17913601 -0.17329404 -0.016162595 -0.2207837
-0.13582878 0.017958378 -0.02001621 0.16559634 -0.094899684 -0.18018954 -0.0074064336 -0.116600834
0.19063126 -0.22560757 -0.049234383 0.0103403265 -0.122979075 -0.22001669 0.24494249 0.20244724
-0.10380971 -0.23594289 0.18866482 -0.11773631 0.15378425 -0.24459083 0.20786713 -0.10174329
-0.13457058 0.110815085 -0.18639866 -0.01175676 -0.124511145 -0.0785716 -0.037422355 0.24989785
-0.03765841 0.23508303 0.053866025 0.11467762 -0.019612 0.057617843 -0.16984805 -0.11869189
-0.04557272 0.022065287 0.057718176 0.21180812 -0.120253645 0.0039057727 -0.06062386 -0.2287429
-0.17976497 -0.07306484 0.10101231 0.034534782 0.243247 0.24711673 -0.10262331 -0.09946138
0.1663615 0.01245276 -0.076548904 0.22334746 0.24332735 0.08273929 -0.23083 0.04920636
0.07309465 -0.049926225 0.23493677 -0.14871688 -0.15176761 -0.11381234 -0.013899287 0.1364489
0.0007261075 -0.0591522 0.028710978 0.10348692 0.19002064 -0.1620495 0.0525651 -0.2377869
0.0021045143 -0.0639512 -0.24311897 0.1177643 -0.05050744 -0.22385655 -0.07857593 0.17174326
0.20885468 -0.22903766 -0.074681416 0.09866856 0.13455676 0.15094995 -0.037178263 0.10138621
0.17159559 0.14608333 0.18209377 -0.11088906 -0.0991758 -0.113624565 -0.05952564 -0.24227583
0.15464582 0.10652128 0.15329993 0.074497215 -0.0068817157 -0.16822973 -0.17246918 -0.23482929
0.20298487 0.14469719 0.0756042 0.13615638 0.2406993 -0.06254778 -0.16670471 0.21438886

output_layer.weight f4 [1, 512]
00000000: f74a e53d b8f6 fa3c 7859 233d 654b adbc
00000010: 850c 12bc c934 c53c 4403 543c 6edc 21bc
00000020: c4af 82bc 15a7 7cbc 9462 13bd 7e38 053d
00000030: 469c a03c 8b4f 0abd 6d0a c93d e285 0ebd
00000040: ffd7 51bd a2b8 85bd f88a be3c bdfd 863d
00000050: 6b97 68bd 1637 e33c c9a0 a13d 4a16 763d
00000060: 8b86 bb3c b500 d3bc 85a7 013d 327f 9f3d
00000070: b902 1d3c 8283 82bd 8581 a6bb 54ac d8ba
00000080: c1fc 193c 27d5 29bd c280 08bc c7ac 693a
00000090: f9f9 5ebd 8b86 243b 67b8 71bb 1e3a 2abd
000000a0: df64 e03c b06b 913d a2c5 2abd ae83 60bd
000000b0: b0c0 a9bd 552c 75bd aace 1dbc 543e 463d
000000c0: 6d33 17bc 07e6 3dbc 1701 adbd 4d86 3bbc
000000d0: 6327 fa3b b149 443b b92d 07bd 1cbb 84bd
000000e0: 3845 a0bd 122a 293c 2049 f0b8 7fdd 5e3d
000000f0: 7249 233b f170 1a3b 8dab 683c 6269 56bc
00000100: 9a0c 10bb 9772 05bc 9713 0abd 010d 56bc
00000110: a87a f83c facb d83c c7ad 9bbc f41e 1f3c
00000120: a79e 4a39 b6e9 0ebd b901 f8b9 eb64 cb3b
00000130: b2e7 fbbb 6bd7 0dbd 78ce 18bd 277e ad3c
00000140: 89bd c03c cfbf bb3d b60c 1dbd 2a54 393d
00000150: 2911 f0bd 6088 80bd e612 853d a754 b33d
00000160: d258 bbbc c76a a03d 93ee 073d 2095 fb3c
00000170: 6f97 04bd 7efe 5dbb 8abd 87bc 6da9 42bc
00000180: 0dbd fcbd 7e2f 4bbd 5047 c23c 7316 713d
00000190: 71a4 843c b18d 343d 5e77 2a3e 3fd9 203d
000001a0: bcbd d3bb f5a4 2a3d be77 f6bb caea 3d3d
000001b0: 5781 08bd 69d5 9e3c c103 e13c 6852 3f3a
000001c0: 0211 203c 16f8 6fbc 4eda 36bd 0686 afbc
000001d0: 3ce4 9d3d 19ee 44bd f31b b2bd 01c8 b43d
000001e0: 6bbb 85bc 562f 02bc 7d56 283d cead 1b3d
000001f0: 899b 073c 5b67 53bc 30d5 dd3c 53ed 513c
00000200: af2c 6e3b e1b8 3bbd e60e 283d 95a6 38bc
00000210: 6b92 4d3c 4a96 be3d f29f 713d e334 1d3d
00000220: a207 a33d 9e1b 023d 5289 7cbd 1e71 1cbb
00000230: 7e1b 0e3d b472 38bc 7ce5 34bd 02a3 403d
00000240: 09af 67bd 7ca5 0fbd 87ad 843c 9f2e d4bc
00000250: 1ebf 883c e3c4 a4ba 3292 ecbd 812a c03a
00000260: 796a 983d 536e 50bd 98cc 453d 1ec3 153d
00000270: 264e 153d a9f3 afbb 7e76 26bd 5456 05bc
00000280: 5fb3 7e3c 25f4 dbbd a3be dbbb 7331 283d
00000290: e052 bcb9 eec7 36bd c215 fc3b ffd4 8a3c
000002a0: 4121 92bd 1af7 e6bb 7b0c d339 d5d2 333b
000002b0: acf1 6038 bf7d c4bc 0acb 12bd 8a9a 88bc
000002c0: 6f4b 32bd 2a59 c73c af62 c5bd b288 083d
000002d0: 3b99 28bd 405e e6b8 ad5d aa3d 1664 d6bc
000002e0: 31d5 143d 02f4 aabd 4697 3abb 1dc2 fabb
000002f0: 3da0 29bb f750 c2bd f993 0a3d 9391 2ebd
00000300: a001 43bd 07bc 753d dc4b 1b3c df70 6a3d
00000310: e4a4 c6bb e26e 58bd a088 5bbc 5891 803d
00000320: c733 903b a52d 403d 61ee bfbc 665c 9dbc
00000330: 175c 31bc de20 09bd 59b5 57bd 018a 6e3c
00000340: a5b8 fabb 0e3f 0f3d 5843 023d 899c 373d
00000350: 118f 893c 92db edbc a3e7 e2bc a641 543e
00000360: 017d 1a3d c6a0 4d3c c50a 1b3d a80a 003e
00000370: 3c1e 07bc 8e3f 183c 9d7c ca3c c724 4dbd
00000380: ccba 0bbd a822 6e3d 86a9 413c 4ba2 ab3d
00000390: a919 213c 6dc2 673d 7866 5b3d 082c 06be
000003a0: d89c 403d fd7d 01bc a2d8 a13c b973 adbc
000003b0: ddbe 7fbd 04ea 403d c65f 803d 3cf8 62bd
000003c0: be58 36bc 804b 253d 8839 f3bc c5b3 2c3d
000003d0: c40a e8bc f526 42ba 9bae 93bc c99f a43a
000003e0: 74ec a6bd 265f 613d b5e2 c03d f3cc 703d
000003f0: b41e 943d 0fa8 4a3d 8a7e c23c 4a30 b8bc
0.11195939 0.030635223 0.039880246 -0.021154115 -0.008914118 0.024073021 0.012940232 -0.009879215
-0.015952952 -0.015420695 -0.035982683 0.03252458 0.019605767 -0.033767264 0.09816442 -0.03479565
-0.05123138 -0.065293565 0.023259625 0.065913655 -0.05678503 0.027736228 0.078919955 0.06007985
0.022891304 -0.025757173 0.0316539 0.077879325 0.009583169 -0.063727394 -0.005081358 -0.001653085
0.00939864 -0.041463044 -0.0083314795 0.00089139905 -0.05443761 0.0025104608 -0.0036883594 -0.04155933
0.02739185 0.07100618 -0.041692384 -0.05481308 -0.08288705 -0.05985673 -0.009631792 0.048399284
-0.009228569 -0.011590487 -0.084474735 -0.011445594 0.00763409 0.002995115 -0.03300259 -0.06481001
-0.078257024 0.010324972 -0.000114577124 0.054410454 0.0024915603 0.0023565853 0.014201057 -0.013086649
-0.0021980167 -0.008144996 -0.03371009 -0.013064624 0.030331925 0.026464451 -0.019003762 0.00971197
0.00019323324 -0.034890853 -0.0004730353 0.0062070987 -0.0076875323 -0.034629267 -0.03730628 0.021178318
0.023527877 0.09167444 -0.0383422 0.04524628 -0.11722023 -0.062760115 0.06497745 0.087563805
-0.022869501 0.07832866 0.033186506 0.030710757 -0.03237098 -0.0033873613 -0.016569871 -0.011881215
-0.12340746 -0.04960584 0.023715645 0.0588593 0.016191693 0.04408044 0.16647097 0.039269682
-0.006461827 0.04166122 -0.0075215986 0.04636649 -0.033326473 0.019388871 0.02746761 0.0007298351
0.00976968 -0.014646551 -0.044641785 -0.021426212 0.07709548 -0.04807863 -0.08696737 0.0882721
-0.01632472 -0.007945856 0.041098107 0.03800755 0.008276829 -0.01290306 0.027079195 0.01281293
0.0036342551 -0.04583061 0.041029833 -0.011270185 0.012547116 0.09306009 0.058990426 0.038380515
0.0796044 0.03176462 -0.061654396 -0.0023871134 0.034694187 -0.011257816 -0.044164166 0.047030456
-0.05656341 -0.035069928 0.016196026 -0.025901137 0.016692694 -0.0012570884 -0.11551322 0.0014661105
0.07442183 -0.050886463 0.04829082 0.03656303 0.03645148 -0.0053696227 -0.040640347 -0.008138258
0.015545695 -0.10739926 -0.0067060753 0.041062783 -0.000359199 -0.04462426 0.0076930234 0.016947268
-0.07135249 -0.0070485 0.00040254355 0.0027438898 5.3630836e-05 -0.023985742 -0.035838164 -0.016675252
-0.04352897 0.024334509 -0.09637963 0.033333488 -0.041161757 -0.0001098481 0.083186485 -0.026170772
0.036336128 -0.08347322 -0.0028471514 -0.0076525346 -0.0025882863 -0.09488099 0.033832524 -0.0426193
-0.04760897 0.05999377 0.0094785355 0.05723655 -0.006062137 -0.05284012 -0.013399273 0.06277722
0.0044007036 0.04691853 -0.023429098 -0.019209098 -0.010825179 -0.03347861 -0.05266318 0.01455927
-0.007651406 0.034972243 0.031802505 0.044827018 0.016791852 -0.029035363 -0.027698344 0.20728168
0.03771687 0.012550538 0.037852068 0.12504065 -0.0082469545 0.009292496 0.024717623 -0.0500839
-0.03411369 0.05813852 0.011820203 0.08380564 0.009832778 0.056581903 0.05356452 -0.13102734
0.047024578 -0.007903573 0.019756619 -0.021173345 -0.06243788 0.047098175 0.06268267 -0.055412516
-0.011129556 0.040355206 -0.029690519 0.04216363 -0.028325446 -0.0007406318 -0.018027594 0.0012559827
-0.081505686 0.05502238 0.09418241 0.058789205 0.07232419 0.04947668 0.02374198 -0.022483964
