data/baumgartner_C-N/aniline_emulator/aniline_bm_predictor_1.pt (torch, 38367 bytes, 3 tensors)

input_layer.weight f4 [512, 16]
00000000: cdc1 d43d 83b6 52bd 3c9e 0fbc 9e24 6f3e
00000010: 7747 c3bc 39b3 10be a4e0 72be 5054 ab3c
00000020: 0e1f f8bd bf2f 263d d4d7 503e c81a 7b3e
00000030: 061d 6abe 38df 25be 37ad 07be 704c 85bd
00000040: 027e 07be 0983 7fbe 80c2 65be edbf 2abe
00000050: 16a3 43be 48f6 fd3c 69d3 003e 2c7c 44be
00000060: 4534 69be 990e 473e eca2 0a3c d466 08be
00000070: 9023 0abe c0c8 e33b be5b 763e 7abc 3abe
00000080: b74e ec3c adcf b53d 5732 00be 0bec 7cbe
00000090: af72 7a3d 7f1d 42be aa39 683c 8817 7f3d
000000a0: 2e10 2dbe 8761 76be c878 1c3e 285d 463d
000000b0: d062 4b3d f09f 2d3e d936 b53d d059 e1bc
000000c0: 3573 ad3c aff2 f7bc e93c cebd a59b 3b3e
000000d0: 7a7e 47bc 9377 50be d55d 16be a039 4cbd
000000e0: 7a60 753e 8c78 f6bd 6473 a63d 5015 533e
000000f0: e082 f33d ec20 01be 9a92 5f3e 1a35 21be
00000100: 3e1b 1ebe 03e0 56bd 5fea 763e ffc8 7bbe
00000110: d518 783d a42d 1fbe 53fd 20be dcc4 bfbd
00000120: 8307 723e 2608 b0bd 1ca0 47be 7054 843c
00000130: 9c59 d7bd 6e7c 173e e675 723e 5067 0e3e
00000140: 55d5 06be e25b 313e 1ee1 c03c a2d4 523d
00000150: 551b 7fbd 1e15 4fbe 0b5f 54bd f0d0 3d3d
00000160: 9178 80be 7f83 e53d bc1e 8abd e62b 76be
00000170: 90e3 51bd e00e 1c3d 36b8 20be 00b1 e13b
00000180: c492 573e 7182 1abe cb0a debd b7fa 3b3e
00000190: 98e2 9d3d d364 963d 7eb3 0f3e 385a 0e3d
000001a0: 24da 123e 0117 80be f21d dbbd 3063 7abe
000001b0: 0c22 1f3e 80dc 793b 03c4 5fbc f046 4ebd
000001c0: 1159 66be ddcc 3b3e 7077 5d3d 0e61 26bd
000001d0: 6f50 78bc d7f3 3a3d bbf0 7bbe 28db 4abe
000001e0: e9e3 28be a0ab b9bd eab3 4fbd 0009 02bd
000001f0: e057 e93d 9ae3 773e 7587 583d 4e82 613e
00000200: 95e5 e2bd 4087 da3c 35d2 053e 0160 983d
00000210: 1a42 e93d c0fd 8d3b f60d f03d de9a 7a3e
00000220: 8238 0dbd 5d94 95bd 2f15 223e a08e b9bc
00000230: 6ccf 8cbd 347e e1bd 0f65 6fbe d8b1 473d
00000240: 602d adbd bc68 04be 92a5 0f3e 69db 38be
00000250: d8ce 3dbe f997 403e ea89 acbd cacc 413e
00000260: b047 5fbe 9634 cf3d 1bf3 6f3e 7a0c 59be
00000270: 808f d1bd 5c37 e43d 24cf 37be 5649 60be
00000280: bcfe 24be b0a6 2f3c 8684 f03d 3ff2 47bd
00000290: 3386 773d 88ed 35be 842d 81bd ba2d 76be
000002a0: 65aa 243e f991 193d 9e80 9fbc 1892 6fbe
000002b0: 60a1 57bd 7e47 2bbe 1204 fcbc bcd2 b2bd
000002c0: 6f30 2f3e f6b3 17be b45c 1b3e 044f c53d
000002d0: 3a1a 11be 7481 0a3e 3fff f83d 5818 923d
000002e0: 5553 513d be83 07be 76ff 5ebe 7eeb 253e
000002f0: 32dd 10be a882 413e 8ab6 493e 702e a2bd
00000300: 7fcb 06be e822 b4bd 14c3 4cbe 3b82 583e
00000310: d779 663d 43ca 21be b816 73be 588e 7dbe
00000320: 2523 973d 66dd 5c3e bb1b ccbc a034 bcbd
00000330: b821 16bd 567f 1b3e fceb 00be 6c4f 50be
00000340: 627d 1e3e 6df6 5b3e fe35 1dbe 3220 483e
00000350: 0775 593e e0c3 26bc d0d1 27bc f827 083d
00000360: f767 743e a92b ff3c 7124 2abe d49f 9d3d
00000370: 5c7a 593e 308c 3fbd a8c4 e3bd e02f 7fbe
00000380: fa7c 463d 5e84 83bc 0df9 10be 5a3c 7dbe
00000390: 3185 493e 6fc3 0b3d 6f1f bcbc 70b5 383e
000003a0: d4b8 563e a4b7 533e 4ca7 073c 7082 80bd
000003b0: 4288 003e 74dd 9c3d 8f34 113c 5c8f 013e
000003c0: e682 633d a42c b0bc f891 4ebe ca1a 0ebe
000003d0: e8f1 1ebe 8bbf 663d 205c 50bd 70af 5e3e
000003e0: 054f 333e e0b5 783c 42d4 79be 909b b93c
000003f0: f458 533e 90a9 633e 6202 1bbc d8fa 70bd
0.10388527 -0.051443588 -0.008765753 0.23353812 -0.023837788 -0.14130868 -0.23718506 0.020914227
-0.12115298 0.040572878 0.20394832 0.24521935 -0.22862634 -0.16198432 -0.1324967 -0.0650872
-0.13231662 -0.2495233 -0.22437477 -0.16674776 -0.19105181 0.031001225 0.12580647 -0.19187993
-0.22773845 0.19439162 0.008461695 -0.13320476 -0.13490129 0.0069514215 0.24058434 -0.1823596
0.028846128 0.08877502 -0.12519203 -0.24699418 0.061144527 -0.18956564 0.014173904 0.0622783
-0.16900703 -0.24060641 0.1528045 0.048428684 0.04965478 0.16955543 0.08848352 -0.027508646
0.021173099 -0.030267088 -0.100702114 0.18321092 -0.01217615 -0.20358114 -0.14684232 -0.049859643
0.23962584 -0.12034711 0.08127478 0.20613599 0.11890197 -0.12610215 0.21833268 -0.15742913
-0.1544008 -0.052459728 0.24112843 -0.24588393 0.060570557 -0.15544754 -0.15721636 -0.0936372
0.23635678 -0.08595304 -0.1949467 0.016153544 -0.105151385 0.1479356 0.23677787 0.13906598
-0.13167317 0.17320207 0.023544844 0.051472314 -0.062281925 -0.202229 -0.051848453 0.046341836
-0.25091985 0.112067215 -0.06744143 -0.24040183 -0.05124241 0.038100123 -0.15695271 0.006887555
0.2105208 -0.15088822 -0.10841902 0.18357359 0.07709235 0.073434494 0.14033315 0.034754008
0.14341027 -0.2501755 -0.10699071 -0.244519 0.15540332 0.0038125813 -0.013657573 -0.05036062
-0.22494914 0.18339868 0.054068983 -0.040619902 -0.015155896 0.0456427 -0.2460355 -0.19810164
-0.16493191 -0.09065938 -0.05070869 -0.031746864 0.11393714 0.24207917 0.052863557 0.22022364
-0.110789455 0.02667582 0.13068469 0.07440186 0.11389561 0.004333228 0.11721413 0.2447314
-0.03447772 -0.07303689 0.15828393 -0.022651017 -0.068755 -0.110103995 -0.23378395 0.04875359
-0.0845592 -0.12930578 0.14028004 -0.18052448 -0.18535936 0.18807973 -0.084247425 0.18925777
-0.2180469 0.10117452 0.23432581 -0.21196166 -0.102324486 0.111433715 -0.17950112 -0.21902975
-0.16112798 0.010720894 0.11744027 -0.04881501 0.060430717 -0.17766392 -0.063075095 -0.24040881
0.16080625 0.037492726 -0.01947051 -0.23395574 -0.052644134 -0.16726491 -0.03076366 -0.08731601
0.1710832 -0.14814743 0.15172082 0.09634212 -0.14170161 0.13525945 0.12158059 0.071335495
0.051104862 -0.1323385 -0.21777138 0.16203114 -0.1414688 0.18897498 0.1969854 -0.079190135
-0.13163565 -0.0879572 -0.19996291 0.21143429 0.05626854 -0.15799813 -0.23739135 -0.24761331
0.0737975 0.21568832 -0.024915567 -0.09189725 -0.03665325 0.15185294 -0.12590021 -0.20342797
0.15477517 0.21480723 -0.15352628 0.19543532 0.21236049 -0.010178536 -0.010242894 0.033241242
0.23867784 0.031148748 -0.16615464 0.076965004 0.21238083 -0.046764553 -0.111214936 -0.24920607
0.04845903 -0.016054329 -0.14157505 -0.24730054 0.19679715 0.034121927 -0.022964207 0.18037963
0.20968944 0.20675522 0.008279633 -0.06274879 0.12551978 0.07659426 0.008862629 0.12652344
0.055544756 -0.021505661 -0.2017287 -0.13877407 -0.15521967 0.056335013 -0.050869107 0.21746612
0.17510612 0.015180081 -0.24397376 0.022657186 0.20639402 0.22232652 -0.009461017 -0.058832973

input_layer.bias f4 [512]
00000000: 75c8 063e b734 663d 9033 4b3d 666c 1d3e
00000010: bf82 81be 52ad 173e 376a fdbd 7bb4 3dbd
00000020: 9f07 b23d 90b3 1fbe 852e 733c 3490 813e
00000030: 3257 8c3d ef15 5dbe 0d5a 983d 29cd fabd
00000040: 713c 553e 25d6 5ebe 754a 753e 7fff 51be
00000050: b615 d73c f010 ec3d 2db8 2f3d 441e 84bc
00000060: c9bc 3bbe ba3b 063d ddaa 463e 1927 fcbd
00000070: 159e 023e ebf5 7a3d 4434 ad3d 9741 533e
00000080: 7bd4 663e 460d c83c 007f f93d 0039 9bbd
00000090: b4fb 613e 5db9 6f3e e28c 683d 28d4 62be
000000a0: 8061 60bc c684 e3bd 6681 163d 9e43 ffbd
000000b0: 218d 473e 19dd ffbd 70d9 2abe 97ae 6dbe
000000c0: 4736 3a3e fc44 29bd a81e d43c 4174 3bbd
000000d0: de5d 4fbe e612 ab3a 14dc 26be e7ef 8cbd
000000e0: b334 083e 2fa8 b93c 5231 7a3d 84f4 39be
000000f0: 81e1 3d3d a2c7 d3bd d5ff bfbd 4983 f53d
00000100: a836 cb3d b4a2 cabc e54e f5bd 29d3 48bc
00000110: fe1b 72be 265e 03be 87f0 223d 6678 debd
00000120: a44a 103d 4c0d f13c 32ef d03d 501a 653e
00000130: 541d 483e a388 0fbe fe72 50be f011 c7bd
00000140: 329b 4cbe 72e8 623e d38a 793e efb2 b73d
00000150: 332b d43d 9a1f 38be 45f7 81bd 6163 c0bc
00000160: c619 7fbd bd1a a03d 3df5 61bd 5581 b7bd
00000170: 7cef 1dbe 640f f23c c18e 3abe 62e7 d8bd
00000180: 337e 21be c2db f3bd 87e0 0bbe baca 173e
00000190: 92dc 183e 9a1b 47be daf7 173e 51b2 453e
000001a0: 8acc d73d b0da 2ebe 9821 4cbe 03e4 ebbd
000001b0: cd29 2f3d 17c6 7fbe 8112 02bc cefa e2bd
000001c0: c640 bcbc 65fa 45be b23f de3d 265e 82bd
000001d0: b3b7 c2bd 10a3 94bd 2056 393d 16df 9a3d
000001e0: 4123 283e f737 053d 8f5b 74be 371c 13be
000001f0: 9902 49be 9838 c53d 0270 c33c d785 37be
00000200: 9ccf 78be ca6c d13d e8bc 31be f615 9dbd
00000210: 02bc 6a3d 1786 143e ff48 fdbd 535c 693e
00000220: 5fcb 1fbe 6dfe 2d3e 6a02 183d 5291 8c3d
00000230: fdb1 aabd b503 7fbe 9b19 63be e870 15bd
00000240: 7b4e 3d3e 032b 813d 47d5 003e 9f20 29be
00000250: 7000 8dbc 93e0 a7bd d0a8 5dbe 42e7 0b3e
00000260: 97a4 433d ba35 da3d 1e44 11bd 8ae7 4ebe
00000270: 7796 ba3d f82e 74bd 9b2f 623d 4701 473e
00000280: bfa1 893d 969a f43c d367 833d 186c 613e
00000290: ffca 32be 3a42 39be cb9d 72be a69e 9a3d
000002a0: 863a 223e 7a4a 893d 0699 783e 5c75 9dbd
000002b0: 50fb 9abd 5a78 44be 31c4 203e 5b31 1e3d
000002c0: 693b 523e 0722 443e a8c5 4a3d 5a7f 80bd
000002d0: 1793 9e3d b897 2ebe 6754 1b3c ed38 3bbe
000002e0: 5a89 28be e21f 1c3c de34 053a 3d59 07bd
000002f0: fd50 443c 1e09 53bd 128a 35bd 3685 793e
00000300: a2ff 4ebd f2f0 5c3e 6943 1b3d ff95 2abd
00000310: 2528 b93d 883a 30be 3a9c 153e feab e73b
00000320: 150d 963d fc78 f7bd 1523 48be 3950 34bd
00000330: 2148 753e ba17 f13d 1064 0dbe cae9 6b3c
00000340: c001 30be 5811 d03d 33a4 77be 93d9 fb3d
00000350: 2b6a efba b592 bcbd 1f2b 27be 04d0 673b
00000360: 7edd 93bd 7a39 06bd 2681 67be c3c4 0cbe
00000370: c91b 2d3d b399 0ebe a6a7 1f3c 4cf0 3bbe
00000380: 542d 31be 911a 6ebe 3d96 133d bcf2 46be
00000390: c150 d23d f918 1d3d 5f59 acbc 675f 043e
000003a0: f7cd 433d 0db2 00be ec88 12be e2c9 133e
000003b0: 0654 8ebd 356b 353c 4690 04bd 8fdd 433e
000003c0: 7109 423e 3513 433e 0d55 953d 958b 6dbe
000003d0: b8cd b23d b29e ec3c bc4d 383c a075 3e3e
000003e0: 0638 b43d 7d1a 58bd 2773 b2bd 0161 4dbe
000003f0: b2b9 d3bd b52b a0bd 6f17 8b3d 0540 293c
0.13162406 0.056202617 0.04960972 0.15373382 -0.25295064 0.1481221 -0.123737745 -0.046314698
0.0869286 -0.15595841 0.014842634 0.2530533 0.06852569 -0.21590398 0.07439051 -0.122461624
0.20823838 -0.21761377 0.23954184 -0.2050762 0.02625547 0.11526668 0.042900253 -0.016127713
-0.18333735 0.032771803 0.19401117 -0.12312145 0.12755616 0.061269682 0.084572345 0.2063049
0.22541992 0.024420392 0.121824265 -0.07579231 0.22068673 0.23410554 0.05677498 -0.22151244
-0.013695121 -0.11109309 0.036744498 -0.12464069 0.1948743 -0.12493343 -0.16684508 -0.23211132
0.18184768 -0.041325554 0.025893524 -0.045765165 -0.20250651 0.0013051897 -0.1629489 -0.06881695
0.13301353 0.022663204 0.06108219 -0.18159682 0.046357635 -0.10340811 -0.09374968 0.11987931
0.09922534 -0.024735786 -0.119779386 -0.012257376 -0.2364349 -0.12828884 0.039780166 -0.10862808
0.035227433 0.029425286 0.10201873 0.22373319 0.19542438 -0.14016967 -0.20356366 -0.09720218
-0.19981077 0.22158983 0.24369363 0.08969676 0.10359802 -0.17980805 -0.06345991 -0.023484888
-0.06228044 0.078176 -0.055165518 -0.08960215 -0.15423387 0.029548354 -0.18218519 -0.10591008
-0.15770797 -0.1190715 -0.13659869 0.14823428 0.14927891 -0.19444123 0.14840642 0.19306304
0.105370596 -0.1707561 -0.1993469 -0.11518099 0.042764474 -0.24977909 -0.007938982 -0.110829934
-0.022980105 -0.19333799 0.10851993 -0.06365614 -0.09507694 -0.07257664 0.04524815 0.075620815
0.16419698 0.032524075 -0.23863052 -0.14366232 -0.19629897 0.09629935 0.02385712 -0.1792215
-0.24297947 0.10225828 -0.17357218 -0.07670204 0.057308204 0.14504276 -0.123674385 0.22789125
-0.15604924 0.16991587 0.037111677 0.06863655 -0.0833473 -0.24903758 -0.22177736 -0.03648463
0.18486969 0.06307032 0.12581359 -0.1651635 -0.017212123 -0.08197131 -0.21646428 0.13662437
0.047764387 0.10654779 -0.035465352 -0.20205513 0.0911073 -0.059615105 0.05522118 0.19434081
0.06720304 0.029858869 0.06416287 0.2201389 -0.1746025 -0.1809167 -0.23693006 0.07549791
0.15842637 0.067036584 0.24277124 -0.076884 -0.07567465 -0.19186535 0.15699841 0.038621288
0.20530476 0.19153605 0.049504906 -0.062742904 0.07742899 -0.17050064 0.009480572 -0.18283434
-0.16458645 0.009529086 0.0005081425 -0.03304409 0.0119822 -0.051522367 -0.044321127 0.24367222
-0.05053676 0.21576288 0.037906084 -0.041646954 0.0904086 -0.17209828 0.14610377 0.0070700636
0.07326714 -0.12083623 -0.19544633 -0.04402182 0.23953296 0.117721036 -0.13807702 0.014399001
-0.17188168 0.10159558 -0.24183731 0.12297358 -0.0018265893 -0.0920767 -0.16325043 0.003537179
-0.07219981 -0.032769658 -0.2260786 -0.13746934 0.042262826 -0.13925819 0.00974456 -0.18353385
-0.17302448 -0.23252322 0.03603195 -0.19428533 0.10269309 0.038353894 -0.02103871 0.12927018
0.047803845 -0.12567921 -0.14310044 0.14432481 -0.0694962 0.011072923 -0.032364152 0.19127487
0.18948914 0.19050296 0.07291613 -0.23197778 0.08730644 0.028884266 0.011249002 0.18599558
0.08799748 -0.052759636 -0.0871337 -0.20056535 -0.10338153 -0.078208365 0.06791579 0.010330205

output_layer.weight f4 [1, 512]
00000000: 40bd 6d3c fe9c cc3c 978e 903d c1f8 85bd
00000010: c1e8 0cbd af2f ea3c 8f83 6ebd a7e5 1a3d
00000020: 7848 eabc bdc0 b7bc 60e8 a63b ea61 d3bd
00000030: e82f deba 16e3 4a3c 4a0f 343d ffc0 ccbc
00000040: 8ab5 903b d6b2 fbbc af9f 93bd 3038 50bd
00000050: d6de 743d c57d ccbb f932 ea3c bd54 86bd
00000060: 7aa3 2abc 9333 113d 4959 4ebd 2c71 debc
00000070: a26a 16bd 8138 cbbc 8afb 11be 5d28 c93d
00000080: 8b93 d33c f4fd 67bc 1567 c73d 6c5c f6bc
00000090: d56b 123d 6013 9dbc d34f 93bd 0cac be3c
000000a0: 4241 8f3c 67d4 1b3d a629 3e3d a455 3bbd
000000b0: 6771 b8bd 6e33 31bc 35d6 d43c b6b3 0d3e
000000c0: 8b9c 2bba f5fa 49bb 825b e8bd 9fae abbd
000000d0: 20f6 67bd 7111 a2bc c445 7c3c 6ef1 d43c
000000e0: e7b8 1a3d f860 1abd f7b0 17be be21 05bc
000000f0: 2d05 c0bd 4022 eb3c 8947 8b3c 86a1 0d3d
00000100: 3202 87bb f9cb 303d 2ee2 043d 2ee2 94bc
00000110: 1a2a 3bbd 2338 c53b 994e 2b3c bb44 51bc
00000120: d48b 413d 6509 ccbc 7576 cd39 3151 88bc
00000130: 565e 19bd 8fca 033b 3f4b 1bbd 166e 32bd
00000140: 064c 54bd f158 1e3c 1b52 efbd d528 54bd
00000150: 08d6 90bd 54c9 273d 252e 6a3d d7ab e638
00000160: 4f60 613c 6ce0 82bd e6b2 033c 165e 7c3c
00000170: 93a4 153c 6fa6 523d 5653 9a3b 67a7 7cbc
00000180: c1d2 53bc ae94 0cbd 36f2 dabc a345 2b3d
00000190: 789e 09bc df13 843c 6172 8abd 4479 99bd
000001a0: 7b89 9a3d 2fea 123d 9bea 453d 5f94 c93b
000001b0: 1477 1ebb 8e93 503d 1b72 d73d a388 7b3c
000001c0: 049f b1bc 2148 1f3d aa84 7fbd 3fc9 aabd
000001d0: 7d1a 7c3d 63f8 d7bc 2874 d4bc 1d85 a3bd
000001e0: 20df 9e3c 2a78 8dbd 20d8 8cbd 9326 643e
000001f0: fb77 3bbc 071b c1bc 21ab ec3c 0598 34bb
00000200: e288 b93c 9af2 e13d e350 543d 9359 99bd
00000210: a505 70bb cccd 67bd fa49 833c 3334 82bd
00000220: 5682 b53c 3eaa 04bd 0391 6dbd eba2 763c
00000230: 50bb c13c c92e 1fbd c25f babd 7057 dabc
00000240: 8f2c 0abd 52fe f63c c26c 5c3d 72bb 76bd
00000250: c131 4fbd 46ec 5abd 2dc1 5dbc 3b98 203d
00000260: bd0f d43c c2ad eebd 6656 b8bb a790 4f3d
00000270: be31 36bc f5d5 163c a165 4d3d 3b7f 933c
00000280: 9212 9cbc 0f14 573d 5fea 2e3c 2f1a 3fbd
00000290: a558 653d d854 373c 423a 3bbb 95ee a03d
000002a0: 7991 f23c ddd5 e03c 81ac 393c 2190 c5bb
000002b0: e6eb 11bd 5df8 eabc c875 943d 95cd d93c
000002c0: 1942 623d 7b00 933c d1cc 9038 5b6b 24bd
000002d0: 4d2e a2bb 32d4 14bc 0f27 32bd fc85 813b
000002e0: ab82 7d3d c3d2 ac3c bc8b a7bb c3e9 cabd
000002f0: 2fb7 9e3c 93a5 49bc a263 49bd 29cd f43b
00000300: f159 7d3d 29a7 be3d a791 163c 83b4 b43d
00000310: cde8 89bb 06d0 06bd 641f f13c b101 973d
00000320: 6659 aa3b f086 a4bb 71f0 a93b ea7b debc
00000330: 7422 883d 9780 bfbb fa89 953c e714 a63b
00000340: 10eb 3f3d 14f6 2dbd b026 343d 9e6a 10bd
00000350: ea61 09bc 693b ba3d 8699 3fbc b1e1 3c3d
00000360: b42b f6bc 8c7c 083d 3505 e039 94b0 2d3d
00000370: 698a 58bd 1498 abbc 5385 4f3c f2e5 a93c
00000380: 1c05 47bd b109 0c3d 62d2 0f3d bcaf 9f3c
00000390: 0b53 09be 404b bebc 40b1 343d f809 9b3b
000003a0: daf6 b03d 5c34 12bc 7b05 e3bc e50e eabc
000003b0: 9e0c 81bd 4d17 363c b338 c1bd 4a42 cf3c
000003c0: ca24 993d 5fc8 1dbd 4361 08bd 335e 6a3d
000003d0: f433 1e3d 56f4 76bd 3594 d93c a29d 083e
000003e0: 9e2e 043b 5802 83bc b373 2c3d 0999 823c
000003f0: fdf7 d23d 0064 dbbb dfeb aebc c6be 8a3c
0.014510453 0.024977203 0.07058447 -0.06541587 -0.03440166 0.02858719 -0.058230933 0.03781667
-0.028599009 -0.022430772 0.005093619 -0.1032141 -0.0016951533 0.012383243 0.043959893 -0.024994371
0.0044161724 -0.030724924 -0.072081916 -0.050834835 0.059782825 -0.006240579 0.028588759 -0.06559131
-0.010414952 0.035449576 -0.050378118 -0.027153574 -0.036722787 -0.024807217 -0.14256111 0.09822152
0.02582719 -0.014159668 0.09736458 -0.030073367 0.035747368 -0.019174278 -0.0719296 0.023275398
0.017487172 0.03804436 0.046426438 -0.04573597 -0.09006005 -0.010815484 0.025981048 0.13838086
-0.0006546459 -0.0030819748 -0.11345579 -0.08382916 -0.056631207 -0.019783707 0.015397493 0.025994029
0.037773993 -0.037690133 -0.148136 -0.008125721 -0.09375987 0.028702855 0.017001884 0.03457787
-0.0041201347 0.043163273 0.032442264 -0.018174257 -0.045694448 0.006018655 0.010455751 -0.012772734
0.04725249 -0.024906823 0.00039188904 -0.016640278 -0.03744348 0.0020109748 -0.037913557 -0.043562017
-0.051830314 0.00966476 -0.11685582 -0.051796753 -0.07072073 0.040963486 0.057172913 0.00010999262
0.013755872 -0.06390461 0.008038258 0.015403291 0.009133476 0.051428255 0.0047096414 -0.015420771
-0.012928666 -0.03432148 -0.026726823 0.041814458 -0.008399598 0.016122757 -0.06760097 -0.07493833
0.075457536 0.035867866 0.04831944 0.0061517204 -0.0024179863 0.05092197 0.10519811 0.015352401
-0.02168227 0.038887147 -0.062382378 -0.08339166 0.0615487 -0.026363557 -0.025934294 -0.07984374
0.019393504 -0.06907685 -0.0687716 0.2228034 -0.01144218 -0.023572458 0.028890194 -0.002755643
0.022648279 0.11032601 0.051834952 -0.07487788 -0.0036624458 -0.056592748 0.016026486 -0.063576125
0.022156876 -0.032388918 -0.057999622 0.015053491 0.023648888 -0.038862977 -0.091002956 -0.026653022
-0.0337339 0.030150566 0.053814657 -0.060237356 -0.05058456 -0.053447984 -0.013534826 0.03920768
0.02588641 -0.116542354 -0.005625534 0.05067506 -0.011120258 0.009206285 0.05014575 0.018005004
-0.019051824 0.052509364 0.010675996 -0.04665583 0.05599274 0.011189662 -0.002856866 0.07858006
0.029610382 0.027445728 0.011332632 -0.0060291444 -0.03562536 -0.028682882 0.072490275 0.026587287
0.055238817 0.017944565 6.904605e-05 -0.040141445 -0.004949367 -0.009083794 -0.04349428 0.0039527398
0.061892193 0.021096593 -0.005113093 -0.09907868 0.019374458 -0.012307542 -0.049167283 0.007470746
0.061853353 0.09309227 0.00919 0.088234924 -0.00420866 -0.03291323 0.029433914 0.073733695
0.0051986454 -0.0050209686 0.0051861336 -0.027158696 0.066471964 -0.0058441865 0.018254269 0.0050684097
0.046855032 -0.042471007 0.043982208 -0.035257928 -0.008385161 0.09093363 -0.011694318 0.046113674
-0.030050136 0.033321902 0.0004272849 0.042404726 -0.052866373 -0.02094654 0.012666064 0.02073953
-0.048588857 0.03418893 0.035112746 0.019492976 -0.13410585 -0.023229241 0.04411435 0.004731413
0.08640833 -0.008923616 -0.027712574 -0.028571555 -0.06301235 0.011113954 -0.09434643 0.025300164
0.0747772 -0.038521167 -0.03329588 0.05721874 0.038623765 -0.06029161 0.026559928 0.13341382
0.0020169388 -0.015992329 0.042102527 0.015942113 0.10301206 -0.0066952705 -0.021352706 0.016936671
