data/baumgartner_C-N/aniline_emulator/aniline_bm_predictor_1.pt (torch, 38367 bytes, 3 tensors)

input_layer.weight f4 [512, 16]
0.109010845 0.14592537 0.17256089 0.021518117 -0.07238803 -0.22077648 -0.24012652 -0.07504296
0.18619521 -0.06855512 0.037341736 0.071528316 -0.12526 -0.005702913 0.1816773 0.0830847
0.23172358 0.01457759 0.085920036 -0.040881082 0.18479899 -0.087173395 0.14971778 -0.21946168
0.10781696 0.23959588 0.18244231 -0.14419204 -0.095796436 0.13461459 0.06729413 0.038789093
-0.014463207 -0.085735515 -0.06039331 0.05934823 -0.10530264 -0.22425927 -0.1483276 -0.24189293
-0.013970428 0.20658973 -0.16368909 0.24135539 0.07132524 0.21031952 -0.1205929 0.0076325536
0.24728411 -0.1149602 0.18374649 0.17279041 -0.17318954 -0.09574612 0.020017734 -0.105169386
-0.06371422 -0.10467541 0.08170409 -0.091502935 0.0009249747 -0.22920987 0.035571825 0.038009703
0.1668487 0.20681912 -0.15175977 0.11956406 0.054464016 0.012387286 -0.03289072 -0.08433944
-0.22736022 0.0041817147 0.22999269 -0.049502224 0.0973019 -0.12490067 -0.051863056 -0.22537693
-0.06783357 0.087843865 -0.06286128 -0.033680134 0.13479775 0.19218314 0.005617979 0.043799788
-0.16628678 0.08215987 0.19482847 -0.1966269 0.03317648 -0.17657855 0.06802879 0.06822029
0.13587448 0.24833019 -0.016536344 0.08623257 0.1487687 0.17212959 -0.0036822509 -0.04948044
-0.012285446 -0.152244 -0.14397933 -0.08270568 -0.005939871 0.14631632 -0.1671134 -0.10004908
-0.13297865 -0.17214358 0.057685435 0.06348342 -0.13371973 0.25099343 -0.225329 0.11592728
0.08502596 -0.023934633 -0.11543352 -0.07658008 0.23268974 0.017255217 -0.11567014 -0.101986706
-0.18349779 -0.18919636 0.22840601 -0.23659788 -0.13034387 0.21435954 -0.20963544 0.0084894
-0.19281724 0.22142634 0.13004862 -0.22912726 0.1816045 -0.029624104 -0.13734226 0.2292212
0.1141333 -0.09808823 0.054706614 -0.19596754 -0.21823363 -0.14017206 -0.008425038 0.19920212
-0.17360818 -0.086947225 -0.12258209 0.2255517 -0.03201148 -0.14970115 0.109321706 0.044296563
0.02794663 0.20034255 0.14009178 0.15995266 -0.021710532 0.16259815 -0.073106095 0.00219661
0.146841 -0.2182486 0.19017877 -0.1420205 -0.11343047 0.22535262 0.0059478018 0.18604147
0.12452197 -0.23437274 0.011490437 0.24548751 -0.03393003 0.0916042 0.088813946 0.0081961155
-0.04610769 -0.138104 0.065921076 0.009938389 -0.21732286 -0.117767036 -0.08234745 0.020847619
0.054100443 0.24543491 0.06583662 -0.1514917 -0.009699511 0.2094637 -0.2144119 -0.2110306
0.1712464 -0.0941598 0.25480708 -0.015389621 0.14774832 0.05381152 0.041705284 0.23194006
-0.17590377 -0.16257611 0.18116239 0.16596864 0.022238417 0.22127178 -0.18938771 -0.04056114
0.1501671 -0.16185157 -0.068576135 -0.123812586 -0.030326545 -0.011205554 0.07442254 -0.03301713
0.056248102 -0.09901408 0.15615469 -0.13562605 0.10741122 0.21501717 0.03697392 0.17385328
-0.20230314 0.10938502 -0.20677528 -0.1381515 0.08212575 0.04456371 -0.07080507 0.18167898
0.08801666 -0.22847794 0.18915792 -0.15698868 0.16263333 0.080301315 -0.060566355 -0.24005675
-0.20469525 -0.24091421 0.14066222 -0.09916744 0.21846685 -0.19449577 0.07407575 -0.22440049
00000000: 1441 df3d 766d 153e cdb3 303e c346 b03c
00000010: 2d40 94bd 3b13 62be bae3 75be 20b0 99bd
00000020: f5a9 3e3e a066 8cbd a6f3 183d 707d 923d
00000030: 2844 00be 80df babb 9d09 3a3e 5028 aa3d
00000040: f248 6d3e d8d6 6e3c d8f6 af3d ec72 27bd
00000050: f23b 3d3e f787 b2bd 9e4f 193e 90ba 60be
00000060: 23cf dc3d 9f58 753e 28d2 3a3e 14a7 13be
00000070: ec30 c4bd 68d8 093e 81d1 893d 50e1 1e3d
00000080: 16f7 6cbc 1a96 afbd fa5e 77bd 2117 733d
00000090: e9a8 d7bd 39a4 65be 31e3 17be c8b2 77be
000000a0: 39e4 64bc 428c 533e 1d9e 27be de25 773e
000000b0: f812 923d 005e 573e 69f9 f6bd 801a fa3b
000000c0: 0c38 7d3e 4170 ebbd 0a28 3c3e f8ef 303e
000000d0: 9958 31be 8b16 c4bd 3bfc a33c 0c63 d7bd
000000e0: 9a7c 82bd 1060 d6bd 7954 a73d e465 bbbd
000000f0: 007a 723a feb5 6abe c3b3 113d 10b0 1b3d
00000100: 63da 2a3e 64c8 533e ea66 1bbe 00de f43d
00000110: a915 5f3d 0bf4 4a3c 6bb8 06bd 28ba acbd
00000120: 1ed1 68be c406 893b 3483 6b3e d8c2 4abd
00000130: 3846 c73d eccb ffbd 5b6e 54bd 36c9 66be
00000140: 54ec 8abd 7ce7 b33d 6abd 80bd 2ef4 09bd
00000150: 6c08 0a3e a8cb 443e 0617 b83b 6867 333d
00000160: 1547 2abe 6f43 a83d 1d81 473e 9058 49be
00000170: 10e4 073d 02d1 34be ae52 8b3d 14b7 8b3d
00000180: ae22 0b3e 454a 7e3e 3a77 87bc b49a b03d
00000190: d256 183e bd42 303e eb51 71bb 00ac 4abd
000001a0: e548 49bc dae5 1bbe 516f 13be 9861 a9bd
000001b0: 40a3 c2bb f2d3 153e c61f 2bbe 88e6 ccbd
000001c0: 8e2b 08be 6846 30be 9047 6c3d 9803 823d
000001d0: d3ed 08be 3682 803e a5bc 66be 486b ed3d
000001e0: 1722 ae3d 9012 c4bc 6968 ecbd 04d6 9cbd
000001f0: 3846 6e3e d05a 8d3c 77e4 ecbd 68de d0bd
00000200: d8e6 3bbe b1bc 41be 44e3 693e b746 72be
00000210: dd78 05be 1181 5b3e acaa 56be 2017 0b3c
00000220: e271 45be 96bd 623e 772b 053e 56a0 6abe
00000230: 88f6 393e 40ae f2bc 73a3 0cbe f6b8 6a3e
00000240: b8be e93d 7be2 c8bd 0b14 603d b7ab 48be
00000250: a378 5fbe 4489 0fbe 2c09 0abc a4fb 4b3e
00000260: 58c6 31be 6311 b2bd 520c fbbd 06f7 663e
00000270: 781e 03bd 424b 19be 0fe4 df3d 5070 353d
00000280: 55f0 e43c 9926 4d3e 3874 0f3e a1ca 233e
00000290: 49da b1bc 2180 263e a6b8 95bd 00f5 0f3b
000002a0: 7d5d 163e 907c 5fbe 39be 423e d26d 11be
000002b0: 3c4e e8bd d6c2 663e c7e5 c23b a881 3e3e
000002c0: 6005 ff3d 68ff 6fbe 6342 3c3c 1461 7b3e
000002d0: 37fa 0abd fc9a bb3d 16e4 b53d 0049 063c
000002e0: 6bdb 3cbd 236b 0dbe a101 873d a0d4 223c
000002f0: e289 5ebe d82f f1bd c8a5 a8bd a0c8 aa3c
00000300: 6d98 5d3d 4a53 7b3e 5ad5 863d a420 1bbe
00000310: b3ea 1ebc a77d 563e cb8e 5bbe 6818 58be
00000320: 375b 2f3e dad6 c0bd 1376 823e c024 7cbc
00000330: 564b 173e 7869 5c3d 29d3 2a3d b281 6d3e
00000340: 1e20 34be 5a7a 26be a282 393e aff3 293e
00000350: 572d b63c 1295 623e daee 41be 7023 26bd
00000360: 67c5 193e 6bbc 25be a571 8cbd 7491 fdbd
00000370: 606f f8bc 8097 37bc d86a 983d f83c 07bd
00000380: 6964 663d e5c7 cabd 04e7 1f3e 8ee1 0abe
00000390: 6afa db3d 762d 5c3e f771 173d 9806 323e
000003a0: 8e28 4fbe 4105 e03d e6bc 53be 9677 0dbe
000003b0: 8c31 a83d 7088 363d 4002 91bd 0e0a 3a3e
000003c0: 1442 b43d 1ff6 69be 9db2 413e a4c1 20be
000003d0: 5a89 263e 0475 a43d 6d14 78bd 70d1 75be
000003e0: a29b 51be 37b2 76be c209 103e 4c18 cbbd
000003f0: c6b5 5f3e e629 47be 07b5 973d 3ec9 65be

input_layer.bias f4 [512]
0.1984594 0.24315521 0.15931125 0.116037354 0.07474341 -0.16902892 0.21415901 0.029957304
0.25073195 0.13073406 -0.05275037 -0.139457 -0.13298409 -0.048159286 -0.2360816 -0.23263489
0.24797869 -0.14406973 0.022950731 -0.18492404 0.23721221 -0.08131765 0.0372884 -0.19831587
0.113214806 -0.24845946 -0.15673141 0.13251573 -0.014940778 -0.06369378 0.086335585 -0.23689763
0.1302989 -0.087537825 -0.07869167 -0.06494808 -0.2076807 -0.10660237 0.07941527 0.020860998
-0.1452004 0.20618287 0.1805435 -0.20854679 0.18023145 -0.08744621 0.2517786 0.15032876
-0.15913658 -0.10993809 -0.17055617 0.07804079 0.09357626 0.19795582 0.016749285 0.15335006
-0.14573649 -0.07779968 0.018767465 0.06049786 -0.14329052 0.09376238 -0.08547009 0.1932331
-0.14267531 -0.21362202 -0.030622635 -0.24800283 0.10658256 -0.23406667 0.092916444 -0.06874242
-0.23857878 -0.18757305 -0.09947756 -0.02098297 -0.09363965 -0.1914782 0.19490437 0.05266378
0.19378413 -0.100188985 -0.08517803 -0.113268554 0.17918834 -0.1190307 -0.09722686 0.13900304
0.0732135 -0.07070203 -0.0069505144 -0.21905155 0.24378008 -0.015617245 -0.23261188 0.22025
0.1776908 -0.18251479 -0.012713199 0.07781906 -0.21983707 -0.12610081 0.06783506 -0.22718401
-0.0852257 0.23642787 -0.11102275 0.14577174 0.0756494 0.21359545 -0.19175678 -0.16536584
-0.035015255 -0.047321282 0.006267818 0.040151555 0.06785574 0.061340693 0.19943331 0.21387908
0.106028885 -0.12860908 -0.05802991 0.084315866 0.072990224 0.05153498 0.025549376 -0.022034485
-0.19077109 0.15354814 -0.121891074 0.074884035 0.19857463 0.090858914 -0.15628849 -0.1353608
-0.11834299 -0.24571933 0.06520706 -0.123552956 -0.010784122 0.1316856 0.0034241485 0.15607236
0.10631016 0.07974812 -0.07796889 -0.17768428 0.18299007 0.14779676 -0.06396782 0.13210456
-0.06802278 -0.076869234 -0.08620255 -0.22084874 0.025985392 -0.23617046 0.20113912 0.1528948
-0.24796043 0.08700968 -0.16034904 -0.076707736 0.24440558 0.2526714 -0.04463821 0.1688873
0.018042393 -0.23442665 0.14408837 -0.18134712 -0.06796594 0.23938654 0.045277897 -0.1501536
0.065276876 -0.055375803 -0.23888178 -0.21526957 -0.03520163 -0.21073328 0.19525686 -0.17731775
0.08152777 0.02805312 -0.22016253 0.21973987 0.18794124 0.062525995 -0.15545817 -0.21196005
0.09515922 -0.1432802 0.15679245 0.111388914 -0.2359223 -0.1292301 0.13467513 -0.050536536
0.18716969 0.011994945 -0.02002158 0.18572125 -0.08437016 -0.024840003 0.17768793 0.06424147
0.08458805 -0.19837531 0.23921353 -0.1268246 0.1731578 -0.08299521 -0.21494773 -0.04067853
-0.1294438 0.1446767 -0.16990636 0.16359591 -0.1009581 0.17814057 -0.22384386 -0.039440073
0.08472961 0.089171804 0.20997548 0.035746142 0.042019293 0.066057876 0.22164813 0.2101953
-0.1340682 -0.077116065 0.1927171 0.034503464 0.032235693 0.17168802 0.10610633 0.2373965
-0.18737966 0.16257581 -0.102613375 -0.21027613 -0.07966986 0.02646703 0.07671402 0.14428377
-0.21262935 -0.16503821 0.13244177 0.16997005 -0.16039173 -0.120961815 0.079599306 -0.04303437
00000000: f138 4b3e aefd 783e 7d22 233e fea4 ed3d
00000010: 1313 993d eb15 2dbe 804c 5b3e 0569 f53c
00000020: f05f 803e 26df 053e c610 58bd d1cd 0ebe
00000030: fb2c 08be ac42 45bd 60bf 71be d737 6ebe
00000040: 20ee 7d3e 0487 13be 2c03 bc3c ba5c 3dbe
00000050: c2e7 723e de89 a6bd b9bb 183d 5113 4bbe
00000060: 2add e73d 286c 7ebe 337e 20be 34b2 073e
00000070: 2aca 74bc e271 82bd b6d0 b03d 4b95 72be
00000080: 136d 053e 0847 b3bd 1929 a1bd 8003 85bd
00000090: 40aa 54be 5852 dabd 79a4 a23d afe4 aa3c
000000a0: 6aaf 14be 9a21 533e 65e0 383e 4a8d 55be
000000b0: 988e 383e 0017 b3bd 20e9 803e c8ef 193e
000000c0: b3f4 22be 3927 e1bd 47a6 2ebe dad3 9f3d
000000d0: e9a4 bf3d eeb4 4a3e cc35 893c cc07 1d3e
000000e0: f23b 15be 7055 9fbd 3abe 993c 9bcc 773d
000000f0: c0ba 12be 7e06 c03d f10a afbd e6de 453e
00000100: 7a19 12be bbbf 5abe 52dc fabc 74f4 7dbe
00000110: f547 da3d 2caf 6fbe fa4a be3d d3c8 8cbd
00000120: ff4d 74be 2613 40be e4ba cbbd 7ae4 abbc
00000130: 25c6 bfbd dc12 44be 0395 473e fab5 573d
00000140: 596f 463e e22f cdbd d271 aebd 58f9 e7bd
00000150: 267d 373e 5ec6 f3bd e01e c7bd d056 0e3e
00000160: f6f0 953d 3acc 90bd 24c1 e3bb 0d4f 60be
00000170: 7ca1 793e 79df 7fbc cf31 6ebe 3789 613e
00000180: 94f4 353e 28e5 3abe 054b 50bc 995f 9f3d
00000190: f81c 61be 9220 01be 1ced 8a3d eda2 68be
000001a0: d08a aebd 261a 723e e55f e3bd 3045 153e
000001b0: 13ee 9a3d c4b8 5a3e e45b 44be aa55 29be
000001c0: 286c 0fbd f6d3 41bd 4562 cd3b f575 243d
000001d0: f3f7 8a3d 6140 7b3d 3f38 4c3e 1e03 5b3e
000001e0: ac25 d93d 19b2 03be c5b0 6dbd ccad ac3d
000001f0: e67b 953d 5816 533d ed4c d13c aa81 b4bc
00000200: 7f59 43be b93b 1d3e 07a2 f9bd cd5c 993d
00000210: 2657 4b3e 3d14 ba3d 170a 20be 069c 0abe
00000220: cf5d f2bd d99d 7bbe 478b 853d 5509 fdbd
00000230: e3af 30bc 97d8 063e ae67 603b 6fd1 1f3e
00000240: 24b9 d93d fb52 a33d 27ae 9fbd def2 35be
00000250: c061 3b3e 0958 173e 8f01 83bd 6b46 073e
00000260: 874f 8bbd 9e6d 9dbd f68a b0bd 2c26 62be
00000270: 51df d43c abd6 71be 6af7 4d3e 7490 1c3e
00000280: 57e9 7dbe 2232 b23d 8a32 24be f218 9dbd
00000290: 7545 7a3e 255e 813e 8ed6 36bd cbf0 2c3e
000002a0: a4cd 933c 8a0d 70be e78b 133e 0fb3 39be
000002b0: ba31 8bbd bf21 753e 5175 393d dec1 19be
000002c0: e2af 853d bdd1 62bd 6d9d 74be a06f 5cbe
000002d0: 962f 10bd 77ca 57be 6af1 473e c992 35be
000002e0: 08f8 a63d a8cf e53c 4972 61be 7d03 613e
000002f0: ab73 403e a10d 803d 6d30 1fbe 0e0c 59be
00000300: d6e2 c23d 0bb8 12be 338e 203e df1f e43d
00000310: 9e95 71be e554 04be 47e8 093e 66ff 4ebd
00000320: 69a9 3f3e 7286 443c 4c04 a4bc b62d 3e3e
00000330: 43ca acbd 437d cbbc d3f3 353e 0891 833d
00000340: 803c ad3d e622 4bbe 64f4 743e 4fde 01be
00000350: 4750 313e 65f9 a9bd 421b 5cbe 889e 26bd
00000360: ea8c 04be 2126 143e effb 2dbe b085 273e
00000370: 1fc3 cebd 7b6a 363e 5337 65be ea8b 21bd
00000380: b886 ad3d b59f b63d d003 573e 8c6a 123d
00000390: 6c1c 2c3d 5a49 873d baf7 623e 703d 573e
000003a0: 2d49 09be 07ef 9dbd a257 453e 8153 0d3d
000003b0: 9309 043d fcce 2f3e 474e d93d 1118 733e
000003c0: 74e0 3fbe 467a 263e f626 d2bd a052 57be
000003d0: f429 a3bd 63d1 d83c 3d1c 9d3d 20bf 133e
000003e0: 82bb 59be c7ff 28be d19e 073e a10c 2e3e
000003f0: bb3d 24be d4ba f7bd f604 a33d cf44 30bd

output_layer.weight f4 [1, 512]
0.07527088 0.02411522 0.055746157 -0.01047016 -0.0070911106 0.018188601 -0.01810203 0.02826103
0.07766471 -0.02530311 0.09685241 -0.016423931 0.17808393 -0.095535345 -0.019799301 -0.017428162
-0.04280908 0.0061846115 0.039346434 -0.047069404 -0.055162083 -0.09516122 -0.010876637 -0.058603387
0.018098416 0.005051501 -0.010851185 0.085428245 -0.020076638 -0.058039688 0.042631112 -0.034255456
0.023969252 0.024759676 -0.02374781 0.02769896 0.014909719 0.041552816 -0.09342065 -0.003662478
-0.007400708 -0.014251786 -0.0899751 0.024626713 0.05654914 0.057097577 -0.11893143 -0.01002428
0.012335817 0.028072035 -0.034649838 0.039707594 0.04522874 0.036123086 0.05365315 -0.00600765
0.004820463 -0.027557371 -0.04730572 0.055700354 0.007404602 -0.02119037 -0.013350065 -0.0656006
-0.016822288 -0.036844272 -0.041700292 -0.023142207 -0.08704763 0.040215768 -0.12623215 -0.06308104
-0.052575585 0.0045521357 0.10288057 0.056681864 -0.03867 0.007340463 0.039840892 0.01252605
0.06312104 0.018672656 -0.053120602 -0.056542184 -0.011957162 -0.07546043 0.08409823 -0.060602058
-0.07541127 0.04395884 -0.019415315 -0.051470477 -0.0070445496 -0.02315406 -0.013030057 -0.022953922
-0.028853504 0.017764574 0.03428081 0.0160922 -0.028447822 0.007995296 0.008816467 0.016299915
0.019971255 0.04386201 0.046229213 -0.09809859 0.033361834 -0.01818665 0.05962166 0.02640778
0.0005504149 0.020720776 -0.010071593 0.05952044 0.075139165 -0.051685564 0.10913715 0.12721308
-0.061289188 0.036775943 0.02702889 0.05677582 -0.08823911 -0.022492047 0.005252517 0.01248514
0.0150732165 0.037216485 -0.067499585 0.08519892 0.07596408 -0.047442004 -0.031168686 0.0074972706
0.15051958 -0.028752698 -0.021788253 -0.011827018 -0.04008884 0.038145706 -0.03691541 0.03814423
0.057378057 0.039421637 0.116689816 0.030696295 -0.036397077 0.060511574 0.013434487 0.020752091
-0.08023932 -0.010791921 -0.01586032 -0.0263392 -0.0149988895 0.046522666 0.005019557 -0.056443665
0.034591623 0.0771237 -0.008093882 0.04917502 0.024555538 -0.0486182 -0.013305113 0.00822411
-0.02517046 -0.035155952 -0.044371385 -0.044410843 -0.09993371 0.015836792 -0.0053507006 -0.09991049
-0.06425377 0.028216634 -0.0025343597 -0.09919079 -0.034500983 0.07090376 -0.030068828 0.089557454
-0.07871211 -0.029712671 0.015189661 0.010510193 0.029264642 0.05574595 0.06247457 0.029955616
-0.06290929 -0.0075592524 -0.02897585 0.07862572 -0.043209773 0.062817596 -0.0023392343 -0.047639858
-0.02560763 -0.0002473554 -0.047295123 0.08459384 0.019753395 0.041504603 0.0009184838 -0.048673194
-0.086214766 0.028612198 0.0021552376 -0.035080463 -0.0105804475 -0.020107713 -0.022187075 0.07780677
-0.01687959 0.020279333 0.027000578 0.02003883 0.054139473 -0.079392314 -0.07631911 0.06026929
0.073918514 -0.044283357 0.0059103216 -0.035402723 0.06622435 -0.04732604 -0.07651477 -0.0021691425
0.08928342 0.03291988 -0.042896606 0.041088335 -0.077218734 -0.040740512 -0.062018435 0.07093616
-0.0038762318 0.048749745 0.03300545 -0.023050478 0.070871964 -0.042994276 0.06756289 -0.028460428
0.037077773 -0.080327965 0.01170328 -0.0046632662 0.010250228 0.006567935 0.04565002 0.036788773
00000000: 9e27 9a3d 488d c53c 1556 643d 098b 2bbc
00000010: 8c5c e8bb 4300 953c b54a 94bc ad83 e73c
00000020: ad0e 9f3d 7848 cfbc 8e5a c63d 7b8b 86bc
00000030: a25b 363e 09a8 c3bd 2532 a2bc 81c5 8ebc
00000040: 9358 2fbd 48a8 ca3b ba29 213d d9cb 40bd
00000050: a3f1 61bd e3e3 c2bd ec33 32bc 1b0a 70bd
00000060: 2143 943c 1087 a53b 2bc9 31bc 01f5 ae3d
00000070: c377 a4bc 06bb 6dbd f69d 2e3d 734f 0cbd
00000080: 2a5b c43c ced4 ca3c c48a c2bc eee8 e23c
00000090: e547 743c 4933 2a3d 5353 bfbd 2f06 70bb
000000a0: a381 f2bb 5380 69bc dd44 b8bd f6bd c93c
000000b0: 12a0 673d 26df 693d 5292 f3bd e13c 24bc
000000c0: 2b1c 4a3c 53f7 e53c fdec 0dbd 6ea4 223d
000000d0: c541 393d cdf5 133d 68c3 5b3d d2db c4bb
000000e0: f9f4 9d3b ffbf e1bc a5c3 41bd 0e26 643d
000000f0: 4ea2 f23b 6d97 adbc 3bba 5abc 9b59 86bd
00000100: e5ce 89bc 05ea 16bd edcd 2abd ba94 bdbc
00000110: 0746 b2bd 4ab9 243d 0043 01be a230 81bd
00000120: 7f59 57bd 152a 953b 0cb3 d23d 3e2b 683d
00000130: 6f64 1ebd 4488 f03b 3430 233d 103a 4d3c
00000140: 9b45 813d 66f7 983c fd94 59bd c798 67bd
00000150: f9e7 43bc ff8a 9abd b13b ac3d dd39 78bd
00000160: 3971 9abd 2f0e 343d de0c 9fbc b5d2 52bd
00000170: f7d5 e6bb 95ad bdbc 057c 55bc dd09 bcbc
00000180: 2f5e ecbc 0387 913c 096a 0c3d cad3 833c
00000190: 680b e9bc b4fe 023c f172 103c 6687 853c
000001a0: c29a a33c a7a8 333d d85a 3d3d eae7 c8bd
000001b0: 6ba6 083d 2bfc 94bc d735 743d 2155 d83c
000001c0: b849 103a 9ebe a93c 5303 25bc b4cb 733d
000001d0: 90e2 993d 3eb4 53bd 4c83 df3d 2544 023e
000001e0: 5f0a 7bbd 5fa2 163d b16b dd3c c38d 683d
000001f0: b5b6 b4bd 3e41 b8bc 4e1d ac3b 798e 4c3c
00000200: a7f5 763c 5070 183d 393d 8abd c57c ae3d
00000210: 0e93 9b3d 8c52 42bd 7955 ffbc aaab f53b
00000220: ce21 1a3e c78a ebbc 477d b2bc 1cc6 41bc
00000230: 3234 24bd ac3e 1c3d 9d34 17bd 203d 1c3d
00000240: 4105 6b3d 9578 213d 12fb ee3d cc76 fb3c
00000250: 1a15 15bd fcda 773d 531c 5c3c 4a00 aa3c
00000260: 8354 a4bd 99d0 30bc 80ed 81bc 4ec5 d7bc
00000270: e7bd 75bc 8d8e 3e3d 197b a43b 7931 67bd
00000280: f2af 0d3d 08f3 9d3d 349c 04bc bf6b 493d
00000290: b228 c93c e123 47bd b0fd 59bc 6bbe 063c
000002a0: 4832 cebc b0ff 0fbd c5be 35bd 25e8 35bd
000002b0: 0caa ccbd 29bc 813c ee54 afbb df9d ccbd
000002c0: 7b97 83bd 9226 e73c 8017 26bb 8a24 cbbd
000002d0: e750 0dbd fe35 913d e752 f6bc e669 b73d
000002e0: d133 a1bd fd67 f3bc 0ede 783c f232 2c3c
000002f0: 67bc ef3c de55 643d 56e5 7f3d 7b65 f53c
00000300: 96d6 80bd 9bb3 f7bb c35e edbc 8606 a13d
00000310: bbfc 30bd 83a6 803d d74d 19bb 0322 43bd
00000320: 18c7 d1bc 7baf 81b9 88b8 41bd 893f ad3d
00000330: dfd1 a13c bb00 2a3d 68c6 703a 8b5d 47bd
00000340: 5e91 b0bd 2164 ea3c e33e 0d3b 88b0 0fbd
00000350: 9d59 2dbc eeb8 a4bc abc1 b5bc 2859 9f3d
00000360: 1147 8abc d820 a63c 5130 dd3c 7928 a43c
00000370: 5ac1 5d3d 7098 a2bd 324d 9cbd eedc 763d
00000380: 9762 973d 7762 35bd 5fab c13b 7202 11bd
00000390: a2a0 873d f3d8 41bd c7b3 9cbd 2c28 0ebb
000003a0: 3ada b63d ffd6 063d 5ab4 2fbd 3e4c 283d
000003b0: db24 9ebd 86df 26bd 0b07 7ebd fa46 913d
000003c0: 6108 7ebb d0ad 473d b930 073d 5bd4 bcbc
000003d0: 5225 913d c41a 30bd 6a5e 8a3d d825 e9bc
000003e0: ddde 173d fd82 a4bd 1dbf 3f3c 50ce 98bb
000003f0: 93f0 273c d537 d73b 84fb 3a3d d3af 163d
