data/baumgartner_C-N/aniline_emulator/aniline_bm_predictor_3.pt (torch, 38367 bytes, 3 tensors)

input_layer.weight f4 [512, 16]
0	0x3d86cd2f	0.065821044
1	0xbd37b16f	-0.04484695
2	0x3d5f6591	0.05454022
3	0xbcb48045	-0.02203382
4	0xbda851d8	-0.082187355
5	0xbcee7cbe	-0.029112216
6	0xbe33dd8a	-0.17564979
7	0xbe59706c	-0.21234292
8	0x3d7bae5b	0.061445575
9	0x3e1430fd	0.14471813
10	0x3d70a6e4	0.05875291
11	0xbe047914	-0.12936813
12	0xbe48eaf0	-0.19620872
13	0x3d008558	0.031377167
14	0xbde8b3e5	-0.11362437
15	0x3d062fe0	0.0327605
16	0x3e486f86	0.19573793
17	0xbda33fe1	-0.07971168
18	0x3e44b25a	0.1920866
19	0xbe6370d0	-0.22211003
20	0x3e0298a0	0.12753534
21	0xbd75ebd5	-0.06003936
22	0xbe2d13bc	-0.1690206
23	0x3e51ff42	0.2050753
24	0x3daef279	0.08542342
25	0xbca31ed0	-0.019912153
26	0xbdf4a53b	-0.11945578
27	0x3e652302	0.22376636
28	0xbdf60700	-0.12013054
29	0xbe50a89c	-0.2037682
30	0xbe2f8022	-0.17138723
31	0x3e151ec2	0.14562514
32	0xbd9fb25e	-0.07797693
33	0xbdbf5b9b	-0.09343644
34	0xbe761ea2	-0.24035123
35	0xbd8a67ca	-0.067580774
36	0xbe291442	-0.16511634
37	0x3ced1266	0.028939437
38	0xbe3b8d76	-0.18315682
39	0xbe46a876	-0.194002
40	0xbc991720	-0.018687785
41	0xbde830ec	-0.11337456
42	0xbd355cfe	-0.044278137
43	0x3e0371e4	0.12836415
44	0x3def98c4	0.116990596
45	0x3e343600	0.17598724
46	0xbd96ee9e	-0.07369731
47	0xbe5cf594	-0.21578056
48	0xbdfb5670	-0.12272346
49	0x3e48238d	0.19544812
50	0x3d3aac80	0.045574665
51	0x3e7d3af5	0.24729522
52	0x3e039057	0.1284803
53	0xbdc761d5	-0.09735457
54	0xbe771ad3	-0.24131326
55	0xbcd8aba0	-0.026449025
56	0x3d5d4701	0.054022793
57	0xbe793dfd	-0.24340053
58	0x3bd37498	0.006453108
59	0x3d52ecc8	0.051495343
60	0xbe5d266c	-0.21596688
61	0xbe28f606	-0.165001
62	0x3d907d43	0.07055142
63	0xbe3d1ff8	-0.18469226
64	0xbc8063a3	-0.01567251
65	0xbe2a2d02	-0.16618732
66	0xbdb2e8bc	-0.08735797
67	0xbe14a1d5	-0.14514859
68	0x3da145b0	0.0787462
69	0x3e21a5b5	0.15785868
70	0x3d9218c0	0.07133627
71	0xbbecfb80	-0.0072321296
72	0xbe446d2e	-0.19182274
73	0x3dac235f	0.08405184
74	0xbe760682	-0.2402592
75	0xbe1bc39a	-0.15211335
76	0xbe587148	-0.21136963
77	0x3e4d8864	0.2007156
78	0xbe6c5f27	-0.23083173
79	0x3d759c80	0.059963703
80	0x3e016bc6	0.12638769
81	0x3e766913	0.2406352
82	0xbdfe3310	-0.12412083
83	0x3e6127f3	0.21987896
84	0xbe1d8aa3	-0.15384917
85	0x3dbe0373	0.09278002
86	0x3e810a4e	0.25203174
87	0xbcc3d540	-0.023905396
88	0xbe5e4743	-0.21706872
89	0xbdc1e7d8	-0.09468049
90	0x3dc35bcd	0.09538994
91	0xbe02c86e	-0.1277177
92	0xbde7aa30	-0.113117576
93	0x3df4201c	0.11920187
94	0x3e581ce3	0.2110477
95	0xbe7e194a	-0.24814335
96	0xbddd8288	-0.108159125
97	0x3d6123a8	0.054965645
98	0xbdc9dbb8	-0.09856361
99	0xbe47a2f2	-0.19495752
100	0xbdf34028	-0.11877471
101	0xbdb41d6c	-0.08794674
102	0xbe67358e	-0.22579023
103	0x3e34402a	0.17602602
104	0xbd97ca8c	-0.074116796
105	0x3d54bd38	0.051938266
106	0xbe46cfb6	-0.19415173
107	0xbdddf03c	-0.10836837
108	0xbe5d30c0	-0.21600628
109	0x3e1bf198	0.1522888
110	0xbe1d8cd8	-0.15385759
111	0x3e1a2cda	0.15056172
112	0xbd8f91d5	-0.07010237
113	0x3ae7a719	0.00176737
114	0xbe1828e9	-0.14859356
115	0x3decc3a9	0.11560757
116	0x3d79345b	0.060840946
117	0x3d9dc148	0.07702881
118	0x3c0eb9d8	0.008711301
119	0x3da08e2c	0.07839617
120	0x3d1f13aa	0.038837112
121	0xbd382341	-0.044955496
122	0x3e1671a6	0.14691791
123	0x3e1ae020	0.1512456
124	0x3cf7d460	0.030252635
125	0x3e2f6ee2	0.17132142
126	0x3e30eed2	0.17278603
127	0x3d415358	0.047198623
128	0x3e5a7846	0.21334943
129	0x3c1ce923	0.0095770685
130	0xbe1009f4	-0.14066297
131	0x3e3c2b03	0.18375783
132	0x3e5c4ad7	0.21512924
133	0x3e2e2016	0.17004427
134	0xbcf0c4cc	-0.029390715
135	0xbda70750	-0.081556916
136	0x3dabdc0b	0.08391579
137	0x3e28434f	0.16431926
138	0x3dc1f0d9	0.09469766
139	0x3e7535c0	0.23946285
140	0x3e558c3a	0.20854273
141	0xbe4ab004	-0.19793707
142	0x3e1504ae	0.14552566
143	0x3d7cade0	0.061689258
144	0xbd569236	-0.05238553
145	0x3e4eb89c	0.2018761
146	0xbd2d5a17	-0.042322244
147	0xbe3dc882	-0.18533519
148	0x3e7c0bb9	0.24613847
149	0x3ded12f4	0.11575881
150	0x3e5dd56f	0.2166345
151	0x3e578484	0.21046644
152	0x3e1bede5	0.15227468
153	0xbe5dc538	-0.21657264
154	0xbc908de7	-0.01764579
155	0xbe0fc58e	-0.14040205
156	0xbd1466d8	-0.036230892
157	0xbe6cd8a6	-0.2312952
158	0xbe4ac313	-0.19800977
159	0x3d473610	0.048635542
160	0xbd75ce8f	-0.060011443
161	0x3e6cc0f7	0.23120485
162	0xbe647bd3	-0.2231286
163	0x3d79e366	0.06100788
164	0x3d92b1a6	0.0716279
165	0xbd862122	-0.06549288
166	0x3e61ab76	0.22038063
167	0xbd7c9aa8	-0.06167093
168	0x3e79dc52	0.24400452
169	0xbb08628f	-0.0020810699
170	0xbdf4e077	-0.11956876
171	0xbe21a154	-0.15784198
172	0xbe2852d6	-0.1643785
173	0xbdbf6024	-0.09344509
174	0x3e5219ba	0.20517626
175	0x3cceb9b0	0.025235027
176	0xbe3e170c	-0.18563479
177	0xbdd735f2	-0.10508336
178	0xbd040665	-0.03223266
179	0x3d0066f7	0.031348195
180	0xbe378c8d	-0.1792471
181	0xbdbfaac4	-0.09358743
182	0xbd8451c2	-0.064609066
183	0x3b85c000	0.004081726
184	0x3e621811	0.22079493
185	0x3e130fa3	0.14361434
186	0x3dadac0a	0.084800795
187	0xbad4d600	-0.0016238093
188	0x3dec5d14	0.11541191
189	0xbe075882	-0.13217357
190	0x3d7bab9c	0.061442956
191	0x3d6b49c8	0.05744341
192	0xbe1b6727	-0.15176068
193	0xbdcecead	-0.10098014
194	0x3e4b07f7	0.19827257
195	0x3e63925c	0.222238
196	0x3e2e4759	0.17019404
197	0xbd192142	-0.037385233
198	0xbc78b021	-0.015178711
199	0x3e245f10	0.16051888
200	0xbda07de9	-0.078365155
201	0x3e5ec23e	0.21753785
202	0x3da1bd4a	0.07897432
203	0xbe6306b8	-0.22170532
204	0xbc911610	-0.017710716
205	0xbe0d862c	-0.13820714
206	0x3e3e7ab5	0.18601497
207	0xbc959040	-0.01825726
208	0x3e637505	0.22212608
209	0x3d55c013	0.05218513
210	0xbe671636	-0.22567067
211	0x3e662541	0.22475149
212	0xbe3465b8	-0.17616928
213	0x3e36fddd	0.17870279
214	0xbe2d8b16	-0.16947588
215	0xbe6fc146	-0.23413572
216	0x3d27c023	0.04095472
217	0xbda06026	-0.07830839
218	0xbd0279ee	-0.031854562
219	0xbe47e546	-0.19521055
220	0x3e06ecd8	0.13176286
221	0x3e088ff8	0.1333617
222	0xbda9a321	-0.082830675
223	0xbbf46180	-0.007457912
224	0xbca7f506	-0.020502578
225	0x3d745cf4	0.05965896
226	0x3d1d3378	0.038379163
227	0xbe436757	-0.1908239
228	0xbe33fa43	-0.17575936
229	0xbe043102	-0.1290932
230	0xbc81a751	-0.015826853
231	0x3d55c428	0.052189022
232	0x3db1d6cd	0.08683548
233	0xbe6c3bc0	-0.23069668
234	0x3df98882	0.1218424
235	0x3dc00444	0.093758136
236	0xbe0c9388	-0.13728154
237	0xbcf2fed0	-0.02966252
238	0x3ba80ea8	0.0051287003
239	0xbb685380	-0.003545016
240	0xbe29bf2e	-0.16576836
241	0xbe6e9f40	-0.23302937
242	0x3cb66c74	0.022268511
243	0xbe0ea65c	-0.13930649
244	0xbc06f474	-0.008236993
245	0xbdbae25b	-0.09125205
246	0x3c86baae	0.016446438
247	0x3e737854	0.2377637
248	0xbe10641e	-0.14100692
249	0xbe323701	-0.17403795
250	0x3e6ed739	0.23324288
251	0x3e2b4d50	0.16728711
252	0x3e14ac06	0.14518747
253	0x3d76df38	0.06027147
254	0xbddad542	-0.10685207
255	0x3e07fcd6	0.13280043

input_layer.bias f4 [512]
0	0xbd151a86	-0.036402248
1	0x3e55defc	0.20885843
2	0xbd4ab141	-0.04948545
3	0xbdcea241	-0.10089541
4	0x3d80040b	0.06250771
5	0xbd93ed7f	-0.07223033
6	0xbe007f24	-0.125485
7	0xbdb4bea0	-0.08825421
8	0xbd84f460	-0.06491923
9	0xbd23b941	-0.039971594
10	0x3c9273ae	0.017877426
11	0xbdf6d3b6	-0.120520994
12	0xbcbac3a3	-0.022798365
13	0xbe6fa38f	-0.23402236
14	0x3d293d95	0.041318495
15	0xbdb79082	-0.089631096
16	0xbe1a6f44	-0.15081507
17	0xbe1ad520	-0.15120363
18	0x3dbdb8e6	0.09263782
19	0x3e5b6f03	0.21429066
20	0xbdc62473	-0.09674921
21	0xbb8cdd51	-0.004298844
22	0xbe519b1a	-0.20469323
23	0x3e4276a4	0.1899057
24	0xbddf51b0	-0.109042525
25	0x3e57eba2	0.2108598
26	0x3dd7c644	0.10535863
27	0x3dbdb074	0.092621714
28	0x3e00356e	0.12520382
29	0xbe68dc78	-0.22740352
30	0xbe06dd48	-0.1317035
31	0xbc1cb70f	-0.009565129
32	0xbd305a4f	-0.043054875
33	0xbe537e47	-0.2065364
34	0x3e2da448	0.169572
35	0xbe00d8cd	-0.12582703
36	0xbdaa08a1	-0.08302427
37	0xbd1e69e5	-0.038675208
38	0x3de2504d	0.110504724
39	0xbe743b60	-0.23850775
40	0xbe223b45	-0.15842922
41	0xbd924b7d	-0.071433045
42	0xbc8c995f	-0.017162977
43	0xbdfa28f1	-0.1221484
44	0xbe2d349c	-0.169146
45	0xbe4f9d5b	-0.2027487
46	0x3e29b4b7	0.16572843
47	0x3e1c4323	0.15259986
48	0x3dce0ccc	0.100610346
49	0xbe0c8dd8	-0.13725984
50	0x3e2f542d	0.17121954
51	0xbe47ab40	-0.1949892
52	0xbd9e6210	-0.07733548
53	0xbe22c229	-0.15894379
54	0x3e01a34e	0.12659952
55	0x3d8f9ffd	0.07012937
56	0xbc2a9bae	-0.0104130935
57	0x3e1818c4	0.14853197
58	0xbe2b5fa3	-0.16735701
59	0x3d6564b5	0.056004245
60	0x3e38e140	0.18054676
61	0xbd9cfda5	-0.07665566
62	0x3e5a1f5c	0.21301025
63	0xbe4b750b	-0.19868867
64	0x3e82df0b	0.25560793
65	0xbb822e07	-0.003972772
66	0x3ca94318	0.020661876
67	0xbdebe346	-0.11517958
68	0xbd8692c7	-0.06570964
69	0xbd871184	-0.06595138
70	0x3e60fe2a	0.21971956
71	0xbcf9f4c8	-0.030512229
72	0xbe6c76f5	-0.23092254
73	0x3dce1b47	0.100637965
74	0xbd205d50	-0.03915149
75	0x3e1f93f4	0.15583783
76	0x3db26928	0.08711463
77	0x3e33bd2c	0.17552632
78	0x3e66f9c1	0.22556211
79	0x391effb1	0.00015163307
80	0x3c9137df	0.017726837
81	0xbd1cf3c3	-0.038318407
82	0xbe5cbcf8	-0.21556461
83	0x3e67f7b0	0.22653079
84	0xbe5edbbc	-0.2176351
85	0x3d7f6e8a	0.062361278
86	0x3d6e8f5c	0.058242187
87	0x3d747865	0.05968513
88	0x3caf7e18	0.02142243
89	0xbe42b27e	-0.19013402
90	0x3d98675f	0.074415915
91	0xbe0b7685	-0.1361943
92	0xbe46eec2	-0.19427016
93	0x3db7d109	0.08975417
94	0xbdbe9fbd	-0.093078114
95	0xbe565372	-0.2093027
96	0x3d285780	0.04109907
97	0x3e549d76	0.20763192
98	0x3e40a22d	0.18811865
99	0xbdad2fb2	-0.08456363
100	0x3e0afebd	0.13573737
101	0xbe2fcbb3	-0.17167549
102	0x3e5261de	0.20545146
103	0xbe07cb79	-0.13261212
104	0xbe64eda7	-0.22356282
105	0xbe5bd78f	-0.21468948
106	0x3e6affd1	0.22949149
107	0x3e0eee35	0.13958056
108	0xbc908eee	-0.01764628
109	0xbe0cd1f5	-0.13751967
110	0x3d3cc2b8	0.046084136
111	0x3de61401	0.11234284
112	0xbddb2569	-0.10700495
113	0x3e75832d	0.23975821
114	0xbe1a727f	-0.1508274
115	0xbe16b8dc	-0.14718956
116	0x3e07dad0	0.13267064
117	0xbde51791	-0.111861356
118	0xbd34b48e	-0.044117503
119	0x3e63d1b1	0.2224796
120	0xbd14fc40	-0.036373377
121	0xbdf420a4	-0.11920288
122	0x3e56dbc4	0.20982271
123	0x3dd36694	0.103222996
124	0x3c0558bd	0.008138833
125	0x3c536b55	0.012904008
126	0x3e48faef	0.19626974
127	0x3dffa9ea	0.124835804
128	0xbe030aa9	-0.12797035
129	0x3df7accf	0.120935075
130	0xbc7e72ea	-0.015530327
131	0x3e2e3fa8	0.1701647
132	0xbdfeb710	-0.1243726
133	0xbd78708f	-0.06065422
134	0x3e1bbc61	0.1520858
135	0xbdbd07b2	-0.092299834
136	0x3ccb586f	0.024822442
137	0xbcc905b3	-0.02453885
138	0xbe2a238b	-0.16615121
139	0xbdf34052	-0.118775025
140	0xbe6c8523	-0.23097663
141	0x3dbd413a	0.092409566
142	0x3b6fb5d2	0.003657688
143	0xbe582a61	-0.21109916
144	0xbe6004fa	-0.21876898
145	0xbe250dc8	-0.16118538
146	0xbc21490d	-0.009844077
147	0x3d6b3916	0.05742749
148	0xbd185af1	-0.037196103
149	0xbc993dca	-0.018706221
150	0xbc11f98b	-0.008909593
151	0xbda1f203	-0.07907488
152	0x3d9f8dd9	0.07790727
153	0xbe0bc6e5	-0.13650091
154	0xbdc60a1a	-0.096698955
155	0xbe0cf92d	-0.13766928
156	0xbda565d1	-0.080760606
157	0x3d3446e6	0.044012927
158	0x3dc66f9b	0.09689256
159	0xbe5c0d32	-0.21489409
160	0xbe34d1eb	-0.17658202
161	0xbe6a8750	-0.2290318
162	0xbd942498	-0.07233542
163	0x3e63a077	0.22229181
164	0x3da807a1	0.0820458
165	0x3e7a9898	0.24472272
166	0x3e8042d0	0.25050974
167	0xbe599986	-0.21249971
168	0x3cc1be3b	0.02365028
169	0x3e7c47f3	0.24636821
170	0x3db1060e	0.08643733
171	0x3e70a873	0.23501758
172	0x3da4b7ed	0.080428936
173	0xbe7ec5c9	-0.24880137
174	0xbe7455d1	-0.23860861
175	0x3e0d5f45	0.13805874
176	0x3e4ce7dc	0.20010322
177	0x3e7a9a44	0.2447291
178	0xbe2e8058	-0.17041147
179	0x3e690ed2	0.2275956
180	0x3e00919c	0.12555546
181	0xbe6bc728	-0.23025191
182	0xbe1b8287	-0.15186511
183	0xbe20d32f	-0.1570556
184	0xbe372138	-0.17883766
185	0x3e817beb	0.25289854
186	0x3cf0c91f	0.029392777
187	0x3e109674	0.14119893
188	0x3db7f402	0.08982088
189	0xbd90b2f6	-0.07065384
190	0x3e5c97bd	0.21542259
191	0x3cbdbb9e	0.023160752
192	0xbe0dad66	-0.13835678
193	0x3e45e675	0.19326194
194	0xbe7df6d5	-0.2480119
195	0xbda4ae58	-0.08041066
196	0x3daf5ce2	0.08562638
197	0x3e75443e	0.23951814
198	0x3cfd119b	0.030892184
199	0xbde6e37f	-0.1127386
200	0x3e7698b9	0.24081697
201	0xbe223f5f	-0.15844487
202	0x3e2d0451	0.16896178
203	0x3e476f07	0.19475947
204	0xbe6affa0	-0.22949076
205	0xbe2d3227	-0.16913663
206	0xbc553a38	-0.013014369
207	0xbe63a3ea	-0.22230497
208	0x3e1be4b4	0.15223962
209	0x3e410c99	0.18852462
210	0xbe0508c7	-0.1299163
211	0xb9a7dd7d	-0.00032017744
212	0x3de831da	0.113376334
213	0xbe2c537d	-0.16828723
214	0x3e20b23a	0.15692988
215	0x3e3b277a	0.18276778
216	0x3d43302d	0.047653366
217	0x3e4aff88	0.1982404
218	0xbd633df7	-0.055479016
219	0x3e12a1ea	0.14319578
220	0x3e66ffbf	0.22558497
221	0xbe0d0eaa	-0.13775125
222	0xbe7c96e4	-0.24666935
223	0xbe4bb435	-0.19892962
224	0x3e4a10e6	0.19733009
225	0x3cbb03f9	0.022829043
226	0xbda6947a	-0.081337884
227	0xbe6e308e	-0.2326071
228	0x3e6e480a	0.23269668
229	0xbe7b822c	-0.24561375
230	0x3d84faf0	0.06493175
231	0xbe753c3c	-0.23948759
232	0x3e7bb08b	0.24579065
233	0x3e1cbe14	0.15306884
234	0xbe7790de	-0.24176356
235	0xbe638503	-0.22218709
236	0x3db4f7f4	0.08836356
237	0xbddd975a	-0.10819884
238	0xbd8bf248	-0.06833321
239	0xbda2defe	-0.07952689
240	0x3d233765	0.03984775
241	0xbe492d52	-0.19646195
242	0xbd3f388e	-0.046684794
243	0xbe5087a1	-0.20364238
244	0xbd75f4a0	-0.060047746
245	0x3e3662b5	0.17811091
246	0x3dd9068d	0.105969526
247	0x3d5faa94	0.054606035
248	0xbbb82b70	-0.0056204125
249	0x3bedd17a	0.0072576376
250	0xbe6a1169	-0.22858204
251	0x3e09a1a4	0.13440567
252	0xbe1bbf36	-0.1520966
253	0xbe0838c7	-0.13302909
254	0x3c1400c8	0.009033389
255	0xbe3b1b7e	-0.18272206

output_layer.weight f4 [1, 512]
0	0xbcd3904d	-0.025825644
1	0x3c482564	0.012215946
2	0x3caa0260	0.020753086
3	0x3bf1c14b	0.0073777786
4	0x3d59d3ad	0.053180385
5	0xbdd5e1ac	-0.10443434
6	0x3d21a8db	0.039467674
7	0xbd274d96	-0.040845476
8	0x3d291021	0.041275147
9	0xbc12ea09	-0.008966931
10	0xbd178340	-0.036990404
11	0xbd74a1f1	-0.05972475
12	0x3d2950f2	0.04133696
13	0xbd12580c	-0.0357285
14	0x3d793033	0.060836982
15	0xbcf42b74	-0.029805876
16	0xbd0949a2	-0.033517487
17	0x3d3aa340	0.045565844
18	0x3c98fa9e	0.018674191
19	0xbcd70921	-0.02624947
20	0x3d8f3310	0.06992161
21	0x3e06fb19	0.13181724
22	0x3d2fc143	0.042908918
23	0xbd49158a	-0.049092807
24	0xbcadd254	-0.021218456
25	0xbd866189	-0.06561572
26	0x3caef388	0.02135636
27	0xbc98a971	-0.018635483
28	0xbd1bf943	-0.03807951
29	0x3cb84cc2	0.022497538
30	0xbd6ba526	-0.057530545
31	0xbc79bf78	-0.015243404
32	0x3c8c8377	0.017152531
33	0xbd0fe2fc	-0.03512858
34	0xbd2dacd8	-0.042401165
35	0xbd13efec	-0.03611748
36	0x3c85f34e	0.016351368
37	0xbd991665	-0.074749745
38	0xbbf6ad4e	-0.0075279837
39	0x3d04ff79	0.0324702
40	0xbb2392c1	-0.0024959298
41	0x3c988c65	0.018621633
42	0xbd34ce92	-0.044142313
43	0x3c201227	0.009769953
44	0xbb310bbd	-0.0027015053
45	0x3d10ec14	0.03538139
46	0xbdf74ced	-0.12075219
47	0xbd0331dd	-0.032029975
48	0xbc46f2ce	-0.01214285
49	0x3c846a86	0.016164076
50	0xbc73a02a	-0.014869729
51	0x3c7a782a	0.015287438
52	0x3d952b01	0.07283593
53	0xbd122b73	-0.035685968
54	0xbb8b7361	-0.0042556976
55	0xbdd55f2f	-0.104185455
56	0x3cc67009	0.024223344
57	0x3c8e721b	0.017388394
58	0xbcbf2596	-0.023333352
59	0xbdb542a9	-0.08850605
60	0x3db6f482	0.08933355
61	0xbb055808	-0.002034666
62	0x3d86d375	0.06583301
63	0xbc9b2c83	-0.018942123
64	0x3e2de509	0.16981901
65	0xbca559e7	-0.02018447
66	0xbbc237f9	-0.0059270826
67	0xbbd1de94	-0.006404707
68	0x3cdd215f	0.026993452
69	0xbd940a85	-0.07228569
70	0xbb9b0b00	-0.004731536
71	0x3ce43a42	0.02785981
72	0x3b224e27	0.002476582
73	0xbdbedb41	-0.09319163
74	0xbd44f9ea	-0.0480899
75	0xbca2b5ef	-0.019862143
76	0xbb6ab3fc	-0.0035812845
77	0xbd25926a	-0.040422834
78	0x3d379f49	0.04482964
79	0xbc7e1986	-0.015509015
80	0xbda099b3	-0.07841816
81	0xbc907f98	-0.017638966
82	0xbbbe1e12	-0.0058019245
83	0xbd1e16d3	-0.038595986
84	0x3b92cdaf	0.004480086
85	0xbbbc3cab	-0.005744537
86	0x3d032f3a	0.03202746
87	0x3c9aebc2	0.018911246
88	0x3b4a727d	0.0030890994
89	0xbcbccc9c	-0.023046784
90	0x3cdd52ed	0.027017081
91	0x3c88e1f8	0.016709313
92	0x3d1aa909	0.03775886
93	0xbd735610	-0.059408247
94	0xbd7e7ca2	-0.062130578
95	0xbd69608a	-0.056976832
96	0x3d7f30f9	0.062302563
97	0xbd566a38	-0.05234739
98	0xbd262758	-0.040564865
99	0xba6158a4	-0.00085962773
100	0xbbba5236	-0.00568607
101	0xbbe54053	-0.0069961934
102	0x3d16cdf5	0.03681751
103	0xbd066028	-0.032806545
104	0x3c11354f	0.008862807
105	0xb9fc8a85	-0.0004816839
106	0xbcc79391	-0.024362357
107	0xbd9a1b92	-0.0752479
108	0xbb18002c	-0.0023193462
109	0xbc925b8f	-0.017865924
110	0xbce77371	-0.028253289
111	0xbb5a4eee	-0.0033311206
112	0xbd7fbe50	-0.062437356
113	0x3b9514aa	0.0045495825
114	0xbb0c4c92	-0.0021407944
115	0x3bc68952	0.0060588503
116	0x3c4e5582	0.012593629
117	0x3d013feb	0.031555098
118	0x3d7c3f89	0.06158403
119	0x3cd63688	0.02614905
120	0x3c816cfb	0.015799036
121	0x3d99fe94	0.0751926
122	0xbbe2b9a7	-0.006919104
123	0xbd1294f9	-0.035786603
124	0x3c84b38f	0.016198901
125	0x3d6a6174	0.057221845
126	0xbdb8ed69	-0.090296574
127	0x3c51a106	0.012794739
128	0xbd2a6d57	-0.04160818
129	0x3c4af90d	0.01238848
130	0x3b5055c2	0.0031789397
131	0x3e0b987d	0.13632388
132	0x3e2e848e	0.17042753
133	0xbd7d23a0	-0.061801553
134	0xbd9c08ca	-0.07618864
135	0xbba652e6	-0.0050758
136	0xbde99557	-0.114054374
137	0xbc9b9917	-0.018993897
138	0xbd827f23	-0.06371906
139	0x3b808847	0.0039224955
140	0xbca53c32	-0.020170305
141	0xbd1b63a6	-0.03793683
142	0xbdcd14b6	-0.10013716
143	0xbd414ba2	-0.04719127
144	0x3d99e20b	0.075138174
145	0x3e0b7de6	0.13622245
146	0x3e1b0100	0.151371
147	0x3c5fe5a6	0.013665592
148	0xbc758e3e	-0.014987526
149	0xbd978063	-0.07397535
150	0xbb1a3639	-0.0023530854
151	0x3d4430a1	0.04789794
152	0x3b8e93e4	0.004351126
153	0xbb834118	-0.0040055625
154	0xbd2eb7c0	-0.042655706
155	0x3d47f0db	0.048813682
156	0x3cf3acd2	0.029745493
157	0xbd53458a	-0.05157999
158	0x3d1e353a	0.03862498
159	0x3c986486	0.01860262
160	0x3a246b5d	0.0006272102
161	0xbd8ac6d0	-0.06776202
162	0x3c9a5389	0.01883866
163	0x3ca37909	0.019955175
164	0xbc7e93d2	-0.015538173
165	0xbcc6b889	-0.024257915
166	0xbd2a7942	-0.041619547
167	0xbd61bd6a	-0.05511228
168	0xbd7f56d3	-0.06233866
169	0xbc65842b	-0.014008562
170	0xbb4c23e1	-0.0031149315
171	0xbc0cbad4	-0.008589465
172	0xbd9edc2c	-0.07756838
173	0xbc8640bc	-0.01638829
174	0x3d12a2fa	0.035799958
175	0x3dcb2e85	0.09920982
176	0xbdac4f89	-0.084136076
177	0x3d549477	0.0518994
178	0x3c1bdc84	0.009513024
179	0xbd42bac3	-0.04754139
180	0xbcfa748a	-0.030573148
181	0x3d578176	0.052613698
182	0x3c9cdab2	0.01914725
183	0x3db4b49d	0.08823512
184	0x3d0d6267	0.034517672
185	0xbd70383c	-0.05864738
186	0xbcd0a1e5	-0.025467822
187	0xbe10b71b	-0.14132349
188	0xbd136aba	-0.035990454
189	0xbd6012d3	-0.054705452
190	0x3d2021b3	0.039094638
191	0xbd43128e	-0.047625117
192	0xbbbfd063	-0.005853699
193	0xbd41fd7d	-0.047360886
194	0xbd2c55d2	-0.042074032
195	0x3dabd54b	0.08390292
196	0x3cfeac70	0.031088084
197	0x3d8766d3	0.06611409
198	0x3d3b3a43	0.04570986
199	0x3cee23d0	0.029069811
200	0xbd84a602	-0.06476976
201	0x3cfc1eee	0.030776467
202	0x3d72bf83	0.05926467
203	0x3c4511e4	0.012028191
204	0xbcbafc62	-0.022825424
205	0x3ccad576	0.02475999
206	0x3d0c4c37	0.03425237
207	0x3ccd727a	0.025079
208	0x3d252a98	0.040323824
209	0x3d2c34ae	0.042042427
210	0x3c7696bd	0.015050587
211	0xbd198871	-0.037483636
212	0x3da78a4e	0.081806764
213	0x3d06320f	0.032762583
214	0x3d7e3f34	0.062071994
215	0xbc0669bb	-0.008203919
216	0x3d07fc21	0.033199433
217	0x3e01fa29	0.12693085
218	0xbd7baa42	-0.061441667
219	0x3d20f291	0.03929383
220	0xbc8f06e1	-0.017459335
221	0x3d726cd7	0.05918583
222	0x3d334e67	0.043775942
223	0xbd9edd7d	-0.07757089
224	0x3ccc0a0a	0.02490713
225	0x3c092f29	0.00837306
226	0x3c831280	0.016000032
227	0xbbed9844	-0.0072508175
228	0xbdee7d10	-0.116449475
229	0x3bc4d97d	0.006007372
230	0xbd84295f	-0.064532034
231	0xbd340a14	-0.043954924
232	0x3b1d9c24	0.0024049366
233	0xbd89641b	-0.06708547
234	0x3d13580d	0.035972644
235	0x3cf62da2	0.030051056
236	0xbc89d22e	-0.016823854
237	0xbd746826	-0.059669636
238	0x3c92a7cc	0.017902277
239	0xbc8970d0	-0.016777426
240	0xbd04e733	-0.03244705
241	0x3dbe024f	0.09277784
242	0xbda4596b	-0.080248676
243	0xbd112c7a	-0.035442807
244	0x3d65a2ce	0.056063466
245	0x3d9594d2	0.07303776
246	0x3de772ed	0.11301217
247	0x3d9338f7	0.071885996
248	0x3cfe7d05	0.031065473
249	0x3d5a44f6	0.053288423
250	0x3d478f58	0.048720688
251	0xbc827be7	-0.015928222
252	0xbe1c67d6	-0.15273985
253	0xbd021807	-0.031761196
254	0xbc085da9	-0.008323112
255	0x3a9ad38b	0.0011812312
