data/baumgartner_C-N/phenethylamine_emulator/aniline_bm_predictor_4.pt (torch, 38367 bytes, 3 tensors)

input_layer.weight f4 [512, 16]
0.06854981 0.05757139 0.17462878 -0.14008057 -0.028968208 -0.10270488 -0.16674748 0.1643841
0.0846159 -0.045029458 -0.07327889 -0.173475 -0.21750617 -0.0822472 -0.21599841 -0.06739536
-0.009462246 0.18301965 0.15866691 0.12879962 -0.2032209 0.18496466 0.1495404 0.07390207
0.042175103 -0.23877642 0.17740747 0.16591313 -0.19590995 0.1036998 -0.12716928 0.039046317
0.020866962 -0.11056706 -0.16737139 -0.18881394 0.24367526 0.097360484 -0.16628022 -0.032293648
0.063392386 0.01792487 -0.19279002 -0.062457144 -0.22332078 -0.07966462 0.19734861 0.12579137
-0.02863179 -0.10907027 0.19308564 -0.062303413 -0.14946781 -0.01535633 -0.19335082 0.22010776
-0.23287217 -0.24430111 -0.05602222 0.2171267 0.17053112 -0.074395925 0.060592126 -0.18614724
-0.19249873 0.11882217 0.21777801 0.07403257 0.019798614 0.06940533 0.12116705 0.24697527
-0.017923491 -0.01996569 -0.011728874 -0.13091171 0.2487883 0.12574932 -0.209431 -0.23982573
-0.23826176 0.12521487 0.0104391975 -0.056095295 -0.013512198 -0.17887075 -0.20727718 0.19850698
0.24486302 0.21114899 0.035169877 0.14598164 0.1459356 0.0613032 0.010008823 -0.18862528
0.023723397 -0.12747031 0.10630637 0.1843794 0.1066003 0.19869742 0.035504002 0.11209208
-0.052608605 0.06834084 0.09979716 -0.13574687 -0.12424934 0.23939395 -0.2477397 0.13261503
0.18367293 0.07732143 0.029020878 -0.01605197 0.08866423 0.21196516 -0.10049163 -0.18168718
-0.19396451 0.008459772 0.08620043 -0.039858967 -0.10740787 -0.18777993 0.09268274 -0.07044041
-0.115482174 -0.1003122 -0.1767418 0.0055553988 0.1680409 0.17080896 -0.07587715 0.028874755
-0.068332136 0.17982787 -0.06781266 0.090620786 -0.08529872 -0.2322453 -0.13093433 0.038029045
0.09919161 0.17743063 -0.1375966 0.116199255 -0.12141691 -0.11394072 -0.050062984 0.065876424
0.013202777 -0.15015396 -0.15045407 0.078905046 -0.06523386 -0.22761327 -0.16471942 -0.006915927
0.12030044 0.21288866 0.029132254 -0.20779523 0.09764974 0.22007988 0.1482359 -0.14230576
0.009076156 0.15362965 -0.057434134 -0.18246457 0.24461094 0.18727022 -0.22636506 0.1309695
0.06623293 -0.15578245 -0.18555906 0.2172251 -0.13299133 0.08312348 0.20568599 -0.09669468
0.23613487 -0.20650794 0.10760532 -0.17939144 -0.21473813 0.06489137 0.019410837 -0.15030438
0.16653968 0.0013020438 -0.08054735 0.19750923 -0.05250993 -0.22728515 -0.010598045 0.06832796
-0.1815329 -0.1267405 -0.08019168 0.14884332 0.16116536 -0.068837136 0.19482844 0.23629433
-0.24589734 -0.09977869 -0.15744254 0.24528687 0.13152254 0.031240573 0.023073584 0.13669875
0.18556516 0.06146521 -0.04644894 -0.20380375 0.23617437 0.1561003 0.18095052 -0.17679614
-0.06775126 -0.08222718 -0.07381585 -0.17450544 -0.097383425 -0.16259441 -0.017467618 0.18001717
-0.031890064 0.19727232 0.10634431 0.13280642 0.013301045 -0.14028183 -0.20367157 0.20452264
0.14997737 0.020158187 -0.2227642 0.22927277 0.10329211 0.10170507 -0.15163602 -0.013890386
0.162199 -0.22886883 0.14338739 -0.19004065 -0.015319943 -0.22793373 0.065690435 0.24292994
00000000: d863 8c3d facf 6b3d e3d1 323e 4871 0fbe
00000010: bc4e edbc f056 d2bd dabf 2abe 4e54 283e
00000020: 1a4b ad3d cf70 38bd 3e13 96bd 6ea3 31be
00000030: f0b9 5ebe 3871 a8bd b02e 5dbe 9406 8abd
00000040: 8907 1bbc 8169 3b3e 9479 223e 0ce4 033e
00000050: 2419 50be 6067 3d3e 1e21 193e f859 973d
00000060: cdbf 2c3d ce81 74be 4eaa 353e 22e5 293e
00000070: 9e9c 48be 9060 d43d aa38 02be 08ef 1f3d
00000080: 31f1 aa3c fc70 e2bd 6863 2bbe 7158 41be
00000090: 0286 793e ef64 c73d 5d45 2abe 5846 04bd
000000a0: ded3 813d 2dd7 923c bf6a 45be 10d3 7fbd
000000b0: 34ae 64be 3427 a3bd c115 4a3e 74cf 003e
000000c0: 378d eabc 3c60 dfbd 3eb8 453e dd31 7fbd
000000d0: 170e 19be 1e99 7bbc c2fd 45be ee63 613e
000000e0: 0b76 6ebe 122a 7abe 8e77 65bd 7656 5e3e
000000f0: b69f 2e3e e45c 98bd 732f 783d 629d 3ebe
00000100: 631e 45be 0a59 f33d 3301 5f3e 639e 973d
00000110: b430 a23c 6224 8e3d 6e26 f83d 16e7 7c3e
00000120: 49d4 92bc 168f a3bc 772a 40bc b80d 06be
00000130: 5cc2 7e3e 6ec4 003e 1475 56be e094 75be
00000140: e4fa 73be 5438 003e 2b09 2b3c 2ec4 65bd
00000150: 4462 5dbc e529 37be 7840 54be 6a45 4b3e
00000160: 5fbd 7a3e 7137 583e 4a0e 103d 367c 153e
00000170: 2470 153e 1019 7b3d 0cfc 233c fc26 41be
00000180: 9257 c23c 9487 02be 27b7 d93d f4cd 3c3e
00000190: 4251 da3d 5677 4b3e a56c 113d 8890 e53d
000001a0: 1f7c 57bd 48f6 8b3d 7462 cc3d 3a01 0bbe
000001b0: 7076 febd b023 753e 7aaf 7dbe 3ccc 073e
000001c0: c214 3c3e b35a 9e3d 31bd ed3c 6c7f 83bc
000001d0: 9895 b53d 650d 593e 8ece cdbd 340c 3abe
000001e0: a29e 46be db9a 0a3c da89 b03d 2843 23bd
000001f0: a8f8 dbbd 6249 40be 73d0 bd3d 1043 90bd
00000200: eb81 ecbd 7c70 cdbd cdfb 34be 100a b63b
00000210: ea12 2c3e 8be8 2e3e 7b65 9bbd c08a ec3c
00000220: b8f1 8bbd cc24 383e 5de1 8abd 6497 b93d
00000230: 18b1 aebd b6d1 6dbe a613 06be 58c4 1b3d
00000240: f924 cb3d 60b0 353e 20e6 0cbe e0f9 ed3d
00000250: 6ea9 f8bd c159 e9bd d80e 4dbd 38ea 863d
00000260: 7650 583c f6c1 19be a210 1abe f898 a13d
00000270: 5499 85bd 7413 69be 35ac 28be 009f e2bb
00000280: 1460 f63d 7cff 593e c4a6 ee3c 46c8 54be
00000290: 96fc c73d 9f5c 613e 27cb 173e 9ab8 11be
000002a0: 28b4 143c 1751 1d3e 0e40 6bbd fed7 3abe
000002b0: 4a7b 7a3e c4c3 3f3e 3ecc 67be de1c 063e
000002c0: 21a5 873d 6f85 1fbe 3203 3ebe 4270 5e3e
000002d0: e12e 08be a53c aa3d 599f 523e dc07 c6bd
000002e0: 57cd 713e d176 53be 2e60 dc3d 64b2 37be
000002f0: 50e4 5bbe c4e5 843d 7a03 9f3c 64e9 19be
00000300: 6189 2a3e 57a9 aa3a 02f6 a4bd dc3f 4a3e
00000310: a714 57bd 70bd 68be 6ca3 2dbc 88ef 8b3d
00000320: c3e3 39be 43c8 01be 893b a4bd 626a 183e
00000330: 8808 253e 7cfa 8cbd 1b81 473e 24f7 713e
00000340: 83cc 7bbe c558 ccbd 9e38 21be 7b2c 7b3e
00000350: d8ad 063e 3bec ff3c d004 bd3c c2fa 0b3e
00000360: cb04 3e3e f2c2 7b3d 3e41 3ebd eeb1 50be
00000370: b2d7 713e c2d8 1f3e 184b 393e 0c0a 35be
00000380: 2cc1 8abd b966 a8bd c42c 97bd 8eb1 32be
00000390: f670 c7bd 267f 26be 4018 8fbc 6c56 383e
000003a0: 289f 02bd c101 4a3e 0ccb d93d 68fe 073e
000003b0: a0ec 593c 0aa6 0fbe 488f 50be 626e 513e
000003c0: ab93 193e c822 a53c 4c1c 64be 7bc6 6a3e
000003d0: d08a d33d bf4a d03d 7946 1bbe 8094 63bc
000003e0: 7f17 263e 975c 6abe 25d4 123e 049a 42be
000003f0: 8000 7bbc 7667 69be b588 863d a0c2 783e

input_layer.bias f4 [512]
0.112006724 -0.056979742 0.10098433 0.11830643 -0.023189496 -0.044131383 0.12378145 0.02516693
0.16738102 0.21551411 -0.0878564 -0.04209127 -0.17311804 -0.099485375 0.019449547 -0.0024457388
0.23424022 -0.061991237 0.045678046 -0.21174237 0.008864647 0.23826359 0.07175116 -0.05839462
0.056707222 -0.19020292 0.092551336 0.06273597 -0.13145405 -0.011921226 -0.12403403 0.24857464
-0.23972838 -0.14208858 -0.15420555 0.17289372 -0.17366846 0.08072079 -0.24082284 0.23710011
-0.17897679 0.23598644 -0.1580455 -0.20960759 0.025975484 0.1663118 0.047529727 -0.044562653
-0.20637912 0.22542161 -0.007604045 -0.17063022 0.035846546 -0.17092307 -0.13573527 0.1449749
0.076974116 -0.004079802 0.03919373 0.22448015 -0.036285162 0.2453174 0.009637545 0.09025025
-0.016678983 0.0055329334 -0.17803124 0.15397677 0.015588098 0.115155905 0.06604556 -0.054580256
-0.018911235 -0.12069522 -0.015440397 0.094148844 -0.17941315 -0.09082198 0.18143345 0.13828495
-0.09589604 -0.23142152 0.068399675 0.21792616 0.1267315 -0.23148875 -0.026962973 0.11620055
0.13396217 0.11225969 0.11764144 0.17685412 -0.03852505 -0.12349758 0.1345967 -0.19071698
-0.08941337 0.13991296 0.05503856 0.10872003 0.14278023 0.044808336 -0.11700584 -0.097893074
0.22955795 -0.038784355 -0.048417542 0.07882532 -0.23952676 -0.08722988 -0.15584669 -0.18498197
-0.20356692 0.041235406 -0.088369586 -0.064930595 -0.2518572 0.1603872 -0.24853249 -0.21644272
-0.19703792 -0.13181731 -0.12476548 -0.14768897 0.18650119 0.21272735 -0.21818294 -0.22300859
0.2050494 0.05866889 0.1866469 0.15760002 -0.03115934 -0.06811685 0.19380386 0.21404578
-0.18284857 -0.21457382 0.06573067 0.08351171 -0.16824998 -0.10366942 -0.1691907 -0.09930606
0.19779222 0.08451571 0.15934154 0.18787932 0.15646844 0.12964088 0.19295332 -0.11546399
-0.12814909 -0.20006123 -0.14758572 -0.2117491 0.12400376 -0.14995216 0.02108069 0.04283468
0.18690735 -0.18307531 0.06033458 0.14819372 -0.16977929 -0.1853068 0.19676897 -0.22301255
-0.18114571 0.18166366 0.13834774 0.14201361 0.039455242 -0.1658431 0.16622801 0.13443536
0.24788755 -0.1891899 0.18224278 -0.06099549 0.18939659 -0.17076056 -0.010084053 -0.12699074
-0.1445157 0.13461164 -0.21381952 0.021061338 -0.03798154 -0.17946114 -0.19136637 -0.063537516
-0.13987805 -0.24575771 0.02259594 0.16231537 0.20986232 0.19144817 -0.19993342 -0.24405594
-0.23073937 -0.121429026 0.010867327 0.036012854 -0.20997716 0.018357698 0.04985753 -0.18777697
0.232175 0.118092835 -0.026896615 0.045292526 -0.108474456 0.2518894 0.071902804 0.215091
0.11976541 -0.19466771 0.24219237 -0.08027089 -0.2380266 -0.08551636 0.17340298 0.08397071
0.08735758 -0.22140232 0.07606747 -0.08303104 -0.1066682 -0.087068506 -0.01928114 -0.07273959
-0.015079238 0.05563793 0.07365186 -0.10737554 0.030360257 0.13221402 -0.17256072 0.2024306
-0.23070489 -0.22633718 -0.1400668 0.16155782 -0.110791035 -0.20749463 0.16616783 0.2253058
0.06698964 0.07554728 0.23681779 0.0036210981 -0.03770858 0.084860474 -0.011316042 0.19142574
00000000: c863 e53d 9763 69bd dfd0 ce3d a44a f23d
00000010: e6f7 bdbc 1cc3 34bd 2181 fd3d e12a ce3c
00000020: ee65 2b3e bbaf 5c3e 0eee b3bd e567 2cbd
00000030: db45 31be fdbe cbbd a854 9f3c b048 20bb
00000040: abdc 6f3e 86ea 7dbd e718 3b3d fed2 58be
00000050: 063d 113c 5ffb 733e 46f2 923d 322f 6fbd
00000060: d545 683d 8ec4 42be 8e8b bd3d b77b 803d
00000070: e49b 06be 3f51 43bc 8e05 febd 5a8a 7e3e
00000080: 5b7b 75be ab7f 11be 0fe8 1dbe 0d0b 313e
00000090: 25d6 31be f150 a53d 439a 76be 5fca 723e
000000a0: b145 37be 6ea6 713e aed6 21be 5fa3 56be
000000b0: 8aca d43c a44d 2a3e 88ae 423d 5487 36bd
000000c0: 0c55 53be ecd4 663e 5a2b f9bb b0b9 2ebe
000000d0: d4d3 123d 7506 2fbe 30fe 0abe 4d74 143e
000000e0: 9ba4 9d3d dcaf 85bb 9b89 203d 20de 653e
000000f0: c09f 14bd 7c34 7b3e cbe6 1d3c 20d5 b83d
00000100: 5da2 88bc 9c4d b53b d24d 36be 16ac 1d3e
00000110: 3965 7f3c dcd6 eb3d e542 873d 8c8f 5fbd
00000120: bceb 9abc 0e2f f7bd b8f9 7cbc 1cd1 c03d
00000130: 15b8 37be e000 babd b1c9 393e 929a 0d3e
00000140: 2565 c4bd c3f9 6cbe 2115 8c3d 0928 5f3e
00000150: e7c5 013e 630b 6dbe 74e1 dcbc 8efa ed3d
00000160: 612d 093e 69e8 e53d ffed f03d 3f19 353e
00000170: 71cc 1dbd 4dec fcbd b8d3 093e 504b 43be
00000180: 5b1e b7bd 5845 0f3e 1d70 613d 9ba8 de3d
00000190: fb34 123e f288 373d c2a0 efbd 2a7c c8bd
000001a0: 3d11 6b3e 58dc 1ebd 7951 46bd 2b6f a13d
000001b0: 8146 75be 94a5 b2bd 4696 1fbe ea6b 3dbe
000001c0: d973 50be 75e6 283d 1dfb b4bd 55fa 84bd
000001d0: 6df3 80be 8b3c 243e 4d7f 7ebe 29a3 5dbe
000001e0: 4fc4 49be 1efb 06be 0b85 ffbd c73b 17be
000001f0: 2bfa 3e3e 33d5 593e 596b 5fbe 5d5c 64be
00000200: 78f8 513e ca4e 703d 5d20 3f3e e661 213e
00000210: df41 ffbc d980 8bbd 8574 463e d12e 5b3e
00000220: a83c 3bbe 3db9 5bbe cd9d 863d 3008 ab3d
00000230: b949 2cbe a250 d4bd 5440 2dbe fa60 cbbd
00000240: 0b8a 4a3e 9316 ad3d 6e2a 233e 7063 403e
00000250: 4339 203e 94c0 043e 8e95 453e 6278 ecbd
00000260: 8439 03be dadc 4cbe b620 17be c2d4 58be
00000270: aff5 fd3d 0f8d 19be 69b1 ac3c 6b73 2f3d
00000280: a464 3f3e 1878 3bbe 6421 773d 18c0 173e
00000290: 9fda 2dbe 11c1 3dbe ce7d 493e 675d 64be
000002a0: 437e 39be 0a06 3a3e 08ab 0d3e 046c 113e
000002b0: d29b 213d c6d2 29be ad37 2a3e 6ca9 093e
000002c0: 3cd6 7d3e ffba 41be da9d 3a3e 68d6 79bd
000002d0: 2ef1 413e dbdb 2ebe 9537 25bc dc09 02be
000002e0: ecfb 13be a2d7 093e 81f3 5abe d488 ac3c
000002f0: 8892 1bbd a9c4 37be 8cf5 43be f51f 82bd
00000300: 313c 0fbe e9a7 7bbe 1f1b b93c 0036 263e
00000310: 26e6 563e fd0a 443e 59bb 4cbe cde9 79be
00000320: f146 6cbe c8af f8bd e00c 323c 3782 133d
00000330: 4104 57be e262 963c 6937 4c3d 9b48 40be
00000340: 48bf 6d3e a8da f13d 4a56 dcbc a884 393d
00000350: db27 debd a6f7 803e c741 933d d140 5c3e
00000360: 9147 f53d f956 47be 4701 783e 1065 a4bd
00000370: 3fbd 73be 3423 afbd 8d90 313e d6f8 ab3d
00000380: 88e8 b23d 4ab7 62be 43c9 9b3d 2e0c aabd
00000390: db74 dabd f950 b2bd 7bf3 9dbc 7ff8 94bd
000003a0: e90e 77bc 99e4 633d c9d6 963d b5e7 dbbd
000003b0: 13b6 f83c 1d63 073e c2b3 30be f849 4f3e
000003c0: e73d 6cbe efc4 67be ac6d 0fbe 6a6f 253e
000003d0: 69e6 e2bd 7979 54be e627 2a3e 90b6 663e
000003e0: dd31 893d 88b8 9a3d 5d80 723e f24f 6d3b
000003f0: 5074 1abd 54cb ad3d ec66 39bc 1c05 443e

output_layer.weight f4 [1, 512]
0.058483865 0.013956786 0.018990729 -0.058171548 -0.016880704 0.028020104 0.004650341 0.042276688
0.05534839 0.0071364916 -0.046850808 -0.099604465 0.017206179 -0.02855239 0.035506833 -0.03503164
0.02596179 0.040229294 -0.016627373 0.012476423 -0.030956099 -0.071042605 0.034641735 -0.028416965
0.0063629355 0.036903404 0.09029167 0.008536148 0.02491785 -0.0060107447 0.0021479903 0.005667371
-0.03679487 -0.051698122 -0.047796376 -0.036273796 0.03696443 -0.06796409 0.022320587 -0.028699625
0.033189297 0.029555002 0.011150489 0.009581628 0.046888556 0.084392995 -0.01838541 -0.033513006
-0.026057016 0.013390441 0.018771872 0.020564388 -0.008739625 -0.054373205 0.08676086 0.021320289
-0.035587005 -0.09868973 0.010392771 -0.06619287 -0.00965656 0.008928138 -0.048020203 -0.025455942
0.022384666 0.009564131 -0.0581735 -0.061232377 -0.063652135 0.0010961845 -0.023818828 0.04024637
0.052350238 -0.013494461 -0.023605848 -0.017890163 0.017331418 -0.026581492 0.018099122 -0.027951326
0.05586065 -0.09547375 -0.011819433 -0.008382879 -0.0815508 0.0004500652 -0.019373292 0.030777093
0.07194808 0.057576396 -0.030771408 -0.0048392075 -0.012246245 -0.016660966 -0.1204073 -0.011774708
0.08021912 -0.011243264 -0.06590736 0.009931047 -0.09005883 -0.0064151883 -0.09407195 -0.02891326
0.0016956753 0.024247304 0.016772017 -0.0060906676 -0.042881787 -0.072763585 -0.0031547672 0.025288265
-0.076288104 0.006094695 0.065331556 -0.032518305 0.05898324 -0.04376377 0.049369138 -0.027097972
0.036716606 -0.037807047 -0.031107863 -0.017091783 0.102707 -0.081855 -0.057909016 0.017685013
-0.04203405 0.045111924 0.08172196 -0.016589556 0.019441044 0.016380055 0.024609271 0.03032326
0.043160457 0.024989715 -0.13236095 -0.0036444392 -0.02451621 0.03161495 -0.013646396 0.05454119
0.11095381 0.020160284 -0.034458324 0.0071531096 -0.0041176104 -0.04312795 -0.013268825 -0.045678224
0.025120104 0.0226112 0.059066378 0.08648754 0.09229118 0.037213217 -0.025960458 -0.070886195
0.078858055 -0.010412226 -0.023130812 -0.0061288993 -0.0047568246 -0.004558876 -0.062484786 0.024477607
0.0023638718 -0.028239293 0.024948236 -0.0374598 -0.016431931 -0.04959375 0.0045077302 0.07579523
0.019128753 -0.025268937 0.015868891 0.15372674 -0.0037607593 -0.021799538 0.009428004 -0.017854476
-0.045378007 -0.085696004 -0.004602332 -0.007008063 -0.032754492 -0.034253955 0.015737573 0.0027512077
0.07670809 -0.01931845 0.072685726 0.0081801405 -0.0062127323 0.039227754 -0.056633078 -0.0013845746
-0.033008367 0.11070189 0.037189018 -0.025425775 -0.024025114 -0.0797397 -0.022207025 -0.0701883
0.0013814007 0.12361904 0.015070972 0.026020618 0.086254425 0.03804427 -0.03666419 0.18809266
-0.02541114 0.029299142 0.080468625 0.055141233 0.059025437 -0.01515313 0.091729395 0.031376533
-0.0071730255 -0.029958433 0.0013047266 -0.017115103 0.04547436 -0.035922028 -0.023225816 0.0094616255
-0.016214402 -0.07236449 -0.014362452 -0.06433027 0.009362502 0.07259594 -0.049802735 -0.103193216
0.019906616 -0.0033343767 0.0643583 0.008820987 -0.015927115 -0.0013989988 -0.028952124 0.05110018
0.0191295 0.052275024 -0.058471024 0.07390612 -0.036274906 -0.07975857 0.029419143 0.051461063
00000000: c78c 6f3d 01ab 643c 7292 9b3c 4a45 6ebd
00000010: 6749 8abc 6b8a e53c e361 983b 522a 2d3d
00000020: feb4 623d 3bd9 e93b a2e6 3fbd 6dfd cbbd
00000030: f9f3 8c3c b4e6 e9bc 9d6f 113d 567d 0fbd
00000040: d2ad d43c 79c7 243d 2136 88bc e969 4c3c
00000050: a597 fdbc c97e 91bd 7ee4 0d3d b2ca e8bc
00000060: 2c80 d03b 0628 173d d7ea b83d 33db 0b3c
00000070: 8520 cc3c c8f5 c4bb 4cc5 0c3b 5bb5 b93b
00000080: 38b6 16bd 69c1 53bd 22c6 43bd d593 14bd
00000090: 0468 173d c230 8bbd aad9 b63c 7a1b ebbc
000000a0: 80f1 073d 551d f23c 8ab0 363c 43fc 1c3c
000000b0: 370e 403d 3cd6 ac3d 009d 96bc ef44 09bd
000000c0: 8675 d5bc 9563 5b3c 78c7 993c a676 a83c
000000d0: a530 0fbc 70b6 5ebd aeaf b13d e3a7 ae3c
000000e0: aec3 11bd d71d cabd 7146 2a3c 2190 87bd
000000f0: 8c36 1ebc 5347 123c d5b0 44bd fb88 d0bc
00000100: 0c60 b73c dfb2 1c3c 5647 6ebd cdce 7abd
00000110: 0d5c 82bd d9ad 8f3a b41f c3bc 61d9 243d
00000120: 346d 563d df17 5dbc 0d61 c1bc 648e 92bc
00000130: 9efa 8d3c 6ec1 d9bc 9c44 943c 2efa e4bc
00000140: 23ce 643d be87 c3bd 4ca6 41bc 5858 09bc
00000150: 1b04 a7bd bbf6 eb39 bdb4 9ebc 3e20 fc3c
00000160: 8459 933d 3ad5 6b3d 5214 fcbc 3792 9ebb
00000170: 79a4 48bc 947c 88bc 1a98 f6bd b4ea 40bc
00000180: ec49 a43d ab35 38bc 70fa 86bd d5b5 223c
00000190: c470 b8bd 8036 d2bb cba8 c0bd 80db ecbc
000001a0: 6c41 de3a 48a2 c63c 7865 893c 3994 c7bb
000001b0: d0a4 2fbd 1305 95bd 36c0 4ebb 5629 cf3c
000001c0: f03c 9cbd 02b6 c73b 8dcc 853d ea31 05bd
000001d0: 6998 713d a441 33bd 4b37 4a3d 91fc ddbc
000001e0: 2764 163d 90db 1abd ebd5 febc 1104 8cbc
000001f0: 0c58 d23d 98a3 a7bd 0132 6dbd 29e0 903c
00000200: e52b 2cbd 48c7 383d d85d a73d d2e6 87bc
00000210: d342 9f3c 772f 863c 6299 c93c 7c68 f83c
00000220: 05c9 303d 3bb7 cc3c a189 07be 8bd7 6ebb
00000230: 38d6 c8bc ae7e 013d 2295 5fbc 9566 5f3d
00000240: c03b e33d 2e27 a53c 2c24 0dbd a264 ea3b
00000250: 05ed 86bb efa6 30bd 7c65 59bc 1719 3bbd
00000260: adc8 cd3c 203b b93c 96ef 713d 6120 b13d
00000270: 2803 bd3d e36c 183d 07ab d4bc c82c 91bd
00000280: 5580 a13d 0b98 2abc d47c bdbc efd4 c8bb
00000290: 23df 9bbb a062 95bb 0cf0 7fbd 4385 c83c
000002a0: 30eb 1a3b 1756 e7bc 3e60 cc3c 726f 19bd
000002b0: 429c 86bc d122 4bbd 95b5 933b 883a 9b3d
000002c0: e7b3 9c3c cd00 cfbc 7aff 813c 8b6a 1d3e
000002d0: 1277 76bb f294 b2bc ea77 1a3c 8d43 92bc
000002e0: 4ade 39bd 6381 afbd 29cf 96bb e5a3 e5bb
000002f0: 9329 06bd e04d 0cbd 15ec 803c 9b4d 343b
00000300: 2219 9d3d ba41 9ebc 41dc 943d ff05 063c
00000310: 2d94 cbbb 48ad 203d 16f8 67bd 9d7a b5ba
00000320: c833 07bd acb7 e23d 8353 183d b749 d0bc
00000330: 51d0 c4bc 914e a3bd 82eb b5bc e2be 8fbd
00000340: 1e10 b53a fb2b fd3d 3dec 763c 3129 d53c
00000350: 29a6 b03d 4fd4 1b3d 312d 16bd 5d9b 403e
00000360: 062b d0bc c104 f03c bccc a43d c6db 613d
00000370: a8c4 713d d544 78bc 9fdc bb3d ae84 003d
00000380: b30b ebbb 636b f5bc 5c03 ab3a f934 8cbc
00000390: 5343 3a3d fa22 13bd 1144 bebc ef04 1b3c
000003a0: 11d4 84bc d533 94bd 7d50 6bbc 97bf 83bd
000003b0: 2e65 193c 2ead 943d f4fd 4bbd f756 d3bd
000003c0: 3313 a33c 8f85 5abb 49ce 833d e785 103c
000003d0: 9579 82bc 9c5e b7ba 012d edbc 6c4e 513d
000003e0: 78b5 9c3c 561e 563d 507f 6fbd 185c 973d
000003f0: ff94 14bd 7658 a3bd 6a00 f13c d6c8 523d
