data/baumgartner_C-N/phenethylamine_emulator/aniline_bm_predictor_3.pt (torch, 38367 bytes, 3 tensors)

input_layer.weight f4 [512, 16]
-0.1343784 0.24470279 0.09273626 0.0816036 0.25092703 0.15395868 0.2058654 0.15924639
-0.019999122 0.21069962 0.14743167 -0.086319745 -0.22319245 -0.14963636 0.17416403 -0.020576507
-0.032488246 0.20534423 -0.105588764 0.20464723 -0.23637053 0.25040215 -0.2118755 -0.22205746
-0.15182137 0.09582767 0.079471454 -0.23582739 0.14536458 0.04380846 0.18632218 0.19915757
0.17631276 0.201307 0.18250635 -0.21549226 -0.09162698 0.23923035 0.12949605 -0.24382883
-0.16922574 0.048774175 -0.023522701 0.109841764 -0.19866103 -0.24363393 -0.14284135 -0.15746099
-0.13200977 -0.17125402 -0.003199904 -0.030612484 -0.08108271 -0.19069323 -0.16534862 0.031137854
-0.25590461 0.25066248 -0.08408356 0.040994316 -0.13316181 0.014336437 0.026763644 0.22857466
0.08222972 0.035139784 0.027061664 0.08284124 -0.0049855695 -0.18423969 -0.0060616434 0.050587893
0.15554278 -0.1409496 0.21235706 0.19161844 0.23061359 -0.22816232 -0.17495018 0.13498917
-0.109379865 0.024462692 -0.06655752 0.10422767 0.13227743 -0.22572927 0.031113708 -0.10519168
0.018083148 -0.061056416 0.029084293 0.22341132 0.2353496 0.11090091 -0.13549429 0.21092641
0.24493644 0.23580614 -0.1837057 0.14838214 0.1490816 0.19821018 0.015227039 0.05124429
0.21441521 0.06667063 0.03561821 0.14933562 -0.23538017 -0.18046948 -0.061898805 -0.15677163
-0.15129456 0.011228399 0.14248224 -0.06743819 0.028815174 -0.22183323 0.14336635 0.18215138
0.12897186 -0.19084132 0.23500572 0.24889958 0.17883223 0.21165666 0.021278508 -0.110505044
-0.06399593 0.076432385 0.13659273 0.15038635 -0.096394375 -0.062473197 -0.0008638894 -0.22030872
0.20518644 0.10935076 -0.1637508 -0.11106664 -0.20567065 0.030339897 -0.23062989 0.014489889
-0.16240846 0.16726682 0.17156172 0.16221096 0.03947975 0.22840604 0.13301502 -0.04732454
0.17749983 0.13302389 -0.11267821 0.049307764 -0.17446774 0.22273538 0.042470396 0.09092149
0.23821177 0.21775986 -0.09937895 -0.10911839 -0.030265413 -0.17867707 -0.22578287 -0.03603655
0.16957027 -0.25157887 0.19855425 -0.10620755 -0.23026079 -0.20750296 0.16233848 0.09873265
0.20959434 0.09786901 0.10864397 0.09293285 0.1151575 0.044916548 -0.20325732 0.01222381
-0.07692081 -0.15430963 0.22274593 0.091659695 0.05296725 -0.15909538 -0.2172359 0.061481148
0.13126595 -0.005759019 -0.17728294 0.013296969 0.11319712 0.0667711 -0.022398079 -0.027489752
0.034087863 0.18596415 -0.028021455 -0.2185024 -0.06936857 0.2247394 0.24973987 -0.060925514
0.006038235 -0.06115652 0.09782486 0.049101237 0.13745213 -0.13801098 0.017554156 0.06171909
-0.15638207 -0.14588912 -0.116430394 -0.030387104 -0.1606979 0.012645334 -0.05321782 0.18487695
0.10134205 -0.037888862 0.2119094 -0.06523217 0.219813 0.016525079 -0.0044815256 0.07132727
-0.23813963 -0.009754668 -0.21139084 0.09723532 0.18355063 -0.23232603 0.17019698 0.13624161
0.09781043 0.09746701 0.03918583 -0.18934992 0.16362827 -0.20162775 -0.011488818 0.19149047
-0.16787736 0.2143997 -0.24348448 -0.18941507 0.22103888 0.10682589 -0.0912553 0.13450742
00000000: 7e9a 09be 5e93 7a3e 82ec bd3d ca1f a73d
00000010: 8279 803e 58a7 1d3e 61ce 523e 7c11 233e
00000020: 33d5 a3bc a4c1 573e 54f8 163e 68c8 b0bd
00000030: 908c 64be 463a 19be 0e58 323e 1090 a8bc
00000040: 6512 05bd c245 523e ec3e d8bd 0b8f 513e
00000050: 1e0b 72be b634 803e e4f5 58be 0863 63be
00000060: 1077 1bbe 4c41 c43d eec1 a23d bc7c 71be
00000070: 74da 143e 8070 333d 3ecb 3e3e f6ef 4b3e
00000080: 558b 343e 6c23 4e3e f2e2 3a3e 01aa 5cbe
00000090: eda6 bbbd cdf8 743e 9d9a 043e 44ae 79be
000000a0: 8349 2dbe 6ec7 473d aeb2 c0bc b8f4 e03d
000000b0: cc6d 4bbe 2c7b 79be 0145 12be 743d 21be
000000c0: 922d 07be 375d 2fbe 7bb5 51bb 08c7 fabc
000000d0: b10e a6bd 1645 43be 2651 29be d014 ff3c
000000e0: ee05 83be d556 803e 0034 acbd a8e9 273d
000000f0: 925b 08be 60e3 6a3c 6e3f db3c 7a0f 6a3e
00000100: 0e68 a83d bcee 0f3d 6cb0 dd3c aba8 a93d
00000110: fd5d a3bb 54a9 3cbe c0a0 c6bb 4035 4f3d
00000120: 9b46 1f3e 1855 10be 2174 593e a037 443e
00000130: f825 6c3e 62a3 69be 2426 33be 9a3a 0a3e
00000140: 8d02 e0bd fc65 c83c 4f4f 88bd 5175 d53d
00000150: bc73 073e 9325 67be 2de2 fe3c bc6e d7bd
00000160: 1c23 943c 4b16 7abd 2f42 ee3c f0c5 643e
00000170: 7cff 703e 0420 e33d 04bf 0abe 18fd 573e
00000180: 9ed0 7a3e 2a77 713e 591d 3cbe 7df1 173e
00000190: d9a8 183e 9cf7 4a3e d57a 793c 88e5 513d
000001a0: a98f 5b3e 9c8a 883d 66e4 113d 70eb 183e
000001b0: 8007 71be fecc 38be 9a89 7dbd be88 20be
000001c0: f6ec 1abe 52f7 373c dde6 113e 091d 8abd
000001d0: cd0d ec3c 4028 63be a1ce 123e e485 3a3e
000001e0: 3311 043e e86b 43be 57a5 703e 88df 7e3e
000001f0: cc1f 373e 86bc 583e 4450 ae3c 7850 e2bd
00000200: 4c10 83bd 9588 9c3d f7de 0b3e e1fe 193e
00000210: 6a6a c5bd e5e3 7fbd a376 62ba 9c98 61be
00000220: 651c 523e 4bf3 df3d 4aae 27be e876 e3bd
00000230: 549b 52be 608b f83c 3e2a 6cbe 0067 6d3c
00000240: 674e 26be fe47 2b3e e0ad 2f3e a11a 263e
00000250: 85b5 213d 46e3 693e 1735 083e 60d7 41bd
00000260: 84c2 353e 6a37 083e d5c3 e6bd f0f6 493d
00000270: aca7 32be be14 643e 70f5 2d3d 0c35 ba3d
00000280: c9ed 733e 71fc 5e3e 3187 cbbd 7679 dfbd
00000290: 2cef f7bc 1ff7 36be a033 67be 109b 13bd
000002a0: d4a3 2d3e f2ce 80be ce51 4b3e 5883 d9bd
000002b0: 7cc9 6bbe a87b 54be 0f3c 263e 5834 ca3d
000002c0: e69f 563e 8c6f c83d bb80 de3d 9453 be3d
000002d0: b2d7 eb3d 6afa 373d b022 50be 6046 483c
000002e0: a888 9dbd 5803 1ebe 8217 643e 14b8 bb3d
000002f0: 30f4 583d e6e9 22be 1673 5ebe a8d3 7b3d
00000300: 956a 063e 27b6 bcbb a989 35be 88db 593c
00000310: e4d3 e73d 49bf 883d 2d7c b7bc 3032 e1bc
00000320: b79f 0b3d 636d 3e3e 408d e5bc 18bf 5fbe
00000330: 1c11 8ebd 1622 663e cfbb 7f3e 088d 79bd
00000340: 63dc c53b 427f 7abd 6658 c83d 611e 493d
00000350: 40c0 0c3e c052 0dbe bccd 8f3c 28cd 7c3d
00000360: 9f22 20be f563 15be 0f73 eebd 60ee f8bc
00000370: fe8d 24be 602e 4f3c eefa 59bd 6250 3d3e
00000380: 6c8c cf3d 5a31 1bbd c7fe 583e 7298 85bd
00000390: a916 613e 9a5f 873c c3d9 92bb 0814 923d
000003a0: e0da 73be 0bd2 1fbc d776 58be 5023 c73d
000003b0: b2f4 3b3e e0e6 6dbe 1e48 2e3e ec82 0b3e
000003c0: d650 c83d c99c c73d 5281 203d f2e4 41be
000003d0: 2b8e 273e 8177 4ebe 983b 3cbc 1416 443e
000003e0: 0be8 2bbe 988b 5b3e ff53 79be 06f6 41be
000003f0: 0458 623e 88c7 da3d 0fe4 babd 50bc 093e

input_layer.bias f4 [512]
0.10360069 -0.18603855 -0.04172256 0.18050729 -0.120208524 0.21830374 0.22811435 -0.21846162
0.08218723 -0.2196112 -0.11773556 -0.1780377 0.037038967 -0.013045285 0.14688426 0.19528762
0.15070906 -0.03185415 0.043159876 -0.22976094 0.17562664 -0.15803696 0.23963936 -0.17362973
-0.101962686 0.067229 -0.1655662 -0.08486389 -0.010901853 -0.08921991 -0.1694679 0.026408717
0.09506579 -0.094044134 -0.049344584 -0.02215934 -0.05573014 0.15693985 -0.08114796 -0.24175206
0.120909214 -0.09722697 0.014480625 -0.10475414 -0.18389675 0.105426356 0.0104412865 -0.08798401
0.023769515 0.23706459 -0.059420526 0.04718494 0.09823853 -0.19091609 -0.17380282 -0.08870423
0.23637258 0.067941144 -0.16309737 0.06179128 0.014488489 -0.15585077 -0.22443469 -0.100204684
0.0036948503 -0.05863294 -0.1231947 0.03112784 0.1325495 0.15235677 -0.012463119 -0.21052454
0.21974185 -0.03713304 0.1013381 0.00069143454 -0.06660576 0.1643126 -0.18051332 0.17339155
0.07062734 -0.17540383 -0.13008164 -0.0071019568 -0.039782975 -0.005158808 0.21888937 0.02512301
0.1651205 -0.16239774 -0.09367197 0.18922988 -0.13498764 -0.14427091 0.05802645 0.03031653
-0.13016586 -0.15690336 -0.19882376 -0.23196857 -0.17376845 -0.21919446 -0.17174204 -0.19284175
0.14198981 0.15805113 0.07912433 0.15278552 0.04144488 -0.033967167 -0.13529769 -0.025846768
0.22203688 0.22550254 0.22854115 0.12993178 -0.042277943 0.019354502 -0.0064208475 0.18970123
0.15084228 -0.13603063 -0.22787248 0.2385095 0.035629787 0.030160755 0.106316276 0.10992121
0.09602666 0.014831079 -0.0026695114 0.11927299 0.16924697 0.106461786 0.10568668 -0.24430114
0.068351336 -0.0638181 0.17330109 -0.09403868 -0.07559566 0.07830387 0.25286925 0.0054198178
-0.10469626 0.07247867 -0.012336392 0.038717844 -0.0736766 0.02787953 0.21254058 -0.12929288
0.051652923 0.17013751 -0.12640207 -0.20150366 -0.086476944 -0.1968772 -0.24074258 -0.15509449
0.07912393 0.14201048 0.1824213 -0.07554009 0.14676483 0.025520358 0.0062281177 -0.2138072
-0.18220212 -0.22633462 -0.05978255 0.05219269 0.22650938 -0.029146913 -0.116561726 0.11692404
0.13625208 -0.20886475 0.16138688 -0.036201436 -0.11527312 -0.055266023 -0.09594369 0.10156083
-0.1603565 -0.08850803 0.24514805 -0.021596082 -0.08852339 0.17453235 -0.010763729 0.12810908
0.05786851 0.121140696 -0.20580454 0.16841479 -0.08780496 -0.08009845 -0.18832254 0.033368923
0.12209298 0.04591178 0.17751987 0.14050135 -0.09183318 -0.12124212 -0.17126746 0.23371284
0.034065135 -0.23896909 0.1596028 -0.20944494 0.11876527 0.12044863 0.025868865 0.067755915
0.16498935 0.24007136 -0.08936362 -0.08162318 -0.024304487 0.2199195 -0.22195789 0.1375356
0.18578552 -0.23593351 0.0729721 0.14037257 0.09784099 -0.07502733 0.24708222 -0.22157781
-0.13488273 -0.11077392 0.04385373 -0.08604456 -0.13365656 -0.12020217 0.22700232 -0.11106449
-0.22439906 0.13305905 -0.015643116 -0.21378613 -0.145109 0.071286164 0.026894076 0.1073291
-0.02402548 0.06944783 -0.1583738 0.115162894 -0.15183009 0.070206486 -0.014512334 0.10282164
00000000: 992c d43d e480 3ebe 46e5 2abd e7d6 383e
00000010: e32f f6bd 048b 5f3e cf96 693e 67b4 5fbe
00000020: c751 a83d c2e1 60be 571f f1bd 844f 36be
00000030: 2cb6 173d e4bb 55bc d468 163e 7af9 473e
00000040: 7a53 1a3e 7f79 02bd 69c8 303d 7446 6bbe
00000050: 78d7 333e 71d4 21be 0564 753e fecb 31be
00000060: d0d1 d0bd 5caf 893d 308a 29be 1fcd adbd
00000070: b09d 32bc eeb8 b6bd fe88 2dbe 1857 d83c
00000080: dab1 c23d 369a c0bd 8c1d 4abd 8187 b5bc
00000090: 4a45 64bd d7b4 203e e730 a6bd da8d 77be
000000a0: 409f f73d ef1e c7bd 2540 6d3c 5789 d6bd
000000b0: 6e4f 3cbe c6e9 d73d ee11 2b3c f630 b4bd
000000c0: 49b8 c23c 0fc1 723e f062 73bd ff44 413d
000000d0: 4831 c93d 827f 43be 5ef9 31be 90aa b5bd
000000e0: a70b 723e ba24 8b3d ff02 27be da18 7d3d
000000f0: 2161 6d3c 5897 1fbe 35d2 65be 1d38 cdbd
00000100: 4d25 723b 1829 70bd 814d fcbd d0ff fe3c
00000110: 0ebb 073e 6a03 1c3e 1c32 4cbc bf93 57be
00000120: 0204 613e d118 18bd 5a8a cf3d 6341 353a
00000130: 9a68 88bd 9041 283e 7cd8 38be 8e8d 313e
00000140: 11a5 903d 109d 33be 1f34 05be 88b7 e8bb
00000150: 79f3 22bd 380b a9bb 8924 603e c5ce cd3c
00000160: 5915 293e 984b 26be 17d7 bfbd 7ac5 413e
00000170: 333a 0abe c1bb 13be 25ad 6d3d 5f5a f83c
00000180: 334a 05be 46ab 20be 7598 4bbe 2b89 6dbe
00000190: 5bf0 31be 8374 60be 25dd 2fbe 4f78 45be
000001a0: c765 113e 28d8 213e f00b a23d cf73 1c3e
000001b0: 1bc2 293d 2821 0bbd 7a8b 0abe 9abc d3bc
000001c0: a35d 633e 23ea 663e b106 6a3e d60c 053e
000001d0: a32b 2dbd 558d 9e3c f965 d2bb 0a41 423e
000001e0: 6676 1a3e 9d4b 0bbe 6757 69be d63b 743e
000001f0: 8af0 113d b013 f73c 59bc d93d 5f1e e13d
00000200: a0a9 c43d 0efe 723c f8f2 2ebb 6645 f43d
00000210: 144f 2d3e a308 da3d 4272 d83d 142a 7abe
00000220: c9fb 8b3d 10b3 82bd d775 313e 5a97 c0bd
00000230: e6d1 9abd c85d a03d 1478 813e ba98 b13b
00000240: fe6a d6bd b26f 943d 941e 4abc 9a96 1e3d
00000250: c2e3 96bd 9d63 e43c 3da4 593e 5a65 04be
00000260: 0492 533d 8738 2e3e 8b6f 01be fa56 4ebe
00000270: d31a b1bd 2d9a 49be 3985 76be 17d1 1ebe
00000280: ba0b a23d 326b 113e a6cc 3a3e c3b4 9abd
00000290: 8549 163e 1210 d13c 3d15 cc3b 46f0 5abe
000002a0: 3193 3abe 43c4 67be 8cde 74bd 01c8 553d
000002b0: 13f2 673e 82c5 eebc eab7 eebd df75 ef3d
000002c0: aa85 0b3e a4e0 55be 9a42 253e f547 14bd
000002d0: 5014 ecbd a05e 62bd 207e c4bd 20ff cf3d
000002e0: 7f34 24be b343 b5bd 1708 7b3e 44ea b0bc
000002f0: c04b b5bd 9cb8 323e 5a5a 30bc 072f 033e
00000300: 8807 6d3d 9d18 f83d 6dbe 52be ed74 2c3e
00000310: 16d3 b3bd a80a a4bd a0d7 40be daad 083d
00000320: e20b fa3d fe0d 3c3d c5c7 353e 96df 0f3e
00000330: 0913 bcbd ca4d f8bd bd60 2fbe 6b52 6f3e
00000340: e287 0b3d 50b4 74be eb6e 233e bc78 56be
00000350: 353b f33d c5ad f63d f1ea d33c 9dc3 8a3d
00000360: f8f2 283e 44d5 753e 4604 b7bd 0e2a a7bd
00000370: 341a c7bc 9432 613e ee48 63be 22d6 0c3e
00000380: 8f3e 3e3e 8e98 71be 6572 953d d4bd 0f3e
00000390: db60 c83d eea7 99bd 1f03 7d3e 4be5 62be
000003a0: b31e 0abe 70dd e2bd f89f 333d 2138 b0bd
000003b0: 44dd 08be 8e2c f6bd 4c73 683e c875 e3bd
000003c0: dec8 65be a240 083e fe25 80bc c0ea 5abe
000003d0: 7497 14be 7bfe 913d f750 dc3c 5ccf db3d
000003e0: 15d1 c4bc aa3a 8e3d be2c 22be 86da eb3d
000003f0: 5979 1bbe 6bc8 8f3d 24c5 6dbc 2794 d23d

output_layer.weight f4 [1, 512]
0.04647552 0.052359074 -0.053620327 0.13547203 -0.03954912 -0.052900374 -0.029720536 -0.023636607
0.019293524 -0.024559733 0.045462377 0.031067057 0.039658345 -0.032000247 0.014908128 0.009959507
-0.020758897 -0.08058209 0.0040926887 0.041335404 -0.0541577 0.009111415 -0.045812562 -0.07371338
0.008815474 0.04498594 -0.029728128 -0.01491869 -0.013918114 -0.038728174 -0.08712669 0.03514068
-0.0047136513 0.07380528 -0.02567969 -0.03017217 -0.01795984 -0.07756491 -0.03323817 0.041915487
-0.07042966 0.03391167 0.0085235825 -0.07722388 0.038360186 -0.03412628 0.04959259 -0.038004413
0.031204315 0.03239001 -0.029047992 -0.023231296 -0.017724128 0.006420904 0.06905489 0.066862375
0.07632952 0.06988014 -0.03492673 -0.0317352 0.009975829 0.013008377 0.031033386 -0.013426598
-0.058626823 0.021523634 0.049304564 0.04443684 -0.015290919 -0.012249641 0.03811889 0.0046594795
0.03765514 0.006744573 0.061936177 -0.046495963 -0.05362769 -0.023685204 0.04188637 -0.011108795
-0.026537688 0.023118915 -0.01094572 -0.0036486618 -0.01938345 0.07732658 -0.08565622 -0.039588165
-0.03075357 -0.02106628 0.031975415 -0.08102921 -0.024444837 0.05258355 -0.08931976 -0.0020743755
-0.029522998 0.002936183 0.014675227 -0.02288381 -0.031301755 -0.0061009964 0.0019897735 -0.0075889714
-0.055567242 -0.029529504 -0.06793059 -0.0073335366 0.019588336 -0.03551159 -0.035328954 -0.006911176
0.0057619642 -0.010087939 -0.011721825 -0.00017526138 -0.01125104 -0.05390766 0.06835073 -0.023477858
-0.027479606 0.031594392 -0.11513888 -0.109386146 0.043151543 -0.18841998 -0.06763363 -0.049259257
-0.057236265 -0.054709047 -0.0026793792 -0.046206962 -0.0652408 0.0003543741 0.042205445 0.01889623
-0.035225686 -0.08174778 -0.054789796 0.03310727 -0.0009835535 0.028003694 -0.018403016 0.08464707
0.009379726 0.001521198 -0.080744706 -0.011824674 -0.051707823 -0.0006309654 0.00011093395 0.08330396
-0.029480888 0.12780316 -0.030134626 -0.09382592 -0.0054338304 -0.014775368 -0.120553724 -0.010938169
-0.0118691055 -0.043059412 0.0047806767 0.0013675201 -0.0033506008 -0.01625891 0.035310164 0.023877775
0.018354246 0.00078042614 0.034652174 -0.07536185 0.11188792 -0.11225082 0.009756556 0.17184167
-0.13844132 0.001765306 -0.054702662 -0.011603404 -0.014604372 0.0025150552 -0.02439674 0.005921094
0.043251384 -0.030456671 0.06489075 0.07953013 -0.03544011 -0.0073554255 0.06833309 -0.0022313665
0.009989875 0.033326864 -0.07168167 0.06996543 0.005269736 0.008339311 0.008349932 -0.03705821
0.046187274 0.036165822 -0.039238423 0.04244121 -0.05239816 -0.013419487 -0.06615274 -0.013010806
-0.024983479 0.045511156 -0.04902682 0.011072075 -0.046369508 0.035942562 -0.076729864 0.0209064
-0.0100257695 -0.11465798 0.07867727 0.06212971 0.0057449476 -0.008732703 -0.074752875 0.060820766
-0.05200734 -0.040798277 -0.046678144 0.0057468475 0.056981217 0.034984656 0.027843647 -0.04086151
-0.08952352 -0.047605693 -0.0015374942 -0.009068747 0.016743295 0.047264416 0.026663443 -0.044380587
0.010537771 -0.015127637 -0.009227249 0.0028093692 -0.08305178 -0.1195877 0.0269075 0.03140892
-0.010575095 -0.0013514651 -0.050423842 0.044274237 -0.012441086 0.078244306 -0.07713507 -0.044418287
00000000: 1d5d 3e3d 7876 563d fda0 5bbd 2eb9 0a3e
00000010: 42fe 21bd 10ae 58bd 7b78 f3bc 8fa1 c1bc
00000020: 740d 9e3c 7e31 c9bc c236 3a3d 5780 fe3c
00000030: ca70 223d b112 03bd 3941 743c 332d 233c
00000040: 900e aabc 3908 a5bd f61b 863b 504f 293d
00000050: 77d4 5dbd 0b48 153c f4a5 3bbd 0af7 96bd
00000060: c76e 103c 2d43 383d 6788 f3bc 856d 74bc
00000070: cd08 64bc 6fa1 1ebd 7a6f b2bd acef 0f3d
00000080: f974 9abb 3927 973d 375e d2bc a02b f7bc
00000090: 8420 93bc 5ada 9ebd bf24 08bd 93af 2b3d
000000a0: 6d3d 90bd f7e6 0a3d 7fa6 0b3c 8e27 9ebd
000000b0: 921f 1d3d 00c8 0bbd 9a21 4b3d 84aa 1bbd
000000c0: 31a0 ff3c 63ab 043d 0ef6 edbc 8f4f bebc
000000d0: 3132 91bc 7266 d23b a66c 8d3d 24ef 883d
000000e0: a752 9c3d 521d 8f3d 550f 0fbd c5fc 01bd
000000f0: a971 233c 1621 553c ba39 fe3c 3cfb 5bbc
00000100: ae22 70bd 5552 b03c 95f3 493d 6703 363d
00000110: c386 7abc b8b2 48bc 8e22 1c3d 8cae 983b
00000120: 473c 1a3d 9401 dd3b cab0 7d3d 8d72 3ebd
00000130: b5a8 5bbd 7907 c2bc 0b91 2b3d aa01 36bc
00000140: 9165 d9bc e163 bd3c ad55 33bc 631e 6fbb
00000150: 0aca 9ebc 665d 9e3d 876c afbd 3327 22bd
00000160: e9ee fbbc 3193 acbc a7f8 023d a4f2 a5bd
00000170: 8a40 c8bc d961 573d 47ed b6bd 3ff2 07bb
00000180: 37da f1bc fa6c 403b 5d70 703c d476 bbbc
00000190: 4536 00bd deea c7bb dc66 023b e8ac f8bb
000001a0: 7a9a 63bd dce7 f1bc 311f 8bbd 2a4e f0bb
000001b0: b877 a03c 9a74 11bd 18b5 10bd 2577 e2bb
000001c0: dcce bc3b e247 25bc e60c 40bc 5ec6 37b9
000001d0: 4856 38bc 47ce 5cbd 78fb 8b3d a354 c0bc
000001e0: e91c e1bc 1f69 013d efcd ebbd d805 e0bd
000001f0: acbf 303d 2bf1 40be 8083 8abd 13c4 49bd
00000200: 9370 6abd 9816 60bd 8698 2fbb 8343 3dbd
00000210: f89c 85bd 49cb b939 9edf 2c3d 44cc 9a3c
00000220: cf48 10bd 616b a7bd 446b 60bd 7d9b 073d
00000230: 94ea 80ba 0168 e53c ecc1 96bc 715b ad3d
00000240: 6cad 193c ef62 c73a 7b5d a5bd 47bc 41bc
00000250: 95cb 53bd 5f67 25ba 36a5 e838 449b aa3d
00000260: e781 f1bc d5de 023e e4dc f6bc ce27 c0bd
00000270: 460e b2bb 6314 72bc dfe4 f6bd 0236 33bc
00000280: a376 42bc 115f 30bd 39a7 9c3b 5c3e b33a
00000290: c195 5bbb 6831 85bc 64a1 103d 539b c33c
000002a0: a55b 963c 8395 4c3a 70ef 0d3d 5057 9abd
000002b0: 7e25 e53d c2e3 e5bd f6d9 1f3c 43f7 2f3e
000002c0: 90c3 0dbe d761 e73a e60f 60bd 341c 3ebc
000002d0: 2d47 6fbc a0d3 243b acdb c7bc bd05 c23b
000002e0: 5d28 313d 4580 f9bc 71e5 843d b1e0 a23d
000002f0: a629 11bd c805 f1bb 38f2 8b3d 1e3c 12bb
00000300: 93ac 233c c081 083d d7cd 92bd 094a 8f3d
00000310: c0ad ac3b 9ba1 083c 27ce 083c 59ca 17bd
00000320: de2e 3d3d 9d22 143d 78b8 20bd d6d6 2d3d
00000330: 749f 56bd 68dd 5bbc 167b 87bd 472b 55bc
00000340: 27aa ccbc e869 3a3d 59d0 48bd a667 353c
00000350: f4ed 3dbd 8238 133d 8c24 9dbd e643 ab3c
00000360: 2043 24bc ced1 eabd 8c21 a13d b97b 7e3d
00000370: 1d40 bc3b 9c13 0fbc 0918 99bd 321f 793d
00000380: a605 55bd 181c 27bd 9531 3fbd 0d50 bc3b
00000390: 2365 693d 124c 0f3d 5c18 e43c 665e 27bd
000003a0: 1b58 b7bd 30fe 42bd bf85 c9ba 1595 14bc
000003b0: 3c29 893c 5598 413d 4b6d da3c 6bc8 35bd
000003c0: 9da6 2c3c e9d9 77bc e32d 17bc 651d 383b
000003d0: 0d17 aabd 65ea f4bd 1e6d dc3c a4a6 003d
000003e0: 2a43 2dbc a523 b1ba 3b89 4ebd e758 353d
000003f0: b2d5 4bbc 8d3e a03d fef8 9dbd f3ef 35bd
