data/baumgartner_C-N/phenethylamine_emulator/aniline_bm_predictor_1.pt (torch, 38367 bytes, 3 tensors)

input_layer.weight f4 [512, 16]
000000 36 42 6a 3e 5a a0 b0 bc 6b b8 8e bd 82 84 39 3e
       0.2287682 -0.021560837 -0.06968769 0.18116954
000010 93 f5 98 bd a4 55 c5 bd b9 85 74 3e 64 dc c6 3d
       -0.074687146 -0.09635475 0.23879136 0.09710005
000020 69 3e 27 3d 43 a8 98 3d ff 14 62 bd 70 36 c2 bd
       0.040831003 0.074539684 -0.055195805 -0.094830394
000030 bc af 55 3e 1c 36 ab bd 4f 26 5e 3e 58 27 06 3d
       0.20867819 -0.0835993 0.21694301 0.032752365
000040 02 03 5e 3e 6f 46 4b 3e c9 18 04 be 26 58 1c be
       0.21680835 0.19851087 -0.1290008 -0.15268001
000050 b5 f9 62 be d5 48 35 be 39 39 ba bd dc 3c 06 be
       -0.22165568 -0.17703564 -0.090929456 -0.13109154
000060 fb 59 6c be 8d 66 6e be 08 b2 c1 3d ca 71 52 3e
       -0.230812 -0.23281308 0.09457785 0.2055122
000070 a8 2c 92 bd 3e 86 4e 3e 62 be 28 3e d8 ad 76 bd
       -0.07137424 0.20168397 0.16478875 -0.060224384
000080 30 5e 01 3d 82 79 65 be 55 87 60 3e 12 8b ad bd
       0.031583965 -0.22409633 0.21926625 -0.08473791
000090 58 be e9 3c cf b0 4c be 25 7e b7 bd 88 f8 ff bd
       0.028533146 -0.19989322 -0.08959607 -0.124985754
0000a0 b9 ba de bd d6 35 6b bc 8b 6c 0c 3e 5a 38 18 be
       -0.10875458 -0.014356097 0.13713281 -0.14865246
0000b0 86 b7 3f be 70 42 78 3e a6 d8 07 3d 88 40 ce bd
       -0.18722352 0.24244094 0.033165596 -0.10070902
0000c0 e7 a3 2b 3e 94 b3 65 3e f3 0d 44 3e ad 0b e7 bd
       0.16761743 0.22431785 0.19145946 -0.11281524
0000d0 23 c3 b9 3d ac af fc bd 6a 1b 0c be d0 35 73 be
       0.090704225 -0.12338194 -0.13682333 -0.23750997
0000e0 c2 8b 79 3e f0 6b 3c 3e 0c 9d 6e 3e b6 e5 69 3e
       0.2436972 0.1840055 0.23302096 0.22841534
0000f0 80 a7 91 bc 4a 30 19 3e 4e 62 80 bd 5c 57 f0 bd
       -0.017780066 0.14959827 -0.0626875 -0.117354125
000100 cc 09 7c 3e 08 64 ad bd 0e b6 06 3e 18 2f 06 bd
       0.24613112 -0.08466345 0.13155386 -0.032759756
000110 2d b1 31 3d ae 92 2e 3e 1c fc 24 be 3c 5e 21 3e
       0.04338186 0.17048141 -0.16111797 0.15758604
000120 d4 76 f0 3c 93 4e b2 bd 02 af 51 be f4 0e d7 3d
       0.029353537 -0.08706393 -0.20476916 0.10500899
000130 90 fb b8 3c d6 a0 64 be 69 c7 3a be 4a 14 39 3e
       0.022580892 -0.22326979 -0.18240131 0.18074146
000140 c0 46 8d 3d 8f 2e 97 3d 7c 52 4e be 74 e2 a2 3d
       0.0689826 0.07381927 -0.20148653 0.07953349
000150 70 6e c3 bd e7 f7 b0 3d a7 37 92 bd 30 12 d9 3c
       -0.09542549 0.086410336 -0.07139521 0.02649793
000160 80 71 fa 3c 0e 9a b3 bc ea 5c 48 be 86 bc 60 3e
       0.0305717 -0.021924045 -0.19566694 0.21946916
000170 98 19 6d be 20 43 59 bc b2 62 50 be 16 c0 6f 3e
       -0.23154294 -0.013260633 -0.2035015 0.23413119
000180 44 20 93 bd 18 e1 1e 3e e3 c8 02 3e d1 95 71 3e
       -0.071838886 0.15515554 0.12771945 0.23592307
000190 06 9d 21 3d a2 8d a9 bd 55 49 19 be 84 2a 09 be
       0.03945639 -0.082789674 -0.1496938 -0.13395125
0001a0 3e f0 28 3e a2 78 48 be 4a fc 50 be 30 1d bc bd
       0.16497895 -0.19577268 -0.2040874 -0.091852546
0001b0 c8 fe 15 bd d0 6e 42 bd 04 19 bc bd e0 50 55 bd
       -0.03661993 -0.04746896 -0.09184459 -0.05207908
0001c0 0b b4 09 3e bb fc c3 bc 17 81 f7 3d aa 33 6b 3e
       0.13447587 -0.023924222 0.12085169 0.22968927
0001d0 8c 67 4c 3d 29 aa 51 be 94 f4 37 be 58 f7 d4 bd
       0.049903437 -0.20475067 -0.17964393 -0.103987396
0001e0 d0 07 78 be 5f b3 37 bd 5b bc 16 bd 52 38 6d be
       -0.2422173 -0.044848796 -0.036800724 -0.23166016
0001f0 c8 44 34 bd a0 d0 28 be 2f 7d 6f 3e 1c 00 3a 3e
       -0.044010907 -0.16485834 0.23387598 0.18164104
000200 48 8b 43 be fd a5 9d bc c3 cd a8 3d c6 16 53 3e
       -0.190961 -0.019244188 0.08242371 0.20614156
000210 22 6d c3 bc ec 2b 14 be 76 6e 16 be 68 cc cc 3d
       -0.02385575 -0.1446988 -0.14690575 0.09999925
000220 d9 cd 5a 3d 52 32 6c 3e 6d 27 29 3e 90 f3 50 3e
       0.053418968 0.2306607 0.16518946 0.20405412
000230 88 66 0a 3d 2e 69 1f 3e 6e e8 19 3e 00 d1 3d 3b
       0.033789188 0.15567467 0.15030071 0.0028963685
000240 39 55 0c bd 8e 72 4f 3e b0 30 40 be 5c 59 e5 3c
       -0.034260962 0.20258543 -0.18768573 0.027996711
000250 db 6b 5f 3d 5b 6b 96 bd 9e 65 cb 3c a6 b7 20 3e
       0.05454622 -0.07344695 0.024828728 0.15695056
000260 d5 af 30 bd 80 c0 3a 3e fe c5 7f be a0 9b 79 bd
       -0.043136436 0.18237495 -0.24977872 -0.06093943
000270 2e b3 52 3e 10 16 30 bd aa 7f 79 be 20 d1 b8 bd
       0.20576164 -0.04298979 -0.24365106 -0.090242624
000280 ba a9 7d 3e 81 31 6f be 1f 03 2b 3e 2d bb f7 3d
       0.24771777 -0.23358728 0.1670041 0.12096248
000290 a5 cb 59 3e ba 05 c2 bd 08 0a 2b be 90 40 99 3c
       0.2126909 -0.094737485 -0.16703045 0.018707544
0002a0 a8 87 51 bd 55 37 35 3b 67 33 48 3e c0 a9 ce 3c
       -0.051154763 0.0027651389 0.19550858 0.025227427
0002b0 c6 33 7b 3e 7c 38 85 bd 3c 83 80 3e d0 05 27 be
       0.24531469 -0.06504914 0.25100124 -0.16310811
0002c0 76 4d 05 bd 92 07 70 3e 80 22 1d ba af 7c 05 bd
       -0.032544576 0.23440388 -0.00059942156 -0.03258961
0002d0 3e d3 5a 3e 8c 34 0d 3e 8c 34 7d 3e e8 5c 70 bd
       0.21369645 0.13789576 0.24727076 -0.058682352
0002e0 fb b6 a3 3c 09 bb 41 bd 91 5b 97 3c 94 57 cf bd
       0.019984713 -0.04729751 0.01847628 -0.10124126
0002f0 f8 70 4f 3d b0 82 ef 3d 49 ac e2 bd 42 a7 0f 3e
       0.050644845 0.116948485 -0.11068017 0.14028648
000300 a3 13 89 bd 5a e3 3c be fc 75 87 bc 6e ca 52 3d
       -0.066931985 -0.18446103 -0.016535752 0.051462583
000310 68 a0 13 be ee 0e 2e 3e 0a 44 83 3b 10 eb 9c 3d
       -0.14416659 0.16997883 0.0040059136 0.07662022
000320 08 6c 04 be 7a e8 90 bd 6b 89 46 3b b0 ee 91 bc
       -0.12931836 -0.070755914 0.003029431 -0.01781401
000330 0a dc 72 3e ac 6c 3a 3e 7d 10 73 3e f0 f7 f4 3d
       0.2371675 0.18205518 0.23736759 0.11961353
000340 d6 c9 61 3e 95 d8 61 be d3 d1 03 be 4b ae 25 be
       0.2204965 -0.22055276 -0.1287301 -0.16179769
000350 e8 f5 a8 bd 6e 78 01 be 6e 78 1f 3d 5c fe 1d be
       -0.08250028 -0.12643597 0.03893321 -0.15429062
000360 1f b2 9a 3d 66 8b cc 3d d1 b9 5e 3e 7e d9 55 be
       0.07553505 0.09987526 0.21750571 -0.20883748
000370 a0 02 f2 3d 60 31 42 bd 51 f5 48 3e 9e a7 20 3e
       0.11816907 -0.04741037 0.19624831 0.15688941
000380 dc d1 f8 bd a9 3f 99 3d ca 22 bd 3d 70 96 dc bd
       -0.121494025 0.07482845 0.09235151 -0.10770881
000390 4d e2 ac 3d 39 b7 61 3e 3c 74 39 3e d4 59 62 be
       0.08441601 0.2204255 0.18110746 -0.22104579
0003a0 b2 46 3c 3e e0 73 41 3e 62 0d 1f be d0 68 85 bc
       0.18386343 0.18891859 -0.15532449 -0.01628533
0003b0 88 f3 03 3d 72 c3 63 be ea dc ea bd fc a1 53 3e
       0.03221467 -0.22242525 -0.11467917 0.20667261
0003c0 df 9a f7 3d 3e 6f 43 3e 89 c3 b2 bd 11 59 aa 3d
       0.12090086 0.19085404 -0.087287016 0.08317769
0003d0 25 04 11 be da a2 85 bb f7 a0 7a be 5a f5 1c be
       -0.14161737 -0.0040782513 -0.24475466 -0.15327969
0003e0 35 5a 9c 3d 3d 5e 6d 3e 07 fd 0d 3e a2 48 64 3e
       0.07634393 0.2318048 0.13866054 0.22293332
0003f0 80 cd 7a bd ac 2f 91 3d 7f 82 69 bd c6 75 77 3e
       -0.061231136 0.07089171 -0.057009216 0.24166021

input_layer.bias f4 [512]
000000 0c d4 5e 3e ec 39 70 bd fe 95 b4 3c 63 d7 64 3e
       0.21760577 -0.05864899 0.022044178 0.22347789
000010 c1 47 73 be ac bb 0c 3e 73 62 27 3e 13 b8 1e be
       -0.2375784 0.13743466 0.16346149 -0.15499906
000020 98 d9 b4 3d 12 a7 8e 3d 62 ed 5c be 35 ef 8a bd
       0.08830565 0.0696546 -0.2157493 -0.06783906
000030 a5 86 91 bd 51 bb e2 bc ce 92 62 be c8 26 09 3e
       -0.071057595 -0.02767721 -0.22126314 0.133937
000040 7d 24 90 3d a6 d9 75 be 3b af 4a be 6d c1 47 3e
       0.070382096 -0.24008808 -0.19793408 0.1950738
000050 35 29 7b 3e eb 5a 72 3e 1f dc ab 3d af 04 f1 3d
       0.24527438 0.23667495 0.08391594 0.117684714
000060 b7 52 09 3e 56 a7 38 bd dd 97 49 3e c3 ad a5 bd
       0.1341046 -0.04508146 0.19686837 -0.08089783
000070 c8 fa 91 3a 15 46 6e 3e cd 1b 50 be b8 6d 26 bd
       0.0011137361 0.23268922 -0.20323105 -0.04063198
000080 f0 53 28 3e 4e 82 b5 bd 58 2e d6 3c 7c f2 25 3e
       0.1643827 -0.08862744 0.026145145 0.16205782
000090 84 df 22 3d c3 0c 84 3d 91 7e 3a 3d d2 fd 15 3e
       0.039763942 0.064477466 0.04553086 0.14647606
0000a0 e8 9f c4 3d 31 c4 40 3e a1 71 4d 3d cd 4a 50 be
       0.09600812 0.18824841 0.050157193 -0.20341034
0000b0 b0 e9 bc 3c a4 77 e4 bd 29 ef 36 3c a8 00 6e be
       0.02306065 -0.11155632 0.011165419 -0.23242438
0000c0 56 bb 3c be 39 2a 3a be 7e bc 69 be c9 29 13 be
       -0.18430838 -0.18180169 -0.2282581 -0.14371409
0000d0 07 a3 53 3e 9d 9d 2d be f1 09 13 3e b3 be 80 3e
       0.20667659 -0.16954656 0.14359261 0.25145492
0000e0 7f 2f 19 3e ee 34 4e 3e b0 53 b7 3d ee 3a 06 be
       0.14959525 0.20137379 0.08951509 -0.13108417
0000f0 27 c1 38 3d 07 ed 45 3e b6 75 2c 3e ac f7 51 3d
       0.04510608 0.193287 0.16841778 0.05126159
000100 f6 9f 4c 3e 58 e5 3c 3e bb be 70 be e7 00 7d be
       0.19982895 0.18446863 -0.23510258 -0.24707375
000110 c6 21 0c 3b 10 e6 0d bd f0 a4 20 be ba fe 32 3e
       0.0021382435 -0.034643233 -0.15687919 0.17479983
000120 c6 0d 23 3e b4 b3 62 be 14 35 55 3e 94 69 1e be
       0.15923223 -0.22138864 0.20821029 -0.15469962
000130 ff 51 07 bd 04 6f 75 3c fa 3d dc 3c fe 3e 55 be
       -0.033037182 0.0149800815 0.026885021 -0.20824811
000140 39 9e 73 be ff 81 14 3e d6 b3 46 3e 7c cd 20 bd
       -0.23790826 0.14502715 0.1940454 -0.039258465
000150 71 21 11 3e d8 e9 22 3e c8 cc 54 be a7 8f 4d be
       0.14172913 0.15909517 -0.20781243 -0.2007433
000160 1b 45 21 be 83 98 e0 3d af 7b 05 bd 98 83 64 3d
       -0.15749018 0.10966589 -0.032588657 0.05578956
000170 23 b7 b6 3b c6 0c 92 3d c1 2c 0c 3e c3 ac 53 3e
       0.005576031 0.071313426 0.13688947 0.20671372
000180 0e 2b 24 3e 08 e1 1f bd fc 58 54 3e c9 5d 5a 3e
       0.16032049 -0.039032966 0.2073707 0.21324839
000190 80 ca 66 be 9f 30 8a 3d e2 5d cf bd 2c 62 18 3d
       -0.22538185 0.06747555 -0.101253286 0.037203
0001a0 df 53 44 3d f4 6c f6 bd 0f 7e 46 be 42 81 40 be
       0.04793155 -0.120325 -0.19384025 -0.18799308
0001b0 9d d2 3b be 4c 6e 12 bb e1 04 bf bd 9a e7 37 be
       -0.18342061 -0.0022343574 -0.093271025 -0.17959443
0001c0 41 b4 a5 3d 38 9f 6f bd bb a2 66 3e de 3e 3d bd
       0.08091021 -0.058501452 0.22523014 -0.046202533
0001d0 ed 46 2e 3e 7c e8 39 3e 2f e7 f8 bc 45 16 71 bd
       0.17019244 0.18155092 -0.030383674 -0.05885913
0001e0 22 7b 74 be 50 b2 75 be e0 64 13 3e 00 39 24 be
       -0.23875096 -0.23993802 0.1439395 -0.16037369
0001f0 83 d9 56 be f4 19 7a 3e cf 0a b6 3d 94 d1 77 bd
       -0.20981412 0.24423963 0.0888878 -0.060502604
000200 3e c2 b2 3d ef 19 6e 3e 16 60 35 3e 8e f9 6c 3e
       0.08728455 0.2325208 0.17712435 0.23142073
000210 4a 06 a6 bd e8 fb 1a bc bc 6a 5b 3e 58 c9 be bd
       -0.08106668 -0.009459473 0.21427435 -0.09315747
000220 fe e4 1a bc df 78 63 3e 4d 57 f6 bb 18 5f a1 bd
       -0.00945401 0.22214077 -0.0075177313 -0.07879466
000230 e3 d1 68 bd 80 2a 00 3e db 97 3e bd 49 12 7b be
       -0.05684079 0.12516212 -0.04653154 -0.24518694
000240 10 9f 90 3c 0f 93 4a 3e 7d 8c 46 3e e2 27 27 be
       0.017653972 0.19782661 0.1938953 -0.16323808
000250 29 fa 0d be df 01 10 bd 5c 60 2f 3e c8 20 a6 bd
       -0.1386496 -0.035158034 0.17126602 -0.08111721
000260 ec 9b 81 bd ed bd 68 3d bc a1 3b 3d 55 b2 53 3e
       -0.06328568 0.056821752 0.04580854 0.20673497
000270 99 9f fe bd 04 e4 e9 bc f3 4c 13 3e 29 0e a7 3c
       -0.124327846 -0.02855111 0.14384823 0.020392494
000280 73 5e 06 be ff bb 7b 3e b8 55 eb 3d a4 af 75 be
       -0.13121967 0.24583434 0.11490959 -0.23992783
000290 5f 1e 49 3e c5 62 2a be f3 c4 ec 3d c5 a0 f6 3a
       0.19640492 -0.1663924 0.115610026 0.0018816224
0002a0 fd ba fd bd 8c 98 52 3e ff 5b fb 3d d2 14 01 3d
       -0.12389181 0.20566005 0.12273406 0.031513996
0002b0 b6 7e 5e 3e 75 46 17 3e 59 b7 7e 3e f5 5a 8e bd
       0.21728024 0.14772971 0.24874629 -0.069509424
0002c0 95 64 6a be b4 89 5e be 7d 97 d4 3d 43 0f 54 3e
       -0.22889931 -0.21732217 0.103804566 0.20708947
0002d0 67 2d dc bd d9 91 ce 3d 68 07 31 bd 13 b1 6a bc
       -0.10750847 0.10086412 -0.043219954 -0.014324444
0002e0 2d b3 5d be f5 c4 55 3e bf dc 5b 3c b0 b9 36 3d
       -0.21650381 0.20875914 0.013419329 0.04461068
0002f0 af 1d 6f 3e 44 10 64 3e 23 e9 50 be c0 b3 10 3e
       0.23351167 0.2227183 -0.20401435 0.14131069
000300 16 a8 ac 3d 03 51 4e be 8e 56 28 be d8 bc 35 3e
       0.08430497 -0.20148091 -0.16439268 0.1774782
000310 62 af b0 3d 87 36 5b 3e ba e3 f9 3d 25 3d 5f 3d
       0.086272016 0.2140752 0.122016385 0.05450167
000320 f2 7f da 3d b4 01 02 be b8 fd ab 3d d7 d7 85 bd
       0.10668935 -0.12695962 0.083980024 -0.06535309
000330 86 72 cd 3c 75 53 5a be 4a f7 98 3d 20 b8 34 3e
       0.025079023 -0.21320899 0.07469042 0.17648363
000340 38 b0 0a 3e b8 fd f7 3d 04 6f 73 be 23 fe 30 3e
       0.13543785 0.1210894 -0.23772818 0.17284445
000350 9b e3 12 3e 48 37 15 3e 4e 4e a4 bd b7 59 5c be
       0.14344637 0.1457187 -0.08022748 -0.21518598
000360 c6 25 85 bc 65 a8 01 3d 77 a0 f9 bc 80 a5 9a 3d
       -0.016253363 0.031654734 -0.030472023 0.07551098
000370 ba e8 6b 3e b6 63 6c 3e 67 a9 04 bc 3b bf df 3b
       0.23037997 0.23084912 -0.008097029 0.0068282164
000380 e0 0d d3 bd bc 0f 76 be 64 26 61 3e c9 13 ec bd
       -0.10305381 -0.2402944 0.21987301 -0.11527211
000390 18 a9 4f bd 30 d7 87 3d 22 46 68 3e 4b ec fc bd
       -0.05069837 0.06632841 0.22683004 -0.12349757
0003a0 1e 10 23 bd 43 0d 30 bd 80 ee 03 be 68 3a 24 be
       -0.039810292 -0.042981397 -0.1288395 -0.16037905
0003b0 5c 6d f1 3d 12 f0 1a be c8 21 e4 3d 02 f5 25 3d
       0.11788437 -0.15130642 0.11139256 0.04051686
0003c0 29 53 51 3e 97 aa 2a be f2 d8 37 3c b6 ab 32 3e
       0.2044188 -0.16666637 0.011221157 0.17448315
0003d0 15 7e 77 3e f0 1c 1a 3e da f1 2e be 59 60 dd bd
       0.2416919 0.15050101 -0.17084447 -0.108093925
0003e0 dd 83 ca 3d bb 51 08 bd 84 53 b0 bd ee 3f 86 3d
       0.09888432 -0.03328107 -0.08609679 0.06555162
0003f0 09 45 54 3e 1d 0c a5 3b 72 49 5d be 56 dc 36 be
       0.2072946 0.0050368444 -0.21610048 -0.17857489

output_layer.weight f4 [1, 512]
000000 67 29 a0 bd c4 93 0c bc 1e 40 c6 bc 08 d5 fc 3d
       -0.07820397 -0.008580152 -0.024200495 0.1234532
000010 c2 1e 80 3c 34 c6 58 bc 5d 99 0d bd 00 6f 45 3d
       0.015639666 -0.013230849 -0.034570087 0.04820156
000020 a3 62 10 3d 63 3c 1b 3d 5f b6 0f bd 8b be 8c bd
       0.035250317 0.037899386 -0.035086032 -0.06872281
000030 92 b5 c7 3b 48 25 52 3c ab e6 3f bd 60 a1 97 3d
       0.006094643 0.012826271 -0.04685084 0.07403827
000040 7d 5d 8a bd a0 75 5c 3d 81 b5 80 bd 1f 82 37 3d
       -0.06756113 0.053823113 -0.06284619 0.044801828
000050 aa 19 6b bd 89 10 9c 3d 98 44 bf bc 57 63 5b bc
       -0.057397522 0.07620341 -0.023348138 -0.013390384
000060 3f 08 66 3c 29 74 4b 3c 35 d3 26 bc e0 95 08 3e
       0.014040052 0.012417831 -0.010182192 0.13338423
000070 d7 24 92 3c 79 2b 02 39 14 cb 54 bd d6 bd a8 bc
       0.017839832 0.00012413961 -0.051951483 -0.020598333
000080 bc fb 7c 3d a9 a4 2a b9 52 5b 81 bd 4a 49 a5 3d
       0.06176351 -0.00016273804 -0.06316246 0.080706194
000090 ea 68 05 bd ca 35 73 3d 37 e5 70 3c 69 d8 8a bc
       -0.032570757 0.05937747 0.014703087 -0.016948896
0000a0 2c 15 04 3e 2b ae b3 bc c5 b4 2c bd d1 a6 24 3e
       0.12898701 -0.021933636 -0.042164583 0.1607926
0000b0 96 3f b4 3c 94 f8 fb bc b7 cd 89 ba 73 d5 27 bd
       0.022002976 -0.03075818 -0.0010513578 -0.040975045
0000c0 e4 67 c0 bb 98 23 2e 3d 34 45 e1 bc d8 32 cc 3c
       -0.0058717597 0.042514414 -0.027498819 0.024926588
0000d0 51 ef f7 3d fb 61 65 bd 8b 53 ed bb 00 65 35 bd
       0.12106193 -0.056001645 -0.007242625 -0.044285774
0000e0 2d 7b 3b 3d 30 a8 81 3c 98 88 04 3e cc da 62 3c
       0.045771766 0.015827268 0.12942731 0.013846111
0000f0 b9 78 4a 3c 7e d3 52 bc 5f c0 85 bc cd 77 1a bd
       0.012357884 -0.0128678065 -0.016327081 -0.037711907
000100 2e 26 e7 bc f9 c2 14 3d e7 c8 8d bd f8 a6 34 bd
       -0.028216448 0.036318753 -0.06923085 -0.044104546
000110 90 d9 21 3d 07 51 37 bd 5e 9b 2b bd 38 06 47 bd
       0.039514124 -0.044755008 -0.041896217 -0.048589915
000120 ca e5 46 3d 90 42 06 3c b8 94 0a 3e 8d d6 52 bd
       0.048558988 0.008194581 0.13533294 -0.051474143
000130 2d f8 93 bd e2 c3 96 bd 69 ca 8b 3c ff 54 1c 3d
       -0.0722507 -0.073615804 0.01706429 0.038166996
000140 96 85 18 3b 86 41 62 3d d5 d3 17 3d 8f 49 df bc
       0.0023272983 0.05523827 0.037067253 -0.027256755
000150 1e bc 09 bc 89 ad a9 3d 7e 7b 99 3d ba 85 57 bb
       -0.008406667 0.08285052 0.074942574 -0.0032886104
000160 97 6d 49 3b 7f 25 97 3c 04 14 ec 3c 82 28 98 3c
       0.0030735487 0.018450497 0.028818138 0.018574003
000170 e9 e8 91 3d 16 96 d5 bb e9 9c bd 3d b7 85 df bd
       0.07124502 -0.006518136 0.09258444 -0.10914176
000180 8c 4a 51 bd fb 54 3a 3d 61 ae 6a bc 84 6e 58 bd
       -0.051096484 0.0454912 -0.014323802 -0.05283977
000190 aa 09 32 bd 56 68 6d ba a7 48 c1 3b eb ce 31 3d
       -0.043466248 -0.000905638 0.0058985534 0.043410223
0001a0 03 95 90 3c f0 db 5a bd 1d 01 03 bd db b4 d9 bc
       0.01764918 -0.053432405 -0.031983484 -0.026575496
0001b0 02 0c 17 bd e5 39 7a 3b d5 11 0c 3d 8f bd 97 3d
       -0.036876686 0.003818148 0.034196693 0.07409202
0001c0 99 57 22 3d 56 a0 8b 3b 52 60 bc bd ff de ed bc
       0.03963432 0.004261057 -0.09198059 -0.029036997
0001d0 7b 16 71 bd 6f d3 d6 3c bc 54 81 3d 83 41 6d 3d
       -0.05885933 0.026223866 0.0631499 0.057923805
0001e0 22 bc 6c 3c 0a 4f 22 3d 9c 23 76 3c 67 4a d9 bc
       0.014449151 0.03962616 0.015023138 -0.026524736
0001f0 d4 b1 80 bc 8a c5 6f 3c 07 a8 ac 3d 5f 15 34 bd
       -0.015709795 0.014634499 0.08430486 -0.043965694
000200 d2 72 0e bc af 0b 98 3d 0f 12 ab bd 1e 70 c9 3d
       -0.0086943675 0.074241035 -0.08353054 0.09835838
000210 f0 5d c0 3d 26 77 84 bc 84 61 b8 bd 6a 63 e6 bb
       0.09392917 -0.016170096 -0.09002975 -0.007030894
000220 71 53 26 bd 62 80 af 3d ff 5f 6a 3d cc 58 ce bc
       -0.04060692 0.08569409 0.057220455 -0.025188826
000230 28 5a 3a bd d6 c9 00 3d 3e 11 74 bc 5c 5f 20 bc
       -0.045496136 0.031442486 -0.014896689 -0.00978836
000240 cb 9a 5f 3d 5a da fc 3d 22 e7 41 3d c1 7a f1 bb
       0.05459098 0.12346335 0.047339566 -0.0073693697
000250 47 64 52 bd 57 aa 6f 3c b5 73 2b bd 44 1e 2d bd
       -0.051365163 0.0146280145 -0.041858394 -0.04226519
000260 8a 4d 58 3c f6 b4 0a 3d 8a f5 2d bd ec 90 18 bd
       0.0132020805 0.033863984 -0.042470492 -0.037247583
000270 24 30 60 bc 7f 76 2d 3d 5c 33 93 bd 79 4f 6a bd
       -0.013683353 0.042349335 -0.071875304 -0.057204697
000280 aa ff 33 3d 2c c9 1d bd 5d af 07 3d e2 d7 b7 bc
       0.043944992 -0.03852193 0.033126224 -0.022441808
000290 9f c3 30 3d 93 31 55 bc 81 4d 55 bd 68 41 54 bd
       0.04315531 -0.013012308 -0.052075867 -0.05182019
0002a0 20 a4 78 bd 0e e1 d5 3d 1e 6c 82 bb 1a 65 34 bd
       -0.060703397 0.104433164 -0.0039801737 -0.04404173
0002b0 f1 7a 0e bc 86 ee b4 bb 4a 62 3d 3d f8 dc 01 3d
       -0.008696304 -0.0055215983 0.046236314 0.031704873
0002c0 0c 48 1e bd 1e 6e a5 3c 84 4d 14 3d 44 1c 8f 3d
       -0.038642928 0.02019411 0.036206737 0.06987813
0002d0 6a 3b f6 ba 35 2d 13 3d ab 17 b5 3c d0 00 1d bd
       -0.0018786017 0.035931785 0.022106012 -0.038330853
0002e0 7d ef b4 3c 29 e7 48 3d 99 d5 9a bd f1 5a 38 bc
       0.022086853 0.049048577 -0.07560272 -0.011252151
0002f0 3d fd e0 3c 9a 6e c4 bd 5d c2 95 3c 68 ab 57 bc
       0.027464503 -0.09591408 0.018281156 -0.013163425
000300 85 0a 85 3c 0c f0 18 3d 60 17 72 3c e7 c6 a2 3d
       0.016240368 0.0373383 0.014776081 0.07948094
000310 28 e8 13 3d 22 c6 77 bd 27 ab 72 bd 56 56 90 bd
       0.036110073 -0.06049169 -0.059245255 -0.07047717
000320 f8 99 e1 3c a4 c2 7c bd ac 0a 42 3d c8 b1 09 bd
       0.027539238 -0.06170906 0.04737346 -0.03361681
000330 ad d9 79 bc 48 71 e7 3c ec b0 92 bd cb e3 89 bd
       -0.015249652 0.028252259 -0.071626514 -0.06732901
000340 69 c3 a0 3b cf 0b 85 bc f6 a6 9b 3b 3d 13 9d 3c
       0.004906107 -0.016240982 0.004750128 0.019174213
000350 3c 85 b5 3d 79 0d c3 bc 6d fe f5 3c 35 d1 6b 3c
       0.08863303 -0.023810135 0.030028546 0.014393141
000360 b0 86 d3 bb d3 5b 17 bc 49 37 46 bb 50 44 9b bd
       -0.006455265 -0.009238201 -0.0030245355 -0.07581389
000370 83 80 69 3c 8f 47 26 3b 74 96 f8 3c 5e 34 5f bd
       0.014251831 0.0025372242 0.03034518 -0.0544933
000380 5d 0b 82 3d 1e 39 e8 bc 16 46 8d 3b b3 26 f8 3b
       0.063498236 -0.028347548 0.0043113334 0.0075729727
000390 72 13 84 bc 38 58 bd bc b6 bd 17 bd 6b 0a bd 3c
       -0.016122553 -0.023113355 -0.037046157 0.023076257
0003a0 ca c2 2b 3c 50 e4 9b 3d 4f f4 80 bd 6f 6f 85 ba
       0.010483453 0.076119065 -0.06296598 -0.0010180305
0003b0 90 b7 b4 bc 04 4b 67 bc d8 6c 07 bd 16 92 48 bd
       -0.022060186 -0.014117006 -0.033062786 -0.048967443
0003c0 73 44 ce 3c f9 2d fa 3c 69 68 cd bc a4 a3 e3 bd
       0.025179124 0.0305395 -0.0250742 -0.11115196
0003d0 15 70 e6 ba 5e 6e cc bd 1c 47 1a 3d ee 48 6a 3c
       -0.001758101 -0.09981988 0.03766547 0.014299614
0003e0 e4 67 cc 3b c7 35 39 3c 37 31 5b bd 40 f6 25 3b
       0.0062379707 0.011304325 -0.05351373 0.0025323778
0003f0 51 21 5b 3d 86 4c 12 bd 17 e9 05 3d 15 ab 32 bc
       0.05349857 -0.03571751 0.032692995 -0.010905047
