data/baumgartner_C-N/phenethylamine_emulator/phenethylamine_bm_predictor_1.pt (torch, 38367 bytes, 3 tensors)

input_layer.weight f4 [512, 16]
000000 b8 97 9c bd 6f 4a 56 bd 92 ac 08 3e 45 3a 21 3e
       -0.076461256 -0.05231708 0.1334708 0.15744884
000010 72 b1 b5 bc 46 c9 ee bd 3e 5d 56 3e f8 10 53 3e
       -0.02217934 -0.116594836 0.20934007 0.20611942
000020 df dc 32 3e f3 4e 4a 3e 95 44 11 3e 8a 1a 1a 3e
       0.17467068 0.19756679 0.14186318 0.15049186
000030 18 c8 3f bd 70 03 38 bd 6f cb 79 bd 98 cc e6 3d
       -0.046821684 -0.044925153 -0.060985025 0.11269492
000040 d6 8e ac 3d db 3e 8f bc 7a 37 73 be 5d 68 2a 3e
       0.08425681 -0.017486027 -0.23751631 0.16641374
000050 56 da 35 be 8c 16 ee 3d 29 21 18 3e 8a 02 75 3e
       -0.1775907 0.11625394 0.148564 0.2392675
000060 04 f7 ca bd 40 9a 8a 3c 49 34 6d 3e 6c 6d 33 be
       -0.09910396 0.016919255 0.23164476 -0.1752221
000070 2c 8e 88 3d 78 91 bb 3d af 6c 3b be b2 91 4d 3e
       0.06667742 0.09158605 -0.18303178 0.2007511
000080 ad 54 f9 3d e4 2d 02 3e 6e b8 46 3e 9b a4 a9 3d
       0.12174354 0.12712818 0.19406292 0.08283349
000090 f6 45 26 3e f0 5d 1d 3e d7 20 da 3c 00 ea 0a 3a
       0.16237625 0.15367866 0.026626987 0.0005299151
0000a0 24 83 2f 3d 16 23 94 bd e0 a6 67 3e 1a cd 50 3e
       0.042849675 -0.072332546 0.22622252 0.2039074
0000b0 60 6f 61 bc 62 e2 69 3e 8c d2 72 be 80 e3 89 bd
       -0.013759464 0.22840264 -0.2371313 -0.06732845
0000c0 1c 95 51 3e 74 22 48 bb 85 13 b5 3d 3e 1d 09 3e
       0.20467037 -0.0030538114 0.08841614 0.13390061
0000d0 8d 1c 80 3d 70 3f 5a be 4d 32 21 be 3c cb 7b 3e
       0.06255446 -0.21313262 -0.15741844 0.24589247
0000e0 ac 2a 2f bd c4 f3 38 3e 37 a0 77 3e 00 26 c2 bd
       -0.042765304 0.18061739 0.24182211 -0.09479904
0000f0 78 fd cb bd 20 8f 56 be 6c 34 89 3d 48 b7 2b 3e
       -0.09960455 -0.20953035 0.06699452 0.16769135
000100 cc 40 68 bd d0 53 4c 3e 45 32 4f be 18 03 18 3d
       -0.05670242 0.19953847 -0.2023402 0.037112325
000110 11 a8 34 be f2 25 d8 3d 9d 8e 15 3e a8 82 8f bd
       -0.17642237 0.105541125 0.14605184 -0.070073426
000120 df 08 bc 3d 6f b3 0e 3d 3b c1 35 3e 14 37 46 be
       0.091813795 0.03483909 0.17749493 -0.19356948
000130 20 0b f6 3c 50 2a e3 bd 01 8d 89 bd de a7 14 be
       0.030034602 -0.11092055 -0.067163475 -0.14517161
000140 66 62 89 3b fa dd af bd 4d c6 52 bd f8 e8 36 be
       0.004192638 -0.085872605 -0.051458646 -0.17862308
000150 b6 f6 68 be 3b ca 1e 3e d5 98 fe bd 00 11 a1 bd
       -0.22750363 0.15506832 -0.12431494 -0.078645706
000160 6f c8 54 be 03 4c 3f be 7b 26 ef 3c da 1b 3c be
       -0.20779584 -0.1868134 0.029193154 -0.1837
000170 fa 0f 16 be 72 43 30 3e e5 0d 9e 3c d4 7b cf 3d
       -0.14654532 0.17213228 0.019293735 0.1013104
000180 3c bc d2 bd 95 68 f3 bc 00 3e 5a 3e 9e 26 46 be
       -0.10289809 -0.029712955 0.21312714 -0.19350669
000190 5f ae 33 be 7a 43 38 be 91 cd c9 3d 9c 8c 29 be
       -0.17546986 -0.1799449 0.09853662 -0.16557544
0001a0 cf 05 31 be 10 aa 21 be aa f3 0a bd cc 1a c4 bd
       -0.17287372 -0.1578753 -0.033923782 -0.095754236
0001b0 40 ca 8b bc 28 6b d8 3d c8 2d 12 bd d0 e4 62 3e
       -0.017064214 0.105673134 -0.03568819 0.22157598
0001c0 a8 43 f2 bb fe 9c e2 bd 7a 40 2c bd ea 67 68 bd
       -0.007393319 -0.110651 -0.042053677 -0.056739725
0001d0 5f 42 e8 bd a8 fa 04 3e 91 6b 02 be 38 90 2e 3e
       -0.11340784 0.12986243 -0.12736346 0.17047203
0001e0 c4 55 87 3d 60 d7 a6 bd 98 90 37 3e 90 69 21 bd
       0.06608155 -0.08146548 0.17926252 -0.039407313
0001f0 30 ba 24 3e fc 23 f2 3d e9 c7 2f 3e 94 d2 3a be
       0.1608665 0.1182327 0.17166103 -0.18244392
000200 68 5d c7 bd e9 01 2e be 1b c8 0f 3e 61 59 4f be
       -0.09734613 -0.16992916 0.14041178 -0.20248939
000210 cf 9a 52 be bf 97 5c 3c 87 76 2a 3e 0c 6c 2c be
       -0.20566867 0.013463913 0.16646777 -0.16838092
000220 3a f8 6f 3e 2f 8a 05 3e f1 db aa 3d 10 92 49 3e
       0.23434535 0.13040994 0.08342732 0.19684625
000230 c0 eb e3 bd 46 ff 76 3e 32 a7 a3 bd 74 a6 6f 3e
       -0.1112895 0.24120817 -0.07990874 0.2340334
000240 95 4f 65 bd 07 9d 6d be a6 4a 43 3e 0e 07 23 be
       -0.0559841 -0.23204432 0.19071445 -0.1592066
000250 b5 d1 51 3e 3b 0c 00 bd e8 b6 28 be b4 66 62 be
       0.20490153 -0.031261664 -0.16476023 -0.2210949
000260 1c 27 55 3d 20 7a e2 bd f8 6d 1a 3e 38 10 f4 bd
       0.05203925 -0.1105845 0.15081012 -0.11917156
000270 9e a8 68 3e 2c 87 4b be 96 ff 47 bd 50 85 78 bd
       0.22720572 -0.19875783 -0.04882773 -0.06067401
000280 ca f5 40 be bc b0 43 bd 54 10 1c be 5f 7a 8c 3b
       -0.18843761 -0.04777597 -0.15240604 0.0042870487
000290 8c b1 76 3e b2 36 93 bb 40 75 09 3e fc be 24 3e
       0.24091166 -0.004492604 0.13423634 0.1608848
0002a0 16 38 38 3e f8 b0 aa bd f0 17 ee bd 96 e9 05 3e
       0.17990145 -0.08334535 -0.116256595 0.13077387
0002b0 80 d9 6d be e8 53 7c 3e 7b 48 1f 3e 1e 6f 74 3e
       -0.23227501 0.24641383 0.15554993 0.23870513
0002c0 e7 3c 33 be 75 19 6e be da 5e e8 3d bb 14 53 3e
       -0.17503701 -0.23251899 0.113462165 0.20613377
0002d0 87 ce 02 be 59 cc 14 3e 80 e0 5a 3e c8 3b 0c bd
       -0.12774096 0.14531077 0.21374702 -0.0342367
0002e0 2f d1 08 3d a4 01 d3 3d 3c 56 b4 bd 50 4e c6 bd
       0.033402618 0.10303047 -0.088055104 -0.09682906
0002f0 b2 03 54 be a8 5a 94 3d 46 b1 2f be b0 27 cc 3d
       -0.20704535 0.07243854 -0.17157468 0.09968507
000300 d1 e4 6e be d9 70 31 bd 15 29 31 be 41 d2 d7 bc
       -0.23329474 -0.04332051 -0.17300828 -0.026345374
000310 4d 0c 72 bd 5f 94 ee 3d b1 ee 51 be f0 1a e3 3d
       -0.059093762 0.11649393 -0.2050121 0.11089122
000320 98 52 00 3c d7 50 60 bb ea 92 7f bd 96 9f 11 be
       0.007832192 -0.0034227872 -0.062395968 -0.14221033
000330 82 ef 61 be 10 e9 03 3d 68 7e 01 3e 5c ce 66 3e
       -0.22064021 0.032204688 0.12645876 0.22539657
000340 61 0b 2e be 31 d4 ae bd d7 36 44 3e 3a 0f 2d 3d
       -0.16996528 -0.08536566 0.19161545 0.04225085
000350 b8 d7 e5 3d 23 a8 29 be 9b af 4f bc 56 bf 7b be
       0.11222786 -0.16568045 -0.012676145 -0.24584708
000360 b4 81 ce 3d 7e 21 ef bd dc 95 7f bd b8 57 f0 bd
       0.10083333 -0.1167631 -0.062398776 -0.11735481
000370 d4 0e d2 bd 7c 7e 2e 3e b0 df 22 3e fc 23 04 3e
       -0.102567345 0.17040437 0.15905643 0.12904352
000380 62 fb 56 be 22 05 41 3d 2c 6d a8 3c 1c 99 22 be
       -0.20994332 0.047124036 0.02055987 -0.15878719
000390 05 8f 65 be 72 dd 17 be dd 3c f0 3d 1c d7 bf bd
       -0.22417839 -0.14830568 0.11730359 -0.09367201
0003a0 ab 3a b7 3c 6a 41 64 3d df 16 e6 3d 1c f6 96 3d
       0.022366842 0.055726446 0.11234831 0.073711604
0003b0 a8 18 5e 3d 22 68 35 be c4 57 63 3e bc 84 27 3e
       0.054222733 -0.17715505 0.22201449 0.16359228
0003c0 fd 65 85 3b 80 e6 f2 3d 18 dd 49 be f8 cc 59 bc
       0.004070996 0.11860371 -0.19713247 -0.013293497
0003d0 75 25 7a 3e ba c0 58 3e b8 43 13 bd ec 25 9a bd
       0.24428351 0.2116727 -0.035953254 -0.07526764
0003e0 b9 ad 53 3e ef b4 43 3e cb aa 6c bd d8 c0 6a be
       0.20671739 0.1911199 -0.05778007 -0.22925127
0003f0 a0 b3 57 3d 82 6d 73 be da 6e 7a 3e a8 06 d3 bd
       0.052661538 -0.23772243 0.24456349 -0.10304004

input_layer.bias f4 [512]
000000 bd 13 26 be 2b 61 01 be d4 57 d8 3d 04 12 21 3e
       -0.16218467 -0.12634723 0.10563627 0.15729529
000010 69 66 47 3d 51 26 51 3e ef 04 12 3e e1 a3 b7 bd
       0.04868165 0.20424773 0.14259695 -0.08966804
000020 ac 13 19 3e 4d be 40 be 81 49 b3 3c 9d d9 37 bd
       0.1494891 -0.18822594 0.021885635 -0.044885267
000030 01 22 27 be 77 fc 17 3d aa 38 50 3e 32 e1 c1 3d
       -0.16321565 0.037106004 0.20334116 0.09466781
000040 c4 47 33 be 90 fd 56 be 39 78 27 be 72 b3 68 be
       -0.17507845 -0.20995164 -0.16354455 -0.22724703
000050 0f ba 19 be 5e 1a 4e bc 8f 6b 77 3e 25 af 0b 3e
       -0.15012382 -0.012579529 0.24162124 0.13641031
000060 ed 3e 16 3e 14 d4 95 bd 9e d7 07 3e 1d 0d 10 bc
       0.14672442 -0.07315841 0.13265845 -0.008792189
000070 3d 2d 25 3e d8 a8 45 be d2 ba ef 3d c6 fb 37 be
       0.16130538 -0.1930269 0.11705555 -0.17967138
000080 06 20 5b bd b8 cf f1 bd 1c d7 1a 3e fa 9c c7 bc
       -0.053497337 -0.11807197 0.1512112 -0.024366844
000090 54 1e 1a bd f6 bb ac 3d 9b 3e 0d bd 6c 97 5d 3e
       -0.03762658 0.08434288 -0.034483533 0.21639794
0000a0 8e 9c fd bd f3 28 d0 bc 7e 41 49 be 02 60 0f be
       -0.12383376 -0.025410151 -0.1965389 -0.14001468
0000b0 7d 50 fc 3d d2 19 0a be 67 c3 22 3e 06 51 0f be
       0.123200394 -0.13486412 0.15894853 -0.13995752
0000c0 b2 8d fc bc d4 88 ee 3d db ae c6 bd 22 49 75 3e
       -0.030829284 0.11647192 -0.0970132 0.23953679
0000d0 9e 1b 71 3e cc b3 03 3e 9e 1d d6 3c 3d 12 1f 3e
       0.23545691 0.12861556 0.02613717 0.15534301
0000e0 af c1 8b 3c e2 2d 79 3e 56 6c d5 3c a9 ce c0 bb
       0.017060129 0.24333909 0.026052635 -0.005884011
0000f0 5e 0f 22 3e 95 52 3a be b8 e7 a7 3d 6b 2c dc 3d
       0.15826175 -0.18195565 0.08198494 0.107506596
000100 5d f5 33 be b4 ef 78 3e b8 7b 4d bd c8 d2 5e 3a
       -0.17574067 0.2431019 -0.050166816 0.0008500037
000110 df b4 41 be 91 cd ab 3d 18 d5 65 be 95 75 f7 3d
       -0.18916653 0.08388818 -0.2244457 0.12082974
000120 f0 33 35 3e 1b b2 dd 3d e5 e1 9a 3d 65 a3 0d be
       0.17695594 0.108249865 0.07562617 -0.13831861
000130 0d b9 82 3c ae b3 86 bb 19 7c 2c be e3 d1 ed 3d
       0.01595738 -0.004110775 -0.16844214 0.11612298
000140 83 de 2c bd e7 6d 88 bd f9 4d d9 bc 3b 88 01 be
       -0.04220439 -0.06661587 -0.026526438 -0.12649624
000150 8f 42 59 3e a6 77 c8 3d b2 6c 37 bd 23 c5 90 bc
       0.21216796 0.09788446 -0.044781394 -0.017672127
000160 eb 88 45 3e f8 db ae 3d e7 09 7b be b9 e8 46 be
       0.19290511 0.085380495 -0.24515496 -0.19424714
000170 40 8c 73 bd a5 5c 58 be c0 e1 57 3e b7 b4 24 be
       -0.059459925 -0.21129091 0.2108221 -0.16084562
000180 9c af ce bc 72 a9 3b 3e 39 20 64 3e e6 7b 84 3d
       -0.025230221 0.18326357 0.22277917 0.06468944
000190 9d c8 41 be c0 61 1d 3e 5a ed ce bd 71 6c 24 3e
       -0.18924184 0.1536932 -0.10103865 0.16056992
0001a0 1f e0 73 3e ee 16 5d be 05 76 23 3e 9a 19 4d be
       0.23815964 -0.21590778 0.1596299 -0.20029297
0001b0 4f e4 ac bd 25 4e 1e be b7 9f 3a bc 57 c1 e8 3d
       -0.08441984 -0.15459497 -0.011390618 0.11365002
0001c0 06 b9 0e be fa 03 31 be ef 45 35 bd 8c e1 4c bd
       -0.13937768 -0.17286673 -0.044256147 -0.050019786
0001d0 f1 94 19 be e3 d0 0e 3c f4 99 2a be c6 8f a8 bc
       -0.14998223 0.008716795 -0.16660291 -0.020576369
0001e0 ad 90 4b 3d ad f6 06 3e 77 83 28 be 21 cd 84 be
       0.04969852 0.13180037 -0.164564 -0.2593775
0001f0 0f db 37 be 76 62 60 be 72 2c 77 be 6c 21 34 bd
       -0.17954658 -0.2191256 -0.24138048 -0.043977186
000200 f2 7c ec bd cd 2c 65 be f3 1b 61 3e 4e a6 2f 3e
       -0.11547269 -0.22380371 0.21983318 0.17153284
000210 ec 24 02 be 44 68 63 be 43 79 6d be 5c 8a df 3d
       -0.12709397 -0.22207743 -0.23190789 0.10915062
000220 73 a1 26 be a6 47 9f bd 8d 66 32 3e d2 97 61 3e
       -0.16272525 -0.07777338 0.17421933 0.22030571
000230 51 f9 b8 bb 8f e1 0b 3a 3d 68 33 3d f6 9d 48 be
       -0.005644955 0.000533604 0.04380058 -0.19591507
000240 cc 1a 9a 3d db 76 6f 3e 30 1f 7b 3c 94 f2 77 be
       0.07524642 0.23385184 0.01532726 -0.2421363
000250 ed 1c e1 3d f8 c4 28 bd 7a 1f 42 be f3 0b 68 be
       0.10991845 -0.04120347 -0.1895732 -0.22660808
000260 55 cb 5e 3e 5a dd 23 3b db dc ba bd 74 bb 17 be
       0.21757253 0.0025003762 -0.09124156 -0.14817601
000270 33 85 74 3d 52 6b 6f 3e 43 c2 f0 3d ce a4 1a be
       0.05969734 0.23380783 0.117558025 -0.1510193
000280 c4 f5 4b be d3 d7 3a be 85 79 5c be ae d4 f9 3d
       -0.19917971 -0.18246393 -0.21530731 0.121987686
000290 4b 6f 0c bd cb f1 26 be 89 1b 12 3e a8 fb 74 3c
       -0.034285825 -0.16303174 0.14268316 0.014952578
0002a0 4b e1 11 be 5a 86 6a be ba 30 f8 3d 82 f2 0a 3d
       -0.14246099 -0.22902814 0.12118669 0.03392268
0002b0 d7 d1 b5 bd 8f af b1 bd 38 17 78 3d a5 3c 38 3d
       -0.088779144 -0.08676063 0.060569018 0.04497971
0002c0 ad 83 0f be a5 4a a7 3b 50 96 ec 3d 9b 3e dd 3c
       -0.14015074 0.005105334 0.11552107 0.027007392
0002d0 9e c1 08 bd e1 9b 9e 3d 9f fb 0e be ae a6 cb bd
       -0.033387773 0.07744575 -0.13963173 -0.09943901
0002e0 d9 eb 55 3e 37 9e 25 bd b3 14 77 3e 41 d2 4e 3e
       0.2089075 -0.04043409 0.2412899 0.20197393
0002f0 22 c0 65 3e 80 ac 6b be eb eb 53 3e c5 70 4b be
       0.22436574 -0.23015022 0.20695464 -0.19867237
000300 25 95 02 3d 6e a9 eb 3d 18 97 72 3e c1 70 d2 bd
       0.031880517 0.115069255 0.2369045 -0.10275412
000310 7b d5 cb 3d 27 da 73 be 61 21 c2 3d 0d 4e 2f 3d
       0.099528275 -0.23813687 0.09479023 0.042799044
000320 5f 1a 4a be 86 43 7b 3e ab 49 65 3d d0 68 18 3e
       -0.19736622 0.24537477 0.05597846 0.14883733
000330 92 89 db bc 1a 10 5f 3e 3c 8e f7 bd 43 04 2d 3e
       -0.026798997 0.21783486 -0.12087676 0.16896157
000340 8f 61 34 be 56 51 b2 bd 65 30 2a be 68 21 06 bc
       -0.1761534 -0.0870692 -0.16620024 -0.008186676
000350 8a 6b f5 bd 6a 22 e7 bd 5a 18 5d be 60 fa 58 3e
       -0.11983402 -0.11285861 -0.2159132 0.2118926
000360 c7 a8 11 3e 59 2d 34 be 35 a5 d4 3b 60 ce fb bd
       0.1422454 -0.17595424 0.006489421 -0.12295222
000370 49 a6 c7 bd f7 1c b9 3d c9 09 6a 3e 70 24 3b 3c
       -0.09748513 0.09038728 0.22855295 0.011422262
000380 3f d1 23 3e 31 f8 b7 3d 4a 19 d2 bd 62 5f 0c 3e
       0.1599779 0.08982886 -0.1025873 0.1370826
000390 e8 72 5d 3e 50 d0 4b be 63 94 e9 bd 89 c7 b5 bd
       0.21625865 -0.19903684 -0.11405256 -0.08875949
0003a0 e9 1a 78 3e b3 6f 07 3e b6 00 2c be 74 a9 ab 3c
       0.24229015 0.13226204 -0.16797146 0.020954825
0003b0 3a 61 60 bd 41 40 32 3d 37 31 4c 3e 01 97 45 be
       -0.054780222 0.04351831 0.19940649 -0.19295885
0003c0 83 aa 61 be 9d 28 55 3e 30 4c 20 be b6 fb 8e 3d
       -0.22037701 0.20816274 -0.15654063 0.06981604
0003d0 e5 f7 3a 3e 7d 5c ed bd cd 71 bf 3d ff 65 2c 3d
       0.18258627 -0.11589906 0.09347878 0.04208946
0003e0 cb a3 3c 3e 2a ca 05 be 96 9b 12 be 25 61 7b 3e
       0.18421857 -0.130654 -0.14317164 0.24548776
0003f0 cd 2c b4 bd f1 8b 72 3e 3c 89 25 bd 1d a7 0a 3e
       -0.087976076 0.23686196 -0.04041408 0.13540311

output_layer.weight f4 [1, 512]
000000 60 56 37 bd e0 72 b2 bc d2 c5 12 3d 6f 72 e0 3b
       -0.044760108 -0.021783292 0.035833187 0.006849579
000010 d1 25 ba bc 74 f6 41 3c 57 87 c4 bc d0 e2 3f bd
       -0.02272311 0.011838544 -0.023990316 -0.046847165
000020 00 f3 ab 3a 82 2a 52 3b b4 93 5d bd f9 f5 c6 3c
       0.0013118684 0.0032068794 -0.05409594 0.02428721
000030 04 23 5e 3d b6 32 32 bd 14 89 2a bd f5 c2 41 3d
       0.054232612 -0.043505393 -0.041634634 0.047305066
000040 09 bc 63 3b cf d1 df bb 97 76 15 bc b0 b5 f3 bb
       0.003474953 -0.006830431 -0.009122512 -0.0074374303
000050 0a 4f 78 3d ce 7d a7 bb e8 ac 80 3d 11 5e 77 ba
       0.060622253 -0.0051114326 0.06282979 -0.0009436319
000060 ee 72 9c bd f1 bc 8a bc 76 93 0c 3c ef b0 2b 3b
       -0.076391086 -0.016935797 0.008580079 0.002619799
000070 b0 a4 bc bc a5 48 06 bc b8 fe a6 ba 56 a0 c1 bd
       -0.023027748 -0.008196031 -0.0012740707 -0.0945441
000080 06 bc 2c bd 98 02 20 3d 83 c3 be 3c c3 76 d4 bb
       -0.0421715 0.039064974 0.023286587 -0.006483884
000090 dd 19 13 bd 7a 1c d0 bd fe fb a8 bc 62 d7 aa bd
       -0.035913337 -0.101616815 -0.020627972 -0.08341862
0000a0 e7 a1 65 bb c3 a3 6d bd 0e 89 cb 3c 36 23 d4 bc
       -0.0035039128 -0.058017503 0.024845626 -0.025895696
0000b0 7c 8e c6 bc f8 66 9e bc cd 0a 1b 3d de df 29 3d
       -0.024237864 -0.019336209 0.037852097 0.041473262
0000c0 c8 63 d0 3c 49 73 fe bc 65 9f 8c 3b 37 9d 48 3c
       0.025438204 -0.031060832 0.0042914622 0.012244514
0000d0 05 10 3c 3d cc b5 21 bd 7a 72 5a 3d 0a 6d 96 3c
       0.045913715 -0.039480016 0.05333183 0.01836254
0000e0 fd 30 fc 3d ff 26 d9 3c 90 1a 03 bd d8 cf 86 bc
       0.12314031 0.026507853 -0.032007754 -0.01645653
0000f0 dc e3 2b 3d bb 9b 09 bd 00 90 85 3b 6f ef f9 b9
       0.04196535 -0.03359578 0.004076004 -0.00047671373
000100 ec eb e3 3c 52 1a 0d be 3e 28 6a 3c 9b bb 1f bd
       0.027822457 -0.13779572 0.014291821 -0.038997274
000110 d8 f1 e2 bc 48 4b f1 bb c2 1f 15 bd f7 18 c7 b9
       -0.02770321 -0.0073637106 -0.03640724 -0.00037974838
000120 5c e0 e8 ba 47 7d f8 bc e8 5f 63 3d 1b 16 c2 3b
       -0.001776706 -0.030333174 0.055511385 0.0059230453
000130 6b e7 8d bd 8c 66 31 3c 81 ca 21 bd af 39 54 3d
       -0.06928905 0.010827672 -0.039499763 0.051812824
000140 ca 0a 40 3d 30 fc 8f ba 77 48 ef 3a 88 af 08 3c
       0.04688529 -0.0010985192 0.0018255849 0.008342631
000150 9a f7 f2 3c 55 19 8f 3c 1b 8c 00 bc 0d ae a1 bc
       0.029659081 0.017468134 -0.007845904 -0.019736314
000160 70 5f 40 3d a3 24 9c 3d d4 78 77 bc 19 37 71 3d
       0.046966016 0.076241754 -0.015104491 0.058890436
000170 14 41 95 bd da a5 fd bc ce 8c 05 bd 7f c4 03 bd
       -0.07287803 -0.030962873 -0.032604985 -0.032169815
000180 de da 9f 3d 1a 38 1f 3d 09 01 e4 3d c3 a5 54 bc
       0.078054175 0.038871862 0.1113301 -0.012978974
000190 29 60 7d bc 7b 4a 29 3d 06 4d de 3c e7 47 8a bd
       -0.015464821 0.041330796 0.027136337 -0.067519955
0001a0 95 8a 0b bd f2 fd 89 3b 48 68 c5 3d 89 2e 04 bb
       -0.03406771 0.004211181 0.09639031 -0.0020169339
0001b0 8a 2e 3d bc d9 17 60 3c 0c 59 d9 bd 5b bf 4a 3a
       -0.01154674 0.013677561 -0.106126875 0.00077342027
0001c0 a6 75 61 3d 57 93 00 3d 9d 2e 87 bc ba 10 fc bc
       0.05504384 0.031390514 -0.01650172 -0.030769695
0001d0 dc c9 47 bb ef 87 b7 bd a6 5b 0b bd 07 3b e6 3c
       -0.0030485308 -0.08961474 -0.03402295 0.028104318
0001e0 18 36 be 3d c2 1c 59 3d 1d bc 50 3c 1b ad 5d 3d
       0.09287661 0.05300594 0.012740162 0.054120164
0001f0 ba 01 03 bd a7 7c 23 3d a8 6a 7f bd f6 a8 cd bd
       -0.03198407 0.0399138 -0.062357575 -0.10041992
000200 21 a2 30 bb 1b f7 10 3d c5 d6 f8 3c 99 f2 59 bd
       -0.0026952105 0.03539191 0.030375848 -0.053209875
000210 0a fe c6 bc ee 6e 05 bd c2 95 c8 bb 98 eb 06 bc
       -0.024291057 -0.032576494 -0.006121368 -0.008234881
000220 04 07 e2 b8 7a 8c 89 3c ae 03 d1 bb 3b 61 8c 3d
       -0.000107778265 0.016790617 -0.0063786125 0.06854483
000230 27 16 06 bd 04 36 96 3c b6 69 de bd 07 ed 04 3d
       -0.03273597 0.018336304 -0.108600065 0.03245261
000240 96 a4 bf 3d 66 f7 a9 3c 30 32 bf bd 42 4e ce 3b
       0.09357564 0.020747852 -0.093357444 0.00629595
000250 58 5c 6a bd 6d 8d 98 3d 46 71 59 ba dd df 04 be
       -0.057216972 0.0744885 -0.0008294772 -0.12976022
000260 41 e8 ef 3c 40 8e a5 bd af 1f 66 3c 0e e1 d6 bb
       0.029285552 -0.08083773 0.01404564 -0.0065575903
000270 e5 57 50 bd d3 fa 19 3d da f8 13 bd 6b 80 d5 3d
       -0.050865073 0.03759272 -0.036125995 0.104248844
000280 29 9c 28 bd 91 fd 27 3d 9a 46 f4 3c 48 e5 3e bb
       -0.04116455 0.041013304 0.029818822 -0.0029128361
000290 cc 9e 15 3c 3c de cf bd 11 de 29 3d d8 5f 48 3d
       0.009132098 -0.1014981 0.041471545 0.04891953
0002a0 d2 9a 8a bc a4 1d 10 3d 70 5b 21 3d e0 ec 4c bc
       -0.016919527 0.035184518 0.039393842 -0.012507647
0002b0 83 4b 89 bd c2 1b 89 bd fc 2c 16 3b 4c 1a ac 3b
       -0.06703856 -0.066947475 0.0022914996 0.0052521583
0002c0 4f 24 9d 3c 59 21 a3 bc ed b6 46 3d 5f be 7d bd
       0.019182352 -0.019913362 0.048514295 -0.06194913
0002d0 2e 81 a0 bc f9 98 1b 3d b6 ff d8 3b a3 cc 1e 3b
       -0.019592848 0.037987683 0.00662228 0.002423086
0002e0 f9 7d 52 bd 8e ee c6 3c 1a 81 ce bd ea a3 4a bb
       -0.051389668 0.024283674 -0.10083218 -0.0030920454
0002f0 93 78 59 bd e0 75 3e 3c 31 a9 95 3c 5f 27 99 3c
       -0.053093504 0.011624783 0.018269153 0.018695531
000300 36 75 c5 3c b2 57 7e bc 11 b0 17 bc 0d 56 67 ba
       0.024103742 -0.015523838 -0.009258286 -0.0008824773
000310 d1 b1 b6 bc cf 39 af bc 77 9f 45 3d 40 76 50 bd
       -0.022301586 -0.02138987 0.04824778 -0.050894022
000320 cd 1c 72 bd 8f d5 12 3e c2 01 18 bd 94 04 16 be
       -0.059109498 0.14339279 -0.03711105 -0.14650184
000330 5e f8 98 3d 45 66 c4 bc 89 0a a2 3c 2d 2b 85 bd
       0.07469247 -0.023974547 0.019780414 -0.06502376
000340 3b 81 30 bc ed 63 65 bd 2a e9 e5 3a df 5c 0c bd
       -0.010772998 -0.0560035 0.0017540802 -0.034268256
000350 3c 19 20 3d 4c ff 3e bd 1f 7e 4e 3b 7f 0f 89 bb
       0.039086565 -0.04663019 0.003150828 -0.0041827555
000360 37 cc 42 3d ca a8 56 3c c0 6e 13 3d 98 bf f3 3c
       0.047558036 0.013101766 0.03599429 0.029754445
000370 f3 94 3c bc 95 ff 0f 3d ba d9 f2 3c 52 92 0f 3d
       -0.011510122 0.03515585 0.029644836 0.03505165
000380 fb 66 bc bc 3e 87 84 bd 1c 72 2c 3d 79 56 b8 3c
       -0.022998324 -0.06471108 0.04210101 0.02250217
000390 ed a3 cb 3d 9e cc 0b 3d 22 84 8e bc 3c 75 b6 3c
       0.09943376 0.034130685 -0.01739699 0.022272699
0003a0 e7 7e 6a bd 2f ff bc 3d fd 74 4a 3d 70 89 df bc
       -0.05724993 0.0922836 0.049427975 -0.027287215
0003b0 37 61 26 bc 8f ed 55 3d 13 87 18 bd 27 8a da 3c
       -0.010155014 0.052228507 -0.03723819 0.026677204
0003c0 2b d0 8f bc ab 55 40 3d b8 e9 1e 3c ae 3f 82 bd
       -0.017555317 0.0469567 0.009699278 -0.06359802
0003d0 1f e3 9f 3c 4b 01 9c bb 9a 49 d0 3d c7 1e 9c bb
       0.01951748 -0.0047608963 0.101702884 -0.004764411
0003e0 d1 ab 05 be 74 0b 20 3d 43 a3 52 bd bc dd 4e bd
       -0.13053824 0.039073423 -0.05142523 -0.05050443
0003f0 46 09 88 bd 0f 5c 8e 3d 87 36 f0 bc 3c b3 70 bc
       -0.06642394 0.069511525 -0.029322876 -0.01469117
