data/baumgartner_C-N/phenethylamine_emulator/phenethylamine_bm_predictor_2.pt (torch, 38367 bytes, 3 tensors)

input_layer.weight f4 [512, 16]
000000 fa 42 af bd ff fd 46 be 9a 6c 1b be ec 12 28 be
       -0.08557697 -0.1943283 -0.15178147 -0.16413468
000010 59 db 9a bc d0 99 1a 3e 63 2b c0 3d 60 3b 5d 3e
       -0.018903421 0.15097737 0.09383275 0.21604681
000020 ea 6b 4f 3d 86 5c 27 3e 7e 68 91 bd 04 93 f9 bd
       0.050640024 0.16343889 -0.071000084 -0.12186244
000030 e4 df 72 3e cc e9 3d 3e 83 f6 42 3c 06 ee 4c be
       0.2371822 0.18546218 0.011899593 -0.20012674
000040 bb f5 95 bd 70 a4 d7 bd 66 d6 71 3e e0 ab 2f 3e
       -0.0732226 -0.10529411 0.23616943 0.17155409
000050 58 36 f6 3d 2f d8 8c 3d fa a2 ed bd 88 d5 aa 3d
       0.12022084 0.06877171 -0.11603351 0.08341509
000060 60 1b 17 be b3 a0 88 bd 0a 06 9e 3b 20 67 82 3d
       -0.14756536 -0.06671276 0.0048224973 0.06367326
000070 18 1b 03 3d 5e d9 50 be 29 99 27 3d 0c 1e cb 3d
       0.03200826 -0.20395419 0.04091755 0.0991784
000080 67 dd 5c be cd 3b 7f bd 8b 62 68 bd b8 c0 cb ba
       -0.21568833 -0.06231289 -0.056734603 -0.0015545106
000090 90 9c 31 3e 4e b1 28 bd c8 92 28 be 18 7a 46 bd
       0.1734488 -0.041184716 -0.16462243 -0.04845628
0000a0 43 0c 62 be 76 1f 6f 3e 34 e8 4d be 30 01 34 3d
       -0.2207499 0.23351845 -0.2010811 0.043946445
0000b0 98 8a 31 bd 60 5f 2b 3d 6e 01 6e 3e 42 07 57 3e
       -0.043345064 0.041839004 0.23242733 0.20998862
0000c0 2e 69 5c 3e 2e 92 13 3e 71 d8 f1 3c 45 dd ba 3c
       0.21524498 0.14411232 0.029522153 0.022810588
0000d0 ca a0 16 bd 46 2a 57 3e cb 92 30 3d 3c 88 f1 bd
       -0.036774434 0.2101222 0.043108743 -0.11793563
0000e0 89 f9 46 3e 9a 96 06 3e 6c 76 ad bd c0 cb db 3d
       0.19431128 0.13143387 -0.08469853 0.107322216
0000f0 a0 11 af 3d 9a ab 4c 3e b4 3f 27 3e c4 4d c4 3d
       0.085482836 0.19987336 0.16332895 0.09585145
000100 56 e6 9a 3d 4e 0a 92 bc e9 77 2b be 10 43 7b 3d
       0.07563464 -0.01782718 -0.16744961 0.061343253
000110 95 15 10 3c 15 73 da bc 71 fe a7 3d 60 a8 de bd
       0.008794208 -0.026666204 0.08202828 -0.10871959
000120 aa 48 d1 bd 4b a4 59 3d d7 d2 cf bd 2e fc 08 be
       -0.10218938 0.053135198 -0.101476364 -0.13377449
000130 46 5c 5b 3e e8 03 74 bd db ba 06 3e 70 e9 0e be
       0.21421918 -0.059574038 0.13157217 -0.13956237
000140 7c 9f 1c 3d d3 8c 3e 3c 30 41 10 bd b4 71 08 be
       0.038238034 0.011630255 -0.035218418 -0.13324624
000150 e5 bd 63 3e f7 24 1d 3d 0c d9 84 3e 58 b9 d0 bd
       0.22240408 0.03836533 0.25946844 -0.101916015
000160 4f f9 f7 bd 57 eb 61 be 52 0c 7a be 08 50 7e 3e
       -0.12108099 -0.22062431 -0.24418762 0.24835217
000170 14 df ad 3d da 30 1c 3e 06 bc ba bd 6a 41 74 be
       0.084898144 0.1525301 -0.09117894 -0.23853078
000180 2d 0c 7a be cb 64 2f be 1a 2a 6f be 3e 72 80 bd
       -0.24418707 -0.17128293 -0.23355904 -0.0627179
000190 c4 7b 15 be df e4 94 bc d8 c3 d7 3b 54 b5 e0 bd
       -0.14597994 -0.01817554 0.0065846257 -0.109720856
0001a0 00 50 d4 b9 2f 08 6e 3e 08 14 85 bd a4 87 52 3e
       -0.00040495396 0.2324531 -0.06497961 0.20559555
0001b0 cc 77 53 3e 02 f1 7e be 5b 51 e6 bd 80 12 5a 3d
       0.20651168 -0.24896625 -0.11245986 0.0532403
0001c0 d1 3d 77 3e 73 7a bb bc 64 91 21 be 76 4c 12 be
       0.24144675 -0.022885537 -0.15778118 -0.1428698
0001d0 ca 96 1f 3e 89 48 90 3c b4 a1 65 ba 0c b3 da 3d
       0.15584865 0.017612712 -0.00087597524 0.10678682
0001e0 2f 1c d2 bd 04 ad 98 bd 8e 01 d1 3d f8 ac a0 3d
       -0.10259282 -0.07454875 0.10205375 0.07845491
0001f0 94 91 cd 3d b0 43 87 bc ce 99 58 be 7e f8 57 3e
       0.100375324 -0.016511768 -0.21152422 0.21090886
000200 ee 54 de bd 26 7f 76 bb a0 e3 22 be 27 7e 34 3e
       -0.10856043 -0.0037612407 -0.15907145 0.17626248
000210 ed 01 14 3e 02 4a 2b be b2 74 40 be 40 bb c3 bd
       0.1445386 -0.1672745 -0.18794516 -0.095571995
000220 7e 81 81 3e 00 ba 83 3a 46 41 02 3e 22 eb 3c 3e
       0.25294107 0.0010049939 0.12720212 0.18449071
000230 06 e1 40 3e b0 db e6 bc d2 6e 3e be c0 7a 02 be
       0.1883584 -0.028180927 -0.18596962 -0.12742138
000240 9d 05 61 be 3c 6b 10 3d 5a ec d1 3c 4b 67 4d 3e
       -0.21974798 0.035258517 0.025625397 0.20058934
000250 91 c1 1e 3e 5a 0b 27 be 31 b3 f5 3d 28 d7 39 3e
       0.15503527 -0.16312924 0.11997069 0.18148482
000260 b4 24 ab bd 84 fa 97 3d fe 63 4b 3d 0c 11 84 bd
       -0.0835661 0.07420829 0.049655907 -0.06448564
000270 18 b1 ba 3d 60 49 e0 3d 19 d3 ba bd da fa 6d 3e
       0.09115809 0.10951495 -0.09122295 0.23240224
000280 64 a5 7e be 22 b9 e7 3c c1 95 ad bd f4 01 42 be
       -0.24867779 0.02828652 -0.08475829 -0.18946058
000290 ae a3 76 be ba 44 3c be f4 4f 46 be 90 c3 21 be
       -0.24085876 -0.18385592 -0.19366437 -0.15797257
0002a0 65 40 10 3e 3a 76 6c 3e fb 12 e1 3d b2 6c 2c 3e
       0.14087065 0.23091975 0.10989948 0.16838339
0002b0 ec 21 3c be a2 d4 09 be b7 7c b3 bd 58 ee 0f 3d
       -0.18372315 -0.13460019 -0.08764022 0.03513941
0002c0 a6 a1 51 be d1 3c 75 be 4c f2 6c 3e 68 a8 46 be
       -0.2047182 -0.23948981 0.23139304 -0.1940018
0002d0 90 38 55 be a5 36 42 3e 01 8f d7 3b 52 18 7e be
       -0.20822358 0.18966158 0.0065783267 -0.24813965
0002e0 81 ff 27 be e9 eb 1a bd 93 17 e7 3c 50 90 4f 3d
       -0.16406061 -0.037822638 0.028209483 0.050674736
0002f0 26 25 57 3e e4 f6 f7 bd ef 8a dc 3c 60 a5 10 3c
       0.21010265 -0.121076375 0.026921717 0.008828491
000300 61 15 05 bc 35 1f c9 3d 00 f6 4b be c7 d3 81 3e
       -0.008122773 0.098204054 -0.1991806 0.25356886
000310 ad a0 ae 3d 0d 94 1f be c0 0e 3f 3c 0e 46 5e 3e
       0.0852674 -0.1558382 0.0116612315 0.21706411
000320 f1 5f 1f 3e e6 43 85 bd 9d af 65 be d2 b3 3f be
       0.15563942 -0.06507091 -0.22430272 -0.1872094
000330 70 dd 70 bd 20 95 a3 3d 06 bb 6f 3e 8a 11 6f be
       -0.05880493 0.07987428 0.23411188 -0.23346534
000340 51 de f1 bc 77 c6 83 3d 7c 53 0d 3c 60 6c 16 3e
       -0.029524954 0.064343385 0.008625861 0.1468978
000350 17 c1 24 3c 63 ba 41 be 8b 1f 75 be 60 29 4a 3c
       0.010055802 -0.18918757 -0.23937814 0.012338966
000360 9f e8 9c 3c 20 b9 46 3e 5b 5b 72 be a0 eb 18 3c
       0.019153891 0.19406557 -0.23667662 0.009333521
000370 e0 31 c0 bc 10 f1 8d 3c 8a c3 0c 3c dc ec 02 3e
       -0.023461282 0.017326862 0.008591542 0.12785667
000380 b7 90 47 be fc 20 ee 3d d9 41 b0 3d 5c 4b d1 bd
       -0.19488798 0.11627385 0.086063094 -0.10219452
000390 fa c8 5e 3e 04 9e 43 3e 17 f6 08 be c0 1b 5e 3e
       0.21756354 0.19103247 -0.13375126 0.21690273
0003a0 69 cd ff bd f7 8c a8 bd b1 62 02 bd 50 68 64 bd
       -0.12490351 -0.08230012 -0.0318324 -0.055763543
0003b0 14 9a 29 be b0 58 72 be 40 4d 16 be 50 70 61 bd
       -0.16562682 -0.23666644 -0.14677906 -0.05503875
0003c0 ab a5 26 3e 62 54 28 3e bc df 1e 3e 45 b7 1c bd
       0.16274135 0.1643844 0.15515035 -0.038260717
0003d0 11 73 02 be f0 cd a8 bd 0d e8 1b 3e 60 8f 6a 3c
       -0.12739207 -0.082424045 0.15225239 0.01431641
0003e0 ef 5b 73 be bc 06 12 3e db d4 ef 3c 48 84 87 3d
       -0.23765539 0.14260381 0.029276302 0.066170275
0003f0 00 ce 7f 3c 04 95 2a 3e 5f d9 5c 3e 74 5f f6 bd
       0.015613079 0.16658407 0.21567295 -0.12029925

input_layer.bias f4 [512]
000000 96 b6 1c bc 41 1a 7e 3d dc fc 6a 3e 75 d9 d4 3d
       -0.009565016 0.062036756 0.2294802 0.10393039
000010 63 bf 99 3d 7e c2 3a 3e 79 d9 71 be b0 6b 62 be
       0.07507207 0.18238255 -0.23618115 -0.22111392
000020 cd ee 51 be 03 2e 29 3e cc 80 1d 3d 55 7b 60 be
       -0.20501252 0.16521458 0.03845291 -0.21922047
000030 f0 02 90 3d 34 2f 68 3d d4 ad 9f 3c 2f 83 c3 3c
       0.0703181 0.05668564 0.019492067 0.023866264
000040 c7 f8 72 3e b8 4f 09 3e 4e 00 e6 bd f3 bf 5a be
       0.23727714 0.13409317 -0.11230527 -0.21362285
000050 ee 72 70 be dd fe ad bb c9 bc d5 bd 95 44 8a bd
       -0.23481342 -0.005309923 -0.104363985 -0.06751362
000060 58 b1 ea bd 02 9f 10 3e 0b 77 7a 3e 39 89 69 3e
       -0.11459607 0.14123157 0.24459474 0.22806253
000070 73 54 5a 3e 74 ef 56 3e 20 01 05 3e 5c 7e 76 be
       0.21321277 0.20989782 0.1298871 -0.2407164
000080 e2 dc 21 be d7 a5 6d be b0 57 23 3e 3b 1d d1 3d
       -0.15806916 -0.23207794 0.15951419 0.102106534
000090 ed 58 25 3d bd b5 a5 bd 80 0b ce 3d 29 51 b7 bd
       0.04036801 -0.080913045 0.10060787 -0.08951027
0000a0 eb db 5e 3e 34 8e 3b be 4e df 81 bd 6a e3 55 be
       0.2176358 -0.18315965 -0.0634142 -0.20887533
0000b0 2b 9b 1d 3e 17 3e 77 be 18 aa 41 bd 81 04 01 be
       0.15391223 -0.24144779 -0.047281355 -0.12599374
0000c0 2c 96 0c 3e e9 4f c0 3d 3e 13 91 3d b3 79 78 bc
       0.13729161 0.09390242 0.07083748 -0.015165734
0000d0 36 f9 ec bd 6d a3 66 bc 13 3d f4 3b 7f 69 cc 3d
       -0.11570971 -0.01407705 0.0074535697 0.09981059
0000e0 6f ae 07 be 71 81 4b 3e f1 55 77 3c 48 3d 6a be
       -0.13250135 0.19873597 0.015096174 -0.2287494
0000f0 4c b4 11 be 9a 75 7a be 24 82 64 be b7 be 4b be
       -0.14228934 -0.24458924 -0.2231527 -0.1989697
000100 fc 1e fb bc 4b 55 08 be a7 c7 ef 3c 4e 42 ed bd
       -0.030654423 -0.13313787 0.029270006 -0.11584912
000110 c6 cf ed 3c 65 3b 7f 3e 9d 9c 62 be b4 b7 42 3e
       0.029029738 0.24925001 -0.22130056 0.1901539
000120 f1 1b d8 3d 07 e2 47 bc ff 28 6a be 30 c7 57 be
       0.105522044 -0.012199885 -0.22867201 -0.21072078
000130 c5 b3 d1 3d 8d e2 11 3e f6 b3 e8 ba 58 02 88 3d
       0.102393664 0.14246579 -0.0017753828 0.06641072
000140 c5 80 2e be 09 c2 44 bd 56 ed 2d be b8 a8 31 be
       -0.17041309 -0.04803661 -0.16985068 -0.17349517
000150 58 2b 4f bd 55 c9 3c 3c 06 98 30 be d4 d1 1e 3e
       -0.050578445 0.011522611 -0.17245492 0.1550973
000160 c5 e6 c9 bd 8d 6b 0f 3c 1f a2 ef bd b3 36 e3 bd
       -0.09858469 0.008753669 -0.11700844 -0.110944174
000170 41 30 51 be 3d 16 db 3d 75 3c 72 3e ad d7 80 bd
       -0.20428564 0.10697601 0.23655875 -0.06291137
000180 8f 6e 51 be 8b ae 64 be a0 57 a0 3c b5 f3 73 3e
       -0.20452331 -0.22332208 0.019573033 0.23823436
000190 ba 75 07 be 34 0f a8 3d 89 c8 83 bc e0 38 70 3d
       -0.13228503 0.08206025 -0.016086834 0.05864799
0001a0 6c 0d a9 bd b0 66 d0 bb 69 17 38 3d 95 6f cd bd
       -0.08254513 -0.0063598976 0.0449442 -0.10031048
0001b0 d5 e4 b5 bb a4 a9 f5 bd cc c9 fa bd 2c 67 4a 3e
       -0.0055509605 -0.11995247 -0.12245521 0.1976592
0001c0 53 a8 26 be 1c 7a b2 3d 5b cd 8a 3c 40 34 35 3d
       -0.16275148 0.08714697 0.016943624 0.044239283
0001d0 07 55 54 3e d1 8b 63 3e 85 87 58 3e fe 6f cf bd
       0.2073556 0.22221304 0.21145447 -0.10128783
0001e0 e8 26 3c be 70 96 23 3d 21 c7 d9 3d 8b 47 c7 bc
       -0.18374217 0.03993839 0.10633684 -0.024326107
0001f0 6a 8f 54 3e 70 f4 cc bd 64 ee ff 3d e7 4a d6 3c
       0.20757833 -0.1000756 0.12496641 0.026158763
000200 07 b7 ef 3d 00 c5 c8 bc 61 58 6f 3e 37 3a 45 bd
       0.117048316 -0.024508 0.23373558 -0.04815122
000210 75 51 bd bc d8 b9 14 bd c8 c4 83 bd f9 c8 4a 3e
       -0.02311013 -0.036310047 -0.064340174 0.19803227
000220 e9 a2 7d be 54 8f 77 bc 2c 14 1d be 91 fb 0e bd
       -0.24769177 -0.015109856 -0.15339726 -0.03490788
000230 96 4b 75 be b7 11 ee 3d 68 c2 36 3e da e4 b3 3d
       -0.23954615 0.116244726 0.17847598 0.08783884
000240 13 2c d8 bd a8 90 cc bb 50 e7 98 bd 6f d2 6f 3c
       -0.105552815 -0.0062428303 -0.07465994 0.014637574
000250 d6 83 7a be 01 39 5c bd 50 cf 6d be 74 a9 42 be
       -0.24464354 -0.0537653 -0.23223615 -0.19009954
000260 91 00 10 bd 37 99 1f be 39 c9 5d be 34 c9 f7 3d
       -0.03515679 -0.1558579 -0.21658792 0.12098923
000270 df c1 75 3e 94 5e 05 be f2 e5 84 bd 21 98 0c be
       0.23999737 -0.1302436 -0.06489171 -0.13729908
000280 05 3d 6e be b6 dd 70 3e ef 34 00 3e f5 a2 54 3e
       -0.23265465 0.23522076 0.12520193 0.20765288
000290 20 c4 84 bd b6 00 d1 3c 3f 56 40 be 3e a7 3f 3d
       -0.064827204 0.025513034 -0.187829 0.046790354
0002a0 b3 c4 7e be 1e 50 dc bd a4 60 21 be db 81 9b bb
       -0.24879722 -0.10757469 -0.15759522 -0.0047457046
0002b0 bb 69 c2 bd d7 3f 74 be 4a b9 85 3d 63 85 fe 3d
       -0.09492823 -0.23852478 0.06529482 0.12427785
0002c0 13 32 46 be 14 96 9c bd eb 27 78 3e fd d7 de 3c
       -0.1935504 -0.07645813 0.24233977 0.0272026
0002d0 67 24 05 3d 71 45 f9 3c 29 3d 2d 3e 52 54 b3 3d
       0.03250542 0.03042862 0.16917862 0.08756317
0002e0 f5 03 52 bd cb 20 97 bb f7 46 bc 3d 6c 7d 89 bd
       -0.051273305 -0.0046120635 0.09193223 -0.067133754
0002f0 20 f2 6f 3e 27 83 c3 3a 81 a0 cd 3d 2e da 62 3e
       0.23432207 0.0014916406 0.10040379 0.22153541
000300 a0 c2 be 3c 6a 3a 1b bd 63 fe 4f 3e 29 e2 b0 3c
       0.023286164 -0.037897505 0.20311885 0.021592217
000310 52 06 72 be a0 f3 7a 3e 25 c6 fe 3c dd 36 9b bd
       -0.23635224 0.24506998 0.031100342 -0.07578824
000320 b2 27 4d be 34 4e 21 be b8 94 16 bd 2e 61 d4 bd
       -0.20034674 -0.15752488 -0.036762923 -0.10370098
000330 68 42 f4 bd b0 4e 9e bd 69 6e 2e 3e a3 82 0f 3e
       -0.119267285 -0.07729852 0.17034306 0.14014678
000340 2b b6 1e 3e f8 a8 51 3e fe 53 5b 3e 00 41 75 3e
       0.15499179 0.20474613 0.21418759 0.23950577
000350 87 ef 75 3e 61 a5 0e 3d 6d fb c2 bd 24 cc 9f bc
       0.24017154 0.034825686 -0.09520612 -0.019506522
000360 3d 31 4a 3b d4 e3 2d be 65 0e f9 3c 1b 69 06 be
       0.0030852102 -0.16981441 0.030402372 -0.13126032
000370 be 63 46 3e ae 9c 52 3e c4 e4 36 bc 2e dd 6a be
       0.19373986 0.20567581 -0.01116294 -0.22935936
000380 41 bd 14 be 92 15 e7 3d 75 5e fb bc 7a 5a c2 3c
       -0.1452532 0.11283411 -0.030684689 0.023724783
000390 04 80 15 be 19 01 63 3c d6 94 0a be 69 23 13 bc
       -0.14599615 0.013855242 -0.13533339 -0.00898061
0003a0 02 1a 84 bd 3e 01 1a be e7 7b 2d 3c 7e 0b 31 be
       -0.06450273 -0.15039536 0.010588623 -0.1728954
0003b0 1a d2 28 3e 33 c5 9b bd d3 64 48 be c9 88 3c bc
       0.16486397 -0.07605972 -0.19569711 -0.0115072215
0003c0 9b 0b 53 3e 11 cd 5b 3d 75 7b 61 3e 8a 85 14 be
       0.20609896 0.053662363 0.22019751 -0.14504066
0003d0 a4 7c 02 3b c9 7e 86 bc a1 26 2d 3e e4 08 9e bc
       0.0019910717 -0.016417878 0.16909267 -0.019291349
0003e0 dc a7 9e 3d 7f d9 43 be 0c 5d f7 bd 73 81 c4 bd
       0.077468604 -0.19125937 -0.12078294 -0.09595003
0003f0 a9 6e 4a 3c e6 a8 bb 3d a0 97 9c bd 77 88 02 be
       0.012355485 0.09163074 -0.07646108 -0.1274737

output_layer.weight f4 [1, 512]
000000 c7 b9 80 3d ed b5 c3 3c 43 a8 e9 3d 7e 0e ba bc
       0.06285434 0.02389046 0.114090465 -0.022711989
000010 b6 95 89 bb 66 b1 09 be 96 a3 07 3d ca c5 3d 3d
       -0.004198755 -0.13446578 0.033114992 0.046331204
000020 57 0d 2a bd 5d 80 db bb d3 0b a6 3a 8c 9a 3d bd
       -0.041516628 -0.0066986517 0.0012668319 -0.046289966
000030 09 fc b5 bd e0 d6 34 3d b8 77 47 3d 24 a7 18 bd
       -0.088859625 0.044150233 0.048698157 -0.037268773
000040 ee 22 bb 3d b1 d3 58 bd 2b b2 2d bd bf 9f 99 3c
       0.09137522 -0.05293626 -0.042406242 0.01875293
000050 b5 98 9a bc 5a 35 f4 bc 1b 61 14 3a 19 d1 43 bd
       -0.018871645 -0.029810596 0.0005660222 -0.047806833
000060 f6 4f 07 3d 65 cd da 3d a3 68 f3 3d 75 e1 68 3c
       0.03303524 0.10683707 0.11885192 0.014213909
000070 81 9e e3 bd 8c 40 80 bd d6 bf 0c 3d e6 74 36 bd
       -0.111142166 -0.06262311 0.034362637 -0.044545077
000080 47 b9 07 bd 9a 9e f0 3b 24 54 0c 3d e5 09 96 bd
       -0.03313568 0.0073431255 0.03425993 -0.07326106
000090 20 22 2e be 27 79 2f 3d 75 fc 29 3e 5f ac bd 3c
       -0.17005205 0.04284015 0.16600211 0.023153482
0000a0 f3 b0 45 bd b5 dc b5 bc 65 e8 e4 bb 64 eb 0a 3c
       -0.048264455 -0.022199968 -0.0069857114 0.008478973
0000b0 10 fb 1f 3d 59 0f 49 bb 12 ef 17 bd 9f 29 84 3d
       0.03905779 -0.0030679314 -0.03709323 0.06453251
0000c0 11 4a 8c 3c 3c a4 44 3c 7c e5 6d bd e6 2d 5e 3d
       0.017125161 0.012002047 -0.05808018 0.05424299
0000d0 ea 17 e2 bc fe 4a 8a bd 03 c5 1e 3d e3 00 32 bd
       -0.027599294 -0.06752585 0.038762104 -0.043457877
0000e0 a4 97 65 3d 56 2b 96 bd 07 5e a5 bb 58 92 0f bc
       0.05605282 -0.073324844 -0.0050466093 -0.008762918
0000f0 22 2e df 3c 9c 44 de 3c a1 89 20 3d c3 2c fd 3c
       0.027243678 0.027132325 0.039193753 0.030905133
000100 a7 63 7b bd 04 31 36 3d ee bb 27 bc e4 a8 90 3c
       -0.061374333 0.04448034 -0.010237677 0.017658658
000110 85 e8 9a bb 20 68 0f be 86 4d b3 bb 69 04 69 bc
       -0.0047274255 -0.14004564 -0.005471888 -0.014222243
000120 e0 0e d7 bc 40 1e 24 bd 83 04 4e bd 29 1c 05 3d
       -0.02625221 -0.04006791 -0.05029727 0.03249756
000130 4b 70 27 3b d4 53 6f 3d f6 05 61 3d bb 27 c3 bc
       0.002554911 0.058429554 0.054937325 -0.023822656
000140 69 4c 48 bd ac 0c 34 bd 89 12 f4 ba a7 7f 01 3d
       -0.048900995 -0.043957397 -0.0018621247 0.03161588
000150 3c e4 fc bc 08 f7 10 3e bd 46 17 bd 02 4f 99 3c
       -0.03087055 0.14156735 -0.036932696 0.018714432
000160 b0 ba 04 3e 30 72 fb 3c 7b d3 4f bc d9 d1 a2 3c
       0.1296184 0.030694097 -0.012684698 0.019875454
000170 2b 75 12 3c 37 91 87 bb 8e 8a 00 bd a5 92 12 bd
       0.008939068 -0.004137184 -0.031382136 -0.035784382
000180 38 84 8b 3d 7c 4d d0 3c e6 bf e5 bb af 78 81 bc
       0.06812328 0.025427572 -0.0070114015 -0.015804617
000190 78 01 c2 3b a5 d9 24 bc e3 b9 83 bd 9c 36 d1 3c
       0.0059205852 -0.010061656 -0.064319395 0.025538735
0001a0 0b c9 44 3c de 24 69 3b a7 e9 81 3c c1 e5 14 bc
       0.012010823 0.0035574953 0.015858484 -0.009087981
0001b0 f6 27 a3 3c d6 9e 86 bc b7 8b b6 bb ad a4 0f 3d
       0.019916516 -0.01643316 -0.0055708545 0.035069156
0001c0 cd 4f 35 bc d6 3f d4 bd 7d 3e 20 bd 32 4f eb 3b
       -0.011066389 -0.10363738 -0.039122093 0.0071810717
0001d0 f2 93 ee bc fd b9 c0 3c 69 c8 44 3d 33 37 0d bd
       -0.02912328 0.023526186 0.04804269 -0.03447647
0001e0 31 1e 0c 3d 69 c9 a5 bb fb e9 b8 bd cc 1e 57 3d
       0.03420848 -0.0050594104 -0.09029003 0.052519605
0001f0 e5 96 87 bd 5c 54 46 bd 70 37 5d 3d 4e 78 a1 3d
       -0.06620578 -0.048420295 0.054007947 0.078842744
000200 11 bd 49 bd b4 1c e0 3c 32 96 b1 bc e9 98 99 3d
       -0.049252573 0.027357437 -0.021678064 0.074998684
000210 40 39 23 3d cc f1 a9 bc 98 66 5d bd 11 06 e1 bc
       0.03984952 -0.02074518 -0.05405292 -0.027468713
000220 b9 90 bd bb 5f c0 71 bd 6a 12 be 3d a5 46 32 3d
       -0.0057850746 -0.05902135 0.09280856 0.043524403
000230 c8 b3 fa 3b 30 8e fa bc 34 92 b9 3d 44 89 0f 3d
       0.007650826 -0.030585378 0.09061089 0.035043016
000240 fe 21 f9 3c 7d 2f bd bd 8b 87 1d 3c 8b 12 01 bc
       0.030411717 -0.09237573 0.0096148355 -0.007877956
000250 b7 86 91 3d 40 4b 2a bd 4b 83 af bc 2e 9f 8c bd
       0.07105773 -0.04157567 -0.02142491 -0.068662986
000260 53 8d 93 3d 36 49 30 bb d4 00 00 bd 5d 6a 87 bd
       0.0720469 -0.0026899106 -0.03125079 -0.06612084
000270 be 90 5b 3d b4 dc 69 bd 5b 48 41 3c 99 f1 f7 bc
       0.053604834 -0.057095245 0.011797036 -0.03026657
000280 34 48 63 3d 8a a5 dd bc 05 d6 21 3c 81 a3 6b bd
       0.05548878 -0.027056474 0.009877686 -0.057528976
000290 95 77 63 3c f7 1a a7 bc 75 c5 d4 bc 98 d8 1d 3d
       0.013883491 -0.0203986 -0.025973061 0.038536638
0002a0 8d a3 8c 3a b3 07 2e bd cc a5 28 bd 19 de 59 bb
       0.0010729894 -0.04248781 -0.04117374 -0.0033243953
0002b0 d7 83 7b 3d 3a c1 26 bd af b2 ac 3d d8 eb 4e 3d
       0.06140503 -0.04071162 0.08432519 0.050517887
0002c0 57 8e 2c 3d 7f ce ab bc bb 65 07 bd 0a 1c 56 3d
       0.042127933 -0.020972488 -0.033056002 0.052272834
0002d0 0c cd 2c 3c b7 dd c2 bc eb 73 99 3c 9c a5 88 bc
       0.010546934 -0.023787363 0.018732032 -0.016680531
0002e0 6f 75 ae 3d f4 fe 85 bd 91 5d a1 3c e0 f5 fa bc
       0.085184924 -0.06542769 0.019697936 -0.03063482
0002f0 69 fc be 3c 89 4c 63 3d 0c b7 f1 3c 17 6d cb bb
       0.023313718 0.05549291 0.029506229 -0.006208073
000300 fb 31 c3 3a a5 08 6a 3c 07 56 51 3d 4f f4 41 bd
       0.0014892215 0.014284288 0.051107433 -0.04735213
000310 db 39 2a 3d 3a e7 25 bd 3a 3c df 3c 45 65 c2 3c
       0.04155908 -0.040503718 0.027250398 0.02372993
000320 01 44 52 bd b5 0e d2 bc ee 8d 1a 3d 41 b3 ed bc
       -0.051334385 -0.025641778 0.03773301 -0.029016139
000330 3b 13 38 3c 77 9b 71 3c af 8a 0a 3d 08 e4 49 bd
       0.011235054 0.014746538 0.033823665 -0.049289733
000340 4d 77 47 bd 10 31 ce 3c 7a ca 7a 3c 65 08 b6 3d
       -0.04869776 0.02516988 0.015307063 0.0888832
000350 23 6c db bc 1a 9d 16 3c 03 88 90 bc 59 47 85 bd
       -0.026784962 0.009192729 -0.01764298 -0.06507749
000360 e4 39 00 3c c1 d4 0a ba 8a 27 19 bd 21 0e e2 bc
       0.007826302 -0.0005295985 -0.037391223 -0.027594628
000370 56 fc a4 bd 69 7c aa bd cd 34 85 3d 4f 94 19 bd
       -0.08055942 -0.083245106 0.065042116 -0.037494954
000380 78 b2 b3 ba 32 47 ae 3c e5 92 e5 bb 33 14 a0 3d
       -0.0013709804 0.021274183 -0.0070060366 0.07816353
000390 4a 99 a6 3c d1 b8 05 3c 89 3b 21 bd c8 22 d2 3c
       0.020336766 0.008161739 -0.039363418 0.02565135
0003a0 14 a5 af 3d b8 81 5c 3b 54 12 d7 bc 31 63 ef bb
       0.08576408 0.0033646654 -0.026253857 -0.0073055257
0003b0 9e 8b 42 bd f7 5e 07 bd a6 2a 91 3c fe f0 ae 3b
       -0.04749643 -0.03304955 0.017720532 0.005338787
0003c0 cb 23 bb bc 16 a4 64 3e 8f 00 07 3e b3 8c fa bc
       -0.022844216 0.22328219 0.13183807 -0.030584669
0003d0 b1 34 ed bc 84 c6 0d bc 0b 5c 99 3d 94 96 27 3d
       -0.02895579 -0.008653287 0.07488259 0.040915087
0003e0 6b 9a cf 3c eb 25 d8 bb fe 8e 8b 3d 1d 12 1a bd
       0.025342187 -0.006596317 0.06814383 -0.03761493
0003f0 7c 45 ec 3c 2b f4 b8 bd 9f ad 97 3c bb 05 ed bc
       0.028841726 -0.09030946 0.018515406 -0.028933397
